DDQN_panda_env2/runs/results_6/best-model-loss.pt (torch, 162903 bytes, 6 tensors)

network.layer1.weight f4 [128, 3]
0	0xbf502488	-0.8130574
1	0xbec05794	-0.37566817
2	0x3e321c83	0.17393689
3	0x3e3930ad	0.18084975
4	0x3f8b7ee9	1.0898105
5	0x3ec4b9ef	0.38423106
6	0x3f758d89	0.9591909
7	0xbe60731c	-0.2191891
8	0x3db6e77a	0.089308694
9	0x3f9e5fa6	1.237294
10	0x3cd20612	0.02563766
11	0x3e43e729	0.1913115
12	0x3f7d56fa	0.9896084
13	0xbf51e43c	-0.81988883
14	0xbec7553e	-0.38932222
15	0xbf34e4cc	-0.70661616
16	0xbef51ca2	-0.47873408
17	0xbe19de76	-0.15026268
18	0xbed16375	-0.40896192
19	0x3ec9f9fb	0.39448532
20	0x3f3ebe2d	0.74508935
21	0xbf4dc266	-0.80374753
22	0xbea618bd	-0.3244075
23	0x3f2c2c0a	0.672547
24	0xbf35f392	-0.71074784
25	0x3e12ca4b	0.14334981
26	0xbf0eecc4	-0.55830026
27	0xbf362124	-0.7114432
28	0xbde1cbb0	-0.110251784
29	0x3eb461f4	0.35230982
30	0xbe9e0cfd	-0.30869284
31	0xbf513d18	-0.81733847
32	0xbe2cf13b	-0.16888897
33	0x3e9b6e18	0.30357432
34	0xbf28045d	-0.6563166
35	0xbeeb6e9e	-0.45982832
36	0xbee6561d	-0.44987574
37	0x3f467ad0	0.77531147
38	0x3ebce35e	0.36892217
39	0xbf5d3d05	-0.86421233
40	0xbe3f0353	-0.18653612
41	0xbe4754ff	-0.19466017
42	0xbed9ffde	-0.42578024
43	0xbf33c3bf	-0.7022056
44	0x3dc78b8a	0.09743412
45	0xbecb9667	-0.39763185
46	0x3e5d235d	0.21595521
47	0x3ea497ea	0.3214715
48	0xbe5e0f5b	-0.21685545
49	0xbe1a79be	-0.15085503
50	0x3c90dc6f	0.017683236
51	0x3d9b9a78	0.07597822
52	0xbed2b56f	-0.41154048
53	0x3f13431f	0.57524294
54	0xbf02423c	-0.50882316
55	0xbf473f35	-0.7783082
56	0x3f27f0ae	0.65601623
57	0xbeff7b71	-0.49898866
58	0xbf344c71	-0.7042914
59	0xbf27466f	-0.6534185
60	0xbf584c71	-0.8449164
61	0xbeeca7c8	-0.46221757
62	0xbef24f0a	-0.47325927
63	0xbf6a0131	-0.9140807
64	0x3e162f9a	0.14666596
65	0xbda93757	-0.08262508
66	0xbf474093	-0.7783291
67	0xbdcdccb1	-0.100488074
68	0x3f384f57	0.71996063
69	0xbf34d097	-0.7063078
70	0xbed6c2bc	-0.41945446
71	0x3ec19cc9	0.3781493
72	0x3e5a91fd	0.21344753
73	0xbf1663db	-0.5874612
74	0x3e1d6497	0.15370403
75	0x3f39c9ef	0.7257375
76	0xbf549a87	-0.8304829
77	0xbf0ff1ce	-0.5622834
78	0xbf09be84	-0.5380633
79	0xbf312f6f	-0.69213
80	0xbeb812a7	-0.3595173
81	0xbef6deb7	-0.48216793
82	0xbf558201	-0.83401495
83	0x3e02ccf4	0.12773496
84	0xbf03f2fc	-0.5154264
85	0xbee9ba52	-0.45649964
86	0x3d27184f	0.040794667
87	0xbe26b30e	-0.16279241
88	0xbf363833	-0.71179503
89	0xbe13ccdf	-0.14433621
90	0xbf159d70	-0.58443356
91	0xbf31aee1	-0.6940747
92	0xbe134b4c	-0.14384192
93	0xbf39c560	-0.72566795
94	0xbef6f418	-0.48233104
95	0x3f09a586	0.53768194
96	0xbf77f795	-0.96862155
97	0xbeb8a656	-0.36064404
98	0xbf18ba79	-0.59659535
99	0xbf5a5884	-0.85291314
100	0xbee27f27	-0.44237635
101	0x3c628c8e	0.013827456
102	0x3f73df00	0.95262146
103	0x3d701b53	0.05861981
104	0x3ed6b928	0.41938138
105	0xbf7a0064	-0.97656846
106	0x3f268aec	0.6505573
107	0x3ea03450	0.3128991
108	0x3ea30599	0.31840208
109	0xbea36ca7	-0.31918833
110	0x3ea7d7e3	0.32781896
111	0xbe824791	-0.25445226
112	0xbf11aa4c	-0.5690048
113	0xbf103b84	-0.56340814
114	0xbf4c8871	-0.79895693
115	0xbd992da3	-0.07479408
116	0x3f203e16	0.62594736
117	0xbf6f970a	-0.9358984
118	0xbf39ea06	-0.72622716
119	0x3edf97ee	0.436706
120	0xbeda5790	-0.4264493
121	0x3ea3738e	0.319241
122	0xbeaab027	-0.3333752
123	0x3dbe848e	0.093026266
124	0xbf2a9bf5	-0.6664422
125	0x3eec89be	0.4619884
126	0xbf382b3b	-0.71940964
127	0xbf3c2f9f	-0.73510164
128	0xbd2568ac	-0.040383026
129	0xbe793782	-0.24337581
130	0xbf33dbf9	-0.70257527
131	0x3e91c3d4	0.28469718
132	0xbf73ebcb	-0.95281667
133	0x3f479c38	0.77972746
134	0x3ec52c5e	0.38510412
135	0xbf82990b	-1.0202955
136	0xbd994348	-0.07483536
137	0x3ea6f7bd	0.32610884
138	0xbe557f09	-0.20849241
139	0x3e53ffbb	0.20703022
140	0x3f3ef07f	0.7458572
141	0xbf76f959	-0.96474224
142	0xbd911f66	-0.07086067
143	0xbeed8b5e	-0.4639539
144	0xbed60cc7	-0.41806623
145	0xbf35e35a	-0.71050036
146	0x3f1fc96d	0.62416726
147	0xbe13c38f	-0.14430068
148	0xbf4adcdc	-0.79243255
149	0x3f2d6e66	0.6774658
150	0xbe9e85d0	-0.30961466
151	0xbf390142	-0.72267544
152	0x3ebda97e	0.37043375
153	0xbf681095	-0.906503
154	0xbf2f0f74	-0.68382955
155	0xbf1632b6	-0.5867113
156	0xbf30019f	-0.68752474
157	0xb6b12df4	-5.2803607e-06
158	0x3f1c6cbb	0.6110341
159	0xbf1e5b89	-0.6185842
160	0xbebb000f	-0.36523482
161	0xbee0758c	-0.4383968
162	0x3e84704e	0.25866932
163	0xbeb88c50	-0.3604455
164	0x3e267c80	0.1625843
165	0xbfb518de	-1.4148214
166	0x3ede8b85	0.4346582
167	0x3da27d66	0.07934074
168	0xbf651ce5	-0.89497215
169	0x3e786e13	0.2426074
170	0xbe976451	-0.29568723
171	0xbe03cce8	-0.12871134
172	0xbebf928f	-0.37416503
173	0x3f3fc907	0.7491612
174	0xbfbdd967	-1.4831971
175	0x3f14014b	0.5781447
176	0x3e3bc6b6	0.18337521
177	0xbf6b04b7	-0.9180407
178	0xbd950ae0	-0.07277465
179	0x3eaabd20	0.33347416
180	0xbf50b1ae	-0.8152112
181	0xbe625415	-0.22102387
182	0x3f15cbd2	0.5851413
183	0xbf946133	-1.1592163
184	0xbeb8e0a6	-0.36108893
185	0x3d9367fb	0.07197567
186	0x40069e48	2.1034107
187	0xbef78e10	-0.48350573
188	0xbdad756e	-0.084696636
189	0xbf183d6f	-0.5946874
190	0x3ef2022d	0.47267285
191	0xbe956a0e	-0.29182476
192	0xbf27c72d	-0.65538293
193	0x3ee9dfe8	0.4567864
194	0xbe951103	-0.2911454
195	0xbf22777d	-0.63463575
196	0xbf313c69	-0.69232804
197	0xbedbb691	-0.42912725
198	0xbe869092	-0.26282173
199	0xbf0de55c	-0.554281
200	0x3ec03ee6	0.37547988
201	0xbf544b0d	-0.8292702
202	0x3f63f30d	0.8904274
203	0x3dd3ca36	0.10341303
204	0xbd7e39fa	-0.06206701
205	0xbf22dda5	-0.6361945
206	0x3eeba3c9	0.46023396
207	0xbf330116	-0.6992353
208	0xbdce12d4	-0.10062185
209	0x3f2ad577	0.6673197
210	0xbf8226b3	-1.016806
211	0xbee89d8c	-0.454327
212	0x3ed887bc	0.42291057
213	0xbea11564	-0.31461632
214	0xbedb0d0a	-0.42783386
215	0xbf135f0e	-0.57566917
216	0xbf40e8e5	-0.7535537
217	0x3e987e14	0.2978369
218	0xbecd49c5	-0.40095344
219	0x3ee036b1	0.43791726
220	0x3e490798	0.19631803
221	0xbee98d79	-0.45615748
222	0xbefeb1e0	-0.49745083
223	0x3e8c0266	0.2734558
224	0x3eab1ce7	0.33420488
225	0xbf0bb736	-0.5457643
226	0xbf378348	-0.71684694
227	0x3f0d1a5a	0.55118334
228	0xbf4f111b	-0.80885476
229	0x3e0f2bae	0.13981506
230	0x3e2945f8	0.16530597
231	0x3f0b01a2	0.54299366
232	0x3e959e60	0.29222393
233	0x3e3454dd	0.17610498
234	0xbf72e108	-0.9487462
235	0x3d3b2541	0.045689825
236	0x3eb3efe6	0.35143965
237	0xbec3f7ad	-0.382749
238	0xbebdf382	-0.37099844
239	0xbc4a0215	-0.012329598
240	0x3d6e24cb	0.058140557
241	0xbf00d838	-0.50329924
242	0x3e560412	0.2089999
243	0xbf30d4b5	-0.69074565
244	0xbf3477a4	-0.7049506
245	0xbeffcd37	-0.49961254
246	0x3d8e2f12	0.06942572
247	0xbeb26fee	-0.3485102
248	0x3ee5a6b5	0.4485375
249	0xbe02a094	-0.12756568
250	0x3ec39549	0.38199833
251	0xbea370a1	-0.31921867
252	0xbf664d48	-0.8996167
253	0xbe43bd99	-0.19115295
254	0x3f3238f6	0.69618165
255	0x3f6e074c	0.92979884

network.layer1.bias f4 [128]
0	0x3f2d51c1	0.6770287
1	0xbef87eca	-0.48534232
2	0x3f3a9efa	0.7289883
3	0x3fad262c	1.3527274
4	0x3e27f87e	0.16403386
5	0x3da50734	0.080580145
6	0xbec4f89b	-0.3847092
7	0x3f0019e7	0.50039524
8	0xbe25a1b5	-0.16174968
9	0xbd0837fa	-0.03325651
10	0x3ee72953	0.45148715
11	0xbc327216	-0.010891458
12	0xbf182541	-0.59431845
13	0x3e88e6b3	0.2673851
14	0x3f14cc2b	0.58124036
15	0x3d56f647	0.052480962
16	0x3f2d78dc	0.6776254
17	0x3edee591	0.4353452
18	0x3e175f7f	0.14782523
19	0x3f043acc	0.51652217
20	0x3d66f59a	0.056386568
21	0x3e164f0a	0.14678589
22	0x3e8ba0b7	0.27271053
23	0xbd09a7b6	-0.033607207
24	0xbd858b0a	-0.0652066
25	0xbd865d4e	-0.06560765
26	0xbe0f0903	-0.13968281
27	0x3dbeed74	0.09322634
28	0x3f35a52c	0.7095516
29	0x3ecf752b	0.4051908
30	0x3f17ec00	0.5934448
31	0xbd3cccaa	-0.04609362
32	0x3ea2d7b1	0.31805184
33	0xbc340b9b	-0.010989095
34	0x3f458fc9	0.77172524
35	0xbe80278e	-0.25030178
36	0x3ec34b0c	0.38143194
37	0x3ec9b0f7	0.39392826
38	0x3ea64803	0.32476816
39	0xbe089747	-0.13338958
40	0xbe7f99aa	-0.24960962
41	0x3ea42aec	0.32063997
42	0x3e51c728	0.20486128
43	0x3f07b8c2	0.53016293
44	0xbd533c1e	-0.051571004
45	0xbed2b602	-0.41154486
46	0xbee95c8e	-0.45578426
47	0x3ebf070b	0.3731006
48	0x3f04e680	0.51914215
49	0x3e9b22ab	0.30299887
50	0xbe91b33e	-0.28457063
51	0x3e9a6520	0.30155277
52	0x3ed398fe	0.4132766
53	0x3ec2c635	0.38041845
54	0x3ecb3ed8	0.39696383
55	0xbde14745	-0.10999922
56	0x3f07b170	0.53005123
57	0x3ee57bd4	0.44821036
58	0xbe55e3e6	-0.20887718
59	0x3ee13434	0.4398514
60	0xbeb2e2ba	-0.34938604
61	0xbef0c6e6	-0.47026747
62	0xbd82ec46	-0.06392722
63	0xbeb0223e	-0.34401125
64	0xbed90565	-0.42386928
65	0x3e506bf7	0.20353685
66	0xbecd3905	-0.40082565
67	0x3f39162f	0.72299474
68	0x3f2cc16c	0.6748264
69	0xbd4206fe	-0.04736995
70	0x3ea77244	0.32704365
71	0x3f249536	0.6429018
72	0x3f455f50	0.7709856
73	0xbf0d53f6	-0.5520624
74	0x3f36fbdf	0.71478075
75	0x3e3255cb	0.1741554
76	0x3d5e5e07	0.05428889
77	0xbef5cb48	-0.48006654
78	0x3f30c365	0.6904815
79	0x3f2d3ccb	0.6767089
80	0x3d271919	0.04079542
81	0x3eb7184c	0.35760725
82	0xbd6da308	-0.058016807
83	0xbee18577	-0.44047138
84	0x3e29895e	0.16556308
85	0x3f5f7f1f	0.87303346
86	0xbea47bf3	-0.32125816
87	0xbf29dcf1	-0.66352755
88	0x3d698aa6	0.05701699
89	0x3e96ccf1	0.29453233
90	0xbeff7c65	-0.49899593
91	0xbdc93442	-0.098244205
92	0x3f35265e	0.7076167
93	0x3f3f2c97	0.74677414
94	0x3f06a80c	0.5260017
95	0x3d458e16	0.048231207
96	0x3f2f4d72	0.6847755
97	0xbd88cf71	-0.06680191
98	0x3f278c53	0.6544849
99	0x3f82f0f4	1.0229783
100	0x3f7a84b3	0.9785873
101	0x3ece7bc6	0.40328807
102	0x3eff272c	0.49834573
103	0x3ebf3b0a	0.3734973
104	0xbe0303d5	-0.1279443
105	0x3f2588ec	0.6466205
106	0x3f1cc968	0.6124482
107	0x3ed57b9e	0.41695875
108	0xbe1b9be4	-0.15196186
109	0x3f1357d5	0.57555896
110	0x3f370d97	0.7150511
111	0x3f26d68b	0.65171117
112	0x3e196e2c	0.14983433
113	0x3f32093f	0.6954536
114	0x3e4a9ca4	0.19786316
115	0x3dc55592	0.09635462
116	0xbd5d2bda	-0.0539969
117	0x3e993e28	0.29930234
118	0xbd83934a	-0.064245775
119	0x3f0f194f	0.5589799
120	0xbdacbbd0	-0.0843426
121	0x3ebddbe2	0.3708182
122	0x3e93bdc8	0.2885573
123	0xbdc37bb7	-0.09545081
124	0x3bfae1e9	0.007656325
125	0x3ecece4c	0.40391767
126	0x3f1907c0	0.5977745
127	0x3f339583	0.7015001

network.layer2.weight f4 [256, 128]
0	0x3d22d6b1	0.039755527
1	0xbcf45562	-0.02982587
2	0x3d7a80eb	0.061158102
3	0xbd4c6217	-0.049898233
4	0xbda94aba	-0.08266206
5	0x3d8b9812	0.068161145
6	0x3d770c2f	0.060314354
7	0x3d465c3d	0.04842781
8	0xbd866f31	-0.06564177
9	0x3d844d5f	0.0646007
10	0xbd50d921	-0.05098832
11	0xbcb95df1	-0.022627803
12	0xbcfc419c	-0.030793004
13	0x3d65cf27	0.05610576
14	0x3d2f2dc5	0.04276826
15	0xbdcd2aad	-0.100179054
16	0x3ce71dea	0.028212506
17	0x3d50be01	0.05096245
18	0xbce85c1a	-0.02836423
19	0xbc301574	-0.010747302
20	0x3d7ec713	0.06220157
21	0xbdb570ee	-0.0885943
22	0x3c117ece	0.00888033
23	0x3d378a88	0.044809848
24	0x3cc4b882	0.024013761
25	0xbc70f08e	-0.01470579
26	0xbda748e9	-0.081682034
27	0x3c1d1ec9	0.009589859
28	0xbd0c2dae	-0.03422325
29	0x3d61f56a	0.055165686
30	0x3d908469	0.07056505
31	0x3d009f24	0.03140177
32	0xbd9d596e	-0.07683073
33	0xbd5e18f8	-0.05422303
34	0x3d00f19e	0.031480424
35	0x3c19c042	0.009384217
36	0xbd951e7e	-0.072812065
37	0xbd73e352	-0.05954296
38	0xbd8de32d	-0.06928096
39	0xbd7d6c8e	-0.061871104
40	0x3c0f54b3	0.008748221
41	0xbd891cf4	-0.066949755
42	0xbd907a53	-0.070545815
43	0xbda1a451	-0.07892669
44	0xbdc011f1	-0.09378422
45	0xbbcf59b0	-0.0063278303
46	0x3cddcf2a	0.027076323
47	0xbd882e80	-0.06649494
48	0xbd8d7eac	-0.06908926
49	0x3d96bbf5	0.07360069
50	0xbc272932	-0.010202693
51	0xbd3dbf1f	-0.046324845
52	0xbce9ab3f	-0.02852404
53	0xbde02f4d	-0.10946522
54	0xbd313528	-0.043263584
55	0xbdb47cca	-0.08812864
56	0x3d864e46	0.06557898
57	0xbccab65f	-0.024745164
58	0xbd4890e7	-0.048966315
59	0xbda5753d	-0.08079002
60	0x3d5651af	0.052323993
61	0x3cc0e0ee	0.023544755
62	0xbd858adc	-0.06520626
63	0x3d59669a	0.053076364
64	0xbd5fd26e	-0.05464404
65	0xbcdce979	-0.026966797
66	0xbd9d689e	-0.0768597
67	0x3c705ece	0.014671041
68	0xbd4cc2c8	-0.049990445
69	0xbd88de25	-0.06682996
70	0xbc4470d9	-0.011989796
71	0x3d8041cc	0.0626255
72	0xbc48ef03	-0.012264016
73	0x3d411041	0.04713464
74	0x3cbd0746	0.023074757
75	0x3c18a612	0.009316938
76	0x3d823aed	0.063588955
77	0x3d407b6c	0.046992704
78	0x3d914564	0.07093313
79	0x3c4a9c3d	0.012366352
80	0x3d0daabb	0.03458665
81	0xbd9eb21f	-0.07748818
82	0xbd48e63a	-0.049047686
83	0x3d6613da	0.056171276
84	0xbd94c10b	-0.072633825
85	0xbd8ddb6d	-0.06926618
86	0x3da845db	0.08216449
87	0xbda69b6b	-0.081351124
88	0x3c14ecf1	0.009089694
89	0xbc8a44d1	-0.016878517
90	0xbd3921b2	-0.04519815
91	0x3d79d1a4	0.060990945
92	0xbda3d83f	-0.0800023
93	0x3d8feb5c	0.07027313
94	0xbc4aa682	-0.0123688
95	0x397f01e6	0.00024319402
96	0xbccf44a8	-0.025301293
97	0xbc799205	-0.015232568
98	0x3bcdcc0e	0.0062804287
99	0x3c8c7e7d	0.017150158
100	0xbb23250a	-0.0024893903
101	0xbd68db91	-0.05685002
102	0x3d8b3a9e	0.0679829
103	0x3d8ce374	0.06879321
104	0xbda71f4a	-0.08160265
105	0x3b59d9f9	0.0033241494
106	0xbd77bf39	-0.0604851
107	0xbc657b7e	-0.014006494
108	0xbd8c4f50	-0.06851065
109	0xbd0539ff	-0.032526013
110	0x3d93d7af	0.07218873
111	0xbdc231ac	-0.094821304
112	0xbdc185c2	-0.094493404
113	0x3d5bae7d	0.053633202
114	0x3ccdb3f8	0.02511023
115	0xbdba376b	-0.090926014
116	0x3b1d4b41	0.0024001154
117	0x3cd6f0a1	0.026237788
118	0x3c0f827d	0.008759138
119	0x3cfe9edb	0.031081608
120	0xbd91b979	-0.07115454
121	0x3d62129e	0.055193536
122	0x3d290229	0.041261826
123	0x3cdb6f42	0.02678645
124	0x3daa0251	0.08301223
125	0x3d2fac1d	0.04288875
126	0x3d0d9cb0	0.034573257
127	0x3b7b552c	0.0038350327
128	0xbbd295cb	-0.006426548
129	0x3cd20727	0.025638176
130	0xbf11c87a	-0.5694653
131	0xbf444746	-0.76671255
132	0x3fce0444	1.6095052
133	0x3dafd2d6	0.08585136
134	0xbd001de5	-0.03127851
135	0x3dbffd4d	0.09374485
136	0x3f0172f7	0.5056605
137	0x3dc48f54	0.0959765
138	0xbc2e18a2	-0.01062599
139	0x3f41f94c	0.7577102
140	0xbe3526dc	-0.17690605
141	0x3cabfd7f	0.0209949
142	0x3da7fc5b	0.0820243
143	0xbd9f5440	-0.07779741
144	0x3d54ae56	0.051924072
145	0x3d818651	0.06324447
146	0x3d27fb0b	0.041010898
147	0x3ebaad13	0.3646017
148	0x3e066973	0.13126163
149	0x3ef8adcc	0.48570096
150	0x3d269712	0.040671416
151	0x3daad7a6	0.08341913
152	0x3e2cf056	0.16888556
153	0x3fa7b3fc	1.3101802
154	0x3e9ba70f	0.30400893
155	0x3d8d5148	0.06900269
156	0xbc9aca1c	-0.018895201
157	0x3dff5f0e	0.12469302
158	0x3da4d282	0.08047964
159	0x3de7f650	0.11326277
160	0x3e79660b	0.24355333
161	0x3e412ccd	0.18864746
162	0xbf31a69f	-0.6939487
163	0x3d1cfbdf	0.03832614
164	0x3d8d7939	0.06907887
165	0x3ea7ff92	0.32812172
166	0x3e0b95a5	0.13631304
167	0x3d390a92	0.045176096
168	0xbe234a3e	-0.1594629
169	0xbc1b4df2	-0.009479033
170	0x3ddb03da	0.10694094
171	0x3c1fa4a7	0.009743846
172	0x3f1838ee	0.5946187
173	0x3da3a5ba	0.07990594
174	0x3d09cc61	0.033642177
175	0x3ed74d6e	0.42051262
176	0x3da4c9da	0.08046313
177	0x3de76c74	0.11299983
178	0x3e1f918d	0.15582867
179	0x3df8f111	0.12155355
180	0x3ccfc437	0.025362117
181	0x3ec570a2	0.38562495
182	0x3dde4dda	0.10854693
183	0x3c2c6c6c	0.010523897
184	0x3f84610d	1.0342118
185	0x3c05a1e3	0.008156273
186	0x3d84eb68	0.06490213
187	0x3cb83649	0.022486823
188	0x3d828b0f	0.063741796
189	0x3cffbb13	0.031217134
190	0x3f979105	1.1841131
191	0xbd8a1114	-0.06741539
192	0x3ce95b8c	0.028486036
193	0x3f0eb0b8	0.557384
194	0x3d4f82f0	0.05066198
195	0x3f8ffe01	1.1249391
196	0xbd4f39b0	-0.050592124
197	0x3ce4279c	0.027850918
198	0x3dc6f432	0.09714545
199	0x3f28066d	0.65634805
200	0x3f868f45	1.0512472
201	0xbd899547	-0.067179255
202	0xbda98271	-0.08276833
203	0x3ccb8a0d	0.024846101
204	0xbe0007b8	-0.12502944
205	0x3dcf8c8e	0.101342306
206	0xbceda336	-0.02900849
207	0x3d2159f2	0.03939242
208	0x3e2a4c71	0.16630723
209	0x3ea34330	0.31887197
210	0x3e073a73	0.1320589
211	0x3d93543b	0.071938
212	0x3c9e854e	0.019350674
213	0xbf5383dd	-0.8262308
214	0xbd916fc5	-0.071013965
215	0xbf460f92	-0.7736751
216	0x3eee675d	0.46563235
217	0x3f0eccd3	0.55781287
218	0xbca31f7e	-0.019912478
219	0x3e4b9a3c	0.19883054
220	0x3def15c7	0.116740756
221	0x3c7d31a4	0.01545373
222	0x3e9247f5	0.28570524
223	0x3e186efe	0.1488609
224	0x3f28a9c6	0.65884054
225	0x3e1ea782	0.15493587
226	0xbcc58836	-0.024112802
227	0xbefa18e1	-0.48847106
228	0x3f83a3e9	1.0284396
229	0x3de2518d	0.11050711
230	0xbf33bb7d	-0.7020796
231	0x3dd042f8	0.10169023
232	0xbe3069e9	-0.17227902
233	0xbcd1e9a8	-0.025624111
234	0xbf1224e2	-0.5708753
235	0x3dd8e0fc	0.10589787
236	0x3d552fe2	0.052047618
237	0x3dda15d8	0.106486976
238	0x3d7dd6e1	0.061972503
239	0x3dabad73	0.08382692
240	0x3d614c1f	0.055004235
241	0x3d1fdab0	0.039026916
242	0x3d4b58ed	0.049645353
243	0xbc08cec2	-0.008350076
244	0x3f1323de	0.57476604
245	0xbc590eb4	-0.013248134
246	0xbe0de5dd	-0.13857217
247	0x3fa15486	1.260392
248	0x3e0d3008	0.13787854
249	0x3f5ca5ab	0.8619029
250	0x3e071300	0.13190842
251	0x3eef45de	0.46732992
252	0x3e0efd8e	0.13963911
253	0x3f803651	1.0016576
254	0x3e0b3d90	0.13597703
255	0xbf4588af	-0.7716169

network.layer2.bias f4 [256]
0	0x3d2c4943	0.042062055
1	0xbb10326b	-0.0022002708
2	0xbe700815	-0.23440583
3	0xbd34694e	-0.04404574
4	0xbbc8fa7b	-0.006133375
5	0x3e276bde	0.16349742
6	0x3d663e2c	0.056211635
7	0x3df9161e	0.12162422
8	0x3dc56fac	0.0964044
9	0x3d00fce5	0.03149118
10	0x3d28cd78	0.041211575
11	0x3d21d162	0.039506324
12	0x3dcbf87b	0.09959503
13	0x3d9a61c8	0.075381815
14	0xbdd7844e	-0.10523282
15	0x3d484f16	0.048903547
16	0x3f06b2ac	0.5261638
17	0xbba7245b	-0.0051007695
18	0x3d0b41f1	0.033998434
19	0xbd8ba9ff	-0.068195336
20	0xbd3f6f91	-0.046737257
21	0x3daf7032	0.085663214
22	0xbd47053c	-0.048588976
23	0x3d6b4905	0.057442684
24	0x3d973ffd	0.07385252
25	0x3b7f5485	0.003896029
26	0xbdb7d302	-0.089757934
27	0x3dee8a0e	0.116474256
28	0xbd019021	-0.031631593
29	0xbae4cdc3	-0.0017456341
30	0xbde06dc5	-0.10958437
31	0x3d769b2e	0.060206585
32	0xbd0d4eeb	-0.03449909
33	0xbd44da98	-0.04806003
34	0x3d0d4816	0.034492575
35	0xbe0af15c	-0.13568634
36	0x3db5f507	0.08884626
37	0x3d49f54d	0.049306203
38	0x3d18daef	0.037318166
39	0x3d8a5467	0.0675438
40	0x3c48fdd1	0.012267546
41	0x3d35c8da	0.044381
42	0xbd13ea58	-0.03611216
43	0x3e81e3e7	0.25369188
44	0x3d700380	0.058597088
45	0xbe899394	-0.26870406
46	0xbce4ed24	-0.027945109
47	0x3e0bf39e	0.13667151
48	0x3dc3edfe	0.09566878
49	0x3dace26c	0.08441624
50	0x3cc1c4d4	0.023653425
51	0xbd8b2c20	-0.067955256
52	0x3c87dc3a	0.016584504
53	0x3c17e008	0.009269722
54	0x3d0397c6	0.032127164
55	0x3d9f962f	0.07792317
56	0x3d20e7fe	0.039283745
57	0x3e59275d	0.21206422
58	0x3d8c13f6	0.06839745
59	0xbd04d203	-0.032426845
60	0x3e61792b	0.22018878
61	0x3ddd5a07	0.10808187
62	0xbc80c087	-0.015716804
63	0x3e4df0cf	0.20111392
64	0x3cd0c08d	0.02548244
65	0x3e4ea302	0.2017937
66	0xbc7568f8	-0.01497864
67	0xbd7e87f3	-0.06214137
68	0xbccca8cf	-0.024982838
69	0x3d9b5c29	0.075859375
70	0x3d29d151	0.041459385
71	0xbe169cc8	-0.14708245
72	0x3e82b420	0.2552805
73	0x3cd1386f	0.025539605
74	0x3ea286ab	0.31743369
75	0x3949e293	0.00019253259
76	0xbc80c13e	-0.015717145
77	0x3c879390	0.016549855
78	0x3e3ac30a	0.18238464
79	0x3d564c9c	0.052319154
80	0x3d82692e	0.06367718
81	0x3e15716e	0.14594051
82	0x3e8185eb	0.25297484
83	0x3dc31dc3	0.09527161
84	0xbcc1d51a	-0.023661185
85	0xbda3d30e	-0.0799924
86	0x3e058f96	0.13043055
87	0xbd9f8ca1	-0.07790495
88	0xb9d2c511	-0.00040201147
89	0x3e962216	0.2932288
90	0x3cf3b4d5	0.029749313
91	0x3c5d4751	0.013505773
92	0x3e8a8835	0.27057043
93	0xbe1c415d	-0.15259309
94	0x3d96ed54	0.073694855
95	0xbdc3e9b2	-0.09566058
96	0xbdc1457a	-0.0943708
97	0x3eaed48f	0.34146544
98	0x3c1171ff	0.008877276
99	0x3c929c3a	0.01789676
100	0x3dabecab	0.0839475
101	0x3c968261	0.018372716
102	0x3d9ba561	0.07599903
103	0xbbde8870	-0.006791167
104	0x3d33c3c5	0.043887872
105	0xbdec21f2	-0.11529912
106	0x3d522379	0.05130336
107	0x3de01abf	0.109426014
108	0x3dca8cb2	0.09890117
109	0x3e43fd77	0.19139658
110	0xbd7edccc	-0.062222287
111	0xbd94b693	-0.07261386
112	0x3d9614e4	0.07328203
113	0x3e1bd148	0.15216553
114	0x3da48c39	0.08034558
115	0x3e4f8945	0.20267208
116	0x3e16c7bd	0.14724632
117	0xbdce64c5	-0.10077814
118	0x3d3c3d5c	0.045956954
119	0x3e072ce9	0.13200726
120	0x3dddd3e8	0.108314335
121	0x3ddf3841	0.108994015
122	0x3dac7c6b	0.08422168
123	0xbcb2f03f	-0.021843074
124	0xbd50ef33	-0.05100937
125	0x3e22dfb4	0.15905648
126	0x3d1dea3e	0.03855347
127	0xbd132761	-0.035926227
128	0x3d870048	0.065918505
129	0xbd8903ec	-0.06690201
130	0x3d2df1da	0.042466976
131	0x3e76a4e8	0.24086344
132	0xbdb6ca43	-0.08925297
133	0x3d3b5de3	0.045743834
134	0x3d7364d8	0.059422344
135	0x3d42b721	0.047537927
136	0xbd287b0f	-0.041132983
137	0x3e054f97	0.13018642
138	0xbc5ed36c	-0.013600212
139	0xbb96ceb7	-0.004602279
140	0x3e46fcbf	0.19432352
141	0x3d88b0ea	0.06674369
142	0xbe129ceb	-0.14317672
143	0xbd1063c0	-0.03525138
144	0x3da250c7	0.07925563
145	0xbda1cb51	-0.07900108
146	0xbdee2054	-0.1162726
147	0xbd478f9f	-0.048720952
148	0xbb109ec0	-0.0022067279
149	0xbd94ba8f	-0.07262146
150	0x3d92de25	0.07171277
151	0x3dee34e7	0.11631184
152	0x3d126a81	0.0357461
153	0x3d2b6f9f	0.041854497
154	0x3ce57a89	0.02801253
155	0xbbfc4a58	-0.007699292
156	0x3d61bc0f	0.055110987
157	0x3e234f15	0.15948136
158	0x3d2f85da	0.04285226
159	0x3d8afa1c	0.06785986
160	0x39f41984	0.00046558317
161	0x3ca12458	0.01967065
162	0x3ecca31d	0.39968196
163	0x3e6b109f	0.22955559
164	0xbe322c18	-0.17399633
165	0xbe669e14	-0.2252124
166	0xbd885cf9	-0.06658358
167	0xbd810704	-0.06300166
168	0x3d7de74c	0.06198816
169	0x3db1a549	0.08674104
170	0x3e82750e	0.2547993
171	0xbcd259ba	-0.02567755
172	0x3d0982c8	0.03357199
173	0xbd68b836	-0.056816302
174	0xbcebc973	-0.028782582
175	0xbe559824	-0.20858818
176	0x3cf2ef8c	0.02965524
177	0x3d86e438	0.06586498
178	0x3d8f0c62	0.06984784
179	0x3cffd6a7	0.031230284
180	0xbd4f64fa	-0.050633408
181	0x3a67094b	0.00088133354
182	0x3dfeea27	0.12447005
183	0x3b44d1de	0.0030032317
184	0x3e06a9a0	0.13150644
185	0x3dca1c14	0.09868637
186	0x3e1b5671	0.15169694
187	0xbd9eba84	-0.07750419
188	0x3e0a6e6c	0.13518685
189	0xbd6d6d45	-0.057965536
190	0xbc8c1cf2	-0.017103646
191	0x3e051dec	0.12999696
192	0x3ddbbbe5	0.107291974
193	0xbcedb255	-0.0290157
194	0x3dcf467b	0.10120865
195	0x3ea458f8	0.32099128
196	0x3df9b834	0.12193337
197	0xbdd7f70f	-0.105451696
198	0xbdb4fd18	-0.08837336
199	0x3e045fc6	0.1292716
200	0x3df522d0	0.119695306
201	0x3d06ea71	0.032938424
202	0x3d8a21d1	0.06744731
203	0xbca7ff8a	-0.020507593
204	0x3e2d839f	0.1694474
205	0x3d079382	0.03309966
206	0x3db04296	0.0860645
207	0x3d2f3fc1	0.04278541
208	0x3c214237	0.009842447
209	0x3bcd2e69	0.006261636
210	0x3ea5891f	0.32331178
211	0x3d5a09c8	0.053231984
212	0x3d413f6e	0.047179632
213	0x3e02c1c0	0.12769222
214	0x3e4d4efd	0.20049663
215	0x3e5d7979	0.2162837
216	0x3e25206e	0.16125652
217	0x3dac2ce8	0.08407003
218	0x3c65b657	0.014020524
219	0x3d9e0b42	0.07716991
220	0x3e13be70	0.14428115
221	0x3d04a80f	0.032386836
222	0x3d810b2d	0.0630096
223	0x3e1feb9b	0.1561722
224	0x3d8070c2	0.06271507
225	0xbd220a06	-0.03956034
226	0x3e7d793e	0.24753281
227	0x3d21cc20	0.03950131
228	0x3e4660e5	0.193729
229	0xbe650a25	-0.22367151
230	0xbe69bdf4	-0.22826368
231	0xbddf8154	-0.10913339
232	0x3d737812	0.05944068
233	0x3e1fa8ac	0.15591687
234	0xbceaa0c3	-0.02864111
235	0x3cccbc27	0.024992062
236	0x3cd3c361	0.02585
237	0xbdaed97f	-0.08537578
238	0x3d7d5d61	0.06185663
239	0x3d830ba9	0.063987084
240	0xbcc61bda	-0.024183203
241	0xbd3cd0c8	-0.046097547
242	0x3d1b0572	0.03784699
243	0xbb85da1a	-0.0040848376
244	0x3cbf1ca9	0.023329096
245	0xbdaed7ec	-0.085372776
246	0x3d804ddd	0.06264851
247	0x3e6bc0b7	0.23022734
248	0xbda5a80e	-0.080886945
249	0xbdf9a0f8	-0.121889055
250	0x3d4213a7	0.047382023
251	0x3e9a0137	0.30079052
252	0x3d8891de	0.06668447
253	0xbdce73c6	-0.10080676
254	0x3e34bd0c	0.1765024
255	0x3dd528a4	0.10408142

network.layer4.weight f4 [26, 256]
0	0x3d0d3f50	0.034484208
1	0x3e3dd1d3	0.18537073
2	0x3e0a7341	0.13520528
3	0x3e2d37e1	0.16915847
4	0x3d2df64a	0.042471208
5	0x3cef44bc	0.02920758
6	0x3e54488c	0.207308
7	0x3e06b2fd	0.13154216
8	0x3e49d5bc	0.1971044
9	0x3e2136f5	0.1574362
10	0x3e26514a	0.16241947
11	0x3e0a8d1b	0.1353039
12	0x3e52b4e0	0.20576811
13	0x3e55ddbe	0.20885369
14	0x3e29a8a2	0.16568235
15	0x3dfc6390	0.123236775
16	0x3e474503	0.1945992
17	0x3d6f370a	0.0584021
18	0x3966ba8c	0.00022004003
19	0x3e440b46	0.19144925
20	0x3e3d38eb	0.18478744
21	0x3dc0c4da	0.094125465
22	0x3d54533c	0.05183719
23	0x3e5a177c	0.21298021
24	0x3d483090	0.048874438
25	0x3b7a15d3	0.003815998
26	0x3e546405	0.2074128
27	0x3e066a97	0.13126598
28	0x3d1b0038	0.037842005
29	0x3d6eb60a	0.058279075
30	0x3e19a8f0	0.15005851
31	0x3cf1b030	0.029502958
32	0xbd5af008	-0.053451568
33	0x3bb64690	0.005562611
34	0xbd16e34c	-0.03683786
35	0x3e82d21f	0.25550935
36	0x3d9a6dea	0.07540496
37	0x3d82b837	0.063827924
38	0x3dc7e8a5	0.0976117
39	0x3e2fdabd	0.17173286
40	0xbcaca333	-0.021073913
41	0x3e4ff091	0.20306613
42	0x3e43376c	0.1906411
43	0x3ed8eb74	0.42367136
44	0x3e046389	0.12928595
45	0x3e8865e6	0.26640242
46	0xbd00d886	-0.031456493
47	0x3e260bde	0.16215464
48	0x3e683e2a	0.22679964
49	0x3e2e1951	0.17001845
50	0x3f0f7c52	0.5604907
51	0xbd3c26b0	-0.045935333
52	0x3e09bae0	0.13450193
53	0x3eb523ab	0.35378775
54	0x3de6df55	0.11273066
55	0x3d45d93e	0.04830288
56	0x3e3ec530	0.18629909
57	0xbc3db5fb	-0.011579032
58	0xbc6d48d8	-0.014482699
59	0x3dc5d156	0.09659068
60	0xbdc9e173	-0.09857454
61	0x3e01cfae	0.1267688
62	0xbd5fc526	-0.054631375
63	0x3d71bf0a	0.05902008
64	0x3df54ecc	0.1197792
65	0x3f0d5685	0.55210143
66	0x3db721ee	0.089420184
67	0x3e0a559d	0.13509221
68	0x3cdea888	0.027179971
69	0xbcb6f9ac	-0.02233585
70	0x3d126c42	0.035747774
71	0x3e65da28	0.22446501
72	0x3f298dde	0.662321
73	0xbb735400	-0.0037128925
74	0x3d23d567	0.03999844
75	0x3d314812	0.043281622
76	0x3e68da10	0.22739434
77	0x3d7b04dc	0.06128393
78	0xbb771b82	-0.0037705605
79	0x3e57cbfd	0.21073909
80	0x3ea5a7cb	0.32354578
81	0xbe139904	-0.1441384
82	0x3eb28454	0.34866583
83	0x3e48a849	0.19595446
84	0xbbb3ca10	-0.005486734
85	0x3e4fd37d	0.2029552
86	0x3e0a60ae	0.13513443
87	0x3db83c86	0.08995919
88	0xbdd8ca7f	-0.10585498
89	0x3f2bb72c	0.67076373
90	0x3e56b4c3	0.20967393
91	0x3e6722ae	0.22571823
92	0x3ecef252	0.4041925
93	0x3e0be1c5	0.13660343
94	0x3defbfc2	0.11706497
95	0x3e65864d	0.22414513
96	0x3de2c98f	0.110736005
97	0x3dd44b19	0.10365886
98	0x3e474fa6	0.19463977
99	0x3e5f1863	0.21786647
100	0x3ebabe7e	0.3647346
101	0x3d41db62	0.04732836
102	0x3e3832f9	0.17988195
103	0x3e4e9c12	0.20176724
104	0x3d41a2e2	0.047274478
105	0x3e886722	0.26641184
106	0x3d8a694f	0.06758367
107	0x3db7c214	0.08972564
108	0x3dad5de2	0.08465172
109	0x3e5c0318	0.21485555
110	0xbcb9cb8c	-0.022680067
111	0x3e007209	0.12543501
112	0x3e141c85	0.14464004
113	0x3e22dba7	0.15904103
114	0x3e099968	0.13437426
115	0x3dacd9e0	0.08439994
116	0x3ba9408f	0.0051651667
117	0x3e8b042f	0.2715163
118	0xbc204770	-0.009782657
119	0xbc2cd202	-0.010548117
120	0x3e354056	0.17700323
121	0x3e0f173a	0.13973704
122	0xbbecca90	-0.007226296
123	0x3e33e8cb	0.17569272
124	0x3e7c8d8b	0.2466337
125	0x3f0c99fa	0.5492245
126	0x3f011d9d	0.5043581
127	0xbd322666	-0.04349365
128	0x3c190eb4	0.009341884
129	0x3e9ce6bf	0.30644795
130	0xbd69da18	-0.057092756
131	0x3e96a3d6	0.29421872
132	0xbcca3bec	-0.024686776
133	0x3c33e392	0.01097955
134	0x3e515cf9	0.20445623
135	0x3e548f24	0.20757729
136	0x3e1721b7	0.14758955
137	0x3e379e40	0.17931461
138	0x3e458d64	0.19292217
139	0x3e2dc8c6	0.1697112
140	0x3f0f6640	0.56015396
141	0x3e28f2ba	0.16498843
142	0x3e64ced1	0.22344519
143	0x3d33a80b	0.04386143
144	0x3dbb0c06	0.09133153
145	0xbd1717ea	-0.03688804
146	0x3e79edd1	0.24407126
147	0x3d68b83e	0.056816332
148	0x3e12b370	0.14326262
149	0xbd053408	-0.032520324
150	0x3d4683be	0.048465483
151	0x3e3eb036	0.18621907
152	0x3d7a9c5e	0.06118428
153	0x3c11f8f8	0.008909456
154	0x3e57b9c3	0.21066956
155	0xbc269420	-0.010167152
156	0x3cf11d64	0.02943296
157	0x3de2d5ab	0.1107591
158	0xbad93040	-0.0016570166
159	0xbd44e472	-0.048069425
160	0x3e124018	0.14282262
161	0x3e82af23	0.25524244
162	0x3e29b97e	0.16574666
163	0x3edc567f	0.4303474
164	0x3e550fb2	0.20806769
165	0x3e3d3e7b	0.18480866
166	0x3e475f09	0.19469847
167	0x3df9f0a5	0.122041024
168	0x3e53a22c	0.20667332
169	0x3e826916	0.254708
170	0x3eaca76a	0.33721477
171	0x3d6fc0ea	0.058533587
172	0x3e1171e7	0.14203607
173	0xbd6f8896	-0.058479868
174	0x3deff5f2	0.11716832
175	0x3e2d967e	0.1695194
176	0xbbdb3e7a	-0.0066907974
177	0x3e194284	0.1496678
178	0x3cfc23b6	0.030778747
179	0x3e3fb662	0.18721917
180	0xbc0ee721	-0.008722098
181	0x3ce2736c	0.027642928
182	0x3e86a2df	0.26296136
183	0x3dd982a9	0.106206246
184	0x3e2f7ef5	0.17138274
185	0x3dc33bab	0.09532865
186	0x3e12e529	0.1434523
187	0x3d493a3a	0.049127795
188	0x3df63dbb	0.12023493
189	0x3e2f77e4	0.17135578
190	0x3e1c3aa3	0.15256743
191	0x3df2d131	0.11856306
192	0xbe07c0e5	-0.13257177
193	0x3dd91e97	0.10601538
194	0x3dbbaf13	0.09164252
195	0x3e8439a3	0.25825223
196	0x3e0cf4c6	0.13765249
197	0x3de7dcb1	0.113213904
198	0x3ccd7fe0	0.02508539
199	0x3d839c1e	0.06426261
200	0x3e53cd26	0.20683727
201	0x3e2d2413	0.16908292
202	0x3c9be064	0.019027896
203	0x3e15caec	0.1462819
204	0x3e5965ae	0.21230194
205	0x3e2a3d59	0.16624965
206	0x3e25069a	0.161158
207	0x3eb04f22	0.34435374
208	0xbbfe0030	-0.007751487
209	0x3cf4459c	0.029818349
210	0x3ef468e6	0.4773628
211	0xbc0be5e8	-0.008538701
212	0x3df94f0f	0.12173282
213	0x3e7d46f1	0.24734093
214	0x3dd5a3ec	0.10431656
215	0x3ebee9f8	0.3728788
216	0x3dce3c3d	0.10070083
217	0x3d887428	0.0666278
218	0x3e077820	0.13229418
219	0x3e1e2853	0.1544507
220	0x3da56b7a	0.0807714
221	0x3d579372	0.05263085
222	0x3d605efc	0.054778084
223	0x3e56abd2	0.20963982
224	0x3e5b523f	0.21418093
225	0x3c11e288	0.008904107
226	0xbe1037ef	-0.14083837
227	0x3e4feec8	0.20305932
228	0x3e2897dd	0.16464181
229	0x3e06543f	0.13118075
230	0x3e5a5204	0.21320349
231	0x3e57ce59	0.21074809
232	0x3e226965	0.15860517
233	0x3e144c18	0.14482152
234	0x3e5d1619	0.21590461
235	0x3de1343f	0.10996293
236	0x3d1aad6c	0.037763044
237	0x3d67d910	0.05660349
238	0x3c6d8e10	0.014499202
239	0x3e28fe58	0.16503274
240	0x3c075790	0.008260623
241	0x3e2c19c3	0.16806702
242	0x3db8cfea	0.090240315
243	0xbd616bbe	-0.05503439
244	0xbcad12f0	-0.021127194
245	0x3c369680	0.01114428
246	0x3da61c74	0.08110896
247	0x3d856c89	0.06514842
248	0x3d185b40	0.037196398
249	0x3e57de8d	0.2108099
250	0x3dbfd507	0.093668036
251	0x3e4412f9	0.19147862
252	0xbca75fb4	-0.020431377
253	0x3cc7f35b	0.024408033
254	0x3eee8441	0.46585277
255	0x3e79047a	0.24318114

network.layer4.bias f4 [26]
0	0xbdc5bd65	-0.09655265
1	0x3d7437aa	0.059623398
2	0x3f5822f0	0.8442831
3	0xbe1b4c34	-0.15165788
4	0xbde1b08e	-0.11020003
5	0x3e5e3083	0.21698193
6	0xbdcd0083	-0.10009863
7	0xbe350587	-0.1767789
8	0x3d811937	0.063036375
9	0xbe9d06d3	-0.3066927
10	0x3d9ac2a0	0.07556653
11	0x3eb45c21	0.3522654
12	0xbef3404b	-0.4750999
13	0x3ed18de8	0.40928578
14	0xbee12818	-0.43975902
15	0x3dc8b0ef	0.097993724
16	0x3ddf7a3c	0.10911986
17	0xbe3ac71f	-0.18240021
18	0xbd6ef662	-0.058340438
19	0x3e651116	0.22369799
20	0xbe8f6e08	-0.28013635
21	0x3e0dc384	0.13844115
22	0x3e4761a0	0.19470835
23	0xbe81fcff	-0.25388333
24	0x3d47a414	0.04874046
25	0x3c800a0f	0.015629796
