DDQN_panda_env2/runs/results_6/last-model.pt (torch, 162903 bytes, 6 tensors)

network.layer1.weight f4 [128, 3]
00000000: 1a39 47bf 2d0d b6be 8651 253e 0ca4 133e
00000010: 902f 803f d18a 183f e04b 863f 3da3 4fbe
00000020: 847e 7e3c b01c b43f 22e7 1c3d 4569 103d
00000030: 5981 8f3f 5645 50bf c582 a6be 9996 2abf
00000040: f896 e9be 1dc5 95bd 4c8b d6be 49b7 d13e
00000050: e500 453f 24bd 45bf 3362 98be 2bfd 273f
00000060: 32f9 28bf 0567 683e b92c 16bf cf9f 2fbf
00000070: cb78 77bd e0de ae3e 6d44 89be 8b80 4dbf
00000080: bd74 ffbd 1d0f bd3e 3b63 2bbf 92ce bbbe
00000090: 1d05 d1be ec58 663f 68cb e13e 8bed 56bf
000000a0: f21e 10be 7d78 f0bd e128 c7be cff7 2fbf
000000b0: 324c a83d 1c5d e9be 3851 603e d954 ab3e
000000c0: 1308 38be 8f79 11be 6b10 973b 540c d23d
000000d0: 00d0 dcbe 11cb 0a3f e7ac f5be b3c4 43bf
000000e0: ec9b 213f 1966 f3be 1221 26bf 65fb 1abf
000000f0: a703 4bbf dd42 c8be d756 ffbe 046d 63bf
00000100: f6d9 4b3e cf90 96bd 8a85 41bf 9d40 6abd
00000110: 337a 343f e6d9 2cbf a972 c6be 300a ba3e
00000120: 192d 843e 7503 19bf a846 0e3e 03be 543f
00000130: b080 53bf a0b4 04bf 6052 f6be 6b99 20bf
00000140: c155 afbe d246 e1be ff6d 51bf 470e ed3d
00000150: 682e f5be 78b4 e0be 5112 cf3c 4719 fcbd
00000160: c4eb 33bf 879e dabd 0e85 0abf 76be 2cbf
00000170: 41b1 d7bd b40d 33bf 23cc e5be d48a 053f
00000180: 7595 6bbf 6258 97be b87e 1dbf 5883 4fbf
00000190: 0537 d4be 096b b03c 297a 723f 8366 7d3d
000001a0: 8e5b d73e b253 84bf 435a 193f b668 963e
000001b0: bddb bb3e 97d0 b2be 7e52 953e 68fa 0ebe
000001c0: 0520 f6be ac81 27bf 701d 47bf 3146 05bd
000001d0: 35f3 1d3f d7a2 67bf 58e2 30bf 9c4c da3e
000001e0: 0d23 d7be 37a7 a63e b48e aebe a4b5 f53d
000001f0: b91f 34bf c659 d13e 0c47 2dbf b07d 36bf
00000200: 5014 5ebc 58d6 52be ab77 33bf b112 843e
00000210: e6d2 7ebf 514d 3b3f 6ae0 b53e f859 80bf
00000220: 82f0 493c 3277 9c3e d24c 60be 2dd7 713e
00000230: 0370 423f 9fa6 6dbf f08b 843c f9c7 efbe
00000240: 8a2d cabe 23a4 33bf c899 193f 727e e9bd
00000250: 5f84 4abf 5779 263f 34ea 8cbe 4ad5 32bf
00000260: ea1f ae3e bf01 55bf c26e 19bf 9739 23bf
00000270: e855 2bbf eb4e 2c3d 10fb 183f ea10 12bf
00000280: 08ae 96be b668 e8be f106 9d3e 45c0 bfbe
00000290: c1f9 0f3e 799b b2bf 0b1f fe3e d276 bf3d
000002a0: 6910 5fbf 6aad a73e 3ad3 80be d871 ebbd
000002b0: bee2 bdbe 88fb 343f a081 babf 0ae3 293f
000002c0: 5838 363e 3942 63bf 001a 1dbd 160c a63e
000002d0: 5d90 4cbf 03c2 24be f7b0 123f 6a48 90bf
000002e0: 508f 93be 1a1e 553d f493 0d40 7999 24bf
000002f0: fb5c c9bd cb00 23bf c4d8 033f 30f9 7fbe
00000300: 2c24 34bf a2b4 f23e b835 80be ce12 19bf
00000310: 8c48 28bf b62d bdbe e915 6ebe d85a 06bf
00000320: 445f b33e 925d 52bf 42ba 723f 9ad7 aa3d
00000330: 68c5 00bd c6b3 24bf 6dc7 d93e 44cd 33bf
00000340: af75 5dbd 517f 263f c9e8 7bbf 6a61 d9be
00000350: ebae d33e 814e 43be 067c a6be d001 2ebf
00000360: 7a7d 2ebf 11b6 df3e b017 dabe b136 e03e
00000370: 9807 493e 798d e9be dcbc fabe 69e1 973e
00000380: 48d2 a93e a3e3 03bf 0322 33bf 5545 073f
00000390: de49 4dbf 6b20 623e 6547 2b3e 0958 233f
000003a0: 8703 c93e 800d bc3e a013 6bbf 051b a23d
000003b0: 7af2 af3e 9642 b0be f1b2 b7be fd16 d3bc
000003c0: f9e9 d23d 52dd 01bf 056d 3e3e e2e6 27bf
000003d0: f894 2abf 3191 e4be 112e c03d 12c1 b5be
000003e0: 1331 d63e 94a0 02be 4995 c33e a170 a3be
000003f0: fece 60bf 722e 18be 43ec 2d3f 84da 673f
-0.77821505 -0.35556927 0.1614438 0.14418048 1.0014515 0.5958682 1.0491905 -0.20277114
0.015533093 1.4071255 0.038306363 0.035256643 1.1211349 -0.813558 -0.32521644 -0.66636044
-0.45622993 -0.07312987 -0.4190315 0.40960148 0.7695449 -0.7724173 -0.2976242 0.6562068
-0.6600524 0.22695549 -0.5866199 -0.68603224 -0.06041793 0.34154415 -0.26810017 -0.80274266
-0.12473438 0.36925593 -0.6694829 -0.36681038 -0.40824214 0.89979434 0.441005 -0.8395621
-0.14074305 -0.11741731 -0.38898376 -0.687375 0.08217658 -0.4557885 0.21905982 0.3346317
-0.1797183 -0.14206527 0.0046101115 0.10256258 -0.4312744 0.54216105 -0.47983477 -0.76472014
0.6312854 -0.47538832 -0.6489421 -0.6053985 -0.7930245 -0.39113513 -0.4987094 -0.8883822
0.19907364 -0.07351839 -0.7559439 -0.057190526 0.7049896 -0.67519987 -0.38759354 0.36335897
0.25815657 -0.597709 0.1389414 0.83102435 -0.82618237 -0.5183811 -0.48109722 -0.627341
-0.34245113 -0.43999344 -0.81808466 0.11574989 -0.47886968 -0.43887687 0.025277289 -0.12309509
-0.70281625 -0.10674768 -0.54109275 -0.6747812 -0.105318554 -0.69942784 -0.44882306 0.5216496
-0.9202493 -0.29559618 -0.6152148 -0.8105979 -0.41448227 0.021535413 0.9471765 0.06186534
0.42062038 -1.0338042 0.59903353 0.29376763 0.36691085 -0.34924766 0.291645 -0.1396271
-0.48071304 -0.6543224 -0.77779293 -0.032537643 0.6169923 -0.9048285 -0.69095373 0.42636573
-0.4201893 0.3254945 -0.3409325 0.11997536 -0.70360905 0.40888804 -0.67686534 -0.71285534
-0.013554648 -0.20589578 -0.70104474 0.2579551 -0.99540555 0.7316485 0.35522777 -1.0027456
0.012325408 0.3055969 -0.21904305 0.2361724 0.75952166 -0.9283237 0.016180009 -0.46832255
-0.3948787 -0.7017233 0.60000277 -0.11401071 -0.7910823 0.650289 -0.27522433 -0.69856703
0.34008723 -0.8320579 -0.5993463 -0.6375975 -0.6692796 0.04206745 0.5975809 -0.5705706
-0.2942965 -0.45392388 0.30669358 -0.37451378 0.14060117 -1.3953696 0.4963306 0.09348835
-0.87134415 0.32749492 -0.25161153 -0.11496323 -0.37087053 0.70696306 -1.4570808 0.6636206
0.17794931 -0.8877292 -0.038354874 0.32431096 -0.7990778 -0.16089635 0.57301277 -1.1272099
-0.28820276 0.05203066 2.2121553 -0.6429668 -0.09832188 -0.63673085 0.51502633 -0.24997401
-0.70367694 0.47403437 -0.25040984 -0.5979432 -0.657357 -0.36948937 -0.23250546 -0.52482367
0.3503362 -0.82174027 0.94815457 0.08341904 -0.03143826 -0.6433681 0.42534962 -0.70235085
-0.05406731 0.6503802 -0.98402077 -0.42457134 0.4134439 -0.19072916 -0.32516497 -0.67971516
-0.6816021 0.43693593 -0.42596197 0.43791726 0.19631803 -0.45615748 -0.48972213 0.29664162
0.33168244 -0.5151922 -0.6997377 0.5284017 -0.8019084 0.22082679 0.16726454 0.63806206
0.39260504 0.3672905 -0.9182682 0.0791531 0.34364682 -0.344258 -0.3587871 -0.025767798
0.10298533 -0.50728333 0.18596275 -0.65586674 -0.6663356 -0.44642022 0.093837865 -0.35498863
0.41834316 -0.12756568 0.38199833 -0.31921867 -0.87815845 -0.14861467 0.6793863 0.90567803

network.layer1.bias f4 [128]
00000000: fa10 383f 9814 ddbe a4ea 2f3f f600 a03f
00000010: 958b 033e 9eca 163e e54e e6be 8341 093f
00000020: 6532 52be 4b8b 6dbc 58b8 043f d6a3 34bd
00000030: f2ff 27bf b899 a33e fe13 1f3f 5598 3b3d
00000040: 68d0 3a3f 4f6c f83e 7b57 393e 43b1 fd3e
00000050: abfd 023c 2762 263e 1816 993e 6ab7 0bbc
00000060: 9ce4 e9bc 9d9d d0bd cf30 3abe ed3e 033e
00000070: 9e4f 403f 33c0 f23e 3c92 273f 1f51 aabc
00000080: 20d4 8d3e 1191 973c cdab 333f 78a2 12be
00000090: 1cf9 d93e e3e0 973e a25a b53e 35d1 ddbd
000000a0: bc00 83be 3537 b93e 8e71 823e 3b09 133f
000000b0: 71fa 3c3d 752f d9be 2a4c 07bf abbd b13e
000000c0: 1c3c 0f3f 03c5 ac3e 03b0 8dbe 6a3c 753e
000000d0: 325d e43e 7553 af3e 6fb0 e33e 76e3 99bd
000000e0: e19e 093f 1581 f53e 920f 3fbe 03ed f23e
000000f0: 3885 afbe ba04 f9be e0af 563d 4926 9bbe
00000100: 3b24 c1be f58c 6a3e 4de7 cebe 8ab8 413f
00000110: 216f 393f f09f d2bc ee62 b93e e60b 0a3f
00000120: ce97 3b3f f653 0dbf 8fca 4b3f 38ef 543e
00000130: aa4c 9c3d 8fc1 f4be 00ff 3b3f cafd 383f
00000140: 883c 933d c441 c23e 3c8d 35bd 7785 e1be
00000150: 8408 433e 6da7 553f f37b a4be 3e18 27bf
00000160: cdf4 3dbd fb01 a33e 5283 02bf 85d1 28be
00000170: 13ac 3f3f cfb6 563f dd8c 183f f3c3 963d
00000180: 9bf3 1d3f 09e9 0bbd 801d 353f 36dc 7d3f
00000190: 9be5 6f3f 9f21 e43e b11c e23e 65fe ce3e
000001a0: 1ae4 a2bd 787d 373f 5cf8 103f 0af5 e83e
000001b0: 6d84 f8bd 9f2f 1e3f a069 403f bc40 343f
000001c0: 2053 373e 2366 423f a4a6 6b3e f548 d63d
000001d0: 55eb 2dbe 2bb1 aa3e e2c6 15be b494 013f
000001e0: 8607 1bbd fa84 ec3e 650a a33e f2a2 4dbe
000001f0: f695 983d 725a de3e 7715 253f 7451 2a3f
0.71900904 -0.43179774 0.6871741 1.2500293 0.12846215 0.1472573 -0.44982067 0.5361559
-0.20527036 -0.014498542 0.51843786 -0.04410156 -0.65624917 0.31953216 0.6213988 0.045799572
0.7297425 0.48520133 0.18099777 0.49549302 0.0079950495 0.1624838 0.2989967 -0.008527616
-0.028551392 -0.10186312 -0.18182682 0.12816973 0.75121486 0.4741226 0.6545751 -0.020790635
0.277009 0.01850179 0.7018402 -0.1431979 0.42572868 0.29663762 0.3542071 -0.10830919
-0.25586498 0.36174932 0.2547726 0.5743596 0.046137277 -0.4241902 -0.5285059 0.34715018
0.55951095 0.33744058 -0.2767335 0.23948827 0.44602352 0.3424336 0.44470546 -0.07514088
0.53758055 0.47950044 -0.18658283 0.4744645 -0.34281325 -0.4863642 0.05241382 -0.30302647
-0.37722954 0.22905333 -0.40410843 0.7567221 0.72435194 -0.02571103 0.3620829 0.53924406
0.7327851 -0.5520624 0.79605955 0.2079438 0.0763181 -0.47803923 0.73435974 0.7226225
0.0718928 0.379408 -0.044324145 -0.44047138 0.19046217 0.83458596 -0.32125816 -0.65271366
-0.04637604 0.31837448 -0.5098163 -0.16486175 0.7487194 0.83872694 0.5958994 0.07361593
0.6169984 -0.034157787 0.7074814 0.9916414 0.93709725 0.445569 0.44162515 0.40428463
-0.07953663 0.71675825 0.56628966 0.4549945 -0.12134633 0.61791414 0.7516117 0.70411277
0.17902803 0.759371 0.23012787 0.10463134 -0.16984303 0.33338293 -0.14626649 0.5061753
-0.03784897 0.46195203 0.31843868 -0.2008169 0.07450478 0.4342838 0.6448588 0.6653054

network.layer2.weight f4 [256, 128]
00000000: b1d6 223d 6255 f4bc eb80 7a3d 1762 4cbd
00000010: ba4a a9bd 1298 8b3d 2f0c 773d 3d5c 463d
00000020: 316f 86bd 5f4d 843d 21d9 50bd f15d b9bc
00000030: 9c41 fcbc 27cf 653d c52d 2f3d ad2a cdbd
00000040: ea1d e73c 01be 503d 1a5c e8bc 7415 30bc
00000050: 13c7 7e3d ee70 b5bd ce7e 113c 888a 373d
00000060: 82b8 c43c 8ef0 70bc e948 a7bd c91e 1d3c
00000070: ae2d 0cbd 6af5 613d 6984 903d 249f 003d
00000080: 6e59 9dbd f818 5ebd 9ef1 003d 42c0 193c
00000090: 7e1e 95bd 52e3 73bd 2de3 8dbd 8e6c 7dbd
000000a0: b354 0f3c f41c 89bd 537a 90bd 51a4 a1bd
000000b0: f111 c0bd b059 cfbb 2acf dd3c 802e 88bd
000000c0: ac7e 8dbd f5bb 963d 3229 27bc 1fbf 3dbd
000000d0: 3fab e9bc 4d2f e0bd 2835 31bd ca7c b4bd
000000e0: 464e 863d 5fb6 cabc e790 48bd 3d75 a5bd
000000f0: af51 563d eee0 c03c dc8a 85bd 9a66 593d
00000100: 6ed2 5fbd 79e9 dcbc 9e68 9dbd ce5e 703c
00000110: c8c2 4cbd 25de 88bd d970 44bc cc41 803d
00000120: 03ef 48bc 4110 413d 4607 bd3c 12a6 183c
00000130: ed3a 823d 6c7b 403d 6445 913d 3d9c 4a3c
00000140: bbaa 0d3d 1fb2 9ebd 3ae6 48bd da13 663d
00000150: 0bc1 94bd 6ddb 8dbd db45 a83d 6b9b a6bd
00000160: f1ec 143c d144 8abc b221 39bd a4d1 793d
00000170: 3fd8 a3bd 5ceb 8f3d 82a6 4abc e601 7f39
00000180: a844 cfbc 0592 79bc 0ecc cd3b 7d7e 8c3c
00000190: 0a25 23bb 91db 68bd 9e3a 8b3d 74e3 8c3d
000001a0: 4a1f a7bd f9d9 593b 39bf 77bd 7e7b 65bc
000001b0: 504f 8cbd ff39 05bd afd7 933d ac31 c2bd
000001c0: c285 c1bd 7dae 5b3d f8b3 cd3c 6b37 babd
000001d0: 414b 1d3b a1f0 d63c 7d82 0f3c db9e fe3c
000001e0: 79b9 91bd 9e12 623d 2902 293d 426f db3c
000001f0: 5102 aa3d 1dac 2f3d b09c 0d3d 2c55 7b3b
00000200: a218 51bc b134 b4bd 91e9 06bf e5ed 2fbf
00000210: 2394 df3f da49 0e3d c895 79bc 8320 cd3d
00000220: d27f 073f 9c79 ae3d e502 07bd 61ab 473f
00000230: ca03 8fbe 93fd ecbc 43a8 9e3d ed8e 8cbd
00000240: fc18 863d da5d bd3d 4140 353d b0cd 803e
00000250: 7bba a63c df7d ed3e b695 453d 5935 933d
00000260: b762 373e 8040 bc3f 660c 4f3e 2c3d 523d
00000270: a06f bfbc 0279 da3d 852d 793d f664 dc3d
00000280: 2832 083e 7047 183e 6fed 08bf 9af7 1f3d
00000290: b065 f43d 38ea 823e f4a5 113e 7b7d eb3c
000002a0: 6aca 1fbe 28ed 2e3c 3b55 a13d 0f7c 863c
000002b0: 684c 1b3f 7b36 563d ab10 4f3d 2caf a83e
000002c0: eccf b83d 5437 023e a993 143e 50e3 833c
000002d0: f2de 133d 5e96 903e 56fe 1b3e ee99 963b
000002e0: e57b 823f 7467 033d a0df 8a3d 264f 903c
000002f0: 6db7 5c3d 250b d5bc a5eb cf3f 170a f2bd
00000300: a295 f1bc 2803 ee3e 2c60 1f3d 21ce 993f
00000310: 96aa febc 42e3 fe3c 82b2 b53d 7794 113f
00000320: 286c 893f 4795 89bd 1a43 78bd 2e32 d03c
00000330: 4b94 0fbe 6db2 acbc d432 e3bc bb88 173d
00000340: 8361 353e 8db9 673e 1ef6 1e3e 3b54 933d
00000350: e553 ac3c ac8c 2abf c56f 91bd 1960 7dbf
00000360: 72e7 d03e 1186 003f 13e2 eabc a648 bb3d
00000370: ec1b e23d ab9e 6d3d da53 5d3e 0305 f93d
00000380: 0486 1f3f ab32 ea3d ed83 d3bb 2c39 a8be
00000390: c1b4 883f cb72 e03d 5520 0fbf 752a ac3d
000003a0: e762 33be f4f7 963b 9626 02bf e53e de3d
000003b0: 9c40 d53c bbb8 fa3d c1b4 943d 44b0 743d
000003c0: 83b1 3d3d a0f8 bf3d c8a6 6f3d 16e0 eebc
000003d0: 99ca 013f 3dde b6bc b2e7 07be b6ee 9d3f
000003e0: 04bd c33d a693 653f c076 0e3e def9 d53e
000003f0: 603a b63d 6337 863f f436 df3d 9b70 1ebf
0.039755527 -0.02982587 0.061158102 -0.049898233 -0.08266206 0.068161145 0.060314354 0.04842781
-0.06564177 0.0646007 -0.05098832 -0.022627803 -0.030793004 0.05610576 0.04276826 -0.100179054
0.028212506 0.05096245 -0.02836423 -0.010747302 0.06220157 -0.0885943 0.00888033 0.044809848
0.024013761 -0.01470579 -0.081682034 0.009589859 -0.03422325 0.055165686 0.07056505 0.03140177
-0.07683073 -0.05422303 0.031480424 0.009384217 -0.072812065 -0.05954296 -0.06928096 -0.061871104
0.008748221 -0.066949755 -0.070545815 -0.07892669 -0.09378422 -0.0063278303 0.027076323 -0.06649494
-0.06908926 0.07360069 -0.010202693 -0.046324845 -0.02852404 -0.10946522 -0.043263584 -0.08812864
0.06557898 -0.024745164 -0.048966315 -0.08079002 0.052323993 0.023544755 -0.06520626 0.053076364
-0.05464404 -0.026966797 -0.0768597 0.014671041 -0.049990445 -0.06682996 -0.011989796 0.0626255
-0.012264016 0.04713464 0.023074757 0.009316938 0.063588955 0.046992704 0.07093313 0.012366352
0.03458665 -0.07748818 -0.049047686 0.056171276 -0.072633825 -0.06926618 0.08216449 -0.081351124
0.009089694 -0.016878517 -0.04519815 0.060990945 -0.0800023 0.07027313 -0.0123688 0.00024319402
-0.025301293 -0.015232568 0.0062804287 0.017150158 -0.0024893903 -0.05685002 0.0679829 0.06879321
-0.08160265 0.0033241494 -0.0604851 -0.014006494 -0.06851065 -0.032526013 0.07218873 -0.094821304
-0.094493404 0.053633202 0.02511023 -0.090926014 0.0024001154 0.026237788 0.008759138 0.031081608
-0.07115454 0.055193536 0.041261826 0.02678645 0.08301223 0.04288875 0.034573257 0.0038350327
-0.012762221 -0.087991126 -0.52700144 -0.68722373 1.7467083 0.0347384 -0.015233465 0.10015967
0.52929413 0.08519289 -0.032961745 0.7799588 -0.27932578 -0.028929507 0.07746937 -0.068631984
0.06547734 0.092464164 0.04425073 0.25156927 0.020352593 0.46385095 0.04823848 0.0718791
0.1790875 1.4707184 0.20219573 0.05132787 -0.023368657 0.10667612 0.060834426 0.10761444
0.13300383 0.14871001 -0.53487295 0.03905449 0.11933458 0.2556932 0.14223462 0.028746357
-0.15604559 0.01067666 0.078775845 0.016416578 0.6066346 0.05229805 0.050553005 0.32946146
0.09024033 0.12716419 0.14509453 0.016099602 0.03610129 0.2823972 0.1523374 0.0045959866
1.019406 0.032081082 0.06780934 0.017615866 0.053885866 -0.02600629 1.6243788 -0.11818331
-0.029490296 0.46486783 0.038910076 1.201603 -0.031087201 0.031114224 0.08871938 0.56867164
1.0736132 -0.067179255 -0.060610868 0.025414553 -0.14021413 -0.021081174 -0.027734198 0.03699563
0.17712979 0.22629376 0.15523574 0.071938 0.021036098 -0.666209 -0.071013965 -0.9897476
0.4080158 0.5020457 -0.028672254 0.09144716 0.11040482 0.058012646 0.21614018 0.12159159
0.62313867 0.114354454 -0.0064549358 -0.3285612 1.0680162 0.10959395 -0.5590871 0.084065355
-0.17518197 0.004607195 -0.5084013 0.1085184 0.026031785 0.12242266 0.072610386 0.059738412
0.046311866 0.09373593 0.058508664 -0.029159587 0.50699764 -0.022322768 -0.13271978 1.2338474
0.09557536 0.8967842 0.13912487 0.41792196 0.08897853 1.0485653 0.10899153 -0.6189057

network.layer2.bias f4 [256]
00000000: 4349 2c3d 721b 363d a0c8 4cbe 0397 a9bb
00000010: 7bfa c8bb d36b 1e3e b498 bb3d 368a 103e
00000020: 2788 003e a3ae 823d 44bd 813d 7a71 963d
00000030: d7b2 103e 8dfe fe3d ef76 bbbd c625 bc3d
00000040: 5347 1c3f 5b24 a7bb f141 0b3d 3e72 19bd
00000050: 5a65 3ebc f152 fa3d 3c05 47bd f4c6 ea3d
00000060: fd3f 973d 8554 7f3b dcdc 9bbd b77d 1b3e
00000070: f44a 91bd e46b e33c 9c80 a8bd 2e9b 763d
00000080: eb4e 0dbd 98da 44bd 1648 0d3d b395 1abe
00000090: 921f ef3d e709 8f3d e65a a33d d939 e23d
000000a0: 5a4e 283d 1fc3 aa3d b6f5 bc3a e125 a43e
000000b0: a2a1 f53d e9ea 96be 24ed e4bc b475 333e
000000c0: 8f94 113e 4922 db3d 7ac7 7f3d 202c 8bbd
000000d0: ce7f 3a3d 730d d53d d285 8e3d 2f96 9f3d
000000e0: 963a a83d 7bea 773e f613 8c3d 817b 14bc
000000f0: a5b2 533e 47da 113e 87c0 80bc 5be6 6b3e
00000100: 6ce1 ac3d bdef 883e 3619 103c 9eb9 07bd
00000110: cfa8 ccbc 295c 9b3d 51d1 293d 248d d6bd
00000120: aa70 a43e 6f38 d13c 5445 cb3e 93e2 4939
00000130: 8edd ae3c 9093 873c 1d40 3d3e 5ce6 c53d
00000140: 2d59 733d f560 e23d d9b2 a43e 833b 0a3e
00000150: 1ad5 c1bc d801 6bbd 0dc9 143e 383c 74bd
00000160: b3a9 8fbd 806b ba3e 7d02 843d 33f4 473d
00000170: 1827 ab3e 9736 0fbe dc10 ca3d 6f5d 96bd
00000180: fda1 84bd 31a6 bd3e c396 053d abbc 423d
00000190: 91d5 f03d 6182 963c 4596 d53d 7f23 673c
000001a0: c5c3 333d 07e2 d1bd 875b aa3d de84 053e
000001b0: c5db 113e 7395 893e ccdc 7ebd 363b 3bbd
000001c0: a9fd da3d 5877 363e 759f dd3d 16db 713e
000001d0: feb4 2c3e 893b 00be 5c3d 3c3d db9c 1d3e
000001e0: d4ac 1a3e 181f 143e 6b7c ac3d 20fa d23c
000001f0: 7382 c3bc 803f 723e 3bac c63c 6127 13bd
00000200: 4800 873d 3a1c b2bd daf1 2d3d e9cf aa3e
00000210: 43ca b6bd e35d 3b3d 3999 c93d 5dcc a83d
00000220: 3029 aebc 83fc 233e 928b 183c 7842 c93c
00000230: 2366 853e 4ec3 e83d a858 f5bd c063 10bd
00000240: 090a cf3d 51cb a1bd d0fc b3bd 9f8f 47bd
00000250: ff80 e93c 8fba 94bd 25de 923d 551f 1f3e
00000260: 816a 123d 9f6f 2b3d 83f8 753d 584a fcbb
00000270: 0fbc 613d f4a7 413e da85 2f3d 1cfa 8a3d
00000280: 4548 1e3d 85ad 863d c5b2 ef3e 1e17 8b3e
00000290: 9b12 2ebe d027 66be 5702 2abd 5583 a7bc
000002a0: 3152 063e fa1b fb3d da0b ae3e ba59 d2bc
000002b0: 21c5 823d 36b8 68bd 10aa b43c edab 3dbe
000002c0: 8cef f23c bd1b b83d 620c 8f3d cde5 343d
000002d0: fa64 4fbd 4b09 673a 5c13 2a3e 162d 053d
000002e0: 7265 303e 7f32 133e 6678 373e 84ba 9ebd
000002f0: b0dc 283e d61f 1fbd fde1 ed3c abf6 2d3e
00000300: 1e29 6e3d 7b02 753b d8df 023e 1375 d83e
00000310: 0ef1 1f3e a518 89bd 18fd b4bd 9e2a 293e
00000320: 87ae 1e3e 68fb 8f3d d121 8a3d c740 a43b
00000330: bc4f 663e 2fad 493d 2aaa 093e 6995 243d
00000340: 3742 213c c9de 913c 3c76 d03e c809 5a3d
00000350: 744e a53d 7d5b 353e 6f31 6f3e 3ad6 863e
00000360: 6e8e 3f3e dfb6 e73d 8f84 293d d02e e83d
00000370: ffe2 2e3e 0fa8 043d 2d0b 813d 072c 373e
00000380: d9de bd3d 060a 22bd fa8f 7b3e 1b09 6e3d
00000390: 1d82 6c3e 9a8e 52be da09 5ebe 942b acbd
000003a0: f8b3 9b3d 825c 423e 2eed 97bb e488 813d
000003b0: 61c3 d33c 7fd9 aebd 615d 7d3d 6ff8 de3d
000003c0: da1b c6bc a8ef 8bbc 8761 a53d dae0 42bb
000003d0: a91c bf3c ecd7 aebd 2f2f a83d 888f 873e
000003e0: 0ea8 a5bd 822a cbbd 3de8 963d dcc2 b43e
000003f0: de91 883d f06d a9bd 6409 713e feff 1b3e
0.042062055 0.044459768 -0.19998407 -0.0051754727 -0.006133375 0.15470819 0.09159985 0.14115223
0.12551938 0.063809656 0.06334928 0.07345863 0.14130722 0.124508955 -0.09153544 0.09186892
0.6104633 -0.0051007695 0.033998434 -0.037462465 -0.011620844 0.12222851 -0.048588976 0.114637285
0.07385252 0.003896029 -0.07610485 0.15184675 -0.07094374 0.027761407 -0.08227655 0.060206585
-0.03449909 -0.04806003 0.034492575 -0.15096168 0.116759434 0.069843106 0.07976322 0.1104619
0.041090347 0.08337998 0.0014416489 0.3206015 0.1199372 -0.29476097 -0.027945109 0.17525369
0.14216827 0.10699899 0.062446095 -0.067955256 0.04553204 0.10402956 0.06959118 0.07792317
0.082142994 0.24210541 0.06839745 -0.009062649 0.20673616 0.14243422 -0.015716804 0.23037092
0.08441433 0.26745406 0.008795073 -0.033136003 -0.024982838 0.075859375 0.041459385 -0.10476139
0.32117206 0.025539605 0.3970133 0.00019253259 0.02134588 0.016549855 0.18481489 0.09663078
0.059411217 0.11053649 0.321677 0.13499264 -0.023661185 -0.057374805 0.1452982 -0.05962774
-0.070147894 0.3641014 0.06445787 0.04881687 0.33428264 -0.13985668 0.09866497 -0.0734204
-0.06476209 0.37040856 0.03261448 0.04754321 0.117594846 0.018372716 0.10429052 0.014107584
0.043887872 -0.102481894 0.08318239 0.13038966 0.14243992 0.26871833 -0.062222287 -0.045710765
0.10692913 0.17818964 0.1082143 0.23618731 0.16865918 -0.12522711 0.045956954 0.15391867
0.15104991 0.14464986 0.08422168 0.025754035 -0.023865914 0.23657036 0.024252048 -0.035926227
0.065918505 -0.0869679 0.042466976 0.33361748 -0.08925297 0.045743834 0.09843678 0.08242104
-0.021259874 0.16014294 0.00931062 0.024567828 0.26054487 0.113653764 -0.119798005 -0.03525138
0.10109336 -0.07900108 -0.087884545 -0.048720952 0.028503893 -0.07262146 0.07171277 0.15539296
0.0357461 0.041854497 0.060051452 -0.007699292 0.055110987 0.18911725 0.04285226 0.06785986
0.03864314 0.06576065 0.46816078 0.27166075 -0.16999285 -0.22476125 -0.041506138 -0.020448366
0.13117291 0.122611955 0.33993417 -0.02567755 0.063852556 -0.056816302 0.022053748 -0.18522616
0.02965524 0.08989666 0.06984784 0.044164468 -0.050633408 0.00088133354 0.16608948 0.0325137
0.17226198 0.14374731 0.17917022 -0.07750419 0.16490436 -0.03884872 0.029038424 0.16988628
0.05814468 0.0037385512 0.12780702 0.4227682 0.15619299 -0.06694154 -0.08837336 0.16520163
0.15496264 0.07030374 0.06744731 0.005012605 0.22491354 0.049237426 0.13443819 0.04018155
0.009842447 0.017806428 0.40715206 0.053231984 0.08071604 0.17710681 0.23358701 0.26335317
0.18706676 0.11314177 0.041386183 0.11337054 0.1707878 0.032386836 0.0630096 0.17887889
0.092710204 -0.03956034 0.24566641 0.058114152 0.2309651 -0.2056221 -0.21683446 -0.08406749
0.07602686 0.18980601 -0.0046364283 0.06324938 0.02585 -0.08537578 0.06185663 0.10887229
-0.024183203 -0.01708205 0.080752425 -0.0029736073 0.023329096 -0.085372776 0.082121246 0.26476693
-0.080886945 -0.09920217 0.07368515 0.35304916 0.06668447 -0.08272922 0.23538738 0.15234372

network.layer4.weight f4 [26, 256]
00000000: 503f 0d3d 8a17 383e 3acb f83d cd22 293e
00000010: 4af6 2d3d e176 0f3d 14c2 463e eca7 003e
00000020: 9131 3d3e e45d 1a3e 764b 1d3e 7737 033e
00000030: 797d 453e 4c3b 4f3e 16af 213e c9c2 ed3d
00000040: 2a0a 3d3e 0a37 6f3d 8cba 6639 8973 3b3e
00000050: 3ae7 343e 1542 b53d 3c53 543d b014 583e
00000060: 9030 483d d315 7a3b 3a1c 443e 82c3 013e
00000070: e5e2 1c3e 817b 513d 866a 143e 30b0 f13c
00000080: 08f0 5abd 9046 b63b 4ce3 16bd f3dd 9c3e
00000090: 2143 8f3d acf5 793d 5c71 ba3d 259d 2d3e
000000a0: 1555 d7bc dc24 4b3e 7686 3e3e 287a e13e
000000b0: e86c 003e 1f69 b43e 86d8 00bd 09eb 213e
000000c0: 8329 583e 6f01 283e a110 263f b026 3cbd
000000d0: c23e 043e 6387 183f fa67 df3d 3ed9 453d
000000e0: a66c 2f3e 9200 e4bc d848 6dbc 9fac ba3d
000000f0: a8b8 66bd c940 fc3d 26c5 5fbd 1a64 703d
00000100: 7be2 ec3d f08d 203f f0ef a63d 4fc1 023e
00000110: 88a8 de3c acf9 b6bc 426c 123d d975 523e
00000120: cd12 3c3f 0054 73bb 3d03 103d 1248 313d
00000130: 8594 5a3e dc04 7b3d dbf6 aa3c 7db8 533e
00000140: c029 d53e f91c 04be 98c5 b93e cf6b 453e
00000150: 10ca b3bb 4fce 413e be8b 053e 35d1 a83d
00000160: 23a9 77bd 0552 3e3f d646 4e3e 6021 eb3e
00000170: 87fb d63e 6c79 023e a44a d73d 88d3 563e
00000180: 3e42 d23d 924f e03d 782e 3a3e ab95 4f3e
00000190: 0368 d33e 62db 413d ba01 353e bcfa 3f3e
000001a0: e2a2 413d 57b7 7f3e 58a9 843d f6d2 af3d
000001b0: 398f a83d bc2d 563e 8ccb b9bc e41f f63d
000001c0: 1ccf 143e 8a27 1e3e 6f39 053e 0537 a13d
000001d0: 13a6 a43c cab0 aa3e 7047 20bc 3a4d 0c3c
000001e0: 6e32 243e 56dc 0e3e 90ca ecbb c83d 2e3e
000001f0: da3b 713e 9a96 143f 6112 223f 6626 32bd
00000200: b40e 193c d9c0 b93e 18da 69bd 2221 9c3e
00000210: ec3b cabc 92e3 333c 8cd7 453e 2c9e 4d3e
00000220: c6dc 123e 694e 303e 5b62 363e 6fc3 223e
00000230: c28b 1f3f dcec 213e 399c 513e 0ba8 333d
00000240: 5e65 b03d ea17 17bd 1c2e 6a3e 3eb8 683d
00000250: 54a5 083e 0834 05bd be83 463d 0e96 3b3e
00000260: 5e9c 7a3d f8f8 113c 5b9c 513e 2094 26bc
00000270: 641d f13c 400b da3d 4030 d9ba 72e4 44bd
00000280: 386e 0d3e 4fad 763e d75e 2e3e 0e9c e23e
00000290: 3ec0 413e 4d0c 333e 78f3 3d3e 9ccf eb3d
000002a0: f392 4d3e 82da 753e b625 b93e eac0 6f3d
000002b0: fa3c 083e 9688 6fbd ef4e e83d 8733 1c3e
000002c0: 7a3e dbbb a3d2 083e b623 fc3c 9140 333e
000002d0: 21e7 0ebc 6c73 e23c 58f7 823e d1e3 cd3d
000002e0: 0083 253e 92e3 b63d c2b8 0e3e 3a3a 493d
000002f0: b352 ed3d c041 253e e798 163e 1124 ec3d
00000300: 2474 b9bd 2f93 cb3d 2c21 b13d b7b2 9f3e
00000310: 73dd 073e 30fc df3d e07f cd3c 6bb7 813d
00000320: c3bb 443e 3018 2c3e 64e0 9b3c 5ac1 093e
00000330: 7fe0 4b3e e14e 233e 81c5 203e f5a5 db3e
00000340: 3000 febb 2c20 213d 56e1 043f e8e5 0bbc
00000350: fa8e eb3d 75f0 793e 8c80 d53d e52e c43e
00000360: ebaf c33d 9e13 833d fe7e 023e 2c8b 183e
00000370: 298a 9b3d 7293 573d fc5e 603d d37c 403e
00000380: 83e3 543e 88e2 113c dd54 0abe 3508 453e
00000390: 2b63 233e 1357 f33d 3d91 463e 419c 463e
000003a0: 4faf 133e f486 0e3e 8752 4f3e e2e9 d73d
000003b0: 6cad 1a3d 10d9 673d 108e 6d3c 8602 1a3e
000003c0: 9057 073c bd4f 1d3e 490f 9b3e be6b 61bd
000003d0: f012 adbc 8096 363c e3bb 9b3d 6ec1 853d
000003e0: 405b 183d c639 473e 3e4e c03d 87b8 433e
000003f0: b45f a7bc 1bdc ba3c 2acc 0c3f e45a 723e
0.034484208 0.1797773 0.121481374 0.16517182 0.042471208 0.03502548 0.19409972 0.12564057
0.1847594 0.15074879 0.15360817 0.12814127 0.19286145 0.20237464 0.15789446 0.11609418
0.18460909 0.0584021 0.00022004003 0.18305792 0.17666331 0.08850495 0.05183719 0.21101642
0.048874438 0.003815998 0.19151393 0.12672237 0.15320928 0.051143173 0.1449376 0.029502958
-0.053451568 0.005562611 -0.03683786 0.30638084 0.06995226 0.061025307 0.09103653 0.16954477
-0.026285687 0.1983828 0.1860598 0.4403851 0.12541544 0.3523645 -0.031456493 0.15812315
0.21109585 0.16406797 0.64869124 -0.045935333 0.12914565 0.59581584 0.10908504 0.04830288
0.1713129 -0.027832303 -0.014482699 0.09114956 -0.056328446 0.12317044 -0.054631375 0.058689214
0.11566635 0.6271658 0.08151233 0.12769054 0.027179971 -0.02233585 0.035747774 0.20552768
0.7346619 -0.0037128925 0.03515934 0.043281622 0.21345718 0.06128393 0.020869663 0.20675845
0.41633415 -0.12901677 0.36283565 0.19279407 -0.005486734 0.18926357 0.13041589 0.08243028
-0.060464036 0.743439 0.2014421 0.459239 0.41988775 0.12741631 0.105122834 0.2097913
0.10266541 0.10952677 0.18181789 0.20271938 0.41290292 0.04732836 0.1767644 0.18747991
0.047274478 0.24972282 0.06477612 0.085851595 0.082304426 0.20915884 -0.022680067 0.120178014
0.14532131 0.1544477 0.1301019 0.07871822 0.020098722 0.33338004 -0.009782657 0.008563334
0.16034862 0.13951239 -0.007226296 0.17015755 0.23557988 0.580423 0.63309294 -0.04349365
0.009341884 0.36279944 -0.057092756 0.30494028 -0.024686776 0.01097955 0.19320506 0.20079869
0.14342031 0.17217411 0.17810957 0.15894864 0.6232263 0.15813011 0.2046975 0.04386143
0.08613084 -0.03688804 0.22869152 0.056816332 0.13344318 -0.032520324 0.048465483 0.1831896
0.06118428 0.008909456 0.20469801 -0.010167152 0.02943296 0.10646677 -0.0016570166 -0.048069425
0.13811576 0.2408955 0.17028366 0.44259685 0.18920991 0.17485161 0.18549907 0.11514208
0.20075588 0.24009135 0.36161584 0.058533587 0.1330451 -0.058479868 0.113431804 0.15254031
-0.0066907974 0.13361602 0.030778747 0.17505099 -0.008722098 0.027642928 0.25579333 0.10053218
0.16163254 0.08930124 0.13937667 0.049127795 0.11588039 0.16138363 0.14706765 0.115303166
-0.09055355 0.099401824 0.08648905 0.31191036 0.1326807 0.10936773 0.02508539 0.06333812
0.1921225 0.16806102 0.019027896 0.13452664 0.19909857 0.15948059 0.15700342 0.42900053
-0.007751487 0.039337322 0.51906335 -0.008538701 0.1150188 0.24408133 0.10424909 0.38317028
0.09555038 0.06400226 0.12743756 0.1489684 0.07594711 0.05263085 0.054778084 0.18797617
0.20789914 0.008904107 -0.13508935 0.19241412 0.15955798 0.118818425 0.19391342 0.19395544
0.14422344 0.13918668 0.20246325 0.105426565 0.037763044 0.05660349 0.014499202 0.15040025
0.008260623 0.15362449 0.302851 -0.05503439 -0.021127194 0.01114428 0.07604196 0.065310344
0.037196398 0.19455633 0.093899235 0.1911336 -0.020431377 0.022810033 0.5499903 0.23667485

network.layer4.bias f4 [26]
00000000: 5153 7fbd 24ab 8b3d d5a0 603f aa8a 3abe
00000010: 15c4 ddbd 1345 463e c67e c8bd 1d49 3cbe
00000020: 52a1 ab3d 3123 9bbe 4e93 873d 569e f23e
00000030: 07b0 00bf b9bf dc3e fd76 eabe 3666 f73d
00000040: 6bba 0d3e b5ad 29be 09c1 63bd 36fb 673e
00000050: 23a0 8cbe a967 1a3e 6498 543e ab99 9cbe
00000060: 28c0 783d fae7 933d
-0.062335316 0.06819752 0.8774541 -0.18216959 -0.10828415 0.19362287 -0.09789805 -0.18387266
0.08380379 -0.30300286 0.06619893 0.47386426 -0.50268596 0.43115023 -0.45793906 0.12080042
0.13840644 -0.1657017 -0.055604015 0.22654423 -0.27465925 0.15078606 0.20761257 -0.3058599
0.06073013 0.072219804
