DDQN_panda_env1/runs/results_4/last-model.pt (torch, 162903 bytes, 6 tensors)

network.layer1.weight f4 [128, 3]
-1.2479566 0.32211083 0.57983524 -0.6826844 -0.34201762 0.35618377 1.5787164 -0.27449724
-0.17376776 -0.27155697 -0.75949085 0.13576086 -0.36395547 0.5076562 -0.56086 -0.89919454
-0.61867535 0.16198355 -0.47055972 0.49582234 -0.6291319 -0.2219879 -0.7116222 -0.37742186
0.16838297 0.86021715 -0.07600815 -0.28027588 -0.38951874 0.18708451 -0.9106179 -0.50585145
0.04458627 -0.801648 -0.60061175 -0.6690971 1.1880898 -0.035340596 -0.26438302 -0.20171171
0.63258123 0.69822526 -0.1825828 0.16414958 -0.6036467 -0.39811203 0.34877077 0.23603344
-1.2693743 -0.5711023 -0.38436562 0.24508844 0.27666545 0.32057875 -0.90091735 -0.58714277
0.053264648 -0.8487012 -0.6395075 0.14508234 -0.7229763 0.07281073 -0.4579477 0.15626612
0.673496 -0.024536803 -0.84545743 -0.117214456 0.44886532 -0.065433756 0.31738767 0.23154555
0.045349814 0.4218503 -0.6319895 1.2856692 -0.0070141302 -0.32377386 -0.86469996 0.06645603
0.4171092 -0.9683976 -0.73194546 0.18399195 -0.70958954 -0.7207718 -0.06193631 -0.30148312
0.69603306 -0.50230485 0.12892587 1.1121148 0.13563585 -0.35813886 -0.12097665 0.39922825
-0.49646357 -0.18250167 0.36495686 -0.8214033 -0.40707603 0.31043476 -0.76187694 -0.55828285
-0.42559707 -0.81161606 -0.11781047 0.43097767 -1.2019753 0.1989587 0.57559156 -0.24011026
-0.056987517 0.6095882 0.0005698059 0.54769623 -0.18146822 0.39600062 0.8803404 0.59141403
-0.7489126 -0.34239247 0.2710587 -0.0030684995 0.74891376 -0.15776694 -1.2389396 -0.019277433
0.24073602 -0.7554691 -0.21039563 0.4223752 1.5091709 -0.13243291 -0.29489425 -0.84062856
-0.19388247 0.5127959 -0.5474287 -0.35264328 0.24871515 -0.64457136 -0.06865675 0.6710834
-0.36259854 0.35902286 -0.99170214 -0.2304749 -0.5499766 0.49395204 0.04403724 0.3195802
0.46790412 1.5574359 -0.5636221 -0.5777933 -0.60004294 -0.50604945 0.22568968 0.25314787
0.42185318 0.2918255 -0.61159503 -0.32002524 -0.31127784 -0.8348947 -0.13653736 0.24268782
-0.7414191 -0.7286895 0.3040192 -0.79283154 0.007442749 -0.4808497 -0.80329895 -0.25010148
0.5017084 -1.1211251 -0.27738255 -0.40401343 0.07131609 0.69309 -0.05009626 -0.6096498
-0.22334862 -0.10941691 -0.0039666616 0.6080312 -0.013872037 0.16692947 0.87479436 -0.005653777
-0.91526777 -0.670007 0.44855356 -0.14378013 -0.5018474 0.63592863 -0.04561738 0.52054685
-0.15876493 -0.7841656 -0.07742468 0.5391093 0.1102302 0.7284638 0.404454 -0.12796
0.34555227 0.716936 -0.43426725 -0.42736414 0.46342298 -0.93954504 -0.29123026 -0.428276
-1.0733864 -0.6652301 0.43096685 -1.1594528 -0.014638728 0.7626184 -0.6179271 -0.6714969
0.5341076 -0.055645734 0.36932603 -0.42311704 0.26936924 -0.22231255 -0.36691356 -0.4525044
0.38045135 0.5148531 -0.3868711 0.3931547 -0.2272032 -0.54757905 -0.009166943 0.5135809
-0.084545255 -0.62134427 0.3332101 0.050962895 -0.30435923 0.6562872 -0.02646529 -0.5668765
0.78269756 -1.0324451 -0.5391037 0.10622265 0.38076007 0.3033516 0.48862708 0.26696754
00000000: 0bbd 9fbf b6eb a43e 1570 143f 68c4 2ebf
00000010: ef1c afbe b85d b63e 6113 ca3f e78a 8cbe
00000020: 2df0 31be 8409 8bbe fe6d 42bf e504 0b3e
00000030: 5f58 babe c2f5 013f 8594 0fbf 9d31 66bf
00000040: 8261 1ebf 04df 253e 34ed f0be 6ddc fd3e
00000050: ca0e 21bf cc50 63be df2c 36bf 703d c1be
00000060: 966c 2c3e 3137 5c3f 29aa 9bbd 5280 8fbe
00000070: 006f c7be 1593 3f3e 411e 69bf 7b7f 01bf
00000080: 18a0 363d ce38 4dbf b1c1 19bf f349 2bbf
00000090: 5413 983f 4dc1 10bd 365d 87be 848d 4ebe
000000a0: d8f0 213f e4be 323f fcf6 3abe d416 283e
000000b0: 9788 1abf 57d5 cbbe 1592 b23e c0b2 713e
000000c0: db7a a2bf c333 12bf 92cb c4be 77f8 7a3e
000000d0: 18a7 8d3e e622 a43e 85a2 66bf fd4e 16bf
000000e0: 082c 5a3d 7b44 59bf c3b6 23bf 7790 143e
000000f0: fa14 39bf cb1d 953d 1f78 eabe 3a04 203e
00000100: 3c6a 2c3f 6801 c9bc e66f 58bf 220e f0bd
00000110: add1 e53e 2202 86bd a380 a23e 471a 6d3e
00000120: bac0 393d c3fc d73e 10ca 21bf cf90 a43f
00000130: cad6 e5bb b0c5 a5be fa5c 5dbf 191a 883d
00000140: 568f d53e e8e8 77bf c760 3bbf 6368 3c3e
00000150: a9a7 35bf 8084 38bf eeb0 7dbd ff5b 9abe
00000160: 392f 323f 0d97 00bf 2505 043e c759 8e3f
00000170: 20e4 0a3e fa5d b7be 9bc2 f7bd a567 cc3e
00000180: 7930 febe b8e1 3abe a0db ba3e 7d47 52bf
00000190: 456c d0be 4ef1 9e3e 5e0a 43bf a0eb 0ebf
000001a0: dce7 d9be 12c6 4fbf 9e46 f1bd 1ba9 dc3e
000001b0: 54da 99bf d4bb 4b3e f859 133f 77df 75be
000001c0: be6b 69bd f90d 1c3f 075f 153a d235 0c3f
000001d0: ced2 39be 98c0 ca3e fd5d 613f e966 173f
000001e0: bcb8 3fbf 114e afbe 35c8 8a3e e118 49bb
000001f0: d0b8 3f3f a88d 21be 9395 9ebf b5eb 9dbc
00000200: 8183 763e 6c66 41bf f471 57be 9041 d83e
00000210: 832c c13f 7e9c 07be 61fc 96be 6f33 57bf
00000220: 2089 46be 9846 033f 4a24 0cbf a98d b4be
00000230: 2faf 7e3e a102 25bf e99b 8cbd 1fcc 2b3f
00000240: 84a6 b9be d8d1 b73e 31e0 7dbf 9d01 6cbe
00000250: 44cb 0cbf 48e7 fc3e 6560 343d 04a0 a33e
00000260: 2191 ef3e 0f5a c73f 8a49 10bf 43ea 13bf
00000270: 6a9c 19bf 758c 01bf 321b 673e 999c 813e
00000280: 24fd d73e 276a 953e 7e91 1cbf 59da a3be
00000290: cf5f 9fbe a9bb 55bf 73d0 0bbe 2883 783e
000002a0: a4cd 3dbf 658b 3abf 68a8 9b3e 02f7 4abf
000002b0: 4ee2 f33b ef31 f6be 00a5 4dbf 4d0d 80be
000002c0: f66f 003f 0781 8fbf 1605 8ebe d9da cebe
000002d0: 2c0e 923d 596e 313f bc31 4dbd 0212 1cbf
000002e0: 80b5 64be f915 e0bd c5fa 81bb efa7 1b3f
000002f0: 8a47 63bc 8fef 2a3e 86f2 5f3f 5243 b9bb
00000300: fd4e 6abf 9485 2bbf d0a8 e53e 193b 13be
00000310: 1279 00bf 38cc 223f 4ad9 3abd 8f42 053f
00000320: 4693 22be 14bf 48bf d590 9ebd 1103 0a3f
00000330: 5fc0 e13d 9b7c 3a3f 9814 cf3e f207 03be
00000340: 3aec b03e 1e89 373f 4758 debe 79cf dabe
00000350: c745 ed3e 0686 70bf 221c 95be fe46 dbbe
00000360: ba64 89bf 854c 2abf b0a7 dc3e f368 94bf
00000370: 47d7 6fbc f63a 433f 7830 1ebf 39e7 2bbf
00000380: 47bb 083f c8ec 63bd 4d18 bd3e cca2 d8be
00000390: c4ea 893e e7a5 63be 18dc bbbe a8ae e7be
000003a0: 85ca c23e 6acd 033f f813 c6be 934b c93e
000003b0: f5a7 68be 242e 0cbf f230 16bc 0a7a 033f
000003c0: 1026 adbd 6b10 1fbf 849a aa3e 78be 503d
000003d0: f9d4 9bbe 7002 283f bccd d8bc d11e 11bf
000003e0: de5e 483f 2927 84bf b302 0abf 438b d93d
000003f0: fcf2 c23e e750 9b3e 542d fa3e f8af 883e

network.layer1.bias f4 [128]
0.8798865 0.11872881 0.6075707 0.16511373 -0.4637318 0.747849 -0.020862227 0.8260864
0.4603767 0.78244656 0.9523096 0.6661223 0.5229461 0.69508314 -0.1898804 0.6874866
-0.7905607 0.21867251 0.8069205 0.7043065 0.5513044 1.0808468 0.2649283 0.6533848
-0.05138746 0.7000645 0.3160853 0.72019935 0.4316325 -0.4282173 -0.222355 -0.49156192
-0.0040479223 0.15972416 -0.45828828 0.10263015 0.70880085 0.087168545 0.38489348 0.021316124
0.346033 0.9832908 0.82013637 -0.043042645 0.6760046 0.015538843 0.7718959 -0.27148768
0.36549872 -0.16047998 0.21848865 -0.0032643385 -0.6349158 0.32449934 1.1660906 0.41770682
0.5203431 0.35921416 -0.14153698 -0.22958894 0.87594 0.91330326 0.8089175 0.988119
0.72468793 0.0063206917 0.85852987 -0.117376566 0.9776835 0.046505082 0.6696252 -0.53180736
0.46801043 0.022684257 -0.068953305 0.73353314 -0.18316543 0.19879445 -0.15633512 0.022816086
-0.42785332 0.5885078 0.61903226 0.9657319 0.14032201 0.47280705 0.20017742 0.49305126
-0.25557387 0.6497677 0.93643564 -0.02223621 0.66507196 -0.03322874 -0.38976082 0.28363544
0.78611976 0.88064927 0.07176063 0.8029956 -0.16842073 0.7899068 -0.049084365 0.9347681
0.4043624 0.63696253 0.6609874 0.047365442 0.5185525 0.08495052 -0.21762678 -0.023703739
0.9840123 -0.23816605 0.1678115 0.045991287 0.26007485 -0.30116448 0.5937015 0.8732593
0.7794316 0.8671739 0.68810135 0.27207276 0.15266931 -0.35644534 0.5073139 -0.28221518
00000000: 3e40 613f 1728 f33d c189 1b3f 9313 293e
00000010: 416e edbe 0873 3f3f 43e7 aabc 667a 533f
00000020: 7fb6 eb3e 6b4e 483f 90ca 733f fe86 2a3f
00000030: ccdf 053f f8f0 313f 0270 42be 1fff 2f3f
00000040: 3062 4abf b0eb 5f3e 5892 4e3f 6e4d 343f
00000050: 4922 0d3f 3059 8a3f afa4 873e 3a44 273f
00000060: a87b 52bd 6d37 333f efd5 a13e fc5e 383f
00000070: effe dc3e 4c3f dbbe 07b1 63be 01ae fbbe
00000080: 6fa4 84bb bb8e 233e c3a4 eabe c22f d23d
00000090: f973 353f 6c85 b23d c210 c53e 279f ae3c
000000a0: 3d2b b13e f2b8 7b3f 75f4 513f 7c4d 30bd
000000b0: a30e 2d3f a296 7e3c f89a 453f 6f00 8bbe
000000c0: a622 bb3e dd54 24be 7dbb 5f3e 83ee 55bb
000000d0: d889 22bf c724 a63e 7542 953f abdd d53e
000000e0: 3535 053f ebea b73e 12ef 10be 5d19 6bbe
000000f0: 9b3d 603f 3ece 693f 3815 4f3f 5ef5 7c3f
00000100: 2685 393f ce1d cf3b 9dc8 5b3f 2063 f0bd
00000110: 7749 7a3f 1d7c 3e3d 8f6c 2b3f 8724 08bf
00000120: 109f ef3e 56d4 b93c 6437 8dbd d4c8 3b3f
00000130: b88f 3bbe c690 4b3e 5016 20be cde8 ba3c
00000140: 970f dbbe 72a8 163f e678 1e3f 353a 773f
00000150: 93b0 0f3e c413 f23e 4ffb 4c3e 3771 fc3e
00000160: 94da 82be 2d57 263f 3fba 6f3f b628 b6bc
00000170: 2842 2a3f dc1a 08bd bb8e c7be aa38 913e
00000180: 253f 493f 3b72 613f 3df7 923d 1f91 4d3f
00000190: 7c76 2cbe 5537 4a3f b00c 49bd f64c 6f3f
000001a0: 9708 cf3e fa0f 233f 7836 293f 4402 423d
000001b0: dbbf 043f 8afa ad3d 8ed9 5ebe 582e c2bc
000001c0: 3be8 7b3f cde1 73be c7d6 2b3e 5c61 3c3d
000001d0: 8828 853e 3b32 9abe d2fc 173f ec8d 5f3f
000001e0: d488 473f 1cff 5d3f 6927 303f 1f4d 8b3e
000001f0: 5855 1c3e 0180 b6be 53df 013f 827e 90be

network.layer2.weight f4 [256, 128]
0.36881462 0.35559836 -0.5908722 0.1470635 -0.11885722 0.13009271 0.06447437 0.11087365
0.7576827 0.060435098 0.23407912 0.3704999 -0.66401136 0.36693448 -0.06458238 0.4685167
0.832935 0.51931834 0.2305217 0.25019085 1.1141589 1.3933252 0.10197728 0.47485894
-0.09625904 -0.5776176 0.28525555 0.2597982 0.2884367 -0.10404145 0.56693685 0.080940075
-0.03678483 0.350909 0.43980566 0.26400352 0.2003723 0.052276596 1.0064436 0.26399428
0.21287423 1.1741939 0.4111384 0.14637306 -0.6136788 0.08068854 0.04415309 0.14777304
0.024436561 0.10007027 0.4632713 -0.87407875 -0.021591539 0.34785414 0.25708026 0.3202927
0.024452318 0.47424135 0.25875556 0.72889584 1.0399532 0.40274864 1.2538993 0.88815117
0.189075 -0.04332051 1.4958494 0.29813576 0.48746404 0.33739865 0.1303777 0.8015931
0.1370446 0.35354584 0.06494506 0.6364115 -0.38055277 0.28606468 -0.00018022236 0.13803563
0.067528106 0.06219944 -0.013083526 0.30451548 0.22931047 0.45473734 -0.032593623 0.23085117
0.21257807 0.02671307 0.070627324 0.4044781 0.2422415 0.095864564 0.6760551 0.08488809
0.1448222 1.0932848 -0.076939754 0.30289692 0.3555098 0.57130384 -0.013537932 0.96266687
0.1655469 0.42800528 0.5607914 0.073751256 0.53122467 -0.08023588 0.2890291 0.21751189
0.90575737 -0.92782485 0.020821849 0.09156401 0.07546803 -0.02437133 0.3009297 1.0444005
1.0068991 1.9950244 0.40722802 0.12995641 0.22947714 0.6628077 0.3182154 0.13176356
0.3570425 0.3660084 -0.64501435 0.12883864 0.08894188 0.2807811 -0.089215845 0.33463177
0.678929 0.05494117 0.2624109 0.41691512 -0.69312876 0.37596977 0.023045436 0.5633903
0.7060588 0.33728713 0.23291235 0.31987318 1.1396083 1.0088689 0.1563845 0.36048564
0.03407265 -0.6829893 0.46428555 0.2551367 0.19478577 0.08429664 0.2908988 0.104607254
0.07212112 0.20464484 0.44379875 0.30519658 0.41124737 0.05348664 0.7216616 0.3337611
0.25797543 1.0905156 0.41144487 0.47168642 -0.7925628 0.1535192 0.14248729 0.04104593
0.019787926 0.024708014 0.45196563 -1.0619234 0.008020437 0.2899741 0.28723705 0.2986339
0.15748559 0.52559906 0.22919676 0.6535645 0.7944558 0.35413533 0.85885584 0.7841766
0.046848003 -0.05327474 1.3370396 0.35251585 0.40324262 0.30109376 0.106457196 0.66135365
0.26703545 0.41487786 0.098809525 0.7616123 -0.44477418 0.3973168 -0.09203228 0.06942417
-0.04274977 -0.040933542 -0.062845886 0.3313137 0.16238397 0.41421 -0.018205523 0.22162458
0.31337273 0.1636157 0.1681928 0.30168468 0.33366913 0.16635174 0.46808898 0.14154185
0.26956585 1.1959773 0.08797877 0.29848316 0.24012342 0.57516295 0.048540235 0.9440944
0.19622731 0.23904024 0.3170169 0.46272588 0.44145983 0.1767232 0.22197431 0.2232531
1.0334284 -0.97246104 -0.00791174 -0.065574825 0.17256881 -0.05972375 0.24709873 0.95901537
0.7874178 1.8451431 0.56606454 0.12225045 0.19953796 0.42109162 0.32525486 0.0036140152
00000000: 45d5 bc3e fd10 b63e 6743 17bf d097 163e
00000010: 6a6b f3bd 0637 053e 230b 843d b911 e33d
00000020: 7ef7 413f cb8a 773d 70b2 6f3e 2ab2 bd3e
00000030: a6fc 29bf d6de bb3e c443 84bd 6ce1 ef3e
00000040: 3a3b 553f 0cf2 043f e10d 6c3e 0419 803e
00000050: c29c 8e3f 7b58 b23f 77d9 d03d b620 f33e
00000060: 7623 c5bd bfde 13bf 040d 923e 4504 853e
00000070: faad 933e af13 d5bd c622 113f e9c3 a53d
00000080: b1ab 16bd 58aa b33e 352e e13e 782b 873e
00000090: 652e 4d3e fc1f 563d 25d3 803f 422a 873e
000000a0: b4fb 593e fc4b 963f bb80 d23e d2e2 153e
000000b0: 0e1a 1dbf 0940 a53d dfd9 343d d151 173e
000000c0: 2f2f c83c a4f1 cc3d e531 ed3e a0c3 5fbf
000000d0: bde0 b0bc f019 b23e 06a0 833e 68fd a33e
000000e0: 3a50 c83c c3cf f23e 9c7b 843e eb98 3a3f
000000f0: 301d 853f 1235 ce3e c67f a03f e05d 633f
00000100: e09c 413e d970 31bd fe77 bf3f 40a5 983e
00000110: e394 f93e 84bf ac3e bb81 053e 3535 4d3f
00000120: 6b55 0c3e f603 b53e ea01 853d ddeb 223f
00000130: d0d7 c2be 1277 923e 12fa 3cb9 3659 0d3e
00000140: 2d4c 8a3d d7c4 7e3d 495c 56bc 74e9 9b3e
00000150: 5dd0 6a3e 55d3 e83e e480 05bd 4064 6c3e
00000160: 11ae 593e 5ed5 da3c 0fa5 903d c117 cf3e
00000170: 280e 783e a454 c43d f211 2d3f cfd9 ad3d
00000180: 454c 143e c2f0 8b3f 9792 9dbd 4e15 9b3e
00000190: 6105 b63e f840 123f 34ce 5dbc 5671 763f
000001a0: 2085 293e 8223 db3e 0690 0f3f e60a 973d
000001b0: 57fe 073f b652 a4bd 9ffb 933e 70bb 5e3e
000001c0: b7df 673f ee85 6dbf 9592 aa3c e985 bb3d
000001d0: fc8e 9a3d 62a6 c7bc 7513 9a3e eaae 853f
000001e0: 12e2 803f f65c ff3f 3180 d03e 4b13 053e
000001f0: 0efc 6a3e c4ad 293f 21ed a23e 07ed 063e
00000200: 46ce b63e 7465 bb3e a91f 25bf 47ee 033e
00000210: 2927 b63d 8ac2 8f3e ccb6 b6bd db54 ab3e
00000220: 4ace 2d3f fe09 613d b95a 863e e675 d53e
00000230: e370 31bf 1c7f c03e c8c9 bc3c 593a 103f
00000240: 45c0 343f e6b0 ac3e 9380 6e3e 6bc6 a33e
00000250: afde 913f 9e22 813f 4223 203e 9391 b83e
00000260: c38f 0b3d 63d8 2ebf d6b6 ed3e 47a1 823e
00000270: ec75 473e b7a3 ac3d b0f0 943e 543c d63d
00000280: 3db4 933d 6b8e 513e 9739 e33e ba42 9c3e
00000290: 048f d23e cf14 5b3d d1be 383f bce2 aa3e
000002a0: 5b15 843e 0496 8b3f e7a8 d23e e280 f13e
000002b0: 65e5 4abf 2334 1d3e 30e8 113e c71f 283d
000002c0: 4a1a a23c 7668 ca3c 0a68 e73e 1bed 87bf
000002d0: 2768 033c 7c77 943e bc10 933e 8be6 983e
000002e0: e743 213e a98d 063f 8eb2 6a3e 0150 273f
000002f0: 7561 4b3f 3a51 b53e fadd 5b3f ccbf 483f
00000300: b1e3 3f3d 9d36 5abd 1d24 ab3f f57c b43e
00000310: d175 ce3e f628 9a3e 3b06 da3d 794e 293f
00000320: dfb8 883e df6a d43e a65c ca3d 06f9 423f
00000330: 71b9 e3be 1c6d cb3e 6c7b bcbd 422e 8e3d
00000340: 621a 2fbd eea9 27bd 58b5 80bd f3a1 a93e
00000350: fc47 263e 5513 d43e c023 95bc 8ef1 623e
00000360: 6472 a03e e08a 273e bc3a 2c3e 6a76 9a3e
00000370: aed6 aa3e 1c58 2a3e 5ca9 ef3e 59f0 103e
00000380: 8904 8a3e c915 993f 372e b43d c9d2 983e
00000390: eae2 753e e13d 133f 20d2 463d 2cb0 713f
000003a0: d0ef 483e f7c6 743e 0a50 a23e 68ea ec3e
000003b0: 0607 e23e edf6 343e 3c4d 633e 769c 643e
000003c0: 6247 843f 35f3 78bf 3ea0 01bc 184c 86bd
000003d0: e1b5 303e e4a0 74bd 7307 7d3e 0882 753f
000003e0: 3794 493f a62d ec3f 9be9 103f 725e fa3d
000003f0: ae53 4c3e 5299 d73e ce87 a63e 1dd9 6c3b

network.layer2.bias f4 [256]
0.03553782 0.12263726 0.15016663 0.1803987 0.2976031 -0.075865485 0.098581925 0.032904677
0.034789417 0.11847875 -0.014234214 0.13577932 0.008591462 0.12762173 0.17611235 0.19543383
0.274369 0.15405369 -0.049741875 0.077534735 0.11544664 0.2761732 0.16378435 0.12951401
0.19334553 -0.012431015 0.14169572 0.08565486 0.28577557 0.06434208 -0.027783496 0.1900655
0.19765711 -0.038805064 -0.028128471 0.07448248 0.13453156 -0.08581157 0.11531896 0.03425805
0.13983452 0.27022916 0.011553304 0.14468065 0.16990635 0.17421444 -0.08832467 0.15412883
0.21278743 0.104930416 0.07137447 0.10885117 0.17855208 0.10175977 -0.063366584 0.06438705
0.2532579 -0.08114892 0.28243518 0.0831002 0.033163898 0.15859714 0.1720622 0.1129657
0.047483217 0.074768655 0.1630467 0.04693561 0.25714403 0.26861098 -0.16228932 0.12706378
0.042276643 0.09101891 -0.015903711 0.19322222 0.10807663 -0.0899818 0.20319489 0.06419939
-0.041620005 0.009901054 0.09865659 -0.07460487 0.046700444 0.091851234 0.053259563 0.09426316
-0.0152224945 -0.07256022 -0.06603338 0.08257655 0.19541961 -0.048209883 -0.03211208 -0.14107282
0.18667603 0.38178527 0.08741433 -0.0335239 0.1941467 -0.040536057 0.10494837 0.14909779
0.010571346 0.049292505 0.063159674 0.023311375 0.07988507 0.062645435 0.6026518 0.20737155
0.14557157 0.011453715 0.20211138 0.15745844 -0.019962223 0.17279592 0.0771505 0.15752105
0.068746075 0.13904618 0.049085986 0.33908355 0.13883466 0.14248802 0.25907615 0.23110841
0.09287211 0.09123131 0.034762032 0.180822 0.1562536 0.07328698 0.20257021 -0.08588002
0.027139872 0.12623787 0.084170125 0.3371618 0.10387824 0.06614101 0.24094222 0.18292816
0.061743546 0.26565015 0.15659772 -0.056208856 0.2716513 0.08568461 0.0445641 0.26137373
0.039299738 -0.014379456 0.036086455 0.11696145 0.121605426 0.038385473 0.12312411 0.02734041
0.08699405 0.19074962 0.04727771 0.1010986 0.092475966 0.06492028 -0.004745335 -0.023265736
0.2258165 0.010430579 0.23692712 0.109008126 -0.030838886 0.03904784 0.34637243 -0.053382132
0.078374386 0.07457203 0.01217138 0.022611361 0.027826082 0.10983902 0.29066432 0.16072391
0.0841779 -0.0042828387 0.14149836 0.08038118 0.16293538 0.15054937 0.23494808 0.06405708
0.3980028 0.21614987 0.090205185 0.09206129 0.008078568 0.12484161 0.30527663 0.30221987
0.17768171 0.13113579 0.21756276 0.01775383 0.10602177 0.124679744 0.3775001 0.17240511
0.10579588 0.1505645 0.18868607 0.033270743 -0.06658868 0.0946733 -0.014465865 0.28710622
-0.06348008 0.078120574 0.06833785 0.31820926 0.08232005 0.08055085 0.1893907 0.119516596
0.1809051 0.3203367 0.14182413 0.092392616 -0.04729398 0.0961328 -0.01460329 0.11065836
0.05277632 0.1342468 0.03143268 0.14839779 0.052591108 0.06384198 0.14432637 0.20340757
0.49783143 0.07891433 0.055610225 0.069397435 0.23065576 0.00729311 0.063691095 0.20816512
0.11462489 0.15011507 0.090830594 0.26262203 -0.047758095 0.19879828 0.2855422 0.10350947
00000000: 1b90 113d 3e29 fb3d 48c5 193e 70ba 383e
00000010: 6f5f 983e 5d5f 9bbd 52e5 c93d 0ec7 063d
00000020: 597f 0e3d fda4 f23d 9f36 69bc bc09 0b3e
00000030: 34c3 0c3c 45af 023e cc56 343e ce1f 483e
00000040: 187a 8c3e 40c0 1d3e 23be 4bbd 88ca 9e3d
00000050: 4a6f ec3d 9366 8d3e 16b7 273e 529f 043e
00000060: 5ffc 453e 75ab 4bbc af18 113e d16b af3d
00000070: 2d51 923e c8c5 833d 379a e3bc 88a0 423e
00000080: a066 4a3e 0ff2 1ebd ae6d e6bc 458a 983d
00000090: a4c2 093e fabd afbd 592c ec3d 2b52 0c3d
000000a0: c830 0f3e 7a5b 8a3e 124a 3d3c 2a27 143e
000000b0: eefb 2d3e 4565 323e 91e3 b4bd f3d3 1d3e
000000c0: f3e4 593e c2e5 d63d c72c 923d 5ded de3d
000000d0: 5bd6 363e 6d67 d03d 57c6 81bd 5cdd 833d
000000e0: 05ab 813e 6831 a6bd 589b 903e 7030 aa3d
000000f0: ded6 073d 4a67 223e 1331 303e 905a e73d
00000100: c37d 423d 4f20 993d b7f5 263e 8e3f 403d
00000110: 62a8 833e 6187 893e 2c2f 26be 021d 023e
00000120: 462a 2d3d 1f68 ba3d 8048 82bc 0cdc 453e
00000130: 4857 dd3d 6148 b8bd 5212 503e f87a 833d
00000140: bd79 2abd 0838 223c 770c ca3d 70ca 98bd
00000150: f748 3f3d 801c bc3d b326 5a3d 0b0d c13d
00000160: c567 79bc 749a 94bd 823c 87bd e51d a93d
00000170: 141c 483e ba77 45bd f587 03bd 6575 10be
00000180: 0028 3f3e 5c79 c33e 4906 b33d 5b50 09bd
00000190: 64ce 463e 2309 26bd 2cef d63d 17ad 183e
000001a0: 7033 2d3c f0e6 493d dc59 813d 7ff7 be3c
000001b0: c99a a33d 404c 803d 6347 1a3f 3559 543e
000001c0: b710 153e 5da8 3b3c 49f6 4e3e c93c 213e
000001d0: d187 a3bc 6af1 303e 1501 9e3d 334d 213e
000001e0: beca 8c3d 1f62 0e3e 630e 493d 5c9c ad3e
000001f0: ac2a 0e3e 61e8 113e a1a5 843e afa7 6c3e
00000200: bc33 be3d 7bd7 ba3d a262 0e3d 6729 393e
00000210: f200 203e 7c17 963d 916e 4f3e dde1 afbd
00000220: 7054 de3c 8044 013e 6361 ac3d 79a0 ac3e
00000230: 1dbe d43d f074 873d 8fb9 763e 8551 3b3e
00000240: cde6 7c3d 4c03 883e 275b 203e 423b 66bd
00000250: e115 8b3e 6a7b af3d d988 363d c7d2 853e
00000260: c3f8 203d cf97 6bbc 64cf 133d 7c89 ef3d
00000270: 440c f93d 163a 1d3d 7e28 fc3d fff8 df3c
00000280: f029 b23d de53 433e 46a6 413d c80c cf3d
00000290: 0a64 bd3d ecf4 843d c17e 9bbb c997 bebc
000002a0: 713c 673e 05e5 2a3c 069d 723e a73f df3d
000002b0: d5a1 fcbc a1f0 1f3d ba57 b13e 39a7 5abd
000002c0: c082 a03d 38b9 983d 786a 473c 763b b93c
000002d0: 86f3 e33c 48f3 e03d f4d1 943e cf94 243e
000002e0: 7665 ac3d 0e57 8cbb f2e4 103e e39e a43d
000002f0: 88d8 263e 9d29 1a3e 3b96 703e 5c30 833d
00000300: 06c7 cb3e 6456 5d3e 7fbd b83d a18a bc3d
00000310: f85b 043c f5ac ff3d 384d 9c3e 90bc 9a3e
00000320: 32f2 353e 7648 063e c6c8 5e3e 7b70 913c
00000330: f121 d93d 1858 ff3d b147 c13e f78a 303e
00000340: 83ab d83d 952d 1a3e ec36 413e e746 083d
00000350: a55f 88bd 13e4 c13d 3c02 6dbc 96ff 923e
00000360: d801 82bd aefd 9f3d b7f4 8b3d 53ec a23e
00000370: 6a97 a83d d8f7 a43d a3ef 413e 1ec5 f43d
00000380: 303f 393e 2c03 a43e 583a 113e 5738 bd3d
00000390: 55b7 41bd 46e1 c43d a342 6fbc daa0 e23d
000003a0: fc2b 583d fe77 093e 8ebf 003d 97f5 173e
000003b0: c669 573d 96bf 823d 4bca 133e 134a 503e
000003c0: c3e3 fe3e d69d a13d 8cc7 633d 3e20 8e3d
000003d0: 0631 6c3e 0afb ee3b 7a70 823d 3d29 553e
000003e0: 74c0 ea3d c4b7 193e 6405 ba3d 6576 863e
000003f0: fe9d 43bd c791 4b3e 9632 923e c6fc d33d

network.layer4.weight f4 [26, 256]
0.18821077 0.12255167 0.30236083 0.15628895 0.2714854 -0.018566098 0.09731466 0.02114498
-0.054079242 -0.00070448365 0.056385223 0.13746284 -0.05763028 0.3533087 0.09151698 0.35415286
0.14071387 0.18558839 0.036626603 0.18007065 0.07781031 0.053291578 0.16754141 0.1860659
0.12701379 0.042367287 -0.021671275 0.21845771 0.1772488 0.15124223 0.10039341 0.25181955
0.24544095 0.0058232634 0.17051172 0.14998056 0.065714955 -0.03623399 0.061287567 0.31611556
0.30034742 0.123229444 0.116545595 0.25991786 0.26580247 0.1157432 -0.015737899 0.29890966
0.108988605 0.10995008 0.12650764 0.080142826 0.08743004 0.043604765 -0.027554683 0.28933233
0.24207884 0.06552002 0.23215052 0.05239558 0.19640046 0.2367366 0.12774307 0.08651961
0.004301086 0.16907032 0.084057026 -0.062374905 0.05725842 0.3492322 0.1788021 0.11930286
0.058036637 0.27741548 0.068796344 0.09951017 0.062912546 0.20070702 0.09967653 0.19692262
0.08113685 0.10433394 0.20746194 0.058661737 0.1152146 0.13039175 0.33822343 0.020668115
0.05302457 -0.029597647 0.13351472 0.08557229 0.27219167 -0.021666087 0.0033112527 0.3462043
0.13582423 0.1534115 -0.03749785 -0.012933888 0.12487448 -0.03246136 0.25103194 0.22973418
-0.013852619 0.25199655 0.0548814 0.09655233 0.19702204 0.06274139 0.024273362 0.12619606
0.21794346 0.08086112 0.15984404 0.24144977 -0.006548837 0.09590389 0.10760745 0.32238913
0.114660956 0.20297647 0.04700114 0.14551316 0.07780677 0.20782723 0.2634086 0.25518668
0.0075707417 0.168513 0.039387617 0.21661879 0.16786474 0.12738474 0.09870616 -0.0102736205
0.03826727 0.2550184 0.13457315 0.2211191 0.1682795 0.20530248 0.09840276 0.12862284
0.25341147 0.09001028 0.042374533 -0.058566064 0.32343748 0.060193624 0.09689157 0.1845749
0.00314282 0.08700992 0.060357228 0.25615445 0.04668976 0.009908703 0.14417693 0.18761192
-0.09090198 0.13536596 0.04414229 0.11132367 0.19268167 0.07599564 0.18136537 -0.008054152
0.30308017 0.17453349 0.09076756 0.23419324 -0.0005075301 0.053375036 0.34915757 0.041757777
0.13039894 0.031977497 0.036976077 0.24678531 0.11820845 0.28756684 0.17261106 0.116623096
0.013091083 0.23840137 0.11454036 0.3909486 0.20851238 0.16295321 0.14074314 0.1760593
0.06935892 0.3930092 0.12745869 0.1852055 0.057469174 0.29123408 -0.046373323 0.12774287
0.17585953 0.10691172 0.31848294 0.15226759 0.11527779 0.11922706 0.47687843 0.08255448
0.16831973 0.14172171 0.08552992 0.20308864 0.05818039 0.40803275 0.28140163 0.28946674
0.0893306 0.020615183 0.30729723 0.12311947 0.11004729 0.22553301 0.23583417 0.23051989
0.18378596 0.36461803 0.3802123 0.29437703 0.017438062 0.31122637 0.18199667 0.11394067
-0.10482019 0.15942344 0.053423055 0.21552216 0.17844947 0.017674262 0.10871272 0.12464725
0.26668215 0.076791756 0.11239503 -0.010925889 0.20838983 0.23549902 0.20367624 0.23306826
0.2065784 0.18987136 0.39562875 0.11444132 -0.020363085 0.17096809 0.17118569 0.16182989
00000000: 53ba 403e 5ffc fa3d 0acf 9a3e 360a 203e
00000010: 2200 8b3e ee17 98bc e94c c73d 3d38 ad3c
00000020: 3282 5dbd 19ad 38ba 31f4 663d 0fc3 0c3e
00000030: ba0d 6cbd e1e4 b43e 416d bb3d 8653 b53e
00000040: 4c17 103e e20a 3e3e c705 163d 7164 383e
00000050: 035b 9f3d 4548 5a3d fa8f 2b3e 0f88 3e3e
00000060: e70f 023e 5289 2d3d f587 b1bc 61b3 5f3e
00000070: b680 353e 3edf 1a3e 0f9b cd3d 7eee 803e
00000080: df54 7b3e 13d1 be3b a09a 2e3e 8194 193e
00000090: 9095 863d 186a 14bd ac08 7b3d e6d9 a13e
000000a0: 23c7 993e b85f fc3d 75af ee3d f413 853e
000000b0: 4317 883e c50a ed3d c4ec 80bc b00a 993e
000000c0: 6b35 df3d 822d e13d 388b 013e ec21 a43d
000000d0: 850e b33d e99a 323d 5cba e1bc 5e23 943e
000000e0: 84e3 773e 5c2f 863d deb8 6d3e bf9c 563d
000000f0: 341d 493e 146b 723e 14cf 023e 3131 b13d
00000100: 20f0 8c3b c520 2d3e 1726 ac3d d47c 7fbd
00000110: ce87 6a3d 90ce b23e e617 373e 0f55 f43d
00000120: d3b7 6d3d 6709 8e3e 19e5 8c3d fdcb cb3d
00000130: 4bd8 803d 2486 4d3e 3523 cc3d 15a6 493e
00000140: 142b a63d 08ad d53d e770 543e 4a47 703d
00000150: a2f5 eb3d 6a85 053e 9f2b ad3e 2e50 a93c
00000160: 4b30 593d c476 f2bc 15b8 083e 8640 af3d
00000170: b55c 8b3e 147d b1bc 9a01 593b b141 b13e
00000180: 8215 0b3e e717 1d3e 5897 19bd a8e8 53bc
00000190: 31be ff3d 34f6 04bd 4287 803e 703f 6b3e
000001a0: 18f6 62bc b105 813e 52cb 603d 3abd c53d
000001b0: 25c0 493e 8f7e 803d eed8 c63c 8a39 013e
000001c0: 922c 5f3e 849a a53d 28ae 233e 9c3e 773e
000001d0: a097 d6bb 4269 c43d 4b61 dc3d 3010 a53e
000001e0: 5dd3 ea3d 10d9 4f3e 4484 403d 6701 153e
000001f0: 2859 9f3d a9d0 543e 7edd 863e d4a7 823e
00000200: fc13 f83b ac8e 2c3e e954 213d 51d1 5d3e
00000210: bce4 2b3e 2571 023e 7526 ca3d b052 28bc
00000220: 24be 1c3d c691 823e 8bcd 093e 0c6d 623e
00000230: 7651 2c3e d03a 523e 6387 c93d b5b5 033e
00000240: 26bf 813e 4f57 b83d eb90 2d3d f8e2 6fbd
00000250: 9999 a53e 978d 763d 166f c63d 3401 3d3e
00000260: c5f7 4d3b 4232 b23d 2439 773d ad26 833e
00000270: c33d 3f3d 1d58 223c 1ea3 133e 571d 403e
00000280: d12a babd 609d 0a3e 8cce 343d aafd e33d
00000290: 584e 453e 9aa3 9b3d d8b7 393e 90f5 03bc
000002a0: 532d 9b3e e8b8 323e 58e4 b93d 5ad0 6f3e
000002b0: c50b 05ba c89f 5a3d c8c4 b23e 340a 2b3d
000002c0: 4d87 053e d6fa 023d 3a74 173d 4ab5 7c3e
000002d0: 4617 f23d f63b 933e f4c0 303e 17d8 ee3d
000002e0: fb7b 563c 7d1f 743e 2394 ea3d 6a2a c83e
000002f0: 4584 553e 35dd 263e f81e 103e e448 343e
00000300: 0d0c 8e3d 8038 c93e 8884 023e 83a6 3d3e
00000310: cc64 6b3d a21c 953e f4f1 3dbd 07cf 023e
00000320: 8514 343e 88f4 da3d 3210 a33e 09ec 1b3e
00000330: c316 ec3d 512d f43d 6929 f43e 5312 a93d
00000340: 025c 2c3e 7f1f 113e 502a af3d 78f6 4f3e
00000350: 904e 6e3d abe9 d03e e013 903e fc34 943e
00000360: f6f2 b63d 2ce1 a83c 1056 9d3e 1026 fc3d
00000370: 7960 e13d 20f2 663e 837e 713e 680d 6c3e
00000380: 6332 3c3e 37af ba3e 30ab c23e 96b8 963e
00000390: 44da 8e3c 1059 9f3e 565d 3a3e ba59 e93d
000003a0: f8ab d6bd e63f 233e 22d2 5a3d d7b1 5c3e
000003b0: 75bb 363e 9dc9 903c c6a4 de3d 0f47 ff3d
000003c0: 908a 883e ff44 9d3d 5e2f e63d 8002 33bc
000003d0: 2564 553e a826 713e 8190 503e 72a9 6e3e
000003e0: 4a89 533e a36d 423e da8f ca3e 3660 ea3d
000003f0: 7cd0 a6bc 4212 2f3e 4d4b 2f3e bcb6 253e

network.layer4.bias f4 [26]
-0.08779632 -0.3272503 -0.160096 -0.49315986 -0.46367678 -0.22946729 -0.42830497 -0.5178691
-0.398168 0.07369136 0.22604987 0.34613135 0.09138079 -0.5371265 -0.29818034 -0.6397072
-0.43754536 -0.05119191 0.09624652 0.008233667 -0.10227153 -0.22335719 0.4178394 0.13702142
-0.031500436 0.015935792
00000000: 8fce b3bd 5a8d a7be 35f0 23be 737f fcbe
00000010: 0b67 edbe 79f9 6abe ca4a dbbe 1293 04bf
00000020: addc cbbe 7feb 963d 9e79 673e 2138 b13e
00000030: da25 bb3d 1f81 09bf 18ab 98be dac3 23bf
00000040: f205 e0be 9cae 51bd e51c c53d 81e6 063c
00000050: bc73 d1bd bfb7 64be 0cef d53e 584f 0c3e
00000060: 9a06 01bd c78b 823c
