DDQN_panda_env1/runs/results_5/last-model.pt (torch, 162903 bytes, 6 tensors)

network.layer1.weight f4 [128, 3]
0	0xbf78e62b	-0.9722621
1	0xbdda78e7	-0.106675915
2	0x3ef4fcf7	0.47849247
3	0xbf860c11	-1.0472432
4	0xbf2d1cbe	-0.6762198
5	0x3e67cb37	0.22636114
6	0xbef6c3ff	-0.48196408
7	0x3f0096d0	0.5023012
8	0x3f39f7dc	0.7264383
9	0xbf4700bc	-0.77735496
10	0xbf116633	-0.5679657
11	0x3d729b5d	0.059230197
12	0x3eb33253	0.34999332
13	0x3cec05e0	0.028811395
14	0x3e20d7db	0.15707342
15	0xbf426197	-0.7593016
16	0xbeb61a9c	-0.35567176
17	0xbdc013de	-0.09378789
18	0x3e37758a	0.17915931
19	0xbee59acd	-0.44844666
20	0x3f3754f8	0.7161403
21	0xbee25e66	-0.44212645
22	0xbe2110db	-0.15729086
23	0x3efb4037	0.4907243
24	0x3f589210	0.84597874
25	0xbee99ab1	-0.45625833
26	0x3e4abe62	0.19799188
27	0x3c65a6e9	0.014016845
28	0xbec4745a	-0.3837002
29	0xbf17e3aa	-0.5933176
30	0xbf7cba43	-0.9872171
31	0xbec2c372	-0.38039738
32	0x3e701558	0.23445642
33	0x3ed79aba	0.42110234
34	0x3e979962	0.2960921
35	0x3f0622a4	0.5239661
36	0xbf0a81ea	-0.54104483
37	0xbe9f2662	-0.3108397
38	0x3ec490c5	0.383917
39	0xbec9e190	-0.39429903
40	0x3f0a6000	0.54052734
41	0xbf03bae0	-0.51457024
42	0x3e5f4a13	0.21805601
43	0xbd6466e8	-0.0557622
44	0x3efd3ef5	0.49462095
45	0x3ea1f4d8	0.31632113
46	0x3ed4524b	0.41469035
47	0x3c909228	0.017647818
48	0xbef905ed	-0.48637334
49	0x3e57094c	0.2099964
50	0x3f02d874	0.5111153
51	0xbeabf0ad	-0.3358206
52	0xbec17afb	-0.3778914
53	0x3f1b45f4	0.60653615
54	0x3f909b16	1.1297328
55	0xbe91dca6	-0.28488654
56	0xbe2eb998	-0.17062986
57	0xbdfbf711	-0.123029836
58	0xbf061e29	-0.5238977
59	0x3e7fda10	0.24985528
60	0xbf53b5cb	-0.8269927
61	0xbe8e9cb4	-0.2785393
62	0x3d23958a	0.039937533
63	0xbec19b45	-0.37813774
64	0xbf1fa514	-0.62361264
65	0xbf25d665	-0.64780265
66	0xbdf7935c	-0.120886534
67	0x3edf911a	0.4366539
68	0x3ed47ac1	0.41499904
69	0x3fac91a3	1.3481945
70	0xbe090581	-0.13381006
71	0xbea31872	-0.31854588
72	0xbf1aa84c	-0.6041305
73	0xbebaa092	-0.3645063
74	0xbe722604	-0.23647314
75	0x3ec01dc4	0.3752271
76	0xbeadd24e	-0.33949512
77	0xbf5249b8	-0.82143736
78	0xbf721fe0	-0.9457989
79	0x3d995b07	0.07488065
80	0x3f15f3ec	0.5857532
81	0xbf39d7e4	-0.7259505
82	0xbf1e8084	-0.6191485
83	0x3f24b0ac	0.6433208
84	0xbf73e67d	-0.9527357
85	0x3e2afddc	0.16698402
86	0x3cde3249	0.027123587
87	0x3eab8a78	0.3350408
88	0xbe9cf47a	-0.3065527
89	0x3f035f26	0.5131706
90	0x3e9d5628	0.30729795
91	0x3e9ce3b0	0.30642462
92	0xbee6f8bb	-0.4511164
93	0x3da52e72	0.08065499
94	0x3d07f1a3	0.033189427
95	0xbf19a01d	-0.6000994
96	0x3e875d36	0.26438302
97	0x3e13005c	0.14355606
98	0xbe05c141	-0.13062002
99	0xbd22df27	-0.039763596
100	0x3e22e990	0.1590941
101	0xbf00b07f	-0.5026931
102	0xbe6b0483	-0.2295094
103	0xbf1949ae	-0.5987805
104	0xbea0a13b	-0.3137301
105	0xbf3799da	-0.71719134
106	0xbebc9561	-0.36832717
107	0x3f0fb70e	0.56138694
108	0x3e5329d3	0.20621423
109	0x3f19cb97	0.6007628
110	0x3f181f89	0.5942312
111	0xbf6005a2	-0.87508595
112	0xbf1e07eb	-0.6173083
113	0x3de526c6	0.11189036
114	0xbf80e673	-1.0070328
115	0x3f1c7a26	0.61123884
116	0x3ed4b691	0.41545537
117	0xbed8ee03	-0.4236909
118	0x3d962a74	0.07332316
119	0xbe147aca	-0.14499965
120	0xbe2e69e6	-0.17032585
121	0xbdc9f48c	-0.09861097
122	0x3eb4527c	0.3521918
123	0x3e9599f9	0.29219034
124	0x3f3592f5	0.70927364
125	0xbdaa0c08	-0.08303076
126	0xbd9482a6	-0.07251482
127	0xbe5d2ffd	-0.21600337
128	0xbf213444	-0.62970376
129	0xbd5e3763	-0.05425204
130	0x3f32bdee	0.6982106
131	0x3f0d7797	0.55260605
132	0x3f93e3ed	1.1553932
133	0xbeacfe7e	-0.33787912
134	0xbe310397	-0.17286526
135	0x3c11b0de	0.008892266
136	0xbf086fbf	-0.5329551
137	0xbf3d5dfc	-0.73971534
138	0x3f1a32c2	0.602337
139	0xbe5f902d	-0.21832342
140	0x3f2c1561	0.6722012
141	0xbec27ab9	-0.37984255
142	0xbe8eb178	-0.27869773
143	0x3e4aa2e1	0.19788696
144	0x3ea700de	0.3261785
145	0xbd09120d	-0.03346448
146	0xbdc0c3dc	-0.09412357
147	0xbf25264f	-0.6451158
148	0xbf21f2a5	-0.6326087
149	0x3e7f54c6	0.24934682
150	0xbf26099a	-0.648584
151	0xbf070f8e	-0.5275811
152	0x3f1254e6	0.57160795
153	0xbe87dc60	-0.2653532
154	0xbd2da29e	-0.042391412
155	0xbe65f918	-0.22458303
156	0xbdb7f7a7	-0.08982783
157	0x3eb8afe1	0.36071685
158	0xbe2095eb	-0.15682189
159	0x3c93f28c	0.018059991
160	0x3e91bcf4	0.28464472
161	0x3f0c292d	0.5475033
162	0xbf266dd9	-0.65011364
163	0xbec3a2e9	-0.38210228
164	0xbe45fd48	-0.193349
165	0x3ea78cd3	0.32724628
166	0x3ec1fdc6	0.37888926
167	0x3f22db7d	0.6361616
168	0x3dafa776	0.085768625
169	0x3f56894f	0.83803266
170	0x3f2457f7	0.64196724
171	0x3eed03f0	0.46292067
172	0x3f04f784	0.5194018
173	0x3ef1aace	0.47200626
174	0xbf634b33	-0.8878662
175	0x3e43de15	0.19127686
176	0x3ea9526c	0.33070695
177	0x3f9155d0	1.1354313
178	0x3e99cd7b	0.30039582
179	0x3e66fd0e	0.2255747
180	0xbead3ba5	-0.33834568
181	0x3e5506af	0.20803331
182	0xbe1c1c67	-0.1524521
183	0x3daf360b	0.0855523
184	0x3f4b4260	0.79398155
185	0x3f2caac7	0.67448086
186	0xbecfb61f	-0.40568635
187	0xbdb152e5	-0.08658389
188	0xbdd175b0	-0.10227525
189	0x3e9beb3c	0.30452907
190	0x3e6728b1	0.22574116
191	0x3e9be7a1	0.30450156
192	0x3f01fbeb	0.5077502
193	0x3e74e675	0.23916037
194	0x3f2167f5	0.6304925
195	0xbf4e3129	-0.8054376
196	0xbe015cea	-0.126331
197	0x3f2d2c35	0.6764558
198	0x3edc0041	0.42968944
199	0x3e5b11e7	0.21393548
200	0xbc8c9b53	-0.017163908
201	0xbf35ad6a	-0.70967734
202	0xbe527f4b	-0.20556371
203	0x3dbea759	0.09309263
204	0xbea7751b	-0.32706532
205	0x3e6479d4	0.22312099
206	0x3f272982	0.6529771
207	0xbd6a6215	-0.057222445
208	0xbe8da80f	-0.2766728
209	0xbf39320c	-0.7234199
210	0xbdf048fd	-0.117326714
211	0x3c441e17	0.011970065
212	0xbe25857c	-0.16164201
213	0x3edcb668	0.43107915
214	0xbefd1839	-0.49432543
215	0x3e8732e4	0.26406014
216	0xbf1e7de7	-0.6191086
217	0xbe7426fb	-0.23842995
218	0xbd89263d	-0.066967465
219	0xbf0b319f	-0.5437259
220	0x3ea76361	0.32693008
221	0x3ed3bc6d	0.41354695
222	0xbf66273f	-0.89903635
223	0xbf21c5ec	-0.6319263
224	0x3eefd0f8	0.46839118
225	0xbe85b0c9	-0.2611144
226	0x3ca00e9a	0.019538213
227	0x3ec3a809	0.38214138
228	0xbe803d74	-0.25046885
229	0x3ec035bd	0.37541
230	0x3e94e0c2	0.29077727
231	0xbd7baeff	-0.061446186
232	0xbefe37e8	-0.49652028
233	0xbf676679	-0.90390736
234	0xbf5dc287	-0.8662495
235	0x3eeae0d7	0.45874664
236	0x3dc86b31	0.0978607
237	0x3da7a4c5	0.08185724
238	0x3f500766	0.8126129
239	0x3e522d9c	0.20525211
240	0x3e8137a1	0.25237754
241	0x3e671e64	0.22570187
242	0x3ecacc89	0.39609173
243	0x3f0243bd	0.5088461
244	0x3d6401ad	0.05566566
245	0xbf442295	-0.7661527
246	0x3eed90bb	0.46399483
247	0x3f2f0130	0.68361187
248	0xbd8b34f8	-0.06797212
249	0xbe15de41	-0.14635564
250	0xbe8b5756	-0.2721507
251	0x3eb0ced9	0.34532812
252	0xbf610a76	-0.8790659
253	0x3ce5ed5c	0.028067283
254	0xbcbdf49b	-0.023187926
255	0x3ef9ed00	0.4881363

network.layer1.bias f4 [128]
0	0x3f75eba2	0.9606267
1	0x3dee1b75	0.11626331
2	0x3f033214	0.5124829
3	0x3ec08902	0.3760453
4	0x3f2bc854	0.6710255
5	0x3f5db201	0.8659974
6	0x3e8ec0d6	0.27881497
7	0x3f2f96be	0.6858939
8	0xbe0d3efa	-0.13793555
9	0x3f097c3d	0.537052
10	0x3effbde2	0.49949557
11	0x3f144e83	0.579323
12	0x3f31f9f5	0.6952203
13	0xbf1134df	-0.567213
14	0x3e8eae99	0.27867582
15	0x3f98f4bf	1.194969
16	0x3e92828e	0.2861523
17	0x3f2f5c2c	0.6850002
18	0xbd84d2cf	-0.06485521
19	0x3eaa22a8	0.33229566
20	0x3f10395b	0.5633752
21	0x3f1a8618	0.6036086
22	0xbf0b33a0	-0.5437565
23	0x3eb8abfa	0.36068708
24	0x3f90bcaf	1.1307582
25	0xbe8c2b08	-0.2737658
26	0x3f479e08	0.7797551
27	0x3f231f96	0.6372007
28	0xbeb8d6ea	-0.36101466
29	0x3e0de037	0.13855062
30	0xbea80808	-0.32818627
31	0x3f786eaa	0.9704386
32	0xbf06fe75	-0.5273202
33	0xbed68d5e	-0.4190473
34	0x3e7a6257	0.24451576
35	0xbce36405	-0.027757654
36	0x3ee30b03	0.4434434
37	0x3e9d1e65	0.30687252
38	0x3f51ad48	0.8190503
39	0x3f7df162	0.99196446
40	0xbecab9a3	-0.39594755
41	0xbe8ae042	-0.2712422
42	0x3f61dc37	0.88226646
43	0xbec9b7fb	-0.39398178
44	0xbe14154c	-0.14461249
45	0x3ea822f2	0.3283916
46	0xbf047867	-0.5174622
47	0x3f0ef8c3	0.5584833
48	0xbf0750c2	-0.528576
49	0x3f7e3285	0.99295837
50	0x3f63f07b	0.8903882
51	0x3f841e3a	1.0321724
52	0xbe78f9eb	-0.24314086
53	0xbf60ef0c	-0.87864757
54	0x3f866a9b	1.0501283
55	0x3ea179d9	0.31538275
56	0x3f36694f	0.7125444
57	0xbce72356	-0.028215092
58	0x3ebda2cd	0.3703827
59	0xbe561235	-0.20905383
60	0xbf123980	-0.5711899
61	0x3f02c49d	0.5108126
62	0x3f4967bf	0.7867393
63	0x3f0ce961	0.5504361
64	0x3f0f3845	0.55945235
65	0x3f4828ee	0.78187454
66	0x3f35b383	0.7097704
67	0xbf2564c7	-0.646069
68	0xbe0d3491	-0.13789584
69	0x3f7a420c	0.9775703
70	0xbf0ba21d	-0.5454424
71	0x3b91a24e	0.004444397
72	0x3f313d54	0.69234204
73	0xbe25f474	-0.16206533
74	0x3ef462b0	0.47731543
75	0x3f80323b	1.0015329
76	0x3f659a97	0.8968901
77	0x3ed62ccb	0.4183105
78	0x3f4e055c	0.8047693
79	0xbede3dfc	-0.43406665
80	0x3ee89746	0.45427912
81	0xbd8fff86	-0.07031159
82	0xbcba3a4d	-0.022732878
83	0x3f662c9c	0.8991182
84	0x3e603fc5	0.21899326
85	0x3eadfd32	0.33982235
86	0x3f451ea8	0.769999
87	0x3f81d755	1.0143839
88	0x3ed546bd	0.41655532
89	0xbf251626	-0.6448692
90	0x3d4c7f9f	0.049926396
91	0x3f36397b	0.7118146
92	0x3d43e29a	0.047823526
93	0x3ef9e60a	0.48808318
94	0xbe0e207a	-0.13879576
95	0x3f4b79f5	0.79482967
96	0x3f257430	0.64630413
97	0x3f62baab	0.8856608
98	0x3f40fbd1	0.7538424
99	0x3f82eafa	1.0227959
100	0xbf023d41	-0.50874716
101	0x3f74c06f	0.9560613
102	0x3d906122	0.070497766
103	0x3efa1b45	0.4884893
104	0x3e80df9a	0.25170594
105	0xbdb8a95a	-0.09016676
106	0x3f13857d	0.5762556
107	0x3f3b8c54	0.73261
108	0x3bf457fd	0.007456778
109	0x3d212838	0.039344996
110	0x3f2a808b	0.6660239
111	0x3e2a3e83	0.16625409
112	0x3ef45cf9	0.47727183
113	0x3f3c8921	0.7364674
114	0x3f4ccfc5	0.8000453
115	0x3ecf9316	0.40541905
116	0x3f3795d1	0.71712977
117	0xbed188d5	-0.40924707
118	0xbd50ecec	-0.051007196
119	0x3ef148a7	0.47125742
120	0xbd965310	-0.07340062
121	0x3f360d00	0.71113586
122	0x3f6666c1	0.9000054
123	0x3ea8ac6b	0.32944044
124	0x3eef6909	0.46759823
125	0x3ee01a1c	0.4376992
126	0xbdc3a39f	-0.095526926
127	0x3eb6fc44	0.35739338

network.layer2.weight f4 [256, 128]
0	0x3e71ac00	0.23600769
1	0x3e41d3eb	0.18928497
2	0x3eaf1749	0.34197453
3	0x3e5b0a99	0.21390761
4	0x3ddc5585	0.10758499
5	0x3ec482d0	0.38381052
6	0xbd60060c	-0.054693267
7	0x3e705554	0.2347005
8	0xbe28df00	-0.16491318
9	0x3f6f54b6	0.93488634
10	0x3e58adc0	0.2116003
11	0x3bd29632	0.006426596
12	0x3e29af3f	0.16570757
13	0x3d948282	0.07251455
14	0x3ce6846b	0.028139314
15	0x3e8ec53a	0.27884847
16	0x3e8968cf	0.26837775
17	0x3d28e4af	0.041233715
18	0xbf1ba0b1	-0.6079207
19	0x3d0b58a6	0.03402009
20	0x3ec36735	0.38164678
21	0x3f153b9d	0.5829409
22	0x3f05fb61	0.523367
23	0xbec588aa	-0.3858083
24	0x3f1103b3	0.5664627
25	0xbefa9394	-0.48940718
26	0x3e5fa598	0.21840513
27	0x3e09ef20	0.13470125
28	0xbf043cce	-0.5165528
29	0xbd40caa1	-0.047068242
30	0xbd1bdb8d	-0.038051177
31	0x3f8ea2f1	1.1143476
32	0x3daaad10	0.0833379
33	0xbd87db2f	-0.06633603
34	0x3eb47850	0.3524804
35	0x3cfae1b2	0.030625198
36	0x3edb2093	0.4279829
37	0x3df7fb3d	0.12108467
38	0x3ed3870f	0.4131398
39	0x3f25b09e	0.6472262
40	0x3eb79aec	0.35860384
41	0xbe1c0857	-0.15237556
42	0x3f87779c	1.0583377
43	0x3f114226	0.5674156
44	0xbed51c21	-0.41623023
45	0x3f5b885d	0.8575495
46	0xbe4119f7	-0.18857561
47	0x3e502dd8	0.20329988
48	0x3d69496c	0.056954786
49	0x3e779bbd	0.24180503
50	0x3daebaa7	0.08531695
51	0x3f0560aa	0.5210062
52	0xbd91f8c8	-0.071275294
53	0x3ef0275c	0.4690503
54	0x3f31d7c3	0.6946985
55	0x3e082740	0.13296223
56	0x3f1ece5c	0.6203363
57	0xbf08bed8	-0.53416204
58	0x3ea8a18d	0.32935753
59	0xbf561639	-0.8362766
60	0xbc8cdd51	-0.017195376
61	0x3f683472	0.90705025
62	0x3ef2f61a	0.47453386
63	0x3e2e760d	0.1703722
64	0x3e142df9	0.14470662
65	0x3e6c0e96	0.23052439
66	0x3e9b3848	0.30316377
67	0xbed8bff4	-0.4233395
68	0x3ea47740	0.3212223
69	0x3f71d6bc	0.94468284
70	0x3d1ebd40	0.0387547
71	0xbd31b548	-0.043385774
72	0x3eedf5d3	0.46476611
73	0x3d272ee6	0.04081621
74	0x3dd5ad9d	0.10433505
75	0x3e94dcd6	0.29074734
76	0x3eec8dd5	0.4620196
77	0x3f4aff11	0.7929545
78	0x3f0bae9f	0.54563326
79	0x3f41107c	0.7541578
80	0x3d09dbfb	0.033657055
81	0xbd79e291	-0.061007086
82	0x3cd54086	0.026031744
83	0x3d9ef759	0.077620216
84	0x3e6abe79	0.22924222
85	0xbe580007	-0.2109376
86	0x3ed4e00c	0.41577184
87	0x3f47c494	0.7803433
88	0x3eb56e6b	0.35435805
89	0xbdb76226	-0.08954267
90	0xbf303f08	-0.6884618
91	0x3e1d4223	0.1535726
92	0x3eaf347d	0.34219733
93	0x3f1824be	0.59431064
94	0x3ec9d1fc	0.39418018
95	0x3ecf9e8d	0.40550652
96	0x3f0874fd	0.5330351
97	0x3e6ad508	0.22932827
98	0x3e0a29fd	0.1349258
99	0x3f32b09e	0.69800746
100	0xbe7b2393	-0.24525289
101	0x3f904929	1.1272327
102	0x3e651866	0.22372589
103	0x3e28c451	0.16481139
104	0x3f48beff	0.78416437
105	0xbe95bd1c	-0.29245842
106	0x3ee9ce71	0.45665315
107	0x3e744f5a	0.23858395
108	0xbda7f622	-0.08201243
109	0xbe4bf156	-0.19916281
110	0x3e4af525	0.19820078
111	0xbe038c85	-0.12846573
112	0x3f16c091	0.58887583
113	0x3f3a8685	0.7286151
114	0x3ebc29fb	0.3675078
115	0x3e0e8b1f	0.13920258
116	0x3eed2244	0.46315205
117	0xbdd81229	-0.10550339
118	0x3d6ffde8	0.058591753
119	0x3f3048c3	0.68861026
120	0xbee8d097	-0.4547164
121	0x3ed95c83	0.42453393
122	0x3cf81222	0.030282084
123	0x3e8dc64f	0.2769036
124	0x3ea274c8	0.31729722
125	0x3edae3c2	0.4275189
126	0x3da5c5b1	0.08094347
127	0x3e9db5ea	0.30802852
128	0x3d93882b	0.07203706
129	0x3d88ad3d	0.066736676
130	0xbd92cadf	-0.07167601
131	0xbd8f8441	-0.07007647
132	0x3d5429ae	0.05179756
133	0xbdbd366d	-0.092388965
134	0xba561d6e	-0.00081678375
135	0xbd79b43c	-0.0609629
136	0xbd5d67d2	-0.05405409
137	0x3c6884b7	0.014191798
138	0x3be062aa	0.006847699
139	0x3d2fee9f	0.042952176
140	0xbd8d5ee8	-0.069028676
141	0xbd14bf37	-0.03631517
142	0x3d5cc657	0.05390009
143	0x3c8ae2fe	0.016953941
144	0xbcc45f8c	-0.023971342
145	0xbd74324c	-0.05961828
146	0x3d2fed2d	0.042950798
147	0x3d008ce0	0.03138435
148	0x3ce1f039	0.027580367
149	0xbc854a33	-0.016270733
150	0x3d9dbc68	0.07701951
151	0x3d90cf48	0.07070786
152	0xbd6fecea	-0.05857555
153	0x3d36bd91	0.04461438
154	0x3d80f1c7	0.06296115
155	0xbd1eca9a	-0.038767435
156	0xbdb07bd2	-0.08617367
157	0xbda1cfac	-0.079009384
158	0x3d95b1a4	0.07309273
159	0xbb48307a	-0.0030546472
160	0xbd4ef758	-0.050528854
161	0x3d489de2	0.048978694
162	0xbcc186fe	-0.02362394
163	0xbda701b6	-0.08154623
164	0xbd1d6e67	-0.038435366
165	0x3ce83da8	0.028349712
166	0xbc18011f	-0.009277611
167	0xbd216276	-0.03940054
168	0xbbf8579e	-0.007578804
169	0xbd76843e	-0.06018471
170	0xbcf710b7	-0.030159337
171	0xbd8e9766	-0.06962471
172	0xbb80f8d0	-0.0039359108
173	0xbcb8a6b7	-0.022540433
174	0x3d22cb2f	0.039744552
175	0x3d37bd7a	0.044858433
176	0x3d8868b3	0.06660595
177	0x3d8273ae	0.063697204
178	0x3c171128	0.009220399
179	0x3d0efe6c	0.034910604
180	0xbb9409eb	-0.004517784
181	0x3d44a608	0.048009902
182	0xbd6c435d	-0.05768143
183	0xb98cf278	-0.00026883534
184	0xbd8cbb04	-0.06871608
185	0x3b9a74b4	0.004713619
186	0xbc26968e	-0.010167731
187	0xbd638b1a	-0.05555258
188	0xbd91de6e	-0.07122503
189	0x3ab8f673	0.0014111534
190	0x3c52bcb8	0.012862377
191	0xbc3a039e	-0.0113534015
192	0xbd4a85ec	-0.049444124
193	0xbd5c3ae5	-0.053767104
194	0x3d039731	0.03212661
195	0x3d28740c	0.041126296
196	0xbd9d711b	-0.07687589
197	0xbd089dd8	-0.033353657
198	0x3d7a1c8a	0.061062373
199	0x3c79b9df	0.015242069
200	0xbd7e911f	-0.062150117
201	0x3d86ea4a	0.06587656
202	0xbd687897	-0.05675563
203	0x3d8a2e49	0.067471094
204	0xbd83b3a3	-0.06430747
205	0xbd153d93	-0.036435675
206	0xbc2dc1b1	-0.010605262
207	0xbd692039	-0.056915496
208	0xbd15c29a	-0.03656254
209	0x3cc2d69b	0.023783972
210	0xbcb863e4	-0.022508569
211	0x3c039f96	0.008033654
212	0x3d788101	0.060669903
213	0xbdab898d	-0.08375845
214	0x3cdbe3c1	0.026842
215	0x3c4f86b7	0.012666396
216	0xbdbb1089	-0.09134013
217	0xbcb6dfd9	-0.022323536
218	0x3d0df7ca	0.03466014
219	0x3d0c7f5e	0.034301154
220	0x3d373bc7	0.044734742
221	0x3b903191	0.00440044
222	0x3d934bb7	0.07192176
223	0xbd34ef1b	-0.04417334
224	0x3cd0a7c5	0.025470624
225	0x3d1bae56	0.038008057
226	0x3d9462ef	0.072454326
227	0xbd22b23d	-0.039720763
228	0x3c406373	0.011742461
229	0xbc9cebee	-0.019155469
230	0xbd781b59	-0.060572956
231	0x3c6c87ee	0.014436705
232	0xbd69a808	-0.057045013
233	0x3d402a9a	0.046915628
234	0x3d1904ed	0.037358213
235	0x3b33e483	0.0027449436
236	0x3d98b159	0.074557014
237	0xbd89a954	-0.0672175
238	0x3ad9e620	0.0016624369
239	0xbd986f94	-0.07443157
240	0xbd7adce6	-0.06124582
241	0x3d320e53	0.043470692
242	0xbcdfeea9	-0.027335482
243	0xbd0564f0	-0.032566965
244	0xbd3eb91c	-0.046563253
245	0xbca90ac2	-0.020635013
246	0xbc732dd1	-0.014842466
247	0x3d6b5c26	0.057460926
248	0xbd5d132b	-0.053973358
249	0x3da7956a	0.08182795
250	0xbd52ca7c	-0.051462635
251	0xbd9df4f3	-0.07712736
252	0x3aae9e4e	0.0013322325
253	0xbc54ba90	-0.012983933
254	0x3d1003b5	0.035159785
255	0xbafc94c2	-0.0019270408

network.layer2.bias f4 [256]
0	0x3ec29fb4	0.3801247
1	0xbc4a3cce	-0.0123435985
2	0x3efccca9	0.49374893
3	0x3dc9b590	0.098490834
4	0x3ecfce79	0.40587214
5	0xbdaf1669	-0.08549196
6	0x3e8cb650	0.27482843
7	0x3edc64b6	0.43045586
8	0x3e90c1bd	0.2827281
9	0x3ea85135	0.32874456
10	0x3f0e3708	0.5555272
11	0xbc213a8a	-0.009840617
12	0x3e7e6d45	0.2484637
13	0xbd808a28	-0.06276351
14	0x3ea80867	0.3281891
15	0x3ea5a0e9	0.32349327
16	0x3e870516	0.26371068
17	0x3b688b7f	0.0035483537
18	0xbc8ba084	-0.017044313
19	0x3eb2ad95	0.34898058
20	0x3ed0d77e	0.40789407
21	0x3eb42423	0.3518382
22	0x3ed3bb11	0.41353658
23	0xbce2c8f7	-0.027683718
24	0x3e9f7f54	0.3115183
25	0x3e0d59a2	0.13803723
26	0x3e5554c4	0.20833117
27	0x3da2385f	0.07920908
28	0x3d99d0e3	0.07510545
29	0x3c16ac74	0.0091963895
30	0xbd7f5e13	-0.062345576
31	0x3c2d21e5	0.010567163
32	0x3ed7721a	0.4207924
33	0x3e648d8e	0.22319624
34	0x3eaf6a4a	0.3426078
35	0x3ec4e69b	0.38457188
36	0x3e3e19cf	0.18564533
37	0x3ed763f6	0.42068452
38	0x3e8f6789	0.2800868
39	0x3ee0dd60	0.43918896
40	0x3ef33740	0.4750309
41	0xbd9a443e	-0.075325474
42	0x3e922f77	0.28551838
43	0x3ea6cc7b	0.3257788
44	0x3cda7eb5	0.026671747
45	0x3d18a582	0.037267216
46	0x3ecac88c	0.3960613
47	0x3edccb97	0.43124077
48	0x3d09d991	0.033654753
49	0x3eb740e0	0.35791683
50	0x3d384eb0	0.044996917
51	0x3de93d52	0.11388649
52	0x3e8e2209	0.27760342
53	0x3efb8996	0.49128407
54	0x3e8797c8	0.26482987
55	0x3e94b04b	0.2904075
56	0x3f00e077	0.50342506
57	0x3eb6a5b2	0.3567329
58	0x3e8baa05	0.27278152
59	0x3e8ac290	0.27101564
60	0x3d6b4242	0.057436235
61	0x3e9eb2d7	0.3099582
62	0x3e8349a5	0.25642124
63	0x3e22a5ac	0.15883511
64	0x3efd2c70	0.49447966
65	0x3d107e30	0.03527659
66	0x3e747677	0.23873316
67	0x3ea25792	0.31707436
68	0x3ec789d3	0.3897234
69	0x3c6adaad	0.014334363
70	0x3e8e9c4d	0.27853623
71	0x3d570fe1	0.052505378
72	0x3e112f89	0.1417829
73	0x3ce93254	0.028466381
74	0x3ee32950	0.44367456
75	0x3ecde827	0.4021618
76	0xbdeff00e	-0.11715709
77	0x3bab272b	0.005223175
78	0x3ec40ec6	0.3829252
79	0x3e8f0530	0.27933645
80	0x3ea3c044	0.31982625
81	0x3e80b21c	0.25135887
82	0x3c211f21	0.009834082
83	0x3eb0f10d	0.34558907
84	0x3eea068c	0.4570812
85	0x3ebbebd7	0.3670337
86	0x3ebe8b00	0.37215424
87	0xbe0fbda0	-0.1403718
88	0x3e957b58	0.29195666
89	0x3e790a20	0.24320269
90	0xbd6c50cc	-0.05769424
91	0xbda62c1e	-0.081138834
92	0x3ed4eb89	0.4158595
93	0x3e8357ca	0.25652915
94	0x3dd801f9	0.10547251
95	0x3dd36795	0.10322491
96	0x3f01b8aa	0.506724
97	0x3d117ab8	0.035517424
98	0x3c902343	0.01759494
99	0x3e543ea2	0.20727018
100	0xbc391d73	-0.011298525
101	0x3eaaebe2	0.3338309
102	0xbbeba0a0	-0.007190779
103	0x3e9d05b3	0.3066841
104	0x3e8f18df	0.27948663
105	0x3e3c674d	0.18398781
106	0x3d57fcb7	0.052731242
107	0x3e159d3e	0.14610764
108	0x3da61d08	0.08111006
109	0x3e3a21f4	0.18177015
110	0x3dcc60eb	0.09979423
111	0x3e73ae97	0.2379707
112	0x3e6d6f5d	0.23187013
113	0xbd81d037	-0.06338542
114	0x3e5b2b98	0.21403348
115	0x3e8531aa	0.26014453
116	0x3e934f9f	0.28771684
117	0x3dae9e5f	0.08526301
118	0x3ee97ba6	0.4560215
119	0x3ea431b9	0.32069185
120	0x3e12f94c	0.14352912
121	0x3e3d5d8a	0.18492714
122	0x3e19d8bd	0.15024085
123	0x3d55bf13	0.052184176
124	0xbc825f8d	-0.015914703
125	0x3ed184c8	0.40921617
126	0x3c1d68ba	0.009607488
127	0x3ef22277	0.4729192
128	0x3ecce72d	0.40020123
129	0x3da8c808	0.08241278
130	0x3e376d7a	0.17912856
131	0x3e3f996e	0.18710873
132	0x3ebbaea2	0.36656672
133	0xbd4bd18b	-0.049760383
134	0x3e73c3ab	0.2380511
135	0x3ea4a48e	0.32156795
136	0x3bcf3233	0.006323123
137	0x3b8c1381	0.004274786
138	0x3e653833	0.2238472
139	0x3e750e49	0.2393123
140	0x3d6d5796	0.057944857
141	0x3e263cb9	0.16234101
142	0x3e1ded0a	0.15422454
143	0x3ec18d6f	0.37803218
144	0x3df5faa4	0.120106965
145	0x3ebbc6e2	0.36675173
146	0x3ecd0538	0.40043044
147	0x3e245056	0.1604627
148	0x3eafe6ef	0.34355876
149	0x3d169197	0.03675994
150	0x3e6e972c	0.23299855
151	0x3ea7e825	0.327943
152	0x3e8f3d34	0.27976382
153	0x3eb6e69c	0.35722816
154	0xbdb30bab	-0.0874246
155	0x3d917fdb	0.071044646
156	0x3eab3009	0.33435085
157	0x3e8ad8b7	0.27118465
158	0x3de12d8f	0.10995018
159	0x3e398d2a	0.18120256
160	0x3eb4df10	0.35326433
161	0x3ee2a410	0.44265795
162	0x3ef952d9	0.4869602
163	0xbdb18d93	-0.08669581
164	0xbcfba368	-0.030717567
165	0x3ec61d65	0.386943
166	0x3e98f9df	0.29878137
167	0x3eb5f227	0.3553631
168	0x3e2843f5	0.16432174
169	0xbd74db66	-0.059779547
170	0x3d3d1c7b	0.04616974
171	0x3e85ad64	0.2610885
172	0x3eb9eb31	0.3631225
173	0x3e2624f7	0.16225038
174	0x3dfbd9cd	0.122974016
175	0xbc7311d6	-0.014835795
176	0x3eabaa8b	0.3352855
177	0x3eb31d19	0.34983137
178	0x3d9ca015	0.07647721
179	0x3acca4f8	0.0015613129
180	0x3ebaa4ca	0.3645385
181	0x3ec5b419	0.38613966
182	0x3ee64673	0.44975623
183	0xbcc94d2b	-0.02457293
184	0xbd3eb904	-0.046563163
185	0x3e62c559	0.22145595
186	0x3ed22188	0.41041207
187	0x3d9de24d	0.07709179
188	0x3e4e87cc	0.2016899
189	0x3cb35280	0.021889925
190	0x3eaff420	0.3436594
191	0x3ec76028	0.3894055
192	0xbaec6512	-0.0018035492
193	0xbc785d0b	-0.015158902
194	0x3cb7024d	0.022339964
195	0x3f042ec4	0.5163386
196	0x3d97999f	0.07402348
197	0x3e8cd8c0	0.27509117
198	0x3d9c1347	0.07620864
199	0x3ece50bc	0.4029597
200	0x3e9ea41c	0.3098458
201	0x3c183954	0.009291012
202	0x3eb252c5	0.34828773
203	0x3ee74f0f	0.45177504
204	0x3e816ee1	0.25279906
205	0x3ebd356a	0.36954814
206	0xbd88d342	-0.06680919
207	0x3e7daa44	0.24771982
208	0x3ea84ab5	0.32869497
209	0x3d11db66	0.035609625
210	0x3e945f06	0.28978747
211	0x3e8e9cd7	0.27854034
212	0x3ee63aab	0.44966635
213	0x3edbc6a4	0.42924988
214	0x3ebb668c	0.36601675
215	0x3ee9c1f8	0.456558
216	0x3d35a9df	0.044351455
217	0x3e46e703	0.19424061
218	0x3e3c1ae3	0.18369631
219	0x3ed8adfc	0.4232024
220	0x3e94b7ef	0.2904658
221	0x3e8cd69d	0.27507487
222	0x3e8e94ec	0.27847993
223	0x3e52400d	0.20532246
224	0x3eee1913	0.46503505
225	0x3e0b8af9	0.13627233
226	0x3e16d7e6	0.14730796
227	0x3b2f333d	0.0026733421
228	0x3e823295	0.25429216
229	0x3e3eac77	0.18620478
230	0x3ea81062	0.32825
231	0x3ea9e41f	0.33181855
232	0x3ed62829	0.41827515
233	0x3edb6991	0.42853978
234	0x3e1d249a	0.15345994
235	0x3ec609f0	0.38679457
236	0x3e9238b7	0.28558895
237	0xbe1007a1	-0.1406541
238	0x3e5bf12f	0.21478723
239	0x3ec7e223	0.39039716
240	0x3e5519e2	0.20810655
241	0x3f0fbda3	0.5614874
242	0xbd0aa5f9	-0.03384969
243	0x3d9e4e0c	0.0772973
244	0xbd8dd063	-0.06924512
245	0x3c755b69	0.014975407
246	0x3e93ae26	0.28843802
247	0x3ebe1b10	0.37130022
248	0x3eb0002e	0.34375137
249	0x3d1c6782	0.03818465
250	0x3c47fa45	0.012205665
251	0xbd2663d1	-0.040622536
252	0x3ea39815	0.31951967
253	0xbd937e93	-0.072018765
254	0x3e721b48	0.2364322
255	0xbda5d526	-0.080972955

network.layer4.weight f4 [26, 256]
0	0x3e2a895c	0.16653961
1	0xbbf03d70	-0.0073315427
2	0x3e935f97	0.28783867
3	0x3e50e63e	0.2040033
4	0x3e9065d9	0.28202704
5	0x3cf44ab8	0.029820785
6	0x3e897755	0.26848856
7	0x3e144354	0.14478809
8	0x3e0206ad	0.12697859
9	0x3e298670	0.1655519
10	0x3d6e8ef9	0.058241818
11	0x3e90770f	0.28215834
12	0x3e64f463	0.22358851
13	0x3c17aa30	0.009256884
14	0x3e2dc051	0.16967894
15	0x3e0741d1	0.132087
16	0x3e61b02f	0.22039865
17	0x3d296d60	0.041364074
18	0x3d773e0c	0.060361907
19	0x3e8873e4	0.26650918
20	0x3e1293e8	0.14314234
21	0x3e57a816	0.21060213
22	0x3e06b086	0.13153276
23	0xbe14ba7f	-0.14524268
24	0x3ef263d0	0.47341776
25	0x3e93b8fe	0.28852075
26	0x3e018800	0.12649536
27	0x3d79a016	0.060943685
28	0x3cde1eec	0.027114354
29	0xbd6801ba	-0.05664227
30	0x3c947f04	0.018126972
31	0xbbd7e710	-0.006588824
32	0x3ceafac8	0.028684035
33	0x3e022bfe	0.12712094
34	0x3dff084a	0.12452753
35	0x3e01210f	0.12610267
36	0x3ee1d0e6	0.4410469
37	0x3e3dd762	0.18539193
38	0x3e35bb3b	0.17747204
39	0x3e32c13a	0.17456523
40	0x3dcfd516	0.10148065
41	0x3d46840a	0.048465766
42	0x3e7af6fd	0.24508281
43	0x3e48b5d5	0.19600613
44	0xbc43cb08	-0.011950262
45	0x3e5f7b99	0.21824493
46	0x3e1324ec	0.14369553
47	0x3e33677c	0.17519945
48	0x3d51f804	0.051261917
49	0x3de2fcf7	0.110834055
50	0xbbdb63a0	-0.006695226
51	0x3dbcf6b3	0.09226742
52	0x3e2787b2	0.16360357
53	0x3e1385ab	0.14406459
54	0x3e08cf1e	0.13360259
55	0x3e118996	0.14212641
56	0x3dd1fa5a	0.10252829
57	0x3e24e33c	0.16102308
58	0x3e0ddfdd	0.13854928
59	0x3dd765b2	0.10517444
60	0x3e8d276b	0.27569136
61	0x3e495f00	0.19665146
62	0x3e239e42	0.1597834
63	0x3d77b83e	0.06047844
64	0x3e2d481d	0.1692204
65	0x3d33ab3a	0.043864466
66	0x3e34f5d1	0.17671897
67	0x3db18bb4	0.086692244
68	0x3e47ce76	0.19512352
69	0xbc0a1dd8	-0.008429967
70	0x3e560f74	0.20904332
71	0x3c7717f0	0.015081391
72	0x3e0bf815	0.13668855
73	0x3df535e8	0.119731724
74	0x3d5ab238	0.05339262
75	0x3e1949a2	0.14969495
76	0x3de0f09d	0.10983393
77	0x3eef9d18	0.4679954
78	0x3df9ced6	0.12197654
79	0x3e65e8d7	0.22452103
80	0x3e8009f3	0.2500759
81	0x3e52d69a	0.20589676
82	0x3d4a8d38	0.049451083
83	0x3e54a300	0.20765305
84	0x3d93aa74	0.07210246
85	0x3e3ab9c7	0.18234931
86	0x3e47976b	0.19491355
87	0x3ceffa37	0.029294116
88	0x3d815a79	0.063160844
89	0x3de35261	0.11099697
90	0x3cfad908	0.030621067
91	0x3d211adc	0.039332256
92	0x3dff05c0	0.124522686
93	0x3eb66e9b	0.3563126
94	0x3edc4291	0.43019536
95	0x3c4b8d31	0.012423799
96	0x3e00e825	0.12588556
97	0xbc63dc88	-0.013907559
98	0x3e0e9635	0.13924487
99	0x3edb8b90	0.42879915
100	0x3bf299f0	0.0074036047
101	0x3e5d1896	0.2159141
102	0xbd351888	-0.044212848
103	0x3d9b5c3d	0.075859524
104	0x3e8ddcb9	0.2770746
105	0x3d01d8bc	0.031700835
106	0xba9fe840	-0.0012199953
107	0x3edd376d	0.4320635
108	0x3f11c88b	0.5694663
109	0x3eebf102	0.46082312
110	0x3e384c5e	0.17997882
111	0x3e2eb2fd	0.17060466
112	0x3e569431	0.20954968
113	0x3d431a42	0.047632463
114	0x3e08b3bd	0.13349815
115	0x3d794422	0.060855992
116	0x3e3355d5	0.17513211
117	0x3ebade17	0.36497566
118	0x3e47f1b2	0.19525793
119	0x3e0ab275	0.13544638
120	0x3e0ac2d1	0.13550879
121	0x3e2bdcc0	0.16783428
122	0x3ed00533	0.40628967
123	0xbd57430c	-0.052554175
124	0xbd7d8b3c	-0.061900362
125	0x3e3ccff6	0.18438706
126	0xbca44bb0	-0.020055622
127	0x3d7b0c58	0.06129107
128	0x3d443fb2	0.047912307
129	0x3d37e29a	0.04489384
130	0x3f0519a6	0.5199226
131	0x3e503f78	0.20336711
132	0x3e0ad62a	0.1355826
133	0xbbfe1510	-0.0077539757
134	0x3e10b2c1	0.14130689
135	0x3e26eb3c	0.16300672
136	0xbc873c0c	-0.016508125
137	0x3cc2c128	0.023773745
138	0x3ebf6131	0.3737884
139	0x3e2be7cf	0.16787647
140	0x3cb09b48	0.021558419
141	0x3ec66c4a	0.38754493
142	0x3f01f3ac	0.5076244
143	0x3e06c6f0	0.13161826
144	0x3eee10d7	0.46497223
145	0x3df2aa6a	0.1184891
146	0x3e06acfe	0.13151929
147	0x3ee7deae	0.4528708
148	0x3e6d360c	0.23165148
149	0xbd7b4f18	-0.061354727
150	0x3e159099	0.14605941
151	0x3e62ae6f	0.22136854
152	0x3df15737	0.11784213
153	0x3e2c6e63	0.16838984
154	0x3d31279c	0.043250665
155	0x3e4704cc	0.19435424
156	0x3e25070d	0.16115971
157	0x3e77dd87	0.242056
158	0x3e5ccae1	0.21561767
159	0x3eeebd11	0.4662862
160	0x3dde5caf	0.10857522
161	0x3e1830d2	0.14862373
162	0x3e31b780	0.17355156
163	0xbd648004	-0.055786148
164	0xb92c3a43	-0.00016424902
165	0x3e4a9dea	0.19786802
166	0x3d82d7d6	0.06388824
167	0x3e39c73c	0.18142408
168	0x3e6cf9b6	0.23142132
169	0xbca9b074	-0.020714022
170	0x3d551170	0.052018583
171	0x3e13f698	0.14449537
172	0x3dc2c70b	0.09510621
173	0x3e998adb	0.2998875
174	0x3df6f077	0.12057584
175	0x3cfbdba4	0.030744381
176	0x3e76bfe9	0.24096645
177	0x3e0d9bbc	0.13828939
178	0x3d6a88a0	0.057259202
179	0x3c98e284	0.018662699
180	0x3e0083dc	0.125503
181	0x3dc49e58	0.09600514
182	0x3de53c1b	0.11193105
183	0xbd1da4ac	-0.03848712
184	0x3d35c520	0.044377446
185	0x3e08760b	0.1332628
186	0x3e08f013	0.13372831
187	0xbd657390	-0.056018412
188	0x3dc5d206	0.096591994
189	0xbbffe9e0	-0.0078098625
190	0x3e4b132c	0.19831532
191	0x3e3d9e01	0.18517305
192	0x3c8d6bc0	0.017263293
193	0x3e3a0e9f	0.1816964
194	0x3e0955d1	0.13411643
195	0x3e2d460b	0.1692125
196	0x3e1b5142	0.15167716
197	0x3e0c4e8d	0.1370184
198	0x3e6962c9	0.2279159
199	0x3e1f6071	0.15564133
200	0x3e376312	0.17908886
201	0xbc994a60	-0.018712223
202	0x3dd525cb	0.10407599
203	0x3df47b62	0.11937596
204	0x3ea9de6e	0.33177513
205	0x3e3fd1be	0.18732354
206	0x3d789e42	0.0606978
207	0x3e5c765b	0.21529524
208	0x3d936613	0.071972035
209	0x3d23f012	0.04002387
210	0x3e2b872c	0.16750783
211	0x3e6d99f2	0.23203257
212	0x3e0c2ff3	0.13690166
213	0x3e45f689	0.19332327
214	0x3e4c924f	0.19977687
215	0x3cf0112d	0.029305065
216	0xbd1e7ebc	-0.038695082
217	0x3e0f237c	0.1397838
218	0x3ef18478	0.47171378
219	0x3e65aed7	0.22429977
220	0x3e6e1176	0.23248848
221	0x3dbe1ff1	0.09283436
222	0x3e375a14	0.17905456
223	0x3e57b43e	0.2106485
224	0x3e311405	0.17292793
225	0x3e548efe	0.20757672
226	0x3ec4931c	0.38393486
227	0xbbb35500	-0.0054727793
228	0x3d6f39c4	0.0584047
229	0x3e5356e0	0.20638609
230	0x3dd74557	0.105112724
231	0x3dd84369	0.105597325
232	0x3e43c902	0.19119647
233	0x3e000b47	0.12504302
234	0x3e7ad11f	0.24493836
235	0x3d880867	0.066422276
236	0x3dd300e5	0.10302905
237	0x3e218ed9	0.15777148
238	0x3e5cc47e	0.21559331
239	0x3e5abeef	0.21361898
240	0x3e4addcb	0.1981117
241	0x3e1f534d	0.1555912
242	0x3df8d23b	0.12149473
243	0x3dcc657c	0.09980294
244	0x3b889fa0	0.0041694194
245	0x3d1bd7a6	0.038047455
246	0x3e454b06	0.192669
247	0x3e4a3811	0.1974795
248	0x3e0f1441	0.1397257
249	0x3e8c31b9	0.27381685
250	0xbd0d72d1	-0.034533326
251	0x3d05db44	0.03267981
252	0x3ecb01c5	0.39649788
253	0x3ccc6234	0.02494917
254	0x3e463aa9	0.19358315
255	0xbd4f66ac	-0.050635025

network.layer4.bias f4 [26]
0	0x3cca3b89	0.024686592
1	0x3e38d3d8	0.18049562
2	0x3dc53604	0.09629443
3	0xbe1feea9	-0.15618385
4	0xbe2684b5	-0.16261561
5	0x3d4234a8	0.0474135
6	0xbe12438a	-0.14283577
7	0xbe3f663c	-0.18691343
8	0xbda97551	-0.082743295
9	0x3eaf8dbc	0.34287822
10	0x3e797929	0.24362625
11	0x3d3cc9b9	0.046090815
12	0x3e6cba27	0.23117886
13	0xbd2aa6eb	-0.04166309
14	0xbd3192d0	-0.043352902
15	0xbe3948f6	-0.18094239
16	0xbe678401	-0.22608949
17	0x3e899065	0.26867977
18	0x3da9743a	0.082741216
19	0x3e7a0e65	0.24419554
20	0x3e25d74a	0.16195408
21	0x3e4a5c5c	0.19761795
22	0x3de5f5a4	0.11228493
23	0x3d01ebbb	0.03171895
24	0x3e359fdc	0.17736763
25	0x3e3732da	0.17890492
