DQN_panda_obs/model_panda_trained2.pth (torch, 275919 bytes, 8 tensors)

network.layer1.weight f4 [192, 3]
00000000: bbe7 2f3f 49ab c1be 4739 113e 769d 453e
00000010: 71f5 9dbe a780 413e 80ce 1e3f d605 a6be
00000020: d79b be3e 4740 8c3e aee9 a63d bc1d 86ba
00000030: 3e48 0bbf 5508 17bd 6133 e13e f54c e33d
00000040: 562c 12bf 8412 4fbd 94c5 a8be 3429 0bbf
00000050: 4c2f a3be 5630 adbe 9ff4 ed3d 38c4 0d3e
00000060: b9bd a3be 59bf 25bf dad9 733d 054c 00bf
00000070: 7a2a cc3d b9ce 51be 167b f53d a577 87be
00000080: 5721 29bf 91f7 933e 0452 243e 6893 303e
00000090: 389c f5be f059 01bf 942d 2d3f d8c2 82be
000000a0: 9bd2 d1be ad1b ebbe a42f 01bc f707 c93e
000000b0: 4962 dbbd 1f3c a33e f2f2 f2be 8bb4 4a3e
000000c0: 2019 0fbf 4e8e 15be b99c 843e f214 3bbd
000000d0: 8efd c1be 2fc2 f23e 452d 00be 827c 0fbf
000000e0: 5a90 7abd 7106 efbe b378 86be 226f db3d
000000f0: ad20 12bf f105 21be 096b cdbe 2eef c63e
00000100: 71d9 2dbf cb2f 773c bf9e 93bd 286f aabe
00000110: 9063 06bf 3acc 953e b73b 873e 352a 94be
00000120: 2cab c6be 66cc ddbd d99d dfbe 9c76 b0bd
00000130: 58d6 01bf 2829 7d3d be2f 623d 2c58 23bf
00000140: ce92 1bbe 9477 1b3f 173d 48be 1196 f83e
00000150: d8a9 61bb 22ec 5c3d eb61 8dbc 3b1b d8bd
00000160: 0e86 813e 8a40 c33e d922 88be 92e9 1dbf
00000170: ccca 01bf 33d1 f73e eba3 2ebe 7465 363e
00000180: 583f 23bf c682 a13e e21f 9d3e 263d 023f
00000190: 0687 c4be 3caa 863e c5d0 813e 23e0 18bf
000001a0: c89f 873e 0202 cfbe 4c18 10bf 025f 113f
000001b0: 50ba a1be 61e0 883b 2b1b d4be 7309 07bf
000001c0: 7f0a f83e c02c 8dbe a1b4 0d3f 002e a5be
000001d0: a54c 03bd 4e9a 10bc a05e 393e f230 fc3e
000001e0: ce78 de3e de3d 7d3e 8bf6 b8be 3b3f b3be
000001f0: ea90 a9be 227f bc3e 4e02 f13e 30c5 2dbe
00000200: 0f41 ea3d 5696 2b3f fb21 84be 84b0 d13d
00000210: 3286 91bd 8d6a 1abf 6275 153f 9d27 04bf
00000220: c759 143e 85d6 21bd 6b0f f5be 6e36 ecbe
00000230: eaea 8abe 17bd e3be 9250 563e ec73 d1bd
00000240: a87d 673e 4826 093f b8a6 0b3f d623 7ebe
00000250: 4e75 a03d 99fc 103f 85a2 dbbd 01a3 8e3e
00000260: 3411 b2be 2a16 4c3d e167 9cbe d368 e4be
00000270: 91c5 283e 2f7a 06bf 10b6 e1bd 59ec 10be
00000280: 6bcb 063f 1de0 28be f1fa 82be bbbc d03e
00000290: cc8b 643e d5be 0dbf ef1b af3e 989c 123e
000002a0: 18b4 cebe bd9a 693d c297 9e3e 2c1b 75be
000002b0: 8618 d9be 411e dabd e80d ccbe 6432 d83e
000002c0: e8e5 e83c 5b63 5fbe 6151 eebe 7267 173e
000002d0: faf8 c0bd 3eba f13d 5a2f c33e 2348 10bf
000002e0: 6327 c13e 056a 25be 61f6 3ebe dc48 1abf
000002f0: e792 babe f918 96be ac40 11bf 0ac0 b43e
00000300: 58af f3be 062d dc3e cbdf 0d3f c520 f83e
00000310: 8e2d 113f 596a ef3c 37c0 bb3d 622c 42be
00000320: afd1 afbe 4d58 18bf e065 b43e 6369 d53e
00000330: a1ea 89bd a73b 1d3e 6e43 dfbe db6f 593e
00000340: 050e 3abf 0251 edbd 8e9f 0cbf 0893 473e
00000350: dc02 743e 3d49 bebe 41ad 9a3d 0341 223e
00000360: f2f0 24bf ee19 47bc 4749 56be 3b73 b2be
00000370: 199d bc3e 15d8 e83d 4506 f2be efba d5be
00000380: e57b 03bf 023c 08bf d57c 48be 100d eebe
00000390: d946 bb3c ca7e fdbe c3c9 5e3d 9db5 c0bc
000003a0: bb4f 85be ca08 da3e 536b d33e 88a3 a2be
000003b0: 77bd b33e 8ce3 8d3e 4918 2cbf 8680 d13e
000003c0: bb79 c73e 3886 bebe 811e c33e c376 52bd
000003d0: 5501 e7be e45a 2cbf 7ea4 123f 9d39 293e
000003e0: 16ec 3bbe ec18 f33e 7112 0cbf a7d5 1d3f
000003f0: 56f2 143f 6c54 c9be 152c 6e3d 5642 bfbe
0.6871297 -0.37825993 0.14182006 0.19298348 -0.3085132 0.18896733 0.62033844 -0.32426327
0.3722827 0.2739279 0.081500396 -0.001023225 -0.5440711 -0.03687318 0.43984511 0.11098663
-0.570989 -0.050554767 -0.3296324 -0.54359746 -0.31872022 -0.3382594 0.116189234 0.13844383
-0.31980684 -0.647451 0.05953393 -0.50115997 0.09969039 -0.20489015 0.119863674 -0.2645847
-0.660665 0.28899816 0.16046911 0.17243731 -0.47970748 -0.5052786 0.6764767 -0.2553928
-0.40980992 -0.45919552 -0.007884894 0.3926389 -0.10712106 0.31881806 -0.47450978 0.19795434
-0.5589771 -0.14605066 0.2590082 -0.045674272 -0.3788876 0.47413775 -0.12517269 -0.5604936
-0.06117282 -0.46684602 -0.2626396 0.10714556 -0.5708111 -0.15724923 -0.40120724 0.38854355
-0.67909914 0.015087078 -0.07208013 -0.3328793 -0.5249567 0.29257375 0.26412746 -0.2893845
-0.3880247 -0.108300015 -0.43675116 -0.08616373 -0.5071769 0.061806828 0.05522131 -0.63806415
-0.1519272 0.60729337 -0.19554554 0.48551992 -0.003443351 0.05393613 -0.017258605 -0.10552069
0.25297588 0.38135177 -0.26589087 -0.61684525 -0.5070007 0.48401794 -0.17054717 0.17812139
-0.6376853 0.31545085 0.30688387 0.50874555 -0.38384265 0.26301754 0.2535459 -0.59717005
0.2648909 -0.4043122 -0.56287074 0.56785595 -0.31587458 0.0041771387 -0.41426978 -0.52748793
0.48445508 -0.27573204 0.5535374 -0.32261658 -0.032055516 -0.008825852 0.18102503 0.49256092
0.43451542 0.24730632 -0.36125597 -0.3500918 -0.33118373 0.36815745 0.4707207 -0.16969752
0.1143819 0.6702627 -0.25807175 0.10238746 -0.07105674 -0.60318834 0.58382237 -0.51622945
0.14487372 -0.039511222 -0.47863325 -0.46135277 -0.2713235 -0.44480202 0.20929173 -0.102271885
0.22606528 0.5357404 0.5455127 -0.24818358 0.07834874 0.56635433 -0.107243575 0.27858737
-0.3477875 0.049825825 -0.30548003 -0.44611225 0.16481616 -0.5253019 -0.11021054 -0.1415266
0.5265414 -0.16491742 -0.25582078 0.4076899 0.22318953 -0.5536931 0.34201 0.14317548
-0.40371776 0.057032336 0.30975157 -0.23936146 -0.42401522 -0.10650302 -0.3985436 0.42225945
0.02842994 -0.21815245 -0.46546462 0.14785555 -0.094224885 0.11803101 0.38122064 -0.5636007
0.37725362 -0.16153724 -0.18648674 -0.60267425 -0.36440203 -0.29315928 -0.56739306 0.35302764
-0.47594714 0.430031 0.55419606 0.484625 0.56710136 0.029225515 0.091675214 -0.18962243
-0.34339663 -0.59509736 0.35233974 0.41681966 -0.06734205 0.15354787 -0.43606132 0.21234076
-0.7267764 -0.11587717 -0.5493096 0.19489682 0.23829216 -0.3716525 0.07552577 0.15845113
-0.64430153 -0.012152178 -0.2092639 -0.3485354 0.36838606 0.113693394 -0.47270408 -0.41744182
-0.51360923 -0.53216565 -0.1957887 -0.4649434 0.022860931 -0.49510795 0.054391634 -0.0235241
-0.26037392 0.4258483 0.4129282 -0.3176539 0.35105488 0.27712667 -0.67224556 0.40918368
0.3896006 -0.37211776 0.3810921 -0.05138279 -0.45118204 -0.6732619 0.57282245 0.16525884
-0.18351778 0.4747995 -0.5471564 0.6165413 0.58182275 -0.3932222 0.05814751 -0.37355298

network.layer1.bias f4 [192]
00000000: a42c 33be 64ee 303f 7f39 8b3e af67 f13e
00000010: 5cdf 9abe 6abb 05be e054 be3e 6d59 193f
00000020: 4591 d53e efa0 533e 64c0 843e 3d34 283e
00000030: 0e12 5c3e be52 ac3d a4a1 b93e 0511 e5be
00000040: b71c b33e a2b0 be3e c625 353f bb8f a53e
00000050: 1d45 163f ba76 0fbe 9b82 8a3e ce33 05be
00000060: b1fa 26be 6a2a cdbe 3f20 2ebe aad8 c43e
00000070: fa6a 8f3e 14bc a8be 6a3a c03e 1720 81be
00000080: a1b8 66be 1f69 bcbe c76c a9be 342c 943d
00000090: e4d8 113f 6edc 08be 1ec9 1f3f fb92 553e
000000a0: d8c1 89be 4208 193f 3889 9b3d 9d76 7c3d
000000b0: 83e7 963d 5f73 ca3e 7728 c03e 6a7a 2f3f
000000c0: e97d 7f3e 1146 edbd 3d0b 08bf 5c5c 443e
000000d0: 5389 9f3e 3cdd cebe 18d4 c73e a7b7 02be
000000e0: 5913 813d 7135 86be cef3 253f 16b4 e03e
000000f0: 4b2d f9bd 46fe c9be 0e51 0a3f 29ff 203f
00000100: ef3d 36be d46c 02bf 993e 8c3e c453 893c
00000110: f040 03be e600 58be 754f 64be 1612 82bd
00000120: fe29 debe 2ef6 6f3e 1661 953e 887d 9dbe
00000130: 1154 97be feb5 323e 7478 253f 2132 eb3e
00000140: 5aef 4dbe 5c47 663e 7ad4 3fbe 03cc 223f
00000150: b54c 253d b1a6 b13e 9ce8 003e 082a 0a3f
00000160: 7846 7f3e 3def 3f3d f8cc a3be 0ca2 f33e
00000170: 1ccb e23e 0364 11bf 18a0 253f 1880 27bd
00000180: 5f5a 863e 791f ec3d e84e 06bf 955e 533e
00000190: a0d7 143f 941b 97be 6e00 b83d 7b9f 5e3d
000001a0: 5db8 0f3e ed35 063f 55c5 65be c673 a2be
000001b0: 4262 033f 9e2d 9a3e 043b 893e 7b3f 1f3f
000001c0: f20f d5be 0eb3 303e f9be 303e ee0f d3be
000001d0: cf68 53bd b438 83be c927 183e aeca 973d
000001e0: 7c15 9bbe 3615 19bf 48ac 443e 8847 91be
000001f0: 5102 ec3e fefb cbbe 1992 5ebe f8fe 1d3f
00000200: 40d3 d7be 2589 c3be ab9f d33e 1c6a 853d
00000210: 9452 07be 0eae 93be 6a69 a43e 4d0a b83e
00000220: 1720 38be 0684 a3be a8a5 aebd f651 0cbf
00000230: da10 303f d3ce e83e 4bad 233f 35ea 223f
00000240: 92ea 7f3e 4e1d 0c3f fb2d 113f 5fa2 d93c
00000250: 5e34 02bf 985b ce3e 8ea5 1f3f 7be5 273f
00000260: c07a a43e 7165 13be 9dee 263e d154 873e
00000270: c339 093f 9660 173f d89f 0abf f4b4 95bd
00000280: fb34 3cbd 48fe 173f 9a5c 003f 9343 a3bd
00000290: 731f e73c af37 fa3c 36f9 d63e ca52 3d3c
000002a0: e7d4 aa3e e60c 623e c569 d3be 603c f8bd
000002b0: 1ede ae3e bea4 4a3e 4d4b 99be 3652 d6be
000002c0: 0172 99bb efac 013f 8771 3bbd 0185 23bd
000002d0: 5719 133f cbf2 163d ec07 80bd c2ce 6c3e
000002e0: b791 153f 522b 29be 3bd3 e23d f99d a9bd
000002f0: 6a90 d2be 6138 8e3e 60e9 303e f240 68be
-0.17497498 0.69113755 0.27192304 0.47149417 -0.30248535 -0.13059774 0.3717413 0.5990208
0.41712394 0.2066686 0.25928032 0.16426177 0.21491262 0.08414219 0.36256135 -0.44739547
0.34982845 0.37244135 0.7076076 0.3233622 0.5869921 -0.14010134 0.2705277 -0.13008043
-0.16306569 -0.40071422 -0.17004488 0.38446552 0.28011304 -0.32955992 0.37544566 -0.25219795
-0.22531368 -0.3679895 -0.33090803 0.072349936 0.56971574 -0.13365337 0.62416255 0.2085685
-0.26905704 0.59778225 0.07594532 0.061636556 0.07368376 0.39541146 0.37530872 0.68546164
0.24950375 -0.1158563 -0.5314215 0.19175857 0.31159458 -0.40403163 0.39029002 -0.1276537
0.063025184 -0.26212648 0.6482514 0.43887395 -0.12166842 -0.39451808 0.5402993 0.62889344
-0.17797063 -0.5094731 0.27391508 0.016763575 -0.1281774 -0.21094093 -0.22295935 -0.06351106
-0.43391412 0.23433754 0.29175633 -0.30759835 -0.29556325 0.17452237 0.6463692 0.45936683
-0.20110837 0.22488159 -0.18733397 0.6359255 0.040356357 0.34697488 0.12588733 0.53970385
0.24929225 0.046859015 -0.31992316 0.4758457 0.44295585 -0.5679323 0.6469741 -0.040893644
0.26240823 0.115294404 -0.5246415 0.20641549 0.5814152 -0.29513228 0.08984457 0.05435131
0.14035173 0.52426034 -0.22438557 -0.31728953 0.51321805 0.30112928 0.26802838 0.6220624
-0.41613728 0.17255804 0.1726035 -0.4122309 -0.051613625 -0.256292 0.14858927 0.07411705
-0.3028983 -0.5979799 0.19206345 -0.28374887 0.46095517 -0.39840692 -0.2173542 0.61717176
-0.42153358 -0.3819057 0.41332754 0.065143794 -0.13215095 -0.2884373 0.32111675 0.3594536
-0.17980991 -0.31936663 -0.0852769 -0.5481256 0.68775713 0.45470294 0.639363 0.6363862
0.24991825 0.54732215 0.56710786 0.026566682 -0.50861156 0.40304255 0.6236199 0.65584534
0.321249 -0.14394166 0.16301961 0.26431897 0.5360376 0.59131753 -0.5415015 -0.07309905
-0.045948964 0.5937238 0.501413 -0.07971873 0.028213238 0.03054413 0.41987008 0.011555383
0.33365557 0.22075233 -0.41291633 -0.121208906 0.34153837 0.19789407 -0.29940262 -0.41859597
-0.00468278 0.506545 -0.045762565 -0.039921764 0.5746054 0.03685264 -0.06251511 0.23125747
0.5842547 -0.16520432 0.11075445 -0.08282084 -0.41125804 0.2777739 0.17276525 -0.22681025

network.layer2.weight f4 [256, 192]
00000000: 1a6c 4b3d 8cc2 afbc 834a 383d a1ad 24bd
00000010: c0fa 8d3d 364b 0d3c 3c4f be3c f585 d9bc
00000020: 0a28 74bd f90b 33bd a2d5 1dbd b6d6 f13b
00000030: c772 81bd 532a 443d 056c b33c 1f5c fb3c
00000040: 38f5 843d b305 90bd 6c5b 923d ba44 1d3c
00000050: da05 edbb b5a9 033b eb70 a4ba 655e e1bc
00000060: 99bd 28bc 3479 c4bc 2c3e 3b3d 323c 223c
00000070: 265e 863c e344 4f3d 2443 5d3d 77f9 843d
00000080: e0fd 7f3c 7a66 463c e562 b8bc 979b 913d
00000090: 0a23 3f3d 96f3 493d aeee 8dbd 2eb3 ea3b
000000a0: f821 ddbc c72a febc 491e 3d3d bb25 a0bc
000000b0: 487e 843d 75da 87bd 103b 893d b3c4 1e3d
000000c0: 69f2 adbc 50d4 8fbd 6814 c93b 89be 8abd
000000d0: b829 1f3d b511 a0bc bfb1 12bd f371 0fbd
000000e0: 9d0c 023c bc54 173d 9476 e8bc b52c 463d
000000f0: 554c debb eade 8fbd 2ae8 c8bb 9de0 38bc
00000100: e0c7 b73c ead8 573d 11c2 20bd e2ee 683d
00000110: 5eff c6ba 77fa 28bd f974 933d 88cf 02bd
00000120: 0ce5 8f3d 2e9c d23c 7114 c8bc c484 aa3c
00000130: ebe3 4abd 2205 8a3c 5401 3e3c edb3 7e3d
00000140: 5b37 1cbc 3c79 23bc e724 2f3d 2215 1ebd
00000150: 8645 093d 3b82 fe3c f45b 84bd 4a28 82bd
00000160: dadb 203d fb5c a53c 1337 323d f116 d73c
00000170: 608b 7abd cbf2 98bc 5308 89bc 0dc6 7d3b
00000180: ff4a 8fbc 140d 45bd 2340 77bd 9c15 dcbc
00000190: 1037 5f3d 520b 62bd 69c5 42bb 82a0 52bd
000001a0: 69b0 8a3d 904a 7f3d 3542 34bd 5188 24bd
000001b0: f3a6 6d3d 7514 83bd dde0 7fbc 2835 103d
000001c0: db39 34bd 8aa8 93bd c781 7dbc eeed d53b
000001d0: 3639 aebc 546f 6cbd 1d6f f03c 8b5a 493d
000001e0: 3208 2cbd 8900 72bc 9e93 083d 791f 87bc
000001f0: 1db2 82bc 4489 013b 6a62 a83a aeba 493d
00000200: c142 4a3c a07b 7bbd 8bf7 8dbd 7966 3e3c
00000210: f0dc 873d 432c 20bd 3276 173c 9897 50bd
00000220: 07b8 92bd 303f 67bc 446f fc3c 6d37 4d3d
00000230: f47f 143d 6f89 853d 0330 71bd 1b03 4bbd
00000240: f526 05bd b364 7bbd 1c86 febc 367f 913c
00000250: dc66 fdbc 534d 42bb a0e5 4fbd 1839 4bbd
00000260: f063 99bc 61d4 b83c 274e db3c 206e a8bc
00000270: 4164 c0bc fc92 2bbd 113b 10bd c88f 283d
00000280: 4b56 623a 542a 9c3c 20f6 bfbc fda7 60bd
00000290: 37aa 4fbd f80b 30bd ab3c 343d b0ad 52bd
000002a0: 812a 8abd 8329 ab3c 5bd1 01bd 4653 89bc
000002b0: 9398 40bd 130f 273d 0b94 d33b 374f efbc
000002c0: 3da3 023d e636 07bd 49bf 033d 277b 783d
000002d0: b17b 68bd e41b dfbb 180f 593d ccf2 cf3b
000002e0: 1d3e 723d c3e9 b93c e66f b1bc 2b0d 543d
000002f0: cbe7 863b e096 5ebd bf6f 29bc a637 1e3c
00000300: cb51 37be 3731 a63d e753 21bd 870f 75bd
00000310: ac26 18bd 17a3 81bd 6eef b73d 88b8 c83d
00000320: 890d 983d 4fb8 b23d 5d32 6c3e e532 a03d
00000330: 6aa6 20ba 851d 223e 9108 3f3d 4715 efbd
00000340: 3113 0bbc f2b5 b03d 573d 273c aff9 793d
00000350: 5c04 8d3d 7210 9fbd d029 923e f7f7 8ebc
00000360: b400 3f3d 8150 99bd ea74 c3bc 1562 7c3d
00000370: e022 5a3d 6b39 fb3b d99b f1bc e950 e6bd
00000380: c608 bb3c c1f8 bdbc 2a36 803c 78e4 19bc
00000390: 2df6 e33d f650 8abe a7a4 dc3c d4ff a73d
000003a0: 7f0d 87bd 668e 9d3d 41ce f1bd 831c b3bd
000003b0: f6da 2e3d 6c2b 073e d04f 9b3d 9712 f13d
000003c0: df3e e73c 2cbc 903d a661 93bd 09b2 c63e
000003d0: c1e2 80bd 6db2 87bc 202f 9d3c 9dc1 1e3d
000003e0: ee9d 2e3d 28df aabc eaeb d83d 5610 59bc
000003f0: 3013 abbb 12f4 6abe 800e f33c 321f 373d
0.04966364 -0.021455072 0.044992935 -0.040204648 0.069325924 0.008623889 0.023231141 -0.026553134
-0.059608497 -0.04371259 -0.038533814 0.007380332 -0.0632072 0.047891926 0.021902094 0.030683575
0.06492084 -0.07032337 0.071463436 0.009598905 -0.0072333636 0.0020090167 -0.0012545859 -0.027510831
-0.01029911 -0.023983575 0.04571359 0.009902047 0.016402315 0.050602805 0.05401911 0.06492894
0.015624493 0.012109393 -0.022508094 0.071097545 0.046664275 0.049304567 -0.0693029 0.007162473
-0.026993737 -0.031026257 0.04617146 -0.019549241 0.06469399 -0.06633464 0.067007184 0.038761806
-0.021233754 -0.07022917 0.006136466 -0.06774623 0.038858145 -0.019539693 -0.035814043 -0.03502078
0.007937578 0.036946043 -0.028376855 0.04838248 -0.006784002 -0.07024939 -0.0061311917 -0.011284021
0.022434175 0.0526971 -0.039247576 0.05686844 -0.0015182307 -0.041254487 0.07200045 -0.0319362
0.07026109 0.025709238 -0.02442381 0.02081526 -0.049533766 0.01684815 0.011596996 0.06218331
-0.009534682 -0.009977635 0.042759802 -0.038594373 0.03351357 0.031067958 -0.06462851 -0.06355341
0.039272167 0.020185938 0.043509554 0.026256057 -0.061168075 -0.01867046 -0.016727602 0.0038722784
-0.017491816 -0.048108175 -0.0603639 -0.026865773 0.05449587 -0.055186577 -0.0029719716 -0.051422603
0.06771929 0.062326968 -0.044008452 -0.040169064 0.058020543 -0.06400386 -0.015617576 0.035206944
-0.044000488 -0.07209881 -0.015472836 0.0065286076 -0.021267515 -0.05772336 0.029349858 0.049158614
-0.042000003 -0.014770635 0.033343904 -0.0164945 -0.015954072 0.0019765655 0.0012846712 0.049250297
0.012345017 -0.061397195 -0.06931981 0.011621111 0.06633937 -0.03910471 0.009244489 -0.05092582
-0.07164007 -0.014114186 0.030814774 0.050101686 0.036254838 0.06520354 -0.05888368 -0.04956351
-0.032507855 -0.06137533 -0.031069808 0.017760854 -0.030932836 -0.002964814 -0.050756097 -0.049614996
-0.018724412 0.022562208 0.026770664 -0.020560324 -0.023485305 -0.041888222 -0.03521258 0.041152745
0.00086340745 0.019063152 -0.023432791 -0.054847706 -0.05069944 -0.042980164 0.04400317 -0.051435173
-0.06746388 0.020893818 -0.031693798 -0.01676334 -0.047020506 0.04078586 0.006456857 -0.029212577
0.031893957 -0.03301134 0.032164846 0.060664322 -0.056758586 -0.0068087447 0.05299291 0.0063460823
0.059141267 0.022694474 -0.021659803 0.05177037 0.0041169873 -0.054343104 -0.010341584 0.009656822
-0.17902295 0.08114856 -0.039386656 -0.05982926 -0.037146255 -0.06329935 0.089812145 0.098008215
0.074244566 0.0872656 0.23066087 0.07822207 -0.0006128313 0.15831573 0.04663903 -0.1167398
-0.008488462 0.08628453 0.010207496 0.061029132 0.06885597 -0.077668086 0.28547525 -0.017452223
0.04663153 -0.07486058 -0.02385946 0.061616976 0.053255916 0.007666757 -0.02949326 -0.11245901
0.022831332 -0.023189904 0.015650827 -0.00939285 0.11130939 -0.27014893 0.026933981 0.08203092
-0.06594371 0.07693176 -0.11806918 -0.087456726 0.042689286 0.13200158 0.075835824 0.11771124
0.028228221 0.07067141 -0.07196359 0.38807705 -0.0629325 -0.016564572 0.01918751 0.038758863
0.042631082 -0.020858362 0.10591872 -0.013248524 -0.005220793 -0.22944668 0.02967 0.044707485

network.layer2.bias f4 [256]
00000000: 3c06 57bd 399c 823c e236 8fbd 21b9 903d
00000010: b79c e4bc 740b 1e3d 09be 9d3d 746a d93d
00000020: d4e7 0b3d 17dd 9e3d 6dbf bb3d 1733 f33d
00000030: 0d8b 413d 031f 123d bf42 f63c 5926 853c
00000040: aebe 6bbc 4a99 033d c853 5fbd 66e4 48bd
00000050: 26cb 5fbd d289 b03d f46e 223d 6e41 853d
00000060: 0357 ec3a 7aaa 2c3e fbc6 043e 0e6a ebbc
00000070: 89ef 94bc e861 693e d875 743d 6947 8d3c
00000080: 2665 d13b f5fc ad3c bfcc 873d e4c6 953d
00000090: 621f d2bc 3516 3f3d 3ee3 ca3c 60c5 9c3d
000000a0: 528a e23d 294e 1abd bd64 90bd 1420 d93d
000000b0: 41a8 d53b 52e5 2c3e 72c0 543d 6238 353d
000000c0: 3f29 c93c a179 6b3d 1b31 533d 18b1 bb3b
000000d0: 1f5d 173e 4c95 073d c03c 1a3e 255d dbbc
000000e0: 246e af3d 98d6 e43d 657c 8f3d 25d4 18bd
000000f0: f31b 5e3d 4f8f 813d 28d6 4a3e 32e1 863c
00000100: c84d 2e3d 8737 ed3d 25c9 4c3c ac0c a5bd
00000110: 025c 973c c3df aa3d 2147 c43d ab02 e0bc
00000120: da80 d53d 1117 243e 5310 43bc 4a60 1a3d
00000130: 3a47 ed3c 4475 2c3d 820d d93d c1da c63d
00000140: 17a0 263d 4741 b73d bb1b 863d 5a92 6ebd
00000150: 74c9 37bd a1ef 963c ae9d 833d f2e0 453c
00000160: 8db4 123d fa0d 853d a661 833d f421 4c3e
00000170: e214 373e d14a 143e b560 c33d b837 84bb
00000180: 6829 1abd bc81 a93d 84a5 44bd c0d2 b63c
00000190: 0368 0e3c 840c d13d c8c4 053e 3896 373d
000001a0: b1da b13d 5c6b 0c3d 7b22 ca3d 5b39 cebc
000001b0: 5106 ab3d 6d13 b93d b595 8cb6 2a21 a33d
000001c0: 5e70 743b eeb9 b7bc 9f7a 763d 6672 f3bc
000001d0: 9375 1dbc c66e 2d3d 5070 0b3d 5a1e 0f3d
000001e0: ce34 93bd f036 ea3c a856 173e 2ff3 7d3d
000001f0: f238 fa3d 959d 8ebd 3a96 e13d 56b2 173d
00000200: 8a8b b93d 501c 70bb 186e b93b 5625 da3a
00000210: 56b3 e63b 9f51 1d3e 9523 6f3d 8cf2 3c3d
00000220: 29da cabc aa3e 833d c46a dc3d f12a 1a3b
00000230: cd78 873d 41e3 973d 4007 223d 5807 63bd
00000240: 5ad8 6d3d b66d fc3c b517 313b b10b a83d
00000250: 2041 4cbc 35ec 71bd f35d a43d b219 1b3e
00000260: 086a a93d 46c2 2c3e 1e4a 6e3d 2a20 d13c
00000270: 2d69 613d 8ba9 113e 7a99 df3d 398f 1b3d
00000280: e343 f33b aa73 ce3d 1d14 e13d 819a 68bc
00000290: 8771 d13d b014 8e3d 66e1 283e 07e1 423d
000002a0: 54a3 0a3e 6bb6 d03d 95e5 f8bc c884 c1bc
000002b0: 4edf 87bd 0040 9fbb ac51 b9bc 292e 8c3d
000002c0: 2947 9e3d 87f5 a33b 3c6f b1bc 7eb9 0cbd
000002d0: 64d6 c83c 335b 11bc b093 dd3c 046e ac3d
000002e0: d111 e83c 4d68 c6bb 4cf7 cc3d d7f2 d1bc
000002f0: 9b57 8f3d 1b7a 273d a4c3 bc3d d843 883d
00000300: 7e9b f33d b113 fc3d 13fc 9c3d 4301 073e
00000310: e8e9 363e 4308 b73d fbaa 59bc efc7 39b9
00000320: c7d9 cd3d 6e76 ba3d c3c7 02bc 8414 fa3d
00000330: 3e51 063d 4bf1 b23d 6eaa 043e 2d5f 873d
00000340: 9c2e 123e e426 333e b2ab 233d 3c06 6a3d
00000350: d536 333d 548e a83d 7dd3 0d3c d580 933b
00000360: 09d0 8d3d 0634 3fbc d8bf a73d 9173 72bb
00000370: d1a7 843d 8ffe 633d 0706 85bc 4ab7 303b
00000380: a245 be3d 3614 5c3d e1a8 203e 7e67 1a3c
00000390: b904 eb3d c29d a93d 8680 4cbc fcc8 19bd
000003a0: a892 f53d cdbd 80bd 951b fb3d 75f4 5b3d
000003b0: c6fd 8e3d 9b37 3b3e 5ea3 15bd c658 69bd
000003c0: 7a85 033e 5d03 563d 2097 ba3d 3424 21bd
000003d0: 2d44 1c3e 40a7 adbc f0e3 0a3b 7af4 a53d
000003e0: e9bd 1fbd c915 6e3c d844 a83d af72 9b3c
000003f0: de92 d53c 59b4 5c3d b1fe 8abc 8e32 ea3d
-0.05249618 0.015943633 -0.0699289 0.070665605 -0.027906759 0.03858514 0.07702262 0.106160074
0.034156635 0.07757013 0.09167371 0.11874979 0.04725175 0.035674106 0.030061124 0.016253637
-0.014388723 0.03212861 -0.05452326 -0.049045943 -0.054637097 0.08620037 0.039656594 0.0650662
0.0018031303 0.16861907 0.1296653 -0.028737094 -0.018180626 0.22791255 0.059682697 0.017245965
0.0063902317 0.021238783 0.06630849 0.07313326 -0.02564973 0.046652038 0.02476656 0.07654834
0.11061539 -0.037672196 -0.07050464 0.106018215 0.0065203016 0.16884354 0.051941343 0.044243224
0.0245558 0.05748904 0.051560502 0.0057278983 0.14781617 0.033101365 0.15062237 -0.026777813
0.085659295 0.11173743 0.07006148 -0.03731169 0.054225873 0.06326162 0.19808257 0.016464803
0.042554647 0.115828566 0.0124991285 -0.080590576 0.01847649 0.083434604 0.09583879 -0.027345022
0.10424967 0.16024424 -0.0119057475 0.037689485 0.028964628 0.04210402 0.105982795 0.09709693
0.040680017 0.089479975 0.06548258 -0.05824504 -0.044869855 0.01842481 0.064265594 0.012077557
0.035816718 0.064968064 0.06415109 0.19934827 0.1787906 0.14481665 0.0953993 -0.0040349625
-0.037637144 0.08276698 -0.04800941 0.02231729 0.0086917905 0.10207465 0.13063347 0.044820994
0.0868429 0.034282073 0.09869858 -0.025173834 0.08350814 0.09036908 -4.1897533e-06 0.0796531
0.0037298421 -0.022427525 0.060175534 -0.029717635 -0.009610551 0.04234197 0.034042656 0.034941055
-0.07187806 0.02859065 0.1477915 0.061999496 0.12217893 -0.0696365 0.110149816 0.03703531
0.09059818 -0.003663797 0.005658876 0.0016643207 0.0070404215 0.15363167 0.058383543 0.04612975
-0.02476223 0.064084366 0.107625514 0.002352413 0.06614838 0.07416392 0.039557695 -0.055426925
0.058067657 0.030814033 0.0027022187 0.08205355 -0.012466699 -0.059063155 0.08025732 0.1514652
0.08272177 0.16870984 0.058176152 0.025528032 0.055031944 0.14224832 0.10917945 0.037978385
0.007423864 0.10080655 0.109901644 -0.014196993 0.10226732 0.069375396 0.16492233 0.047577884
0.13538867 0.101910435 -0.03038291 -0.023622885 -0.06634389 -0.0048599243 -0.022621952 0.06844742
0.077284165 0.0050036344 -0.021659486 -0.034356587 0.024516292 -0.008871841 0.027047962 0.08419421
0.028328808 -0.006054914 0.10008106 -0.02562849 0.06999131 0.040887933 0.09217003 0.06653565
0.11894892 0.12308443 0.07665267 0.13184075 0.17862666 0.08937123 -0.013285394 -0.00017717456
0.10051303 0.0910462 -0.007982197 0.12210944 0.032792322 0.08737429 0.12955639 0.0660995
0.14275593 0.17495304 0.039958663 0.05713485 0.043753464 0.08230272 0.00865638 0.004501442
0.06924445 -0.011670118 0.08190888 -0.0036995152 0.06477321 0.055662688 -0.016238226 0.0026964718
0.09290625 0.053730212 0.15689422 0.0094240885 0.1147551 0.08282043 -0.012481814 -0.03754519
0.11990863 -0.062862016 0.1226112 0.05369993 0.06981997 0.1828293 -0.036532752 -0.056969427
0.12843886 0.0522493 0.09110856 -0.039341167 0.15260382 -0.021197915 0.002119299 0.08103271
-0.03899947 0.014531561 0.08216256 0.018975584 0.026071008 0.05388293 -0.01696715 0.11435424

network.layer3.weight f4 [64, 256]
00000000: 3c4c cc3c bcac 75bd 7a9e 0bbd 1dab d2bc
00000010: 79b6 b7bc 0f52 7cbd 34ae 3f3d f244 493c
00000020: da18 bd3c f13a 3a3d 1710 38bd c382 afbc
00000030: d768 ec3c 60ba 77bd db0c a4bc 8ec0 5b3c
00000040: d4aa 84bd 0099 cb3c a4cb edbc 9d5e fd3c
00000050: 4ed7 59bd 2781 253d 9e5c 55bd bdc8 4f3c
00000060: bfa4 42bc 4b64 383a e90f 403d ede9 82bb
00000070: 94ed 87bc 1623 e2bc e158 dcbc 45b1 4fbd
00000080: 369b 6a3d 8f30 08bc 5434 7cbd 9e4d 2d3d
00000090: 673f 02ba 82bb 463d e8e9 fabc 9a18 2a3d
000000a0: 3f18 e6bc 6428 aebc 401b 943c 03be 113d
000000b0: 8cf0 4d3d a701 eebb cced 313d 857e 52bd
000000c0: 17c2 163b e686 5bbd 2ae1 4bbd 47cd 173d
000000d0: 6fe9 6c3d 60ba f6bb 458c 213d 579f 31bd
000000e0: 628a 3abd 6a9c 113d 6412 78bc 3c83 803c
000000f0: 4028 263d 3ec7 3c3c 050f ea3b a817 183d
00000100: 58ed 8cbd 540e 83bc 066f 60bc 201a 6abc
00000110: c1f9 c3bc 2e20 3c3d 515b 3c3d 72a9 30bc
00000120: 3e1d 35bd 2497 0f3d d63a 433d 4a33 593d
00000130: c409 443d 8393 ac3c 2a3c 5e3d d163 72bd
00000140: 1a61 cebc c3b4 4abd 50db ed3b 91f6 26bd
00000150: 80e2 ccba 61fa 073b 7e56 a0bb f973 553c
00000160: d085 8ebc 10d1 2dbb a93d 87bd 5cb3 6bbd
00000170: c58e ac3c 34fd 35bd a7db 7fbd a26d 26bd
00000180: 207a 8dbb 1427 a83c 5c26 f3bc 2bee 22bd
00000190: 7304 84bd eeb6 813c 34eb 3e3d ac6a f2bc
000001a0: 219b 803c dab2 253d 0325 57bd 9321 c13c
000001b0: 311d 253d 5f1c 253d 8287 72bd 677a 89bd
000001c0: c9b0 bfbc 72f8 253d caaa 24bd 4045 2ebd
000001d0: 2f3f c83c abc7 24bd f8db f03c 5cd0 e2bc
000001e0: ec8a cbbc 2c4a 2d3d 8a48 2a3d 5096 9ebc
000001f0: 7f65 3abd 58af 24bc b027 61bd e36a 56bd
00000200: 3d14 373d 48b8 58bd 9588 963c 30c8 3f3c
00000210: 1179 5cbd 7ee4 c53c 0fcf 4d3b f169 68bd
00000220: 3d5c b9bc d3ac be3c 8216 89bd ccac b9bc
00000230: f894 8e3c 7ba4 47bd 88c5 223c 36af 693d
00000240: 118d fd3c fa97 c3bc 7a78 0fbd 79a3 163d
00000250: 31fe e23c ea55 72bd 9242 e6bc 30b5 9bbc
00000260: 9856 74bd 0317 63bc 3b3f 583c 7463 cc3c
00000270: e08d 15bd 5457 f53a b770 c0bc 5895 f1bc
00000280: 9243 583d 2fdb bebc b985 74bc fb77 013d
00000290: 6ca7 d73c d900 093d da4f cc3b dcff c9bc
000002a0: d824 17bd f461 32bc b6c7 52bd cdac 853c
000002b0: e22d 74bd 1079 4c3d 4ca5 e9bc 20f2 7c3d
000002c0: 3b5c 24bb 656e 05bc 2c27 af3a e012 7d3c
000002d0: 0b66 e13c 1bfd 42bd a042 413b 18c0 b63c
000002e0: f2e9 d13c 1a7c 74bd 36eb 95bb 25ce f4bc
000002f0: 1eff b63b 0df1 4d3d 6d94 98bb 78bf 96bc
00000300: 5a23 aebc 25d2 f53c 4fb4 3d3d 913c 5cbd
00000310: bc2e 10bd 9e78 503d f37a 153c 1cd7 c1bc
00000320: 8d2a ac3c 1df3 c03c ea58 cbbb fa7d b33b
00000330: 0943 583d ca3f debc 41c3 c1ba 7717 0d3c
00000340: 3661 5abc 3eb1 3c3d c3cf 7cbd a67e 50bd
00000350: 9ff7 883c caa1 fcbc 49d5 5cbc 7241 713d
00000360: a7d0 573d 6a72 64bd 41db ecba a8d4 b73c
00000370: aa00 a83c 1828 4c3b 27df 30bd f20a 6ebd
00000380: ac76 633d 39c5 89bc c7e2 2c3d 5631 11bd
00000390: 0849 113d a87e cc3c 6df6 683d c018 4c3c
000003a0: 4568 18bd aa38 043d b64d e73c 9dc8 423c
000003b0: dc18 e13b 97ec 15bc 0a58 533d 2c99 ea3c
000003c0: ac02 5ebd cdf9 b33b f278 b33b 08bc 563d
000003d0: 136e 023d ffcb 9c3c 666c 573c f851 ae3b
000003e0: 30b2 493c 4c5b c73c a237 08bd 940f 383c
000003f0: 650f b1bc 9874 99bc 1820 763d 20df 57bd
0.024938695 -0.059979185 -0.034086682 -0.025716359 -0.022425877 -0.061601695 0.046796992 0.012284504
0.02308314 0.045466367 -0.04493722 -0.021424657 0.028858585 -0.060480475 -0.020025661 0.013412608
-0.064778954 0.02485323 -0.029027767 0.030928904 -0.053183846 0.040406372 -0.05209028 0.012682137
-0.011880099 0.0007033988 0.046890173 -0.0039951713 -0.016592778 -0.02760462 -0.02689785 -0.050706167
0.057276927 -0.0083123585 -0.06157334 0.04231035 -0.0004968554 0.048518665 -0.030629113 0.041527368
-0.028087733 -0.021259494 0.0180794 0.0355816 0.05027823 -0.0072633806 0.04343967 -0.05139019
0.002300387 -0.053595446 -0.04977528 0.037061002 0.057839807 -0.007529542 0.039440412 -0.04336485
-0.04554213 0.03554956 -0.015141103 0.015687577 0.04056573 0.011522112 0.0071429037 0.037131935
-0.06881207 -0.015998043 -0.013698345 -0.014288455 -0.023922803 0.045929126 0.045985524 -0.010782586
-0.04421734 0.03505625 0.047663532 0.05302743 0.047860876 0.021066433 0.054256596 -0.059177224
-0.025192786 -0.049488794 0.00725881 -0.040762488 -0.0015631467 0.0020748603 -0.004893123 0.013028138
-0.017397791 -0.0026522316 -0.066035576 -0.057544097 0.021064172 -0.044430926 -0.062465336 -0.040631898
-0.004317537 0.020526446 -0.029681377 -0.039777916 -0.06446161 0.015834298 0.046611026 -0.02959188
0.015698971 0.04045377 -0.05252553 0.02357558 0.040311042 0.04031026 -0.05921126 -0.067127995
-0.023399727 0.04052014 -0.04020194 -0.04254651 0.02444419 -0.04022948 0.029401764 -0.027687244
-0.024846517 0.042307064 0.041573085 -0.019358784 -0.04550695 -0.010051571 -0.05496949 -0.05234803
0.044697035 -0.05291012 0.018375674 0.011705443 -0.053826395 0.024156805 0.0031403934 -0.05674166
-0.02262699 0.023275768 -0.06693746 -0.022665404 0.017405018 -0.048740845 0.00993479 0.05705186
0.030951055 -0.023876179 -0.035027005 0.036776993 0.027709099 -0.059163965 -0.028107915 -0.019007295
-0.059652895 -0.013860467 0.013198669 0.024949767 -0.036512256 0.0018718042 -0.023491247 -0.029490158
0.052798815 -0.023297874 -0.01492446 0.031608563 0.02632495 0.033448074 0.006235105 -0.024658136
-0.03690037 -0.010887612 -0.05145999 0.01631775 -0.05961407 0.04992014 -0.028521203 0.061754346
-0.0025079388 -0.008143996 0.0013363115 0.015446395 0.027514478 -0.04760466 0.0029489174 0.022308394
0.02562425 -0.059688665 -0.0045751585 -0.029883454 0.0055846116 0.050278712 -0.0046563656 -0.018401846
-0.021257091 0.030007431 0.046314534 -0.053768698 -0.03520082 0.05089628 0.009123552 -0.023662142
0.021016384 0.023553425 -0.0062056677 0.005477664 0.052798305 -0.027130026 -0.0014782922 0.0086115515
-0.013328841 0.04606747 -0.061721575 -0.05090203 0.016719637 -0.030838866 -0.0134785855 0.058900304
0.05268922 -0.055773176 -0.0018070714 0.02244027 0.02050813 0.0031151827 -0.043181565 -0.058115907
0.055533096 -0.016817676 0.04220846 -0.03544744 0.03547004 0.024962738 0.056875635 0.012457073
-0.037208814 0.0322806 0.028235298 0.01188865 0.0068694185 -0.009150646 0.051597632 0.028637491
-0.054201767 0.005492425 0.0054770643 0.052425414 0.031843256 0.019140242 0.013148403 0.00531983
0.01231055 0.024335526 -0.03325618 0.011234183 -0.021613786 -0.018732354 0.0600892 -0.052703023

network.layer3.bias f4 [64]
00000000: d434 6c3b 2168 773d 77d5 8fbb ac7a 783b
00000010: 6664 103d 00de 1a3d 3e10 793d 0ae0 b8bc
00000020: a9bf 503d f4cc 953a e5b4 633c 58cc 363d
00000030: c370 873d d10d 09bd 890c e7ba 9c35 2bbd
00000040: 2c32 61bd ac54 a0bc 3e35 b93c 3dfb eabc
00000050: eb16 943d ce45 a03c ef1c 8e3c 4711 b13d
00000060: e34c 45bc f579 b93c 703e e63b 1be6 d83d
00000070: 5e6e 12bd c503 ea3d c898 bb3c 9269 113c
00000080: 7099 6e3d ffa8 0d3e 0ab3 7bbd e0a5 5f3d
00000090: bf2a 873a 1b91 77bd 3710 c03c 4233 44bd
000000a0: ad5b 403c 42ab 8b3c a4c9 ec3d 3924 203d
000000b0: b641 76bd 2abf ea3d 7f07 5abd 07b4 05bc
000000c0: d6a8 d6bc 5822 8d3c 1e09 7cbc f06b c93c
000000d0: e204 143e b41b d23c 8a98 0d3d 97a0 333b
000000e0: 5c6a b63c 535e 4c3d 61d1 30bd bdcb cb3c
000000f0: 9cf8 58bd e823 4a3c 7752 da3c 345f 963c
0.003604223 0.06040204 -0.0043894607 0.0037914915 0.035251997 0.037809372 0.060806505 -0.022567768
0.05096403 0.0011428879 0.013898109 0.04462847 0.066133045 -0.033460442 -0.0017627637 -0.041799173
-0.05497949 -0.019571625 0.022608396 -0.028684253 0.07230934 0.019564535 0.017347781 0.086458735
-0.012042257 0.022641161 0.007026486 0.10590764 -0.035749786 0.114265 0.0229 0.008875268
0.0582518 0.13833998 -0.06145004 0.05460155 0.0010312422 -0.060441118 0.023445232 -0.047900446
0.011740607 0.017049436 0.115618974 0.039097045 -0.06012126 0.11462243 -0.053229805 -0.008160598
-0.026203554 0.01722829 -0.015383033 0.024587601 0.14454988 0.025647976 0.0345693 0.0027408951
0.022267513 0.049894642 -0.04316843 0.024877423 -0.052971467 0.012337662 0.02665065 0.018355943

network.layer4.weight f4 [27, 64]
00000000: 20ff 73bd 6807 a3bc cf97 bcbd 0c97 9dbc
00000010: 80f6 aabc f3c3 a0bb 24eb bcbd 43d0 acbd
00000020: e4cd c6bd 902a 3dbc 809b 553d 69b2 963d
00000030: aa7f 9ebc 2089 a7bc 7de6 89bd f867 25be
00000040: 80b4 09bd cab2 61bd ca93 a5bd 5013 9abd
00000050: c4c0 183d 0555 1cbd def7 8bbd e579 8ebd
00000060: d6fd fbbc 0d17 19be 7257 e8bd 1789 1b3d
00000070: 8f9b 933d d7f4 15be d04b 06be 3a5e 8bbd
00000080: f35c cc3c c08f 933d 970d 16bd f46a 683d
00000090: 6f75 e83c d20b c63d c6f4 e93d ee6f 9fbd
000000a0: 72d9 fcbb 90b4 30be 6a3f ccbd d052 d0bd
000000b0: 8414 c43d 1875 9abc 2619 d83c 1af4 d2bc
000000c0: def2 cf3d 9077 08be 4c4c da3d aa0b c23d
000000d0: d695 c73d 024c 2abd 32d6 a3bd ea34 ea3d
000000e0: bc7f 43be 9ec6 94bb 10f8 7f3d ac8b 2e3e
000000f0: 900e 323d c830 d4bd 73dc 9a3d 95d6 dcbd
00000100: 657f 4fbd bff8 c2bd 330c 9c3d 6e3b 05bd
00000110: a8d8 d33c f6e8 23be 8eb0 a1bd 59dc 213d
00000120: ee5f 77bd a0b7 58bd 3674 aabd 682e 423d
00000130: 2922 813d b8e2 a93c c997 603d badc 0e3c
00000140: f8b6 663c c6e2 8bbd 20e8 213c f283 7abd
00000150: ff07 bcbd e4c1 15be 6c17 533d eb70 34be
00000160: fba2 9ebd 02ad 713d 603b 87bd 7029 2bbd
00000170: c073 d83d 6607 16be 221b 12be 5048 5ebd
00000180: 8f47 f7bd 5aa2 313e ac41 a33d 32c3 0bbe
00000190: a947 8abd b32e 7dbd b4f0 3fbd 5080 883c
000001a0: 4fc3 13be 99f6 253d 34f7 2d3d 8c00 f2bd
000001b0: 6e30 b83d 882d 2abe 09f4 0ebe 2929 87bb
000001c0: 085f 02bd bd16 073d 1949 7d3d e064 913b
000001d0: 458d cc3d 9ac6 1dbe ca0f cebd b613 ccbd
000001e0: 805e 3dbe b0e1 da3c 06c9 ba3d c2f1 c23d
000001f0: 788e 9fbd 2c91 5e3d 5873 44bd 5690 65bd
00000200: e01f 1cbd c32e 773c a528 7cbd 8d03 30be
00000210: 6e6a f83d cb81 b3bd 506e 043c 2ccf 8bbd
00000220: 3482 31bd d42d a83d e42e 57bd a428 f8bd
00000230: 442b dbbd 64f8 3e3d 16ea c0bd 440c 8fbd
00000240: e6cc d3bb 7367 be3d 723e 823d 5e0e 27be
00000250: 8425 14be 6314 9f3d 650e 783c 2da5 e5bd
00000260: 1835 d2bc 57ef 93bd 30ce e6bc bf65 20be
00000270: c799 3cbd 6f46 d03c 7a0e 83bd 98bd 903c
00000280: 0d1c 3dbd 7d40 003d 7010 443c bb43 bd3b
00000290: 142d 25be abb4 5dbd 1862 6fbd b22b a73d
000002a0: 8608 9c3b 33a3 64bd 63d4 323d 3c6c febd
000002b0: 2a72 d83d 51df 89bc eaf7 4abc 3d38 e3bd
000002c0: c811 b9bc 2a3b 04be dddd 8a3d fa0e c0bd
000002d0: a0c0 513e dfcf c6bd 684e 5ebd 8c72 ffbd
000002e0: 0cb6 08be 5a67 df3c 903c d7bc 88cc c33d
000002f0: 88e3 b8bd 9e88 853d 202c b0b6 e665 af3d
00000300: 7023 ee3d 75da b7bd 0687 c33c 3f66 63bd
00000310: dc26 1a3d 7000 213d 70f9 403d 9f0e 06be
00000320: 78e0 c33c bc3f 043d 7a3c a03d ab0b b53c
00000330: bce2 e7bc e82f aabd b8b2 cebc 9890 98bd
00000340: 1e35 ae3d e627 06be 5ee6 be3d 5a31 54bc
00000350: 03c8 4fbd 57d7 75bd b07d 08bd 02f1 02bd
00000360: 5d8c ed3b 3e59 89bd 8895 3abd 5c73 dabc
00000370: 2ae4 9aba f354 c6bc 142e e23c 5892 56bd
00000380: 0fcb 11be 9ea1 0d3e 3c99 713c 4772 f3bd
00000390: b6ae 7cbd 104e ccbb 0863 7e3d 149f ef3d
000003a0: d08b 0bbe 8d6e e6bd c355 963d 40c0 aebb
000003b0: 206d 953d 8ac6 50bd d42e 89bd 881e adbd
000003c0: b81d c6bd 252b 88bd c409 bbbd a467 213d
000003d0: f282 2d3e d24f d2bd 2876 65bd 1071 cfbd
000003e0: f917 20be d138 053d 5641 d1bd 1b45 26bd
000003f0: 109e f0bc 0028 943d 66da d4bd 0989 d93d
-0.059569478 -0.019900993 -0.09208643 -0.019237064 -0.020869493 -0.0049061715 -0.09224537 -0.0843816
-0.09707239 -0.011545792 0.05215025 0.07358248 -0.019347984 -0.020451128 -0.06733415 -0.16152942
-0.033619404 -0.055102147 -0.08084829 -0.07523215 0.03729321 -0.03816702 -0.06834386 -0.06956843
-0.030760687 -0.149502 -0.11344804 0.037972536 0.07207405 -0.1464418 -0.13114858 -0.06805082
0.024946665 0.072051525 -0.036634054 0.056742623 0.02837631 0.09670223 0.1142364 -0.07785021
-0.007716351 -0.17256379 -0.09973033 -0.10172045 0.095742255 -0.018854663 0.02637918 -0.025751162
0.10153745 -0.1332686 0.10659084 0.09474881 0.09745376 -0.041576393 -0.07999839 0.11435874
-0.19091696 -0.0045402786 0.06249243 0.17045468 0.04347092 -0.10360867 0.075615786 -0.10783116
-0.050658602 -0.09520101 0.07619514 -0.03252738 0.025860146 -0.16006836 -0.07895003 0.03951678
-0.06039422 -0.052909493 -0.08322947 0.047407538 0.06305344 0.02073799 0.054832254 0.0087196175
0.014081709 -0.06830363 0.009882003 -0.06116099 -0.09181213 -0.14624745 0.05153601 -0.176212
-0.0774593 0.059002884 -0.06603122 -0.041787565 0.105689526 -0.1465126 -0.14268163 -0.05426818
-0.120741956 0.17347088 0.0797151 -0.1364868 -0.06751949 -0.061812114 -0.04686041 0.016662747
-0.14429973 0.040518377 0.04247208 -0.118165106 0.08993612 -0.16618931 -0.1396028 -0.0041247797
-0.03182891 0.03298067 0.06183729 0.004437074 0.099878825 -0.15407792 -0.10061605 -0.09964697
-0.1849308 0.026718944 0.091203734 0.09518768 -0.07790846 0.054337665 -0.047961563 -0.056045853
-0.038116336 0.015086832 -0.0615622 -0.17188855 0.12129675 -0.087649904 0.008082941 -0.06826624
-0.043337062 0.08211866 -0.052534953 -0.121171266 -0.10701612 0.046623603 -0.09419648 -0.06984761
-0.006463635 0.09297075 0.06359567 -0.16314074 -0.14467436 0.0776756 0.015140151 -0.112131454
-0.025660083 -0.07223385 -0.02817449 -0.15663813 -0.04604509 0.02542421 -0.063992456 0.01766853
-0.04616933 0.0313115 0.01196681 0.0057758964 -0.16130477 -0.054127377 -0.05844316 0.08162631
0.0047617583 -0.0558197 0.04365958 -0.12422988 0.1056865 -0.016830118 -0.012388209 -0.11094711
-0.022591487 -0.12913194 0.06780598 -0.093778566 0.20483637 -0.09707617 -0.054273993 -0.1247302
-0.13350695 0.027270962 -0.026273996 0.095604956 -0.09027773 0.06520198 -5.2503456e-06 0.085643575
0.11627853 -0.08977214 0.023868095 -0.05551743 0.037634715 0.039307058 0.047112882 -0.13091515
0.023910746 0.032287344 0.07824035 0.02210029 -0.028306358 -0.08309919 -0.025231704 -0.07449454
0.08506225 -0.13101158 0.09321283 -0.012951219 -0.050727855 -0.060019817 -0.03332299 -0.031968124
0.0072493986 -0.06706475 -0.04555276 -0.026666336 -0.0011817266 -0.024210429 0.027609862 -0.052385658
-0.14237617 0.13831183 0.014746007 -0.11887031 -0.061690055 -0.0062348917 0.062106162 0.117002636
-0.13627553 -0.11251555 0.073405765 -0.0053329766 0.072962046 -0.05097059 -0.06698385 -0.08453089
-0.09673637 -0.06648854 -0.09132722 0.03940548 0.16944483 -0.10269131 -0.056020886 -0.10128987
-0.15634145 0.032524887 -0.1021754 -0.040593248 -0.029372245 0.07234192 -0.10393219 0.106218405

network.layer4.bias f4 [27]
00000000: b4f0 a03d 0135 22bd 2bb4 373e dd78 c33d
00000010: 49dc 093e c167 9dbd ea66 f2bd e5ba 64bd
00000020: ad73 9abd f62a e63d 04c0 823d 730c bfbd
00000030: af83 05be 399f d63d 979a 0f3e 62b7 a93d
00000040: 291f a6bd b33e 053e 53fc 223d 8e64 843d
00000050: ddb6 a73d b60d afbc f3b9 aebd c25a 64bc
00000060: f92d 9abd 7fe6 dc3b 6a0f 71bd
0.078584105 -0.03960133 0.17939822 0.09544537 0.13462938 -0.07685805 -0.118360355 -0.0558423
-0.07541595 0.11238663 0.0638428 -0.093285464 -0.13038515 0.10479588 0.14023815 0.082869306
-0.08111412 0.13012199 0.039791416 0.06464492 0.08189175 -0.021368843 -0.08531561 -0.013937654
-0.075283 0.0067413445 -0.05885259
