DQN_panda_obs/model_panda_trained.pth (torch, 276047 bytes, 8 tensors)

network.layer1.weight f4 [192, 3]
000000 c2 b3 df bc 26 7e e6 be 5e d1 9a 3d 3f 2a c1 3d
       -0.027307395 -0.4501812 0.07559465 0.09431886
000010 71 da f1 3c 7e 3b 6d be 55 2c ff be ec 4e 38 be
       0.029523106 -0.23167226 -0.4983851 -0.17998856
000020 1e 03 53 be 34 ae 2e 3f fa e9 06 be 1a d7 ce be
       -0.20606658 0.6823456 -0.13175192 -0.40398484
000030 60 b8 cf be 6e d2 13 3c aa ca a7 3e 8c e3 e8 be
       -0.40570354 0.009022338 0.32771808 -0.45486104
000040 72 d7 7e 3e 7c 73 af be e7 0d d0 3e 2e e4 3f 3e
       0.24886873 -0.34267795 0.40635607 0.18739387
000050 50 14 e4 bd f4 2c fc 3e cd b0 05 bf 4b d0 3f 3e
       -0.11136687 0.49253047 -0.522229 0.18731801
000060 15 ea 1e bf 28 97 9a bd a0 56 80 3c c9 97 2e 3e
       -0.6207593 -0.07548362 0.015666306 0.17050089
000070 5c 41 bf 3e 5a d0 d5 be ad f6 47 3f 87 37 3e be
       0.37354553 -0.41760522 0.7811077 -0.1857587
000080 29 5d a6 be d7 44 9b 3e 19 06 b4 3e 7e 03 d2 bd
       -0.3249295 0.30325958 0.35160902 -0.10254572
000090 79 95 86 be 0f d8 56 3e 20 7c 26 bd be 6f 47 be
       -0.26285914 0.20980857 -0.04064572 -0.1947622
0000a0 f9 1d 1c 3e 82 f4 53 3d ce c0 c4 be d0 8b 34 3d
       0.15245809 0.051746853 -0.38428348 0.044078648
0000b0 2c 54 0f be 0f 87 11 3f 54 d2 58 3e fb d7 dc be
       -0.13996953 0.5684671 0.21173984 -0.4313353
0000c0 0a 11 27 3f 5b 64 9b be 67 79 f4 3e 17 da 35 bf
       0.65260375 -0.30350003 0.47748873 -0.71035904
0000d0 78 ac b7 be 12 d1 11 3c b6 e9 e7 bd 2b 2b d6 3e
       -0.3587377 0.008899944 -0.11323874 0.4182981
0000e0 81 13 8e 3e 1c b1 18 3f db e0 fd be d9 fc ff 3e
       0.27749255 0.5964525 -0.49585614 0.49997595
0000f0 9b b6 15 3f fd 52 e9 bd 31 b3 79 3e e2 36 12 bf
       0.5848176 -0.11392782 0.24384762 -0.57114995
000100 22 e9 9c 3d 6f f8 09 3e 0d cc 40 3e fc e1 ee 3d
       0.07661654 0.13473676 0.18827839 0.11664197
000110 65 ae 08 3f e9 be f5 be be df 34 be 7b 15 ee 3d
       0.53391105 -0.47997215 -0.17663476 0.11625191
000120 d8 69 02 bf 57 e1 4e bc 80 ba 27 be 0a 73 2e 3f
       -0.50942755 -0.012626967 -0.16379738 0.68144286
000130 b8 4f 93 be 9c 6c f0 be b3 8f c1 be 6c 7d 3e 3e
       -0.28771758 -0.46957862 -0.37804946 0.18602532
000140 c8 68 11 3f b0 a0 42 be 6a b0 06 3f ad 51 21 3f
       0.5680051 -0.1900661 0.52612936 0.6301525
000150 03 de a5 3e 9d a0 0b bf 7f bb 80 3e 96 23 18 be
       0.32395944 -0.5454195 0.25143048 -0.14857325
000160 8e 31 00 3f 77 39 a3 3e ee 7e 2c bf a2 18 85 3e
       0.50075614 0.3187978 -0.6738118 0.25995356
000170 0c 3a 98 3e 56 ad 95 3d 5f 10 0a 3f 2e 3d 1f 3f
       0.29731786 0.07308452 0.5393123 0.6220273
000180 54 05 9b be 06 b8 27 bf fe a9 9d be ca 3e b1 be
       -0.30277503 -0.6551517 -0.30793756 -0.34618217
000190 31 c5 66 be 03 bd f8 be c5 10 29 3f 24 6a 30 bf
       -0.2253616 -0.48581704 0.66041213 -0.6891196
0001a0 76 85 87 3e 32 5a 9f be 59 6f e2 3e 1a ff ca 3e
       0.2646901 -0.311235 0.44225577 0.39647752
0001b0 a1 13 d3 be 11 7c 15 3f 54 17 b3 3e 85 50 96 3e
       -0.41225913 0.58392435 0.34978735 0.29358307
0001c0 69 f7 38 bf 1c 60 7b 3d b6 47 da 3c 3f 36 5c 3e
       -0.7225252 0.061370954 0.026645523 0.21505068
0001d0 dd 90 d0 be 5b d7 e5 be e4 4c 4e bf 3b 66 50 be
       -0.40735522 -0.44890866 -0.80586076 -0.20351498
0001e0 66 59 cc 3e ea f6 c9 3e 57 6f fd bd af 0b 17 3f
       0.39911956 0.39446193 -0.12374752 0.590022
0001f0 db 64 e5 3e 18 51 df 3e 96 f4 c9 3e ab 62 36 3c
       0.4480351 0.43616557 0.39444417 0.011131923
000200 bb 55 1a 3f 89 1b 1e be b3 4b 76 be 66 6b 0f bf
       0.60287064 -0.15440191 -0.24052314 -0.5602325
000210 63 4b 49 3f bf aa df 3b 18 cd fc 3e af 8d 94 3e
       0.78630656 0.0068257744 0.49375224 0.29014346
000220 ca 37 65 3e 02 6c 54 be 3c 8c d0 3c 3a 17 bc 3e
       0.22384563 -0.20744327 0.025457494 0.3673647
000230 2b 42 a5 3e 57 6e a7 3e d6 8e 04 3f f1 dd 0c bf
       0.32277045 0.3270137 0.5178045 -0.55026156
000240 4d 7c 46 3f f3 42 1e 3e bf fc f9 3d af f4 a9 3d
       0.7753342 0.15455227 0.122064106 0.08298623
000250 10 6a 00 3f 15 28 08 bf 3f e9 97 be 1f 2b 61 bd
       0.5016184 -0.5318616 -0.2967014 -0.054972764
000260 ae 8d 18 3f 95 a2 ef 3d cd 39 d2 be 8a 10 49 bf
       0.59591186 0.11700932 -0.41059723 -0.7854086
000270 e2 52 42 bf 37 53 c0 bc ef 03 fe bd b8 b7 11 bf
       -0.7590772 -0.02347718 -0.12403094 -0.5692096
000280 10 3c 22 3f cc 82 12 3f 2d 94 3e bc 62 1b d3 3e
       0.633729 0.5723083 -0.011632008 0.4123183
000290 f3 20 84 3e 17 3a da 3d bd 03 af 3e 08 90 76 3e
       0.25806388 0.10655611 0.3418254 0.24078381
0002a0 aa c9 c2 be 37 a2 cb 3d d8 cf e6 3c 20 54 59 be
       -0.38044482 0.099430494 0.02817528 -0.21223497
0002b0 d5 18 cd be 25 4f 75 3e 24 91 b6 3b 72 df ae be
       -0.40058008 0.23955972 0.0055715013 -0.3415485
0002c0 be e9 04 bf c7 df 2c bf bc 25 66 be 96 6e e5 bd
       -0.5191916 -0.6752896 -0.22475332 -0.11202733
0002d0 e6 40 3c bf d7 7d 32 bc dd 8b 03 be ec d3 99 3d
       -0.7353653 -0.01089426 -0.12846322 0.07511124
0002e0 23 f4 8b be 85 e6 31 bf 01 0f a9 be 71 3c a4 be
       -0.273347 -0.6949237 -0.3301926 -0.32077363
0002f0 6a da ed be 81 09 e2 3e af e6 3f be 8d 24 17 3f
       -0.464557 0.44147876 -0.18740343 0.5904015
000300 ce b6 2f bf 63 b8 ec 3d 0c f4 42 be b2 39 b0 3e
       -0.6863831 0.115586065 -0.19038409 0.34419018
000310 a2 bc f5 3e e9 59 88 be 2e 55 49 be 7b 2f 03 3f
       0.47995478 -0.26631096 -0.196614 0.51244324
000320 3e 9a db 3e 11 03 08 bf 79 28 61 3d 86 79 b4 3c
       0.42891115 -0.5312968 0.05497024 0.022030603
000330 1e 96 20 bf eb de 1e 3f 73 37 b6 3e 4e c6 65 be
       -0.6272906 0.62058896 0.3558918 -0.22438928
000340 9c 7f 39 3e c8 d1 18 3f a3 f8 e2 be 7b b2 1b 3e
       0.18115085 0.596951 -0.4433032 0.15204804
000350 79 26 cf bd b1 10 49 3e 44 49 d5 3e fb ca 37 3e
       -0.1011476 0.19635274 0.4165746 0.17948525
000360 56 a7 1a bf c4 28 c8 3e 46 fb 83 3e 81 a0 47 bf
       -0.60411584 0.39093602 0.25777644 -0.77979285
000370 a5 8a 03 bf c4 d2 09 bf df ec 1a be ae 61 05 3f
       -0.5138343 -0.5383723 -0.15129422 0.5210217
000380 7e 6c a6 3e e6 0a b7 bd e5 e6 f1 be 4b 57 2f 3f
       0.32504648 -0.089376256 -0.4724647 0.68492573
000390 80 86 e8 bd c1 6e b3 be 8c 39 10 bf 1c 46 b0 3d
       -0.11353779 -0.35045436 -0.5633781 0.08607122
0003a0 ea 8e 21 bf 89 fc 0d bf a7 9e 1b 3f 57 2d 20 be
       -0.63108695 -0.55463463 0.6078896 -0.15642296
0003b0 5c 90 5b be 5c c9 1e 3e f0 4b e2 3e 1d 54 b1 3e
       -0.21441787 0.155065 0.4419856 0.34634486
0003c0 33 af 4c bd d9 88 8f 3e 15 9e be 3d 75 f1 9d be
       -0.04997177 0.28034094 0.093074955 -0.3084828
0003d0 53 27 da bd 84 d1 03 bf fa af 77 be 4b a8 f0 3b
       -0.10652032 -0.5149157 -0.24188223 0.007344281
0003e0 04 a2 12 3e 3d cc 07 be a3 42 96 3e 49 6a 1c 3d
       0.14319617 -0.13261504 0.29347715 0.0381873
0003f0 5b bd 7f 3e 23 69 dd 3e 5b 92 48 bd 32 f5 6e be
       0.24974577 0.43244275 -0.0489677 -0.23335722

network.layer1.bias f4 [192]
000000 94 6e 41 3f 9d 9d 58 3f 5a cd 3a 3f 05 df 04 3e
       0.75559354 0.846155 0.7296959 0.129757
000010 f2 04 cd 3e f2 76 cf 3e 1b 63 2f 3f 4e 71 26 bd
       0.40042835 0.40520436 0.685106 -0.0406354
000020 d8 1b 3f 3b 7a ae 03 bf 4c 96 92 bd e4 c7 4a 3f
       0.0029160883 -0.51438105 -0.07157573 0.7921126
000030 2a 8e 07 3f b8 92 0e 3f 5f 81 31 3f 2f 21 d4 be
       0.529513 0.55692625 0.6933803 -0.41431567
000040 2b 15 f8 be a3 24 31 3f 50 41 a4 3e 5d fe 6f 3d
       -0.4845365 0.6919653 0.3208108 0.05859219
000050 4a d3 3a 3e d4 69 1f 3f 1c 42 c9 3d be e5 f0 3e
       0.18244663 0.62270856 0.098270625 0.4705028
000060 97 90 60 be f7 e9 dc be f9 ed cc bd fa b5 ab 3d
       -0.21930157 -0.4314725 -0.10006327 0.08384319
000070 cf d9 ca bd ba 6c f4 3e 37 a0 73 3b 31 47 ab 3e
       -0.09904825 0.47739202 0.0037174353 0.33452752
000080 8e cf d9 3e d5 f4 26 3e 04 1d b7 be 54 39 71 be
       0.42541164 0.16304334 -0.35764325 -0.23557025
000090 d5 5c 08 3f 5b fe d2 3d ff 77 af be 10 0f 87 be
       0.5326665 0.10302421 -0.34271237 -0.2637868
0000a0 db 4e 06 bf be f0 c1 be b3 9d aa 3e 06 e6 74 3e
       -0.52464074 -0.37878984 0.3332344 0.23915872
0000b0 9c 61 d3 be 32 2b b2 be 43 0a 17 be d1 7b b4 be
       -0.41285408 -0.3479858 -0.14750008 -0.35250714
0000c0 fe 66 de bd f9 0a f3 be cc a6 b4 3d 2f f2 03 3f
       -0.10859488 -0.4746931 0.088208765 0.5154142
0000d0 9c 40 0b 3f d9 df a1 3e 2e 8a 8c bc 9d 5d 82 3d
       0.5439546 0.31616095 -0.017155733 0.063655116
0000e0 72 1e 20 3d 91 53 0d 3e 1d 5b 69 3e 55 93 d4 3e
       0.039091535 0.1380141 0.22788663 0.41518655
0000f0 70 27 10 3f 91 07 ef 3e e9 81 b2 3d 73 ee 36 3d
       0.56310177 0.4668546 0.08716185 0.044660997
000100 e4 94 23 be f3 f2 86 3e 5b 22 d0 bd 94 c5 13 3e
       -0.15974766 0.2635723 -0.10162803 0.14430839
000110 2f 05 de 3e 4c 74 e9 3e 08 77 0a 3f 9c ce 01 3f
       0.4336333 0.4559654 0.5408788 0.50705886
000120 dc d6 66 bd 97 ed 55 3e d1 97 a5 3c ec c1 19 3e
       -0.05635725 0.20891415 0.020213993 0.15015382
000130 cc 98 7a 3e e0 1e 9c 3e 99 6e 02 be f5 a8 9d bd
       0.2447235 0.30492306 -0.12737502 -0.076982416
000140 6e 22 e0 3e 44 9a 9a 3e b9 87 9d 3d c9 08 0a 3f
       0.43776268 0.3019582 0.07691903 0.53919655
000150 af cd 84 be 57 8e 02 3f 8b 21 b0 3e af b2 81 3e
       -0.25938174 0.50998443 0.3440059 0.25331637
000160 3b e2 11 3f ae b8 2a 3e 86 93 78 3d 5f 1e 81 3e
       0.56985825 0.16672012 0.060687564 0.25218484
000170 3f 97 4f 3f c7 a3 bb be 6e b0 15 3f 7a e8 43 bd
       0.8109016 -0.3664839 0.58472335 -0.04782913
000180 0e 7a 27 bf 3f 90 c9 be 75 19 a3 bc e7 af 39 3e
       -0.65420616 -0.39367864 -0.0199096 0.18133508
000190 52 c8 42 be 57 b2 a7 bd 11 02 4e be 38 2f 73 3e
       -0.19021729 -0.081883125 -0.20117976 0.23748481
0001a0 09 18 36 be d4 cc 6d 3e 6b 51 65 3e a6 40 e2 be
       -0.17782606 0.23222667 0.2239434 -0.44189948
0001b0 98 22 c3 3e 47 29 cb be 3b 1d 12 3f 93 a7 eb 3e
       0.3811233 -0.3967993 0.5707585 0.46026286
0001c0 08 69 82 3d 5f 6b 97 3e 08 aa f0 be 6b 24 4d 3e
       0.06367689 0.29574105 -0.47004724 0.20033424
0001d0 f3 da af be 86 82 00 bb d6 9c de be da 9f a9 3e
       -0.34346732 -0.0019609048 -0.4347903 0.3312977
0001e0 17 40 81 be 43 6a 94 3e b0 87 13 3f 71 74 76 be
       -0.2524421 0.2898732 0.5762892 -0.24067856
0001f0 17 c5 2b 3f af 7b 59 3d f4 e8 70 be da b2 dd bd
       0.6709761 0.05309647 -0.23526365 -0.10825129
000200 66 9a a3 be ed 28 bd be 8c c3 d4 3e 4d 7f 0f bf
       -0.31953734 -0.36945286 0.4155544 -0.5605362
000210 1a 5e fe be 0f a2 09 be 45 86 55 3e a0 fc fc be
       -0.4968117 -0.13440727 0.20852001 -0.49411488
000220 5d 40 6a 3f ec 41 24 3f 1e 97 ba 3e 4b 63 28 3e
       0.9150446 0.6416309 0.36443418 0.16444127
000230 44 a0 0a 3f 35 88 17 bf 2a 2d 83 3e a5 91 ac bd
       0.54150796 -0.5919221 0.25620395 -0.08426217
000240 e4 79 48 be 27 cc 26 3f bb cb 80 3f 4c d2 0b bf
       -0.19577748 0.6515526 1.0062174 -0.5461776
000250 3f 46 65 3f ff e0 2d 3f 4f 06 50 3e fe 01 28 3f
       0.8956031 0.6792144 0.20314907 0.6562804
000260 c0 da 06 3f a9 5c ab be 8c e1 b4 be 3d 72 75 3e
       0.52677536 -0.33469132 -0.3532833 0.2396936
000270 e0 98 f9 3e be 6d 1b 3f 65 22 c5 be 1f 32 94 3e
       0.48749447 0.6071433 -0.38502803 0.2894449
000280 00 06 8b be f2 83 bb be 84 79 ad 3e c0 bf ea 3e
       -0.27153015 -0.36624104 0.33881772 0.4584942
000290 33 51 ba 3e 81 1f 23 3f a3 09 5d 3f a8 29 ce 3e
       0.36390075 0.63719946 0.8634283 0.40266156
0002a0 16 d0 86 3d f9 fe b1 3d 4f 6a 37 3e e6 dd 32 3e
       0.06582658 0.0869121 0.17911647 0.1746746
0002b0 7c 8f 30 bf 8b 56 ed 3d 5e 43 d1 3d 3c 6a 13 3d
       -0.6896894 0.115887724 0.102179274 0.035989985
0002c0 9b dd 0b be fd 5a 50 3f 8c a7 23 3f 4f 40 5b 3d
       -0.13658755 0.8138884 0.6392753 0.053528126
0002d0 70 ef 60 bd 3d 3a 33 3f ae 35 28 3e 96 32 0e 3f
       -0.054915845 0.7001074 0.16426727 0.5554594
0002e0 d3 ca e8 be d3 6a 3a 3f 1e a8 66 3e 4f 2f 01 3f
       -0.45467243 0.7281925 0.22525069 0.5046281
0002f0 ca d7 a3 bd b3 a4 b6 be 3f 1e e4 3e 63 02 9f 3e
       -0.08000143 -0.3567253 0.44554326 0.31056508

network.layer2.weight f4 [256, 192]
000000 05 1a 1c bd 6a 00 79 bd 7b f2 36 3d 0a 6c 43 bd
       -0.03811075 -0.06079141 0.04466484 -0.047710456
000010 da f4 82 bb a2 ba 50 bd 6a 2c 5d bc 35 af 25 3d
       -0.0039964737 -0.050959237 -0.013499359 0.040450294
000020 bc b6 83 3d f9 ff 8a 3c 84 e7 06 bd 30 75 b8 ba
       0.06431338 0.01696776 -0.032935634 -0.001407301
000030 77 46 31 bd f7 4a 84 bd b8 cf 8e bd ca e2 92 bd
       -0.04328009 -0.06459611 -0.06973213 -0.07172163
000040 03 f2 8f bc 5a bc 57 bd 9c 0f 36 bc 1c 4a 32 bd
       -0.017571455 -0.05266986 -0.01111212 -0.043527707
000050 63 68 43 bd 76 3a 1f bd 3b 44 67 3d 1d 70 84 bd
       -0.047706973 -0.038874112 0.056461554 -0.064666964
000060 b1 02 d1 bc 32 df 5b bd 0c cf 02 bd fa 8d 4d bd
       -0.025513979 -0.053679653 -0.031935737 -0.050184228
000070 8c 7f 5e 3d 10 00 91 3d ab d5 77 bc 17 a2 23 bd
       0.054320857 0.0708009 -0.015126626 -0.039949503
000080 b6 e6 bb 3c 10 ea 24 3d 41 06 aa bc 01 e2 f0 bc
       0.02293716 0.040262282 -0.020754935 -0.029404642
000090 77 cc a9 3c 6b 8e db 3b be 11 9f bc dd d5 59 3c
       0.02072738 0.006700327 -0.01941764 0.013295618
0000a0 1e ff b0 bc d8 6c c5 bc c6 8f 43 bd 57 8e ba bc
       -0.021606024 -0.024099752 -0.047744535 -0.022772951
0000b0 91 e9 8f 3d cc 3a 07 3d cb 2d 7d bd 8d f3 23 3d
       0.07026971 0.033015057 -0.06181125 0.04002719
0000c0 23 14 64 bd d7 55 90 3a 77 3f 0e 3c 56 59 62 3d
       -0.055683266 0.001101191 0.008682123 0.05526098
0000d0 ac 27 49 bc d2 a5 c5 bc 8b 2b 31 bd 10 6f 1c 3d
       -0.012277525 -0.02412692 -0.043254416 0.038191855
0000e0 64 c9 cd bc 98 f0 b4 bc 4a 2d 11 3d 3f 56 75 3d
       -0.025120445 -0.02208738 0.03544358 0.059896704
0000f0 fd 28 48 3b 9d 30 21 3d 83 23 d0 3c a0 c4 ca bb
       0.003054201 0.039353002 0.025407558 -0.0061879903
000100 bd 8b 31 bd 13 b3 ed 3c 03 d9 e6 3c 87 41 e1 3b
       -0.043346155 0.029016053 0.028179651 0.0068742665
000110 ce cb 81 bc c7 3f af bc ac 23 34 bc 14 d4 41 bd
       -0.015844252 -0.021392716 -0.010994833 -0.047321394
000120 3c b4 25 3b c0 55 45 bd cc a3 7f 3d c6 7d cc 3c
       0.002528443 -0.04817748 0.06241207 0.024962317
000130 13 47 5e bd bb 71 40 bd 87 db 2e 3d 24 74 9b 3c
       -0.054267 -0.04698346 0.042689826 0.018976279
000140 7b 97 0a bd 04 4e cc 3c 76 0a 76 bd b7 47 49 3c
       -0.03383587 0.024939544 -0.06006857 0.012285165
000150 f6 d9 1a 3d 0e 11 53 3d 60 85 1f bd d0 6c cb bc
       0.03780552 0.051529936 -0.038945556 -0.02483216
000160 46 2c c6 bc 03 1f 54 3d 0a 3e 0b bd 82 0d 1b 3d
       -0.024191033 0.051787388 -0.033994712 0.03785468
000170 6f cc f8 bc a6 af 30 bd 70 61 26 3a 2c af b3 3c
       -0.030370919 -0.04313626 0.0006346917 0.021934114
000180 eb 80 a2 3c 38 31 58 bd 47 ec 76 bd 74 d9 a6 3c
       0.019836864 -0.052781314 -0.060283925 0.020367362
000190 e4 f6 0b bd 27 ab 6c bd e9 60 39 3d 30 8d 08 bd
       -0.034171 -0.05778041 0.045258436 -0.033337772
0001a0 75 67 50 bd 6b f0 22 bd e9 9b 7b bd 6b 22 27 bd
       -0.050879914 -0.03978006 -0.061427984 -0.040804308
0001b0 d8 06 2b bd a0 c2 9e bc 8d 61 84 3d 58 17 44 3d
       -0.041754574 -0.019379914 0.06463919 0.047873825
0001c0 4c 52 5f bd ac cd d8 bc be 8b 88 3c ef 83 09 3a
       -0.054521844 -0.02646526 0.016668197 0.0005245795
0001d0 da 90 00 bd b8 60 dd bc 74 a7 91 3d 0b 4b 8e 3d
       -0.03138814 -0.027023658 0.07112017 0.06947907
0001e0 18 2e 43 3d 7b fc 20 3d af 15 6d bd 58 96 e0 3b
       0.04765138 0.039303284 -0.057882007 0.00685386
0001f0 6c 51 79 3c 40 e4 4a 3d 45 d0 a3 3c 0b 95 76 3d
       0.015217166 0.049534082 0.019996772 0.060200732
000200 c2 29 8e 3d 53 39 05 3d 87 15 9c 3c eb 6c 87 3d
       0.069415584 0.03252537 0.019053234 0.06612571
000210 11 90 b3 bc 33 25 c4 bc 2d 7e 2d bd de 84 03 bc
       -0.021919282 -0.02394352 -0.04235666 -0.0080272835
000220 f1 fb 34 bd 4f 46 ae 3c 13 67 62 3d 42 13 3c bc
       -0.044185583 0.02127376 0.05527408 -0.011479201
000230 39 b4 ca 3c 8f 26 41 bd ed 38 72 bd 41 e3 76 3c
       0.02474414 -0.047155913 -0.05913632 0.01506883
000240 27 e9 0d bc b7 a9 da bb da 2a 0e bd 3c 0d 8d bd
       -0.008661545 -0.0066730636 -0.034708835 -0.0688729
000250 b0 79 a6 3b dc 5d ce 3a f4 e9 00 3d ce 16 47 bd
       0.0050804242 0.0015744525 0.031473115 -0.048605733
000260 17 61 80 bd ad 01 1f 3d 4c 28 8f bd 77 7b 93 bd
       -0.062685184 0.038819958 -0.06990108 -0.072012834
000270 0d 13 b0 bc 57 43 89 bc ab 92 84 bb f1 7d 7b 3d
       -0.02149346 -0.016755743 -0.0040458045 0.061399404
000280 85 6d e7 bb 44 a6 21 3c f6 0a 57 3d 68 1a 86 bd
       -0.0070626163 0.009866301 0.052500688 -0.06548005
000290 6b 0d 8b 3d a5 83 7e 3d a1 66 1e 3c a4 e9 85 bd
       0.06789669 0.062137265 0.009668023 -0.06538704
0002a0 f3 be 85 3d 66 92 88 bd 89 1a dc bc 30 7a 39 3c
       0.06530561 -0.06668548 -0.026868122 0.011320636
0002b0 4a 52 57 bd 4f b0 ca 3c fe 1c e2 bb df 90 8f bc
       -0.05256871 0.024742274 -0.006900429 -0.017525135
0002c0 8e b5 5e 3d a3 9f 3d bd cc 7b 62 bd 23 c3 26 3d
       0.054372363 -0.04629482 -0.055293843 0.04071344
0002d0 5d 56 c2 3c 7a 22 df 3c 2e 26 e5 bc 0c a9 80 bd
       0.023722822 0.02723812 -0.027972307 -0.06282243
0002e0 2b 5d 95 3c ae 2e 38 bd e3 8f 4b bc 45 47 74 3d
       0.018232903 -0.044966392 -0.012424442 0.05963828
0002f0 6f af 3c 3c d0 1e 8a 3d 2b 62 63 3d 4c 21 22 3d
       0.011516436 0.06744158 0.055513542 0.039582536
000300 76 8f a2 3e 25 5a 93 3e 49 e0 fd 3c d2 a2 cc 3e
       0.31750077 0.28779712 0.030990737 0.39967972
000310 b5 be 64 3d be a3 af be 85 86 51 3e e5 c0 af 3e
       0.055845935 -0.34304613 0.20461471 0.34326854
000320 a2 bb db bd 22 61 87 bd 0a 3b c2 3e 0a 61 f6 3e
       -0.107291475 -0.066103235 0.37935668 0.4812091
000330 17 3b 85 bd 50 cf 30 3e 80 a2 1e bd c1 0b a0 3d
       -0.06505411 0.17266583 -0.03872919 0.07814742
000340 6a e5 2d 3e 56 80 03 3e c0 5e 02 be 7d c7 a0 3e
       0.16982046 0.12841925 -0.12731457 0.31402197
000350 53 6e 99 3e 7b 74 6a 3d 9c c1 4f 3d 67 3b 9c 3d
       0.29966983 0.05723999 0.05072175 0.076285176
000360 22 9a 24 bc f1 cb f7 3d 7a b8 5b 3d f5 09 09 be
       -0.010046514 0.120994456 0.053642727 -0.13382705
000370 a1 cb 5a 3e a2 21 74 be 64 a1 c1 bd 9d 4b 6b bb
       0.21366741 -0.23840955 -0.09454611 -0.0035903223
000380 9d 02 52 3e 46 51 ce be f5 8a a3 3e e1 c5 8b be
       0.2050881 -0.40296382 0.31941953 -0.27299407
000390 9e 38 d6 bd e5 80 b0 3e b0 92 04 bd 01 12 15 3e
       -0.104600176 0.3447334 -0.032366455 0.14557649
0003a0 12 f4 12 bc b2 b0 79 be d3 d3 69 3e d1 cf 63 be
       -0.008969324 -0.2438381 0.22834711 -0.22247244
0003b0 78 6c 91 3d d3 0c aa 3c 38 3a a6 be e0 75 04 3d
       0.07100767 0.020758068 -0.32466292 0.032338977
0003c0 b8 5e ee be 3c d8 82 bd 48 3b 74 3d ee c6 55 be
       -0.4655664 -0.063889 0.059626848 -0.20876667
0003d0 b2 7f 1d bd 2c eb 41 bd 8a 67 68 be 5e 1a 28 bd
       -0.038451858 -0.047343418 -0.22695747 -0.04104077
0003e0 b2 6d b2 be c8 3e 60 3e af ba e2 be b4 b3 b9 ba
       -0.34849316 0.21898949 -0.44283053 -0.0014167936
0003f0 94 15 9b bd 9a 7c 5c be eb 5f d8 be a3 1c 28 3e
       -0.07572475 -0.21531907 -0.4226068 0.16417174

network.layer2.bias f4 [256]
000000 ff d5 8d bd 67 c4 9d 3e 5b 70 59 3e 42 30 2d 3e
       -0.06925582 0.30813906 0.21234266 0.1691294
000010 a8 d5 51 bd db c4 0d 3e 38 e7 30 3e b7 63 ce bc
       -0.05122915 0.13844626 0.17275703 -0.025194032
000020 f5 73 22 3e 58 c5 67 3d c0 30 02 3e c6 02 b3 3c
       0.15864547 0.056584686 0.12713909 0.021851908
000030 f9 df 98 3a 52 ab 6a 3e 42 0b b3 3d 79 9b 2c 3e
       0.0011663429 0.22916916 0.08742382 0.16856183
000040 3e 51 b3 3d 41 42 2c 3e 44 3c 0b 3e 11 6f 5d bb
       0.0875573 0.16822149 0.13597208 -0.0033788125
000050 51 18 42 3e 7d a2 11 3d af 41 f6 bb b2 ec 36 3e
       0.18954588 0.03555535 -0.0075151543 0.1786373
000060 63 c4 17 3d e6 cf 63 bd 7c 79 5f 3e cd 36 51 3d
       0.037052523 -0.05561819 0.21823686 0.051077653
000070 5d 2e 75 bd bc 4b 6a bc 84 65 17 3e 02 51 4e 3d
       -0.05985867 -0.014300283 0.14784819 0.050370224
000080 13 98 10 3e 97 a6 10 3e 4c 81 9a 3c 93 3a f7 3d
       0.14120512 0.14126049 0.018860482 0.12071719
000090 df c3 2b 3e 04 13 71 3b 95 21 2f bd 2a c8 04 3d
       0.16773938 0.0036785016 -0.042756636 0.032417454
0000a0 9e 69 90 3d d4 e9 2b 3e d4 b1 23 bd 55 80 83 bd
       0.07051395 0.16788417 -0.039964512 -0.06420962
0000b0 76 7a 0f 3e 98 8c b9 3e 39 b3 b4 3d c7 c2 1d 3e
       0.14011559 0.36240077 0.088232465 0.15406333
0000c0 25 43 81 3d 49 19 75 3d 32 d0 09 bd e4 37 02 3a
       0.06311635 0.059838567 -0.033645816 0.0004967435
0000d0 82 83 0a 3e 69 04 fb 3d fe aa 26 3d ac 62 c1 3c
       0.13526729 0.122567005 0.040690415 0.02360662
0000e0 4c 50 d7 bc 65 20 84 bd 08 45 1a be 98 0e 07 3e
       -0.026283406 -0.06451491 -0.15065396 0.13189161
0000f0 ed 22 06 3e eb 5f 80 3e 31 52 15 3e cf 89 b6 3c
       0.1309926 0.2507318 0.14582135 0.02228251
000100 3f bc e8 3d 59 7c eb bd 4f d8 12 3e 88 45 9d 3c
       0.1136403 -0.11498327 0.14340328 0.019198194
000110 d2 cf 4d 3d 3c 8f cd 3d 20 b4 fc 3d 28 61 83 3d
       0.05024702 0.100370854 0.123390436 0.064150155
000120 b4 91 35 3e 23 6b 55 3e b8 93 83 bd 11 2f ad 3d
       0.17731363 0.2084165 -0.064246595 0.08456243
000130 5f 86 88 bd 1a 7c 24 3e 31 56 1b 3d 5c ad 08 3a
       -0.06666254 0.16062966 0.037923995 0.0005213821
000140 99 bc ea 3d 4b aa 02 bd ca 77 33 3e 81 02 8c bd
       0.114617534 -0.031900685 0.17526165 -0.06836415
000150 7a a0 84 bc 07 80 28 3d 29 95 d9 3d d5 73 52 bc
       -0.016189802 0.04113772 0.10624153 -0.012844999
000160 ed 13 46 3e a7 2a 49 3e 1b e1 e5 bd ec 02 d0 3b
       0.19343539 0.19645177 -0.11224576 0.0063480046
000170 9f f7 11 3e 97 d0 80 3d 17 87 14 3d 78 9c 1a 3e
       0.14254616 0.06289785 0.036261644 0.1509875
000180 bf 65 90 3c 18 96 2a 3e 6e 01 ae 3d 01 c8 07 be
       0.017626641 0.16658819 0.084963664 -0.13259889
000190 10 cd 0b 3e 7f 82 01 3e e7 bf 28 3e 6c b3 7f bd
       0.13652444 0.12647437 0.16479455 -0.06242697
0001a0 ac 65 23 3e 2b 41 39 3c d7 bb 00 3d 75 1a 36 3e
       0.15956753 0.011307041 0.031429138 0.1778353
0001b0 36 b5 03 bd d1 57 10 bd 0f c7 81 bc 3b e7 36 3e
       -0.032155238 -0.03524 -0.015841989 0.17861645
0001c0 26 96 85 3c d4 61 e4 3d 4d 87 d3 3e 7f c2 03 3e
       0.016306948 0.11151472 0.41314164 0.12867163
0001d0 3b 60 a6 bc 58 42 04 3d 5a f8 11 3d fa bf cd 3d
       -0.020309558 0.032289833 0.035637237 0.10046382
0001e0 c8 3d 2f 3e ed 33 05 3e bd 99 f5 3d 12 55 76 bc
       0.17113411 0.1300809 0.11992214 -0.015034931
0001f0 66 ec 5a bb d5 9c 9f 3d 35 24 80 bd a1 09 dc 3c
       -0.0033405065 0.07793585 -0.06256906 0.02686006
000200 1b 81 23 3d 24 02 9c bd a2 96 27 bc d3 a9 f5 3d
       0.039918046 -0.07617596 -0.010228785 0.11995282
000210 29 61 42 bd 9b d9 51 3e 70 df 9e 3b 23 15 4f 3e
       -0.04745594 0.20493166 0.004848413 0.20222907
000220 64 e3 15 3e 07 9d 24 3e 88 c8 00 3e 7d a2 18 3e
       0.14637524 0.16075526 0.12576497 0.14905734
000230 21 34 25 3e d1 37 32 3e b6 72 2b 3e de ef 1c 3e
       0.16133167 0.17404105 0.16742977 0.15325877
000240 8d 3c 6c 3c fa 21 4b 3e a3 bb 3c 3e 89 45 be bb
       0.014418733 0.1983718 0.18430953 -0.005806629
000250 13 9c 1f bd c0 a4 e8 bd e5 75 31 3d 06 5a f4 3d
       -0.038967203 -0.113595486 0.043325324 0.11931233
000260 d6 08 2e 3d 5a ff 37 bd 60 af 5f bd b2 c0 1d 3e
       0.042488895 -0.044921257 -0.05461061 0.15405539
000270 49 1f 42 3e a9 d9 49 3e dd 90 f3 3d 12 8b 8e 39
       0.18957247 0.19711937 0.11892865 0.00027187966
000280 71 81 5f 3e 05 fc 0f 3e 09 d1 b6 3d 17 83 07 3e
       0.21826722 0.14060982 0.08926589 0.132336
000290 38 d6 0e 3e 4b 8c c0 bd d4 8c 70 bd 12 bc 35 3d
       0.13948905 -0.09401759 -0.058728054 0.04436881
0002a0 34 01 1e 3e 52 e0 d2 3d a0 03 bd bc ae 22 ec 3d
       0.15430146 0.10296692 -0.023073018 0.11530052
0002b0 79 4e 46 3b 64 99 a1 3d bc 02 f9 3d 9a 2c f6 3c
       0.0030259176 0.07890585 0.12158725 0.030050565
0002c0 a7 4c a9 3d b6 41 74 bd 02 f8 17 3e a1 7b 1e be
       0.082665734 -0.05963298 0.14840701 -0.15476848
0002d0 b6 cb c5 bd 8c 82 7a 3c 20 87 5c 3e e1 12 a6 bd
       -0.096579954 0.015289914 0.21535921 -0.081090696
0002e0 ce 71 83 bd 7d 80 6f 3c 31 bf 1c 3e fb cf 11 bd
       -0.06418191 0.014618036 0.15307309 -0.035598736
0002f0 f8 e5 d4 3d de 65 0f be 66 87 f5 3e ad 3d b2 3d
       0.103954256 -0.14003703 0.47954863 0.0870317
000300 08 e7 88 3d 0c 74 1b 3e a8 fc 0b 3e a3 0d 95 3c
       0.06684691 0.15180987 0.136706 0.018194979
000310 eb 8f 0e 3d 0d 66 35 3e 02 c1 6c 3e 55 26 7f 3d
       0.03480522 0.1771471 0.23120502 0.062292416
000320 93 13 d6 3d 67 6f ab 3d 49 2e ae 3d 50 58 39 3e
       0.10452952 0.08370858 0.08504922 0.18100095
000330 d4 71 ae bc 6d eb fc 3d f1 c1 27 3e e7 8d 14 3e
       -0.021294512 0.123495914 0.16382577 0.14507256
000340 f7 9c fc 3d 0c 93 95 3d 39 f9 48 3e 5a dd 8b 3e
       0.12334626 0.073034376 0.19626321 0.27317315
000350 db a4 9b 3e 1b 90 bc 3d 78 60 f5 bd 1a c7 52 3d
       0.30399212 0.092071734 -0.119812906 0.05145941
000360 f2 73 04 3c 94 c3 cf 3d 30 4e 2a 3e ce 47 2d bd
       0.008084284 0.101447254 0.16631389 -0.042304806
000370 9a d1 ee 3d 04 ad f3 3d 3f d9 3c bd e0 5b 2e bd
       0.11661072 0.118982345 -0.04610562 -0.042568088
000380 99 69 0b 3e ea e8 89 bd 9e f5 96 3d 2d cb 65 3d
       0.13614501 -0.06733878 0.073710665 0.056101967
000390 be 02 46 3e fd 2d 10 be b9 29 f4 3d 0b 2a 3a 3e
       0.19336984 -0.14080043 0.119220205 0.181801
0003a0 5d 94 1c 3b 95 60 35 3e 51 a6 d1 3d 69 b6 0a 3e
       0.0023892142 0.17712624 0.102368005 0.13546146
0003b0 c8 5a 4c 3e 10 0c 71 bd 03 85 99 3d 8e 15 2d 3e
       0.19956505 -0.058849394 0.07496073 0.16902754
0003c0 af 2b fb ba ee ba 66 3d 51 19 18 3c c9 01 7a 3e
       -0.0019162799 0.056330614 0.00928338 0.24414743
0003d0 c4 ea 3f 3d ca 19 d6 3d c0 2b 5b 3e 10 4a d1 3d
       0.04685475 0.104541376 0.21403408 0.102192044
0003e0 30 45 28 3e 16 08 e4 3c 85 04 2d 3e 25 69 b6 bc
       0.16432643 0.027835887 0.16896255 -0.022266934
0003f0 6e 07 70 3e e7 a0 5b 3d 1f 13 93 bc aa e7 fa 3e
       0.23440334 0.053620245 -0.017953454 0.4900487

network.layer3.weight f4 [64, 256]
000000 ac 11 27 bd c8 22 90 be 43 57 e5 3d f3 de 18 3e
       -0.040788338 -0.28151536 0.111982845 0.14928798
000010 c6 53 52 3e ac e2 1a 3d fb 55 e4 3d 0b 5c 4f 3d
       0.2053977 0.037813827 0.11149212 0.05062489
000020 58 ac 5d 3d aa b9 58 3e 45 60 c8 3d 6d 09 09 bd
       0.054119438 0.21164575 0.09783987 -0.033456255
000030 a8 1c d9 3d 6e 70 06 3e eb 4e 56 3e eb ec a5 3d
       0.10601169 0.13128826 0.20928542 0.08101829
000040 8e af 06 3e d8 86 34 3e 9e 66 54 3d 50 45 5c bd
       0.13152906 0.17629564 0.051855676 -0.05377704
000050 c2 c1 87 3d 0b c2 ab bc 50 f8 34 3e bc a5 98 3d
       0.06628753 -0.02096655 0.17672849 0.07453486
000060 a6 f5 3c 3e 00 54 b3 bb cc 5f e3 bc ef ec 05 3e
       0.18453082 -0.00547266 -0.02775564 0.13078664
000070 af 0d 6d 3e 4c e5 13 3e 06 c8 9a 3d 96 c8 6a 3e
       0.23149751 0.14442939 0.07557683 0.2292808
000080 28 55 cc 3d 2e b7 8b be 32 a4 77 3e 1f 77 0f 3e
       0.0997718 -0.27288193 0.2418373 0.14010285
000090 d8 d3 55 3d b3 d9 06 3e a3 2c 65 3e c8 1a 0c bc
       0.052203983 0.13168983 0.22380309 -0.008551307
0000a0 3c f6 32 bd 81 c2 27 3c 22 28 62 3e b9 d2 82 3e
       -0.04369186 0.010239244 0.22085622 0.25551394
0000b0 24 77 3e 3e 94 cf 25 be 5b 12 34 3e 28 0d fb 3d
       0.18600136 -0.16192466 0.17585127 0.12258369
0000c0 2b 96 2c 3e 70 1d 78 3e a9 56 75 3e 5b 51 14 3e
       0.1685416 0.2422998 0.2395884 0.1448416
0000d0 8b 60 b1 3d a1 88 2f 3e 94 24 98 3d 1c e8 43 bd
       0.08660992 0.17141964 0.07428852 -0.04782878
0000e0 9f 11 45 3e 59 c8 1b 3e 85 04 8e 3e 97 c2 41 3d
       0.19245003 0.15213145 0.27737823 0.047304716
0000f0 b0 41 e2 3d 10 f0 6e bb 03 1e 04 3e 3e b1 57 3e
       0.11047685 -0.0036459006 0.12902074 0.21063706
000100 b2 ba 80 3d 8f ad 87 3e 50 0a eb 3d ec 02 11 3e
       0.06285609 0.26499602 0.11476576 0.14161271
000110 dc 44 42 3e 0c 19 7f 3d 00 70 1b 3e bf a4 f0 3d
       0.1897158 0.062279746 0.15179443 0.11750173
000120 86 4f 3f 3e fd d3 0d 3e fc 1c 6b bd bc 4f 3b 3e
       0.1868268 0.13850398 -0.05740069 0.18292135
000130 20 10 5c bc b5 9d 9b 3d 01 a8 1e 3e 28 2d 67 3e
       -0.013431579 0.075984396 0.15493776 0.2257582
000140 fa e9 ee 3d 08 e4 6d 3e 1e c4 3d 3e 3c 1a b9 3c
       0.11665721 0.23231518 0.18531844 0.022595517
000150 41 e0 bc 3e 83 96 0d bb bf da 49 3d 62 a8 10 bd
       0.36889842 -0.0021604605 0.04928088 -0.035316832
000160 57 28 04 3e 75 e2 89 3d ab 78 60 3e 9e 7b bf 3c
       0.12906013 0.067326464 0.21921031 0.023374375
000170 22 a0 74 3e de e0 3e 3e 9f fa 1c 3e b7 48 f1 3d
       0.23889211 0.18640468 0.1532998 0.117814474
000180 22 93 1d 3e 05 e8 98 3d cd 64 c1 3d 9d fe 92 3e
       0.15388158 0.07466129 0.09443054 0.2870988
000190 bc 16 ca 3d ac 60 61 3e c0 83 9e 3d 18 50 db bc
       0.098676175 0.22009534 0.07739973 -0.02677159
0001a0 1e 70 09 3e ce 72 2c bd a3 87 1a 3e 2e a6 82 be
       0.13421676 -0.042101674 0.15090804 -0.2551741
0001b0 12 3f 8c 3e 19 28 fd 3d 43 5a 2c 3e a4 d7 39 3e
       0.2739187 0.12361164 0.16831307 0.18148667
0001c0 27 e4 93 3d 0c ae b5 3d 2c 49 8d 3c cf 85 02 3e
       0.07221251 0.088710874 0.017246805 0.12746356
0001d0 90 0e 20 3d 52 a7 eb 3d 64 cc 63 3e ff 80 e0 3d
       0.039076388 0.11506523 0.22245938 0.10962104
0001e0 36 08 8d 3c a2 40 22 3e 4a 47 dd 3d 06 34 de 3b
       0.01721583 0.15844968 0.10804613 0.006781104
0001f0 7c 62 3c bd dc 8e 14 3e 40 bb 73 bb 41 28 05 3e
       -0.04599236 0.14507622 -0.0037190467 0.13003637
000200 a1 ef 5b 3d ce 46 92 3e f8 19 31 3e f3 b3 cc 3d
       0.053695325 0.28569645 0.17295063 0.0999526
000210 36 9f 54 3e e0 04 5f 3d 30 b0 22 3d ca 7b 37 3d
       0.20763859 0.05444801 0.039718807 0.04479579
000220 6b e2 a0 3d 41 f0 b6 3d 85 90 ef 3d a6 05 d7 3d
       0.07855686 0.089325435 0.11697487 0.10499124
000230 61 32 2a 3e 9e 31 ee 3d 0e 8a 0f 3e 0d 5f 1d 3e
       0.1662078 0.116305575 0.14017507 0.1536829
000240 23 67 ee 3d 9f 14 e9 3d 7f 55 23 3e 06 b1 53 3e
       0.116407655 0.11380886 0.15950583 0.20672998
000250 d0 44 62 bd 3c 9d 50 3e 9a d2 4d 3e 27 b1 19 3e
       -0.055241406 0.2037248 0.2009987 0.15008985
000260 bb 6b ae 3d 7d e0 34 3d e0 d8 21 bd e2 fe 25 3e
       0.08516642 0.0441594 -0.03951347 0.16210511
000270 04 74 df 3d e5 78 c7 3d 0b 2e 19 3e ff 7b 4a bd
       0.109108 0.09739856 0.1495897 -0.04943466
000280 45 d5 e2 3d 2f 50 86 be a8 eb 29 3e 3a cc 02 3e
       0.11075834 -0.2623305 0.16593802 0.12773219
000290 63 01 eb 3d 68 88 8c 3e 4d e0 89 3e 25 90 ed 3d
       0.11474874 0.2744782 0.2692894 0.11599759
0002a0 3f 09 70 3e 3b ef 01 3e fa d3 35 3e bf 33 04 3e
       0.23441027 0.12688915 0.17756644 0.12910365
0002b0 c4 b2 d9 3d 0e 43 2a 3e 44 ae a3 3d d0 2c 1c 3e
       0.106298 0.16627142 0.07992223 0.1525147
0002c0 49 4f 05 3e 38 d4 9f bc f4 f3 3b 3e cd 7c 9d 3e
       0.13018526 -0.019510373 0.1835478 0.30759278
0002d0 a9 b7 26 3e 04 bc 24 3e 52 c5 81 be bd 90 92 3e
       0.16280998 0.16087347 -0.25345856 0.28626052
0002e0 ad 71 9b 3e e7 ef 55 3e bf 8d 92 3d c8 a5 83 3e
       0.30360165 0.20892297 0.07155942 0.2571242
0002f0 75 f6 95 3d c0 2e 5c 3e 78 17 39 3d 14 49 af 3d
       0.073223986 0.21502209 0.045188397 0.085588604
000300 e0 98 25 3e 08 e0 32 3e f8 f3 12 3e 61 27 58 bd
       0.16171598 0.17468274 0.14350879 -0.05277193
000310 e9 b5 26 3c f1 be 9e 3d b4 c6 8f 3c bb 6a 0d 3e
       0.010175207 0.07751263 0.017550804 0.13810246
000320 4b 3f a8 3d 57 ac 8e 3d 04 0d 47 3e 8d a4 eb 3d
       0.08215197 0.06966465 0.19438559 0.11505995
000330 62 15 71 3e bb 73 1b 3d ad de 2b 3e e2 43 0b 3e
       0.23543313 0.037952166 0.16784163 0.13600114
000340 14 e1 82 3c 51 67 0a 3e e0 89 b8 3d 90 04 c8 3c
       0.015976466 0.13515975 0.090106726 0.024416238
000350 ae 87 56 be 1a d4 e4 3d 4e be 49 3e 07 d8 15 3e
       -0.20950195 0.11173268 0.19701502 0.14633189
000360 85 f7 24 3e 94 07 50 3d f1 a8 3a 3e 6c 7c cd 3c
       0.16110046 0.050788477 0.18228509 0.025083743
000370 25 0d 4f 3d 43 32 d8 3d 6b 3b 37 3e 1d 72 38 3e
       0.050549645 0.10556462 0.1789376 0.18012281
000380 ec 99 64 3e 1d 73 c0 3c 25 29 bc 3d 2f 4b a2 3d
       0.22324342 0.02349239 0.09187535 0.079244964
000390 17 5b b6 3d 74 34 a2 3e 04 a3 53 3e ea 74 8a 3d
       0.08904093 0.31680644 0.20667654 0.06760581
0003a0 52 14 2a 3c a8 80 3a 3d 5a db 5d 3e c3 43 07 3e
       0.010380821 0.045532852 0.21665707 0.13209443
0003b0 2d 91 03 3e 70 12 a3 bc 59 0e d1 3d de d5 11 3e
       0.12848349 -0.019906253 0.10207815 0.1424174
0003c0 e8 84 31 3e 84 4c e1 3d 35 0a fe 3d c4 03 af 3c
       0.17335856 0.11000922 0.124042906 0.0213641
0003d0 37 bd fd 3d d0 d4 97 3d 65 e5 66 be 86 f3 30 3e
       0.123896055 0.07413638 -0.22548445 0.17280397
0003e0 4e 86 4a 3e 47 4f eb 3d 02 b9 82 3d e0 eb 1e 3d
       0.19777796 0.1148973 0.06382944 0.038799167
0003f0 6a 3b 0f 3d 06 59 50 bd 68 e9 f5 3c 40 85 08 be
       0.03496877 -0.05086615 0.030018523 -0.13332081

network.layer3.bias f4 [64]
000000 04 8a b0 3d ca 01 4e 3d e0 34 8d 3e ad 9f 11 3d
       0.086200744 0.050294675 0.27579403 0.03555267
000010 50 da ce b9 9e 0e df 3c ee c1 18 3e 67 60 8a 3e
       -0.00039454037 0.02722865 0.14917728 0.27026674
000020 20 21 52 bc 76 4c 17 bd 97 be 85 3e 00 3c 38 be
       -0.01282528 -0.036938153 0.2612197 -0.17991638
000030 65 a8 3b be 08 f3 9e bd 83 38 87 3e c8 a5 94 3e
       -0.18325956 -0.07761198 0.26410303 0.2903273
000040 13 59 a1 3e e6 c5 40 bd c9 12 d5 3d 4a 9c 67 bd
       0.3151327 -0.04706373 0.104039736 -0.056545533
000050 dd c5 83 be 7a 47 0b 3e 92 bf 72 3e 7b 69 57 3e
       -0.25736895 0.13601485 0.23705891 0.21036331
000060 63 4c 90 3d 42 5d 26 bc 50 df ae 3b a5 e2 43 be
       0.070458196 -0.01015407 0.0053366795 -0.19129427
000070 be a9 4b bd 31 e3 18 3d e5 3f dc bd 2f cd 4e 3e
       -0.049722426 0.03732604 -0.107543744 0.20195459
000080 0e 36 03 3e 7b 47 18 3e 75 d8 8a 3c ec 61 16 bd
       0.12813589 0.14871018 0.016948918 -0.03671448
000090 18 33 30 3c 90 93 16 3e 82 92 f4 bc e7 27 0a 3e
       0.010754369 0.14704728 -0.029855017 0.13491784
0000a0 1a e8 88 bd 86 d5 1e bd 02 39 66 bd ab 78 37 be
       -0.06684895 -0.03877785 -0.05620671 -0.17917125
0000b0 0d 04 26 3e 3b 56 a4 3c b0 37 b0 3d 85 41 aa bc
       0.16212483 0.02006065 0.086043715 -0.020783195
0000c0 fe 65 ce 3d b0 d7 37 bd c9 7c 4d 3e 1b a2 89 bd
       0.10078047 -0.04488343 0.20067133 -0.06720372
0000d0 f6 d3 5c 3e 82 56 a7 be bc 80 1e be 82 ef 76 3d
       0.21565232 -0.32683188 -0.15478796 0.060287006
0000e0 4d 94 c1 3d 50 08 12 3e 67 1a 51 be 36 16 5c bd
       0.09452114 0.14260983 -0.20420228 -0.05373212
0000f0 b9 d3 2f 3e 7d 2c a9 be 07 8e 96 3e 0c 83 be bc
       0.1717061 -0.33041754 0.29405233 -0.023255847

network.layer4.weight f4 [27, 64]
000000 4a 89 f1 bd 84 27 7f bd bb 11 83 3d e5 aa 23 bd
       -0.11793764 -0.062293544 0.06399866 -0.0399579
000010 a5 f3 30 be a0 75 25 bc 37 a6 39 bd 77 6a 57 3e
       -0.17280443 -0.010098845 -0.04532453 0.21036707
000020 80 d1 3c bc 49 4b 4b bd 82 44 60 bd bf f6 6e be
       -0.011524558 -0.049632344 -0.054752834 -0.23336314
000030 9d d1 19 be 11 16 7c bd 2f 4f 1e be 7a e9 53 3e
       -0.15021367 -0.06154448 -0.15459894 0.20694533
000040 50 ce 6c 3e 9c 26 c3 bd c5 36 d4 bd 60 39 da 3d
       0.23125577 -0.095288485 -0.10362009 0.10655475
000050 15 54 a8 bd ac d9 9f bd c1 cb 28 be 90 32 3b 3d
       -0.082191624 -0.078051895 -0.16483976 0.045702517
000060 31 fb 1a bd a7 67 e7 bd 60 e1 ed bb 35 0d 22 be
       -0.03783721 -0.11299067 -0.007259533 -0.1582535
000070 bc b7 60 bd a8 5f 66 bd e5 61 49 bd dc 92 00 3d
       -0.054862723 -0.05624357 -0.049165625 0.031390056
000080 83 e7 a7 bd 02 40 19 be 78 b5 1a be 78 dd c4 3c
       -0.08198454 -0.14965823 -0.15108287 0.024031386
000090 d0 10 a1 bd 5c 92 ff bc 35 60 98 bd 5d d0 e7 bd
       -0.07864535 -0.03119772 -0.07440225 -0.11319039
0000a0 f2 43 3f bd e4 24 2f bd f3 78 64 be fb 2b e3 bd
       -0.046695657 -0.04275979 -0.22311763 -0.11092373
0000b0 3f 96 2b be 0b d6 3e be 3a ec b7 bd 94 df 1f 3d
       -0.16756533 -0.18636338 -0.089806035 0.03903158
0000c0 c2 aa cd 3c 00 e9 ac bb 47 62 4b be 86 b1 e9 3d
       0.025105838 -0.005276799 -0.19861709 0.11410813
0000d0 72 7c 41 bd 35 10 2e bd e2 2f 55 be 5e 92 e0 bd
       -0.04723782 -0.042495925 -0.20819047 -0.10965417
0000e0 29 ed a3 bd d8 83 30 be 88 2b ff bd 98 3b 66 3d
       -0.08004219 -0.17237794 -0.12459475 0.056209177
0000f0 4f eb 3e be 11 9d 5f bd e0 fe 84 3e 80 d3 a9 ba
       -0.1864445 -0.05459315 0.25975704 -0.0012956709
000100 8f 7f 77 bd ec cc 1b 3d ee b5 41 3e ed c6 46 3b
       -0.060424384 0.038037226 0.18917057 0.0030330971
000110 68 4e d9 ba 04 e9 cb bd 9a 61 16 be c1 8d 96 3c
       -0.0016579153 -0.099565536 -0.1468567 0.01837814
000120 a0 14 15 3c e1 c3 79 bd 73 97 8d 3d 0a 93 43 be
       0.009099156 -0.06097782 0.06913652 -0.1909906
000130 d1 30 09 be b0 5d 5c bd e2 92 3a be df b0 26 3d
       -0.13397528 -0.053800285 -0.18220094 0.04069602
000140 6d a7 5a 3d a0 5a 82 bb 67 56 17 be 4c f5 9e 3d
       0.053382326 -0.0039780885 -0.14779054 0.077616304
000150 43 eb 03 be 5a e4 6b bd 5b 51 93 bc ba 6b 85 3e
       -0.12882714 -0.05759082 -0.01798313 0.2605875
000160 96 72 da bb ea c0 c8 3c 46 b6 d4 bd c0 81 43 bc
       -0.0066664917 0.024506051 -0.103863284 -0.01193279
000170 40 50 e9 bb 9c c6 a6 bd 48 52 01 be 9c 99 23 be
       -0.0071201622 -0.081433505 -0.12629044 -0.15976566
000180 2a e6 20 be 08 b5 94 bc d4 40 d2 bc 60 3b 47 bd
       -0.157128 -0.018152729 -0.025665678 -0.04864061
000190 b0 a7 46 bd 4c 6f f1 bd aa e9 22 bb 34 96 da bd
       -0.048499763 -0.11788806 -0.0024858513 -0.1067318
0001a0 7c 3b 08 be 86 78 94 bd 4b 78 1c be b3 85 a2 bb
       -0.13303941 -0.072495505 -0.15280263 -0.004959786
0001b0 99 e9 4e be 91 8f 29 be 39 90 7b bd 5e 17 f7 bd
       -0.20206298 -0.16558672 -0.06141684 -0.12065004
0001c0 30 7b 2a be 17 e5 5d 3d d7 10 dd bd 78 ad 25 bd
       -0.16648555 0.054173555 -0.107942276 -0.040448636
0001d0 57 e6 13 be 8c dd c4 bc 1a fd 54 be e9 db ee bd
       -0.14443336 -0.024031423 -0.20799676 -0.11663038
0001e0 ba 0a 27 be 5d c8 25 3d bc ce 13 bd 5c b5 b8 3d
       -0.16312686 0.040474284 -0.03608583 0.090189666
0001f0 ba 02 e0 bd 61 a2 a8 bd a5 ac 4b 3e e3 72 cc bd
       -0.1093802 -0.08234096 0.19890077 -0.099828504
000200 c7 93 12 be f0 ca d7 bc 24 de 4f bd f2 ac f3 bd
       -0.14314185 -0.026341885 -0.05074896 -0.11898221
000210 ed 09 a4 bd bc 14 9e bd 66 22 4a bd b0 6d 06 3e
       -0.08009706 -0.077187985 -0.04934921 0.1312778
000220 38 ec 12 3d f5 2c 52 be ad a6 89 3e 42 53 49 be
       0.035869807 -0.20524962 0.26884976 -0.19660667
000230 56 3a 06 be 0c 73 60 3d bf 53 9a bd 4a 37 10 3e
       -0.13108191 0.054797217 -0.075355045 0.14083591
000240 bb da e0 bd c2 fe 81 3d 2c e1 bf bc 4c 2c a6 3d
       -0.109792195 0.06347419 -0.0234228 0.08113918
000250 a9 d1 30 be 70 bc 37 3c 90 ce 0b bd 4c 13 a2 3d
       -0.17267479 0.011214361 -0.03413254 0.07913837
000260 b2 44 5a be d5 a2 fc bd 9c d3 95 3d e0 e6 42 bd
       -0.21315268 -0.12335745 0.07315752 -0.04758346
000270 20 71 a4 bd 9e d8 9d bd 80 a6 f2 bd c7 da 1f be
       -0.080293894 -0.07707332 -0.118481636 -0.156108
000280 27 53 18 be 0b fb 5a be 46 39 86 bd 08 7f 01 3d
       -0.1487547 -0.21384828 -0.06553893 0.031615287
000290 82 f1 85 3d 55 dd 06 be a8 6d 12 be 1f c4 12 be
       0.065402046 -0.13170369 -0.14299643 -0.14332627
0002a0 8f 1f 3b 3d 58 b1 8c 3d 55 9a 03 be 93 bd 58 be
       0.045684393 0.06869763 -0.12851842 -0.21166067
0002b0 74 32 00 be 06 c5 1d be ab 83 38 bc 76 26 eb 3c
       -0.12519246 -0.1540719 -0.011261861 0.028704863
0002c0 e1 f6 f0 bd 0a 43 bf 3d 5d a2 00 be d0 58 40 bd
       -0.117658384 0.093389586 -0.12561937 -0.0469597
0002d0 f9 28 df 3c e8 0e ae bd 5f c6 05 be 18 e5 29 3c
       0.027241217 -0.08498937 -0.13063954 0.010369562
0002e0 dd b8 08 3c fb ec 31 be fd 0f b0 bc e8 85 eb bc
       0.008344856 -0.17375557 -0.021491999 -0.028750375
0002f0 22 7e 28 bd 7d 17 23 bd c3 41 40 3d c2 d7 47 bd
       -0.041135915 -0.039817322 0.046937715 -0.048789747
000300 50 3c 38 be 20 05 00 bd e4 f8 86 3d 36 6c 68 be
       -0.17991757 -0.031254888 0.06590441 -0.22697529
000310 84 f1 b9 bd a4 93 a9 bd f2 91 c4 bd e8 d7 03 3e
       -0.090792686 -0.08280113 -0.09598149 0.1287533
000320 90 c3 16 3d 62 ce b6 bb 4c 97 13 3e d9 af 06 bd
       0.036807597 -0.005578802 0.14413184 -0.032882545
000330 99 6c 3b 3c 96 f6 b5 bd 3d 78 2c be 2f 06 44 bd
       0.011439466 -0.08884923 -0.16842742 -0.04785746
000340 ad ba 2a bc 54 da 4c bd 68 ae 52 be 38 36 f1 bd
       -0.010420484 -0.0500129 -0.20574343 -0.117779195
000350 1f 6b f5 bb c5 96 c4 bd 29 99 05 be b9 74 57 3e
       -0.0074895765 -0.095990695 -0.13046707 0.2104062
000360 6d 49 d7 bd e8 a4 28 3c d6 3d cb bd 75 77 74 bd
       -0.10512052 0.010293223 -0.09923904 -0.059684236
000370 c6 ea fb bd a6 1e ec 3c 30 34 41 be c7 35 4a be
       -0.12300639 0.028823208 -0.18867564 -0.19747077
000380 ef 62 6a ba 24 5f 3d be a6 c3 cd bc e0 b2 ef bb
       -0.0008941134 -0.18493325 -0.025117707 -0.0073150247
000390 a0 d3 9c 3c 6f 49 af bd de 39 88 be a5 4a 80 bd
       0.01914388 -0.08558928 -0.2660665 -0.06264237
0003a0 97 06 11 be f0 54 a2 3d 0c 58 44 be bc c8 96 3c
       -0.1416267 0.07926357 -0.19174212 0.018406264
0003b0 2c ce 56 be e0 d6 a1 bd 8b ab 9b 3a 70 47 fe 3c
       -0.20977086 -0.07902312 0.0011876685 0.031039923
0003c0 7c 25 40 be ec 46 bc 3c e2 0f 99 bd ce 5f ac bd
       -0.18764299 0.022983037 -0.074737325 -0.08416711
0003d0 ef 26 94 bd ea 81 7c ba 3f df 36 be e0 af 0b bd
       -0.072339885 -0.0009632396 -0.17858599 -0.034103274
0003e0 f2 36 8e bd 0d 56 4c bc ae b2 32 3d 00 ee 3c 3d
       -0.06944074 -0.012471688 0.043627433 0.046125412
0003f0 ee f1 61 be 23 bf 25 3c 27 ee 64 3d c9 bc 81 3b
       -0.22064945 0.010116371 0.055891182 0.0039592725

network.layer4.bias f4 [27]
000000 f1 74 03 be b4 9a 08 be 4d f0 53 bd 70 26 7f be
       -0.12837578 -0.13340265 -0.05174284 -0.24917006
000010 74 b9 aa bd 75 ec fe bd 31 ea 1b be 28 10 a5 bd
       -0.083361536 -0.12447444 -0.15226056 -0.08059722
000020 68 bf df bc 70 0f 6e bd 99 e8 de 3c a3 9a 0f 3e
       -0.02731295 -0.05812019 0.02721052 0.14023833
000030 7f 87 a3 3c 9a 85 ca 3d 18 d3 aa 3e 4a 3c b1 bc
       0.01996207 0.09888764 0.33364177 -0.021635193
000040 d8 e2 57 3d 88 da 4d 3d db 0f 92 3c 9d 08 8b 3e
       0.05270657 0.050257236 0.017829826 0.2715501
000050 84 5c 8a 3e f6 55 53 3e 76 d5 70 3e 42 bb 7f 3e
       0.2702371 0.2063826 0.23518929 0.24973777
000060 10 7f ac 3d 68 b3 79 bd b1 68 22 3e
       0.08422673 -0.06096211 0.15860249
