DQN_panda_obs/model_panda_trained.pth (torch, 162839 bytes, 6 tensors)

network.layer1.weight f4 [128, 3]
000000 0e ea 62 3d ef cd 4f 3e e7 13 3b 3f 6d cf 63 bf
       0.055398993 0.20293401 0.73077244 -0.8898838
000010 47 a2 ac 3d 59 a9 5c 3f 5e ee 71 bf 97 77 85 be
       0.084293894 0.86195904 -0.94504344 -0.26067802
000020 d4 76 0c bc ed b1 36 3f 8f 58 df 3f 7d ac 5e 3f
       -0.008573253 0.71365243 1.7448901 0.86981946
000030 57 fe c4 bf 0b af 0b 3e bf 24 52 3e 67 68 89 bf
       -1.5390118 0.13640992 0.2052183 -1.0734986
000040 c6 f0 0d bf 76 53 20 3f cb f2 f1 3e 37 e0 ae be
       -0.55445516 0.6262735 0.4725555 -0.34155437
000050 3f 1c 42 be 68 c9 b4 bf b2 be 7a be d4 f3 5b bf
       -0.18956088 -1.4123964 -0.24486807 -0.8591893
000060 2b 7d b3 bf c7 4e ce be 98 ed 84 3f d1 ba 7a 3f
       -1.4022573 -0.40294477 1.0385008 0.9794131
000070 c7 98 98 3f 72 89 a8 3f 26 c5 d0 bf e5 96 e2 be
       1.1921624 1.3166945 -1.6310165 -0.44255748
000080 c2 02 45 bf 1e 27 d4 bf 92 33 75 be 42 4f a2 3b
       -0.76957333 -1.6574438 -0.23945454 0.004953296
000090 05 00 c1 bf 52 f5 9f 3e 89 f3 1f 3f f8 db 09 be
       -1.5078131 0.31241852 0.6248098 -0.13462818
0000a0 d8 ba 1d be ba 09 16 3d 15 ac e5 bf e5 b2 ae be
       -0.15403306 0.03663037 -1.794314 -0.3412086
0000b0 7d 4f 47 bf 76 f8 a8 bf 88 14 2b 3f 56 ad 5e 3f
       -0.77855664 -1.3200824 0.66828203 0.8698324
0000c0 ac 09 16 bf 34 a2 a0 3d 61 60 6c 3f c9 87 7e be
       -0.5860851 0.07843438 0.9233456 -0.24856485
0000d0 0c 9b 8b bf f4 ea 94 be 2d b8 32 3e 05 ed 04 40
       -1.0906692 -0.29085505 0.1745307 2.0769665
0000e0 86 e3 ea 3e ed 40 53 3f 6b 78 8d 3f 7e 80 89 3f
       0.45876712 0.82520944 1.1052374 1.0742338
0000f0 63 99 86 3f a5 48 18 40 64 91 6d 3f 6e cd 95 bf
       1.051556 2.3794339 0.92799973 -1.1703317
000100 1f 1e ed be fb e7 18 3e 4f 17 84 bf 8d ee 1e be
       -0.46312043 0.14932244 -1.0319613 -0.15520687
000110 58 8e a4 3f 39 b6 b3 bf 1b 14 25 3f af eb 89 3f
       1.285594 -1.4039985 0.64483804 1.077505
000120 f8 d5 e2 be 5a 9a 52 3f 5d 9e 12 bf 47 2e d2 bf
       -0.4430387 0.8226677 -0.57272893 -1.6420373
000130 d3 8b 23 bf d9 23 66 3f 73 79 94 bf 6e 1a c8 3e
       -0.6388523 0.8989845 -1.1599563 0.39082664
000140 1b d6 96 3f 83 0a 5c bf fb ac b7 be 09 7d 81 3f
       1.178409 -0.8595354 -0.3587416 1.0116283
000150 ca f5 6c bf 41 4b 22 bf 4c 09 2a 3f 06 47 c9 bd
       -0.92562544 -0.6339608 0.66420436 -0.09828
000160 4d ae 7e 3f bd fc 14 bf 58 19 b8 3e 97 65 da 3d
       0.9948471 -0.5819815 0.35956836 0.10663908
000170 5a ec 8c be 2f 1e 94 bf 8f 60 af 3e 0c 24 71 3f
       -0.27524072 -1.1571711 0.34253356 0.9419563
000180 b4 26 50 3e 81 c5 2b 3f 75 6b 5e 3f f8 3e 52 bf
       0.20327264 0.6709824 0.86882716 -0.8212733
000190 96 f8 7c be 25 ea a3 bf 8c ee 62 3f af 10 64 be
       -0.24704203 -1.280583 0.88645244 -0.2227199
0001a0 96 c2 dc bd 0e d9 28 3d 64 0d 8e be 72 16 93 be
       -0.10779302 0.041222624 -0.2774459 -0.28728062
0001b0 f7 ed 6a bf 52 8b 2f bf 7c a3 49 3f da e2 58 bf
       -0.91769356 -0.6857196 0.7876508 -0.8472115
0001c0 bb b7 fa bd c8 b4 79 3f 63 49 87 bd 96 7c 1b 3f
       -0.12242075 0.97541475 -0.06605794 0.6073698
0001d0 c0 98 f4 be 12 60 a4 bf 27 04 13 bf b9 62 57 3f
       -0.4777279 -1.2841818 -0.5742821 0.84135014
0001e0 1a 6e f8 3d c6 9d 2d 3f d4 74 83 be 34 44 d8 bd
       0.12130375 0.6781887 -0.2567507 -0.10559884
0001f0 c2 5d 8a 3e e6 49 fa be ec 89 38 bf 48 bc 6b 3f
       0.27024657 -0.48884505 -0.7208545 0.9208417
000200 33 f2 c8 be 2b 45 ab bf 16 e6 06 3f 5d 13 81 3e
       -0.39247283 -1.3380483 0.52694833 0.25210086
000210 e3 45 4e bf 42 ca db be 89 70 dc 3d d0 f9 13 3f
       -0.8057539 -0.42927748 0.10763652 0.5780306
000220 9c 74 78 bf f2 84 49 bf be e3 f3 be cf c4 99 be
       -0.9705293 -0.78718483 -0.4763469 -0.30032966
000230 5c 55 7c 3f 51 b9 a8 bf 37 6c ce 3e 81 7c 0b 3d
       0.9856775 -1.3181554 0.40316936 0.034054283
000240 21 70 5b 3e 18 6c 47 be d9 ba 83 be b9 60 8b 39
       0.21429493 -0.19474828 -0.2572849 0.0002658421
000250 97 c7 11 bd 90 9a a2 3d 42 35 23 bf 77 a2 29 bf
       -0.035590734 0.07939637 -0.6375314 -0.66263527
000260 fb 1f 82 3f 28 f9 67 3f b2 c8 6a 3f 00 a9 95 3f
       1.016601 0.9061456 0.91712487 1.16922
000270 4e 3b 19 bf f1 77 c8 3d 5b 67 9f 3f 40 fb ae bf
       -0.59856117 0.09788502 1.2453417 -1.3670425
000280 30 00 3f 3f ee 2c 16 3f 47 1a ba be ea 83 ed be
       0.7460966 0.5866231 -0.36348173 -0.46389705
000290 68 8b a8 be f8 93 a2 3e 57 f1 b6 3e b5 ec cd bd
       -0.3291886 0.31753516 0.35731003 -0.10054914
0002a0 cb f4 b1 bf 91 d3 05 3f f9 13 63 3f 17 5f 30 bf
       -1.390283 0.5227595 0.8870235 -0.68895096
0002b0 0d 1c 91 3f 48 3a 0d 3e b3 dc bf bf 35 d6 02 be
       1.1336685 0.13791764 -1.4989227 -0.12777026
0002c0 08 03 88 3f 62 21 d9 bf 27 f2 d1 3d 3e 63 1c bf
       1.0625925 -1.6963313 0.10251265 -0.6108893
0002d0 7a ef 63 be 16 db 25 3f 7b 37 96 3f d5 a9 25 3e
       -0.22259322 0.64787424 1.1735681 0.16178067
0002e0 36 38 d7 3e bb e1 12 bf 79 d9 8d bf 93 a7 8f be
       0.42035073 -0.5737569 -1.1081992 -0.28057536
0002f0 ad e0 26 ba 10 eb ba be 48 e3 55 bf eb fc 07 3f
       -0.0006365877 -0.36507463 -0.8354993 0.531203
000300 5e ed 4a bd 0b f2 fb be bf 6b bc be b1 50 68 3f
       -0.049542777 -0.49208102 -0.36800954 0.90748125
000310 74 ec 6e 3f 80 63 9b 3f af 25 71 bf 8b 3e e8 be
       0.9332955 1.213974 -0.94198126 -0.45360216
000320 a8 70 1a 3f 2a a9 57 bf e7 8c cb 3d 0f 5d 90 bd
       0.6032815 -0.842425 0.09938984 -0.070489995
000330 1f de 57 bf e3 bb 08 bf f9 bb 8a 3f bf dc 8f bf
       -0.84323305 -0.5341169 1.0838615 -1.1239241
000340 04 d6 24 bf b6 d4 a8 3f e3 bc 21 3e 93 5a 76 be
       -0.6438906 1.3189914 0.15794711 -0.24057989
000350 53 14 29 be e7 88 c0 3e 64 ae c9 3e 6a f9 6b 3f
       -0.1651166 0.37604448 0.39390862 0.9217745
000360 e7 20 b0 bf 2c ed 0b be 1e 09 9a bd ec 1b 9e bf
       -1.3760041 -0.13664693 -0.0752127 -1.2352271
000370 7f 14 29 bf b9 96 14 3f 7f ef 9f bf 90 3a 01 bf
       -0.660469 0.58042485 -1.2494963 -0.50479984
000380 21 ea 95 3f 56 97 df 3e ba 24 71 3e e2 e5 3d be
       1.1712075 0.43670148 0.23549166 -0.18544725
000390 9f d4 9c 3e a1 e2 c0 3e 95 f9 49 3f 45 fc 04 be
       0.30630967 0.37672904 0.78896457 -0.12986858
0003a0 33 d0 78 3e b5 2a 60 be b6 11 17 bf 9a da 45 3f
       0.24298172 -0.21891291 -0.590114 0.77286685
0003b0 03 c8 41 bf 6c 83 ac bf d9 b1 10 3e 84 da 51 3e
       -0.7569582 -1.3477607 0.14130343 0.20493513
0003c0 6c 59 c1 bf 36 2a 38 3f 52 bd 32 3f 14 d7 80 3f
       -1.5105414 0.7193941 0.6982013 1.0065637
0003d0 a8 c8 99 3f 30 0f a3 3f 39 0e d1 3e a5 64 11 40
       1.201436 1.273901 0.40831164 2.2717679
0003e0 06 9f 06 3f e5 72 c9 bf 9d 4f 37 bf 49 d5 89 3f
       0.525864 -1.5738188 -0.71605855 1.0768214
0003f0 a7 30 b6 bf 0a 26 87 3e b1 78 90 3f 7f 3e b3 bf
       -1.4233598 0.2639621 1.1286832 -1.4003447

network.layer1.bias f4 [128]
000000 54 5c 28 3f 01 8f f3 3f 5a d0 c7 3f 78 f6 17 3f
       0.6576588 1.9028016 1.5610459 0.59360456
000010 55 07 b1 3f 6c 59 96 3f 71 c1 a9 3f 3d 1f de 3f
       1.3830363 1.1746039 1.3262159 1.7353283
000020 fc 4d 72 3f 9a 44 28 be 1f 5b bb 3f fc 6a 6f 3f
       0.94650245 -0.1643242 1.4637183 0.9352262
000030 97 51 e1 3f e9 2e f9 3f f0 a8 da 3f cc 71 a3 3f
       1.7603024 1.9467441 1.7082806 1.2769103
000040 b6 7e d0 3f 71 12 2e 3f cc ba 38 40 f1 9c 4c 3d
       1.6288669 0.6799689 2.8864012 0.04995436
000050 33 a0 c4 3f b9 90 84 3f 28 57 cf 3f 98 f9 8d 3f
       1.5361389 1.0356666 1.6198473 1.1091795
000060 27 66 11 40 93 d1 46 3f b8 f0 83 3f 09 a0 a7 3f
       2.27186 0.77663535 1.0307837 1.3095714
000070 c1 90 dd 3f 74 5d 19 40 fe b7 a2 be 53 46 0c 40
       1.73098 2.396329 -0.31781 2.1917922
000080 47 6f 34 3f 21 32 c1 3f 17 06 c8 3f e0 34 a1 3f
       0.70482296 1.5093423 1.5626858 1.2594261
000090 0e 6f a8 3f 1e 97 f8 3f 98 18 e3 3f 65 0c 95 3f
       1.3158891 1.9421117 1.774188 1.1644408
0000a0 20 36 ef bd c7 5a 4c be 4a 89 fe 3c e1 f3 e2 3f
       -0.116802454 -0.19956504 0.031071324 1.7730676
0000b0 4a fa 00 40 59 22 5b 3f b3 58 f5 3f 14 57 ea 3f
       2.0152764 0.85599285 1.9167694 1.8307824
0000c0 00 ee f4 be e1 2f 0c 40 00 09 e4 3f d0 6a 95 be
       -0.4783783 2.1904223 1.7815247 -0.29183054
0000d0 2d ce ec 3f b5 e9 e2 3f 08 c4 dd 3f df b7 50 be
       1.850042 1.7727572 1.7325449 -0.20382641
0000e0 0c 8a dc 3f a0 a7 0c 40 9f 42 c9 3f 01 e5 05 40
       1.7229629 2.197731 1.5723456 2.0921023
0000f0 3d 52 70 3c 99 07 b5 3d 71 b1 b7 3f 43 c2 9b 3f
       0.014668045 0.0883934 1.4351026 1.2168659
000100 e5 ed b5 3f 3d 8e ab be 06 d9 b5 3f 4a 96 e3 3f
       1.4213225 -0.33506957 1.4206855 1.778024
000110 a6 20 f4 3f 0d 29 8a 3f f6 3e f6 be 7b d1 7e 3f
       1.9072464 1.0793778 -0.4809491 0.9953839
000120 d3 4a be 3f e1 a8 dc 3f 33 95 5d 3f b3 35 d2 be
       1.4866585 1.7239038 0.86555785 -0.41056594
000130 76 34 99 3f 7d 18 00 be 68 a5 26 40 62 4a 9c 3f
       1.1969135 -0.12509342 2.6038456 1.22102
000140 2f 1c df 3f b3 df f3 be da 9a 2b 40 fa de 6a 3f
       1.7430476 -0.47631606 2.6813264 0.91746485
000150 b6 93 f1 3f ac c3 c3 3f e9 77 3c bf 6a b2 0a 40
       1.8873203 1.5294089 -0.7362047 2.1671395
000160 ee e3 82 3f 39 26 62 3f 74 90 0d 40 dd 86 98 be
       1.0225809 0.88339573 2.2119417 -0.29790393
000170 5f 86 c6 3f e5 d0 97 3f aa 90 b6 3f 45 19 26 be
       1.5509757 1.1860625 1.4262898 -0.16220577
000180 f9 50 da 3f fe 0e ef 3f a8 8d a9 3f 3c 01 31 3f
       1.7055961 1.867645 1.3246355 0.6914251
000190 fe 24 fa 3f 74 fc 03 bf b1 44 f2 3f 9e df c0 3f
       1.9542539 -0.5155709 1.8927213 1.5068243
0001a0 05 b1 9d 3f d5 8c 04 40 b3 ea f8 3f b5 7d 83 be
       1.2319647 2.0710957 1.9446625 -0.25681844
0001b0 f8 83 e0 be 92 3b 0f 40 74 21 cc 3f b5 ac e6 3f
       -0.43850684 2.238011 1.5947709 1.8021456
0001c0 72 6c dd 3f 3e 24 eb 3f 56 27 ea be 2c 29 bc 3f
       1.729872 1.8370435 -0.45733136 1.4700065
0001d0 d1 00 f4 3f 05 03 5d bf a7 74 5c 3f 99 1c 5b 3f
       1.9062749 -0.8633273 0.861155 0.8559051
0001e0 7c 6e 1a 40 9b b0 0f 3f 79 a3 07 40 05 12 9d 3f
       2.4129934 0.56128854 2.1193526 1.2271124
0001f0 e1 26 19 40 6d a0 6a 3f f6 3f 27 3f 71 36 e3 3f
       2.392998 0.9165104 0.6533197 1.7750989

network.layer2.weight f4 [256, 128]
000000 c6 46 44 bd 37 2d 97 bc db 55 51 3d fd ad 0e 3d
       -0.047919057 -0.018454177 0.05110727 0.034833897
000010 66 7d 46 bb 89 d3 a3 3d a0 31 80 bd 7a 45 81 bd
       -0.0030287146 0.079993315 -0.06259465 -0.0631208
000020 b6 db 5f bd 47 e0 78 bd 4f e0 a5 3d e7 3d ea 3c
       -0.054652892 -0.060760763 0.08099424 0.02859397
000030 3f 87 8d bd e5 87 6e bd f3 27 89 bd 4a bd a1 3d
       -0.06910562 -0.058235068 -0.06697073 0.07897432
000040 bd bd 37 bd ee 68 11 b9 9a 83 e9 bb 43 7c 9e bc
       -0.044858683 -0.00013867367 -0.007126284 -0.019346362
000050 89 cf 89 bd 23 64 d8 3c 62 7d 82 3c 49 d5 9b bb
       -0.06729037 0.026414936 0.015928928 -0.00475565
000060 0e 43 41 3d 4e 4a 19 3d e0 45 3f 3d e0 b0 72 bd
       0.04718309 0.037424378 0.046697497 -0.059250712
000070 f9 1b 8d bd a3 68 a8 bd c2 e1 56 bd 4c ff b1 bd
       -0.06890101 -0.08223083 -0.052461393 -0.08691272
000080 79 ea a9 bd 1f 4a 40 3d a5 5f 42 bd 41 43 81 bd
       -0.08296675 0.046945687 -0.047454495 -0.06311656
000090 7a e7 5b bd 41 f0 b0 bd ff 71 07 bd 02 c6 3e 3c
       -0.05368755 -0.08639575 -0.0330677 0.011643888
0000a0 57 8e a6 bc 26 85 ab 3d 93 34 1f 3c 58 cf 03 bd
       -0.020331545 0.083750054 0.0097171245 -0.03218016
0000b0 37 cd b1 3c 92 49 ee 3b 0d 04 68 bd 75 35 ac bc
       0.0217043 0.007271954 -0.056644488 -0.021021584
0000c0 5a da 22 3c 7d 83 31 3d e3 92 42 3d 3b f6 fc bc
       0.009939754 0.043338288 0.047503363 -0.03087913
0000d0 53 04 97 bd fd e0 79 3c 63 b0 2f bd 04 01 9d 3d
       -0.07373872 0.015251395 -0.042892825 0.07666209
0000e0 65 57 9e bd 36 a6 6c bd 38 01 d6 bb ee 22 4b bd
       -0.07731513 -0.0577757 -0.006530907 -0.04959386
0000f0 2d 91 98 3c f2 b3 d5 bc 44 ac 57 bd ed d7 6f 3d
       0.018623913 -0.026086781 -0.05265452 0.058555532
000100 9f 83 8a bd 20 7e 3a bc 2f ca 12 3d 07 2a 1e bd
       -0.06763386 -0.01138261 0.03583735 -0.0386143
000110 e2 17 2b bd 7e 6a 1f bc 62 41 93 bd d3 e7 71 3d
       -0.041770823 -0.00972998 -0.07190205 0.059058975
000120 ea 4d a0 bc 0a 1d 87 3d 91 4a 3d bd da be 39 bc
       -0.019568402 0.06597336 -0.04621369 -0.011337006
000130 8e e2 d4 bc 35 d0 98 bd aa 29 89 bc a3 92 ce 3c
       -0.025986936 -0.07461587 -0.0167435 0.025216406
000140 02 90 a4 bd bd e9 79 bc 9e e0 b4 bd dc 77 1b bb
       -0.0803528 -0.015253481 -0.08831905 -0.0023722565
000150 2e 0e 36 bd 75 0c 58 bd 80 f6 1a bc 2f 56 4d 3c
       -0.044447117 -0.052746255 -0.009458184 0.012532755
000160 dc f6 85 bd 94 2d 88 bc d6 db 85 3d 4e 09 41 3c
       -0.06541225 -0.016623296 0.06536071 0.011782004
000170 a6 28 7c 3d 15 bb 3c bd b3 27 58 3b 92 01 80 3d
       0.061562203 -0.046076853 0.0032982647 0.062502995
000180 5d 79 3e bd 22 ab 3f bd bb 39 76 3d c3 d8 2a 3c
       -0.04650246 -0.046794064 0.06011365 0.010427657
000190 5e c3 a8 3d da 41 af 3d 0b 7a 13 bd 52 d4 81 3d
       0.08240388 0.08557482 -0.03600506 0.06339325
0001a0 9d 3e 0f 3d fa a2 63 bd f2 53 35 3d 57 35 ad 3b
       0.034971822 -0.05557535 0.04426951 0.0052858996
0001b0 e2 8f 9a bd 20 74 27 3d 1d 55 55 bd 06 42 7d 3d
       -0.07546975 0.04088223 -0.052083123 0.061830543
0001c0 f0 38 0a 3d 00 7b a9 bd 60 c1 5a 3d fb a5 5b 3d
       0.033745706 -0.082754135 0.053407073 0.05362509
0001d0 f7 d6 f3 3c f4 70 9d bd 7b af 57 bd 8d 8c 80 bc
       0.02976559 -0.0768756 -0.052657586 -0.01569202
0001e0 39 89 9d 3d 85 84 34 bd 83 a2 b7 bc a1 fb 86 3d
       0.07692189 -0.044071693 -0.022416359 0.06590963
0001f0 3e 39 63 3d 28 92 8a bd 89 ad 7b 3d 3f 29 67 bd
       0.055474512 -0.06766158 0.061444793 -0.05643582
000200 bc 4b d1 bd 59 18 c3 bd ea 07 75 bd 15 f6 12 be
       -0.10219523 -0.09526128 -0.059822 -0.14351685
000210 b8 6a ca bb c7 38 af bc 8a 4e 80 bd 8e 2c 90 bd
       -0.0061772726 -0.021389378 -0.0626498 -0.07039748
000220 55 12 47 bd 2e 88 c9 bd ad 0c 74 3d e4 21 66 bd
       -0.048601467 -0.09840427 0.0595824 -0.056184664
000230 c9 4f ab bd 36 08 bd bd 34 bf 84 bd 7a 4a 51 bc
       -0.08364827 -0.09230082 -0.064817816 -0.012774104
000240 ec f4 8f bd 38 82 8c bd 13 8c c6 bc 30 df 0f bd
       -0.07029137 -0.06860775 -0.024236714 -0.035124958
000250 88 9d 24 3d 01 80 10 3d 8a 92 41 bd c4 ed af 3c
       0.040189296 0.035278324 -0.04725889 0.02147568
000260 ee 9f f5 3c be 0e db bd 04 05 11 bc b0 c9 60 3d
       0.029983487 -0.10696171 -0.0088512935 0.054879844
000270 28 f5 7c bd da 6f e1 bd 5e 0c a2 3d 23 9f 54 3d
       -0.061757237 -0.11007662 0.07912515 0.051909577
000280 71 ca c3 3c ca ba 69 bc 4a c4 06 be d8 3e 52 bd
       0.023900243 -0.014265725 -0.13160816 -0.051329464
000290 94 5a e8 bd 74 a4 c0 bd 9a 3e ba bd b4 06 62 bd
       -0.113454014 -0.09406367 -0.090939716 -0.055182174
0002a0 0e 83 83 bc 54 74 01 3b 4b a9 00 3d bc 24 41 3d
       -0.016053703 0.0019753175 0.03141145 0.047154173
0002b0 7b fc 14 bd 6d d7 6a bc 07 42 88 bd 8c f3 a4 3d
       -0.036373597 -0.014333588 -0.06653219 0.080542654
0002c0 1d 46 a0 3d 47 09 d7 bc 78 43 08 3d ee 25 8d bd
       0.07825873 -0.026249541 0.03326747 -0.06892
0002d0 82 78 02 3d fa 02 7b 3c 05 77 ed bd 09 5e dd bc
       0.031853206 0.015320534 -0.11594967 -0.027022379
0002e0 58 1c c6 bd eb f5 a3 3d ac be 91 3c 7c bf a7 3c
       -0.09673375 0.080058895 0.017791115 0.020477049
0002f0 38 07 13 bd 88 06 8d 3d c9 d6 7f bd 65 d5 f1 3c
       -0.035895556 0.06886011 -0.062460694 0.0295207
000300 fc 5e 32 bd 6e 58 63 bc b3 09 37 bd 19 01 47 bd
       -0.043547615 -0.013876064 -0.044686984 -0.04858503
000310 e0 dc 40 38 7e f3 28 bd ce 1f 83 3d 42 3e b4 bd
       4.5982073e-05 -0.041247837 0.06402551 -0.08800937
000320 72 7c a3 bd ba b3 3f bc 64 a4 35 bd 0f e2 08 bd
       -0.079827204 -0.011700565 -0.04434623 -0.03341871
000330 1b 69 b7 bd ed eb ba 3c e7 6c 3d 3d b0 a0 b8 bd
       -0.08955594 0.022817576 0.046246435 -0.09015024
000340 37 f1 bf 3c 00 1c d6 bd 0d 5f f9 3d 05 6d bb bd
       0.02343045 -0.10454559 0.121763326 -0.09151653
000350 72 f9 24 3d e6 e3 ee 3b 64 8c 5f bd e7 a6 0d bd
       0.040276952 0.007290351 -0.054577246 -0.034583
000360 6a b1 23 3d 5f 12 1f bd ed c5 6f bd 14 de 82 3d
       0.039964117 -0.03883588 -0.058538366 0.06390014
000370 34 f2 e2 bd ee 4a bc 3c 96 96 16 bb d4 60 ad 3d
       -0.11081353 0.022984948 -0.002297794 0.08465734
000380 62 b0 eb bc 04 b7 e7 bd 6b 70 94 3b d5 49 3d bd
       -0.02877063 -0.11314204 0.004530003 -0.04621299
000390 a3 b0 2f 3d 8e fe ad bd e8 bc de bc 38 0d 00 3d
       0.042893063 -0.08495818 -0.027189687 0.031262606
0003a0 78 97 da bd 80 fd 39 bd e1 75 50 3c 1a 33 87 3c
       -0.106734216 -0.045407772 0.012723417 0.01650386
0003b0 a4 6f 38 ba ad 00 8d 3c 09 9b 27 3d d0 b4 66 3d
       -0.0007035679 0.017212236 0.040919337 0.05632478
0003c0 72 15 08 3d 92 a8 ed bd 7a 6f 02 3d ac ab 70 3d
       0.033223577 -0.11604418 0.031844594 0.05875747
0003d0 f4 94 c3 3b 44 14 c8 bd 58 48 25 bd bf 72 ac bb
       0.0059686843 -0.0976949 -0.040352196 -0.0052627022
0003e0 13 fe 9e 3d e2 fc ae 3c 81 87 ac bd 6a 25 d8 bd
       0.077633046 0.021360818 -0.08424283 -0.10554011
0003f0 31 ef c0 bc 13 b1 04 3d ea a6 dc bb ab 5d 56 3d
       -0.023551555 0.032395434 -0.006733765 0.052335422

network.layer2.bias f4 [256]
000000 f1 eb 9c bd 3b bd cd bd 2c df 17 bd 9d 27 39 bf
       -0.0766219 -0.100458585 -0.037078068 -0.7232607
000010 fd a0 99 3e bd 13 87 3f fa e6 c3 3c 97 6b 19 be
       0.30005637 1.0552899 0.02391385 -0.14982449
000020 da 18 6e 3f f2 24 1b 3d 13 22 7a 3f 18 ef c7 bd
       0.9300667 0.03787703 0.97708243 -0.097624004
000030 06 54 85 3f f1 23 e4 bc ed 92 6e bd a2 fc 9a 3f
       1.0416267 -0.02784917 -0.058245588 1.2108347
000040 17 74 81 3f 75 fa 78 3f 49 d2 8c 3f 26 eb 81 3f
       1.0113553 0.9725717 1.1001674 1.0149887
000050 50 b3 94 3f ea d5 5b bc 79 66 7e bd 15 f4 ab 3f
       1.1617222 -0.0134177 -0.062109444 1.3433863
000060 89 c7 94 3f 9c 89 98 3f 45 52 62 bd 4f 54 3b 3f
       1.1623393 1.1916995 -0.05525424 0.7317552
000070 91 e0 4c 3d 16 2b 8c 3f f8 72 99 3d d8 f9 cd bd
       0.05001885 1.0950649 0.07492632 -0.100574195
000080 36 f5 88 3f 2d fe 19 bc 6e 67 8b bd bb d5 87 3d
       1.0699832 -0.009398979 -0.06806837 0.06632563
000090 1a ba 9f 3f 5e d4 1a 3d c7 83 07 3f 5f 09 87 3f
       1.2478669 0.037800185 0.5293545 1.0549735
0000a0 42 de 7c 3f 11 f5 53 3f 56 57 82 3f ff 35 6b 3f
       0.9877664 0.82795817 1.0182903 0.91879267
0000b0 f9 93 e5 bc b6 10 6e 3c 9d 13 a5 3f 58 52 95 3f
       -0.02802466 0.014530351 1.289661 1.1665754
0000c0 14 82 f4 3d 3d 05 84 3f 77 1d 88 3d 78 9f 99 3f
       0.11938873 1.0314099 0.06646245 1.2001791
0000d0 91 2c 46 bd 2e d1 8e 3f 06 33 33 be c5 ef 93 3f
       -0.048382346 1.1157587 -0.17499933 1.1557547
0000e0 12 fc a8 3f df df 8a 3f f3 44 8b 3f 17 d4 26 3e
       1.3201926 1.084957 1.0880417 0.16291843
0000f0 e1 6b 8d bd c7 55 81 3f 38 cf 2f bd a9 c9 ab 3f
       -0.06905342 1.0104302 -0.04292223 1.3420917
000100 e7 bb 6e 3d 8d 62 90 bd aa 59 a2 bd a9 9b 97 3f
       0.058284666 -0.07050047 -0.07927258 1.1844379
000110 7f 74 12 bd 1b 49 61 bd 1d 59 6b 3f b2 fb 92 3d
       -0.03575563 -0.05500136 0.9193285 0.07176913
000120 e5 93 93 3f 21 9b aa bd e0 98 9d 3f 99 95 80 3d
       1.1529509 -0.0833037 1.2312279 0.062785335
000130 70 e6 ad 3f 44 a2 50 bd 3b 80 c5 3e 61 79 5e bd
       1.3585949 -0.050936 0.38574395 -0.054314975
000140 15 bc a1 3f 7c 65 af 3f 13 a3 a8 3c 9d 73 b0 bc
       1.2635523 1.3702846 0.020585572 -0.021539504
000150 13 c1 f4 3e d4 aa 8c 3f ff e1 93 3f fe 18 c9 bd
       0.47803554 1.0989633 1.1553344 -0.0981922
000160 47 e6 c8 bd 98 9c b1 bd 1d 24 81 bc 08 5c 53 3c
       -0.09809547 -0.08672446 -0.01576429 0.01290036
000170 06 e9 51 bd b4 9a 75 3f 4a ef 93 3d 75 eb 80 bc
       -0.05124762 0.95939183 0.07223375 -0.015737275
000180 99 a1 a9 be c6 0c 9b 3f 1d 0e 9d 3f 85 45 8b 3f
       -0.33131102 1.2113273 1.2269932 1.0880591
000190 c9 95 96 bd c0 04 3b 3c f1 bc 53 3f 60 4f 90 3f
       -0.07352788 0.011414707 0.82710177 1.1274223
0001a0 cf 57 33 3f c1 3d 9b 3f 5f 7a 87 bd d5 bd 96 3f
       0.7005586 1.2128221 -0.06615137 1.1776682
0001b0 c0 ba 9c 3f 1c 9c 6f 3f 39 82 41 bd 0b 1d 68 3d
       1.2244492 0.9359758 -0.04724333 0.056668323
0001c0 b2 35 8b bd 29 17 80 3f a0 b2 c5 be 7f f3 c4 be
       -0.06797351 1.0007068 -0.38612843 -0.38467023
0001d0 2b 6e 85 bc 87 4b b2 3f f2 15 bd 3f 64 1a b3 3c
       -0.016287884 1.3929299 1.4772322 0.02186317
0001e0 aa c2 9a 3f 26 24 b9 bc 46 34 07 3c c8 63 88 3f
       1.2090657 -0.022600245 0.008252209 1.0655451
0001f0 81 50 84 3f e5 6f 42 3f ae 9d 44 bd b5 b7 89 bd
       1.0337068 0.7595199 -0.048001938 -0.067244925
000200 dd ea 9c 3f 2b d7 a2 3e d5 78 a3 bd 48 5d 88 3f
       1.2259175 0.31804785 -0.07982031 1.0653467
000210 e8 f5 6f 3f c8 c7 1a be fd 76 de 3d 24 86 a6 3f
       0.937346 -0.15115273 0.10862539 1.3009686
000220 6c eb 72 3f 4f bd 99 3f 08 69 71 3d 90 a6 6e 3f
       0.94890475 1.2010897 0.058938056 0.93222904
000230 e8 a7 b4 be 5e 63 36 bd 06 4e 84 3f 7b 2d ef 3e
       -0.35284352 -0.044528358 1.0336311 0.46714386
000240 b3 62 88 3f 81 c3 32 bd 4c 82 a5 3f 11 20 9b 3f
       1.0655121 -0.04364348 1.2930388 1.2119161
000250 9a 3b 71 3f bb fd 9b 3f f3 29 58 3f ce 68 68 3d
       0.9423157 1.2186807 0.8443901 0.056740575
000260 d3 d1 45 bd b2 ab 76 bd e7 b4 88 3f 74 93 84 bb
       -0.048295807 -0.060222335 1.0680207 -0.004045898
000270 32 1d 91 3f b5 87 80 3f 13 87 93 3f 23 33 a7 3f
       1.1337035 1.0041414 1.1525596 1.3062481
000280 b6 83 72 3f 3d 36 9a 3f 46 68 8d 3f 16 1d 55 bd
       0.94732225 1.2047802 1.1047447 -0.05202969
000290 84 d4 b8 3f 5a 30 9a 3f 53 bf 08 3b 07 85 81 3f
       1.4439855 1.2046006 0.0020865991 1.0118722
0002a0 54 87 a2 3f b9 7e 88 3f 42 29 04 bd b9 ca 2a bd
       1.2697549 1.0663673 -0.03226591 -0.041697238
0002b0 ac be 8f bd 71 a5 64 bd 01 2c d1 bd a5 61 4e 3e
       -0.0701879 -0.05582184 -0.10213471 0.20154436
0002c0 da 4c b5 bc bb 16 aa 3f e0 f3 87 3f 7a 9b a0 3f
       -0.022131372 1.3288187 1.06213 1.2547448
0002d0 b3 42 24 bf 56 1c 91 3d b3 bc 0a bb 6d d5 9f bc
       -0.64164275 0.07085483 -0.0021169602 -0.019510949
0002e0 a0 47 a2 3f b8 29 1b 3e 9e cd 73 3f 87 57 91 3f
       1.2678108 0.15152633 0.9523562 1.1354836
0002f0 f0 49 93 bc 51 59 7f 3f 79 59 8e 3f c5 ac 58 3e
       -0.017979592 0.9974566 1.1121055 0.21159656
000300 a1 af 93 3f 09 a0 9c 3f d5 18 95 3f 3c 2b 78 bd
       1.1537973 1.2236339 1.1648203 -0.060588107
000310 e9 af d7 3e 77 78 bf 3f 2c d8 97 3f 74 db 8d 3f
       0.42126396 1.4958638 1.1862845 1.1082597
000320 0e 3d 91 3d e3 7f 92 bd 08 17 5f 3f 90 b9 8c 3f
       0.070917234 -0.07153299 0.8714452 1.0994129
000330 af 1d 7f 3f 78 8a 34 3f 24 c8 b2 3f 85 9f 98 3c
       0.9965467 0.70523787 1.3967328 0.018630752
000340 2e ae 13 bd ea dc ab 3b 1b ca f7 bb ab 08 9c 3f
       -0.036054783 0.005244841 -0.0075619346 1.2190145
000350 bf 52 0c bd 75 1a 8a 3f f8 79 81 bd 12 c4 91 3f
       -0.0342586 1.0789324 -0.06322092 1.1387961
000360 e9 63 24 be ed 93 a4 3f f7 45 c2 3f 61 92 99 3f
       -0.16053738 1.2857643 1.5177602 1.1997796
000370 1c 2a 1c bd 02 2d 8c 3f ec d0 eb bc 04 eb 96 3f
       -0.038126096 1.0951235 -0.028786145 1.1790471
000380 e1 75 87 bd be 76 e6 be b6 5a 3a 3d 52 12 87 bd
       -0.066142805 -0.45012468 0.045496665 -0.06595291
000390 1d e4 b7 bd 27 6e 7a 3f 09 a2 da bc 8c 4e ad 3f
       -0.08979056 0.9782433 -0.026688593 1.3539596
0003a0 56 13 a2 3f 46 0a 33 3d 1d 37 bc 3f 06 a6 a4 3f
       1.2662151 0.04371097 1.4704319 1.2863166
0003b0 ab ed 13 3f 5e 8c 34 be ec db 93 3f 99 26 97 bd
       0.5778453 -0.17631671 1.155149 -0.07380409
0003c0 c3 0d 7c 3f ba 38 8e 3f ba 19 77 bd f9 fd 14 3f
       0.984585 1.1111062 -0.06032727 0.5820003
0003d0 a3 35 05 bc 26 78 89 bc 78 24 41 be 2a 48 4d 3d
       -0.008130464 -0.016780924 -0.18861568 0.05011765
0003e0 38 c2 ea 3e 54 65 77 3c 39 22 da 3e 7a 62 85 3f
       0.45851302 0.015099842 0.42604235 1.0420678
0003f0 29 32 8d 3f 3c a1 98 bd 79 50 97 3f 73 bf 16 bd
       1.1030933 -0.07452628 1.1821433 -0.036803674

network.layer4.weight f4 [26, 256]
000000 1c 34 5d 3d 54 b2 f7 3d 28 86 53 bd 81 8e c8 be
       0.054004773 0.1209456 -0.051641613 -0.39171222
000010 9f 4a db be 45 64 fa 3e 2a b4 4e 3d ad c5 28 c0
       -0.4283037 0.48904625 0.050464787 -2.6370652
000020 29 53 25 3f 28 b1 67 bd 96 f4 04 3f 1c 1e 85 bf
       0.6458002 -0.056565434 0.5193571 -1.0399814
000030 85 a6 ea 3e a0 f1 05 bd dc b7 2f 3d b0 41 02 3f
       0.4583017 -0.032701135 0.04289995 0.5088148
000040 ee fe e3 3e 85 ed 03 3f 94 ce 01 3f ea f5 f5 3e
       0.44530433 0.515343 0.5070584 0.4803918
000050 82 d4 0e 3f 9c e0 84 bc 9c cb a3 3c 39 2e 08 3f
       0.5579301 -0.016220383 0.01999455 0.5319553
000060 e6 fb f7 3e d6 8d 17 3f ba 79 66 3d 2d 8e f5 3d
       0.4843437 0.592008 0.05626843 0.119900085
000070 40 33 81 3a 7f 97 43 3f f8 81 05 bc 22 36 29 bd
       0.0009857193 0.7640304 -0.008148663 -0.04131139
000080 31 a4 25 3f b1 e7 94 bf 12 af 2d bd 70 cd e9 bc
       0.6470366 -1.1633207 -0.04240329 -0.028540343
000090 e7 d5 16 3f fe 35 68 bd 58 1b 2f bf 16 b9 d7 3e
       0.5892014 -0.056692116 -0.684011 0.42133397
0000a0 a2 f6 12 3f 28 6a ba 3e f2 4a e5 3e cd 39 b4 3e
       0.5740758 0.36409116 0.4478374 0.35200348
0000b0 40 27 95 bc c0 17 c0 3c bd f3 0f 3f 58 36 01 3f
       -0.018207192 0.023448825 0.5623129 0.50473547
0000c0 6c 67 8d bf 4a 93 e8 3e 50 f5 f1 bc 31 35 f3 3e
       -1.1047187 0.45424873 -0.02953592 0.4750152
0000d0 80 eb 51 3c 6d b3 fa 3e b0 98 ad 3a fd d5 2b 3f
       0.012812495 0.48965016 0.0013244357 0.67123395
0000e0 57 67 0d 3f a6 7e 0b 3f 0e 00 22 3f 7f 41 dd bf
       0.5523581 0.54490125 0.63281333 -1.7285613
0000f0 54 80 50 3d c1 4f 25 3f f4 f5 ac 3c 27 34 15 3f
       0.050903633 0.6457482 0.021113373 0.58282703
000100 0e d1 69 3d 3c 91 47 3d c0 c4 e8 bb b1 5d c7 3e
       0.057084136 0.04872249 -0.0071035326 0.38938668
000110 28 86 2f bd d2 f4 11 3d 06 c1 d3 3e 90 ca 0a bd
       -0.04285255 0.03563387 0.41358203 -0.033884585
000120 a7 d2 16 3f c8 0a 40 3d 73 b1 04 3f 3e 67 38 3d
       0.5891518 0.04688528 0.51833266 0.045020334
000130 aa d9 ae 3e 3c 3a b7 3c 06 7b 9f bf 96 06 6a bd
       0.3415044 0.022366636 -1.2459419 -0.057135187
000140 79 9d 04 3f 2d 68 13 3f f0 84 ba bc 20 c6 5a bb
       0.51802784 0.57580835 -0.022768468 -0.0033382252
000150 2e ec ee bf 43 43 10 3f a0 d1 0a 3f 14 25 2d 3d
       -1.8665826 0.56352633 0.5422611 0.04227169
000160 44 ae 71 3d ac 0f 71 3d c0 46 11 3b dc 72 08 bd
       0.059004083 0.058852836 0.0022167414 -0.033312663
000170 88 b2 0b bc d2 b6 c9 3e a4 ed 64 3d 56 8f 2c 3d
       -0.008526452 0.39397293 0.055890694 0.042128883
000180 42 e1 de bf c9 1a 17 3f 9c e2 f7 3e 59 1a f5 3e
       -1.7412493 0.59025246 0.48415077 0.47871664
000190 ac 7e cd bc 80 46 d7 3a 72 95 ac 3e 30 5c 5d 3f
       -0.025084816 0.0016424209 0.33707768 0.8646879
0001a0 3d 70 47 3e d9 15 de 3e e5 75 2c bf ff 9c f2 3e
       0.1947641 0.43376043 -0.6736739 0.47385404
0001b0 de 72 28 3f ee 7b e0 3e 76 c4 1b bd 02 c7 ea be
       0.65800273 0.4384455 -0.038029157 -0.45854956
0001c0 b0 d7 de 3b 92 31 0d 3f 2c 7a 3e bf 9e 0e 00 bf
       0.0068006143 0.55153763 -0.7440517 -0.50022304
0001d0 14 93 8c bc 94 69 c3 3f b9 00 12 3f 50 31 a6 be
       -0.017159976 1.5266595 0.5703235 -0.32459497
0001e0 86 de 11 3f 40 4f c4 3a f4 20 05 bd 85 0d 1e 3f
       0.5698017 0.0014977232 -0.03250213 0.6173938
0001f0 2b a1 e2 3e fc 56 a4 3e 9c 59 2b 3d 74 39 07 3d
       0.44263586 0.32097614 0.041833505 0.033013776
000200 4f 58 14 3f 60 da bc 3d cc d1 4c bd 27 c0 ca 3e
       0.5794725 0.09221339 -0.050004765 0.39599726
000210 3d 15 2b 3f 49 68 0c bf 97 aa c3 be c3 36 1f 3f
       0.6682928 -0.54846627 -0.38216087 0.62192935
000220 3c 9c 1f 3f 03 bb 0e 3f 32 f0 2d bf 61 ff ac 3e
       0.6234777 0.5575411 -0.67944634 0.3378859
000230 07 79 1e bf fc 3c f6 bc 5c d1 0e 3f 00 74 71 bf
       -0.61903423 -0.030058376 0.5578821 -0.94317627
000240 e1 52 fc 3e 94 34 4f bd 88 b3 1a 3f c0 78 ca 3e
       0.49281982 -0.05058725 0.6043019 0.3954525
000250 57 8d 0e 3f a4 df 0b 3f 9e 9c ae 3e a0 6c 25 bf
       0.5568442 0.54638124 0.34103864 -0.64618874
000260 08 bb 2a bc d8 c9 14 3c 1c 5b d3 3e 72 7a 2e bd
       -0.010420568 0.009081326 0.41280448 -0.04259724
000270 fc 73 50 3f 21 8c fc 3e c0 54 18 3f ad 2d d8 3e
       0.8142698 0.4932566 0.5950432 0.42222348
000280 ab df 0c 3f ce b1 0b 3f b7 17 19 3f 40 6f 5d bd
       0.5502879 0.54568183 0.5980181 -0.054061174
000290 a6 f5 02 3f 6c c7 0b 3f 70 b6 8e bc a5 69 10 3f
       0.5115608 0.5460117 -0.017420977 0.564112
0002a0 ac 95 21 3f 04 f7 2c 3f a0 fc f0 bc 98 da 28 bc
       0.63119006 0.67564416 -0.029417336 -0.010306023
0002b0 6a f4 35 3d e4 ed 66 3d 80 00 45 3d f0 7a 80 bf
       0.044422545 0.056379214 0.04809618 -1.0037518
0002c0 2a f0 aa bf a1 80 e7 3e 34 09 de 3e f5 11 04 3f
       -1.3354542 0.45215324 0.43366396 0.515899
0002d0 4a 09 a0 be 80 97 b7 ba 26 a2 08 3d c8 7f 81 3c
       -0.31257087 -0.0014006943 0.03335776 0.015808001
0002e0 83 93 05 3f 59 1c 98 3e ec e2 c1 3e 53 82 3c 3f
       0.5217821 0.29709128 0.3786844 0.7363636
0002f0 80 5f 17 3b 2b c4 cd 3e d9 44 0b 3f 14 97 8f bf
       0.0023097694 0.40188727 0.5440193 -1.121798
000300 40 d1 e8 3e ae 79 4a 3f d0 32 36 3f a8 5e 7c 3d
       0.45472145 0.7909192 0.71171284 0.06161371
000310 ba 29 c8 bf b4 e7 20 3f b3 99 f8 3e a4 35 12 3f
       -1.5637734 0.6285355 0.48554763 0.571131
000320 88 9f 20 bd 14 17 cf bc 01 69 18 3f f0 4c fa 3e
       -0.03921464 -0.02527956 0.59535223 0.48886824
000330 52 73 0b 3f 98 7b 10 3e 57 7f e6 3e ca 14 06 bd
       0.5447284 0.14109647 0.45019028 -0.03273467
000340 c8 5e 67 bc 28 05 e6 3c a8 2b 03 bd 97 07 49 3f
       -0.014121719 0.02807863 -0.032024056 0.78527206
000350 2c b1 48 bd bc ef 2d 3f fa 0e 12 bf 54 15 16 3f
       -0.04899709 0.6794393 -0.570541 0.58626294
000360 2d 58 c2 bf fd 73 ea 3e aa 7e 32 3f c5 a5 ef 3e
       -1.5183159 0.45791617 0.69724524 0.4680616
000370 18 e2 f3 3c 47 68 20 3f 22 53 5c bd f6 d0 08 3f
       0.029770896 0.62659115 -0.05379022 0.5344385
000380 f4 78 30 bd 6c 48 d2 be 70 75 fa 3c e8 76 fc 3c
       -0.0430841 -0.41070879 0.030573577 0.030818418
000390 ad 77 25 bf ad cf 1d 3f 48 a3 3d bd 2c b8 b5 3f
       -0.64635736 0.61645013 -0.046298295 1.419683
0003a0 a3 3d fc 3e 3a d2 7d 3d e9 a8 13 3f 04 3c 0c 3f
       0.49265775 0.061968066 0.5767961 0.54779077
0003b0 99 c4 65 3d 52 bf 06 c0 f1 04 2c 3f 00 12 44 3b
       0.056095693 -2.1054273 0.6719504 0.0029917955
0003c0 d0 a0 0d 3f aa 85 03 3f 42 7e 08 bd e4 6f 0d 3e
       0.55323505 0.5137583 -0.033323534 0.13812214
0003d0 e8 57 1e 3c c6 e7 09 bd db 86 a3 bf f2 c3 74 3d
       0.009664513 -0.033668302 -1.277553 0.05975718
0003e0 6c d1 a6 3e 20 c6 c3 bb 89 88 e6 3d 97 20 14 3f
       0.3258165 -0.005974546 0.11256511 0.5786223
0003f0 cf 76 1c 3f e0 5a b9 bc 9f f1 22 3f e4 92 6e bd
       0.6111879 -0.02262634 0.63649935 -0.058245555

network.layer4.bias f4 [26]
000000 b1 c8 d7 3e 57 23 96 3e 1b 7d 21 3e 36 1f 34 be
       0.42145303 0.29323837 0.1577038 -0.17590031
000010 69 ab ae bc bc 67 2b 3e c1 a9 5c be e2 22 3a 3e
       -0.02132197 0.1673879 -0.21549131 0.18177369
000020 10 d3 a5 3e d7 d8 31 3f 04 a3 94 3f 05 38 13 3f
       0.3238759 0.69471496 1.1612248 0.57507354
000030 bc 9e 89 3f 0d 16 0f 3e 8a 43 b6 3e 1a ed 43 bd
       1.0751567 0.13973255 0.35598403 -0.04783354
000040 9d d2 3c bd 58 38 02 3f b8 e9 be 3e b9 b4 1f 3f
       -0.046099294 0.50867224 0.37287688 0.62385136
000050 e1 6c 0b 3f c1 bf 0e 3f 9d 4a 18 3f 63 5d 13 3f
       0.5446301 0.55761343 0.5948885 0.5756437
000060 d6 c4 14 3f bf 7d ed 3e
       0.5811285 0.46385
