DQN_panda_obs/model_panda_trained.pth (torch, 275919 bytes, 8 tensors)

network.layer1.weight f4 [192, 3]
00000000: 1db2 2e3f 1732 b5be b3c4 e63d d1dd 033e
00000010: 0fc8 71be 2e1c f83d 1ecf 083f cfb6 67be
00000020: 6e3c 8b3e 80fa 233e 32b3 483e e540 06be
00000030: 09a8 13bf f056 08bd 1fe8 d63e 7433 e93d
00000040: f496 08bf fc06 9dbd 03ed c3be 8ef0 eabe
00000050: df71 c1be 799e b7be cd70 0a3e 192a eb3d
00000060: 170d bfbe 5040 0fbf de5f 9dbc 0f13 f1be
00000070: 9cf5 023e ba63 77be 0150 0e3e dc16 4bbe
00000080: d10c 32bf dfb9 573e 3dd7 3f3e 0890 093e
00000090: 43c3 0fbf 1bd5 d8be ac34 183f 54c8 75be
000000a0: 94a9 9dbe 1cef 05bf eb22 e5bc 0a8c b23e
000000b0: 46de aebd 32c0 953e d6b8 e9be af7e 3f3e
000000c0: 39ab 14bf 26ec e0bd c20f 673e 03bc f8bd
000000d0: c69b 92be bce3 c53e 369b 4bbe 73f6 e3be
000000e0: c98e 31be 4662 03bf 0b86 47be 4fa4 3e3d
000000f0: bafd 06bf d991 25be 635f bfbe 9363 cb3e
00000100: 57bd 24bf 159f 2cbc 0bfa e7bc 2bed 72be
00000110: 94e8 17bf 3acc 953e b73b 873e 352a 94be
00000120: 208e c5be 6c2f a7bd 9d5e debe 85b7 dfbd
00000130: 2d92 f4be 21f4 3c3d bc8e 563d e238 1cbf
00000140: 749c 24be c5e4 fe3e 3796 a8bd bd84 b63e
00000150: 6305 fbbb afa2 703d 7646 e5bc 193d 06be
00000160: 4af9 8f3e e527 b03e f878 9cbe 66fa 04bf
00000170: 8eff 17bf e4f1 fb3e 2d68 0ebe 77e5 1d3e
00000180: 8cea 19bf ef1c b93e e5f7 8d3e f788 f93e
00000190: 2745 babe 9a74 763e 61ed 6b3e 105e 0ebf
000001a0: 38ac 6f3e eaab f8be 9a45 eebe 4413 f23e
000001b0: 3940 9cbe dd92 553d eb8b e7be a4d2 01bf
000001c0: 816d fd3e 9476 9abe 5ca1 013f d739 6ebe
000001d0: e58e e3bd 69f9 59bd 5dd6 553e 62dc e83e
000001e0: ce78 de3e de3d 7d3e 8bf6 b8be 49ad c4be
000001f0: 4757 93be e032 a73e 5037 eb3e 0f8e 08be
00000200: 7e79 9e3d 8bba 2b3f 55db 68be 52f8 8b3d
00000210: 1a37 19be 1a32 02bf 290a fb3e dfaa f7be
00000220: f9ec 183e e82b fbbc 2552 06bf ff70 aebe
00000230: ce6e b6be 2544 cabe 3153 703e 801e cdbd
00000240: ebb2 553e bfe5 023f b386 0a3f e738 8ebe
00000250: e918 b33d 869b 0a3f 85a2 dbbd 01a3 8e3e
00000260: 3411 b2be 65a0 cc3d 00ed 66be ec63 00bf
00000270: 4547 fe3d 48bf efbe 8c00 10be 59ec 10be
00000280: 6bcb 063f 1de0 28be 368e 98be 7d30 de3e
00000290: d6a7 393e 4f80 08bf 8808 b73e 8d11 143e
000002a0: 5098 dabe 8c68 923d 9d99 923e 8acf 8fbe
000002b0: c11d cbbe 8f79 febd 42e0 c4be 5e0f ce3e
000002c0: ba21 403d 1288 8dbe 2f9a babe 0611 6d3d
000002d0: 3b44 f2bd 4078 f93d 991c b93e 4aba 0bbf
000002e0: f0c7 c73e 9c7f 34be 9cdd 70be a0a9 09bf
000002f0: 50f1 c8be 28da bdbe a4d2 efbe 8a04 843e
00000300: 38f1 01bf 2b32 d03e 4b90 0c3f c520 f83e
00000310: 8e2d 113f 596a ef3c 92d3 1b3e 5dbe 05be
00000320: b4bd b8be ca7e 1ebf eb55 a83e 343e d23e
00000330: a1ea 89bd a73b 1d3e 6e43 dfbe 40c3 523e
00000340: 0d3a 32bf 1248 04be 5c33 03bf 67f2 693e
00000350: 8c78 5c3e 273c c5be 7096 833d 8d44 1b3e
00000360: f56c 2bbf bfb1 32bd f528 33be 318e a8be
00000370: 3115 c23e 3f64 e43d 249e e5be 964d a8be
00000380: 88bc 0abf 07b5 07bf 05ec 63be 9f1b e0be
00000390: 271f a4ba a2f0 ecbe e2a5 233d 1022 c0bd
000003a0: b106 32be 1e77 b03e 929f af3e 7c90 7cbe
000003b0: 64b5 903e 67db 463e 4cd1 0fbf 0fff 993e
000003c0: a955 af3e f4a5 a1be d84c a93e a189 b6bb
000003d0: 0813 b6be 5b33 3ebf 5541 083f 26dd 533e
000003e0: 6f00 63be 3788 c83e 440b e8be 1877 063f
000003f0: fd9d 183f a569 b5be 739b b63c 73e0 d5be
0.6824053 -0.35389778 0.11267986 0.12877585 -0.23611473 0.1211475 0.53441036 -0.2262833
0.27194542 0.16013527 0.19599608 -0.13110693 -0.57678276 -0.033286035 0.4197397 0.11386767
-0.53355336 -0.07667348 -0.38266763 -0.45886654 -0.3778219 -0.35863093 0.13519593 0.11482639
-0.37314674 -0.5595751 -0.019210752 -0.47084853 0.12789005 -0.24159136 0.13897707 -0.19832939
-0.69550806 0.21066998 0.1873445 0.1343385 -0.5615732 -0.42350087 0.5945537 -0.240022
-0.3079344 -0.52317977 -0.027970752 0.34872466 -0.08538489 0.29248196 -0.4564883 0.1870067
-0.58073765 -0.10982542 0.22564605 -0.121452354 -0.2863447 0.3865031 -0.19883427 -0.44523963
-0.17339624 -0.5132183 -0.19484727 0.046543416 -0.52730906 -0.16168918 -0.37377462 0.39724407
-0.6435141 -0.010535975 -0.028317472 -0.23723285 -0.5933926 0.29257375 0.26412746 -0.2893845
-0.38584995 -0.08163342 -0.4343156 -0.109236754 -0.47767773 0.046131257 0.052382216 -0.61024296
-0.16075307 0.49783912 -0.08231776 0.35648146 -0.0076605543 0.058748897 -0.0279877 -0.13109244
0.2811988 0.34405437 -0.30561042 -0.5194458 -0.5937432 0.49207985 -0.13906927 0.15419565
-0.60123515 0.36154887 0.2772819 0.48737308 -0.36380884 0.24067917 0.23039772 -0.5561228
0.2340554 -0.4856866 -0.46537477 0.47280324 -0.30517748 0.052142013 -0.45223936 -0.5071204
0.49497607 -0.30168593 0.5063684 -0.23264252 -0.11111239 -0.05321637 0.20882554 0.4548064
0.43451542 0.24730632 -0.36125597 -0.38413456 -0.28777525 0.32656002 0.45940638 -0.13335441
0.077380165 0.67081517 -0.22739919 0.06834473 -0.14962426 -0.508577 0.4903119 -0.48372552
0.14934148 -0.030660585 -0.5246909 -0.34070584 -0.35631412 -0.39505115 0.23469235 -0.10015583
0.20869033 0.51131815 0.54111785 -0.27777788 0.087449856 0.5414356 -0.107243575 0.27858737
-0.3477875 0.0999153 -0.22551346 -0.5015247 0.12415937 -0.46825624 -0.14062709 -0.1415266
0.5265414 -0.16491742 -0.29795998 0.4339637 0.1813043 -0.53320783 0.35748696 0.1445982
-0.4269433 0.07148847 0.28632823 -0.28088027 -0.39671138 -0.12425529 -0.38452345 0.402461
0.046907164 -0.27642876 -0.36445758 0.057877563 -0.1182942 0.12181139 0.3615463 -0.5458113
0.39019728 -0.17626804 -0.23522037 -0.5377445 -0.39246607 -0.37080503 -0.46840394 0.25784713
-0.50758696 0.40663275 0.54907674 0.484625 0.56710136 0.029225515 0.15217426 -0.13060899
-0.36082232 -0.61912215 0.3287805 0.41063082 -0.06734205 0.15354787 -0.43606132 0.20582294
-0.6961983 -0.12918118 -0.51250243 0.22846375 0.2153036 -0.38522455 0.06425178 0.15162869
-0.6696313 -0.043626543 -0.17496093 -0.32920983 0.37906793 0.11151933 -0.44847214 -0.32871693
-0.54193926 -0.530106 -0.22258003 -0.43771073 -0.0012521491 -0.46277338 0.03995312 -0.09381497
-0.17385365 0.3446588 0.3430143 -0.24664491 0.2826339 0.19419633 -0.56178737 0.30077407
0.3424504 -0.31571925 0.3306644 -0.005570606 -0.35561395 -0.7429711 0.5322469 0.2068983
-0.22168134 0.39166424 -0.45321095 0.5252547 0.5961607 -0.35432163 0.02229092 -0.41772804

network.layer1.bias f4 [192]
00000000: f914 5ebe bcf8 1e3f 8e6a 223e 5f37 b13e
00000010: b214 9bbe 2321 3dbe b295 8d3e 4a92 163f
00000020: c5fe a93e adea 453e 824c 773e 491f 083e
00000030: f25f 063e fb6c 2b3c 9502 c93e 3170 f2be
00000040: c685 a53e 9130 8f3e 7b96 163f fdc1 853e
00000050: a72c 1c3f ae15 48be 54da 643e ce33 05be
00000060: 91e0 3abe cab2 e2be ae8c 58be f99e 843e
00000070: 8900 923e 0290 b5be 4455 893e c749 95be
00000080: 1b72 79be 700f cfbe 0616 c8be d226 e2bc
00000090: 7862 0c3f 2fd8 1dbe c8ba 043f 011c 3c3e
000000a0: d8c1 89be ad6a 0f3f a303 843c a291 0b3c
000000b0: 5583 babc 9b9e d13e a68e 833e 0fe7 313f
000000c0: 0971 8d3e e5f8 fabd 3d0b 08bf 6dd3 213e
000000d0: c428 7d3e 3cdd cebe 783b c43e 6dcb fdbd
000000e0: ada9 633d 2e06 97be 1b20 2f3f 99f3 ae3e
000000f0: 3dc9 ffbd 9779 d3be 7ba1 ef3e f00f 073f
00000100: 73fe 20be d46c 02bf 93e7 873e af97 2a3d
00000110: f040 03be 8dbd 83be bcd9 6fbe 1ff3 43bd
00000120: d96a cdbe f54a 7f3e a08b 6f3e 06c7 9ebe
00000130: c2a7 adbe 169c b73d cb6b 133f a3fb b13e
00000140: 4990 8dbe 0985 343e c95e 67be d830 0a3f
00000150: e339 b2bc b0a7 9a3e c57b ca3d 6197 043f
00000160: de4b 373e 3a7e 56bd f8cc a3be 0c55 f33e
00000170: 9e00 c93e 0364 11bf 562c 283f ce85 8ebc
00000180: 6015 853e c67f 0a3e be65 f8be 97ce 503e
00000190: 166a 033f 941b 97be ae70 f33b 5c79 973d
000001a0: 4727 1f3e 65b6 e33e 76a3 76be c673 a2be
000001b0: 0ae1 0a3f bd1a 513e ba1e 493e e307 0c3f
000001c0: b656 f3be cb9b fb3d ccea 283e f94e bebe
000001d0: 0211 c9bc 9c37 babe 6664 183e 50bb af3d
000001e0: 7458 aabe d579 17bf 8289 053e d77a 93be
000001f0: 3093 ba3e 752d d6be 9c17 8dbe a3fb 203f
00000200: 2931 ebbe 3bb8 f7be 87b9 a03e a0c8 54bc
00000210: e4b6 3abe dc5f b3be 4635 823e 6741 8c3e
00000220: 3f91 93be 0684 a3be 6086 dabd f651 0cbf
00000230: ec36 203f 9245 e33e 0601 2b3f b694 0c3f
00000240: a8fc 2a3e 624c 133f 870e 103f 0984 f139
00000250: 0055 09bf d6c4 bd3e 42f8 233f 109b 0e3f
00000260: e32d b03e 1e4d 82be f49f 3e3e 8b59 783e
00000270: 931a d33e 307b f93e 7e44 00bf 2420 45be
00000280: f3ec e6bd c25a 033f 5b83 d63e 83b1 39be
00000290: f03d 12bd a48d b9bd f3e0 c03e dd2c 08bd
000002a0: fd25 773e 4ca6 4c3e 025b cbbe a03c 40be
000002b0: ec78 893e 8195 0c3e 4d4b 99be 4f98 d0be
000002c0: a122 dfbd 0a66 073f 2ed9 d1bd 286a 18be
000002d0: be72 fd3e b127 aebd ec07 80bd 81cd 513e
000002e0: c45c 0e3f b68b 56be bf91 083e f99d a9bd
000002f0: 4339 d8be 085b 893e d359 db3d 53ca 7ebe
-0.21687688 0.6209829 0.1586096 0.34612557 -0.30289227 -0.18469672 0.2765327 0.5881697
0.33202186 0.19327803 0.24150279 0.13293184 0.13122538 0.010462995 0.39259782 -0.4735122
0.32328624 0.2796674 0.58823365 0.26124564 0.61005634 -0.1953952 0.2234891 -0.13008043
-0.18249728 -0.4427703 -0.21147415 0.25902537 0.28516033 -0.35461432 0.26822865 -0.2915785
-0.24359934 -0.40441465 -0.39079303 -0.027606402 0.5483775 -0.15414499 0.51847506 0.18370058
-0.26905704 0.5602215 0.016115015 0.008518608 -0.022767702 0.4094132 0.2569477 0.6949319
0.276253 -0.12254504 -0.5314215 0.15803309 0.24722582 -0.40403163 0.3832662 -0.12392316
0.055581737 -0.29496902 0.68408364 0.34170225 -0.12489555 -0.41303703 0.46802887 0.52758694
-0.15722065 -0.5094731 0.26543865 0.041648563 -0.1281774 -0.25730553 -0.23422903 -0.04783928
-0.4012058 0.24930938 0.23393106 -0.31011218 -0.33917052 0.08965318 0.57586354 0.34762296
-0.27649143 0.17628874 -0.22594751 0.5398078 -0.021756118 0.3020606 0.098868884 0.51793486
0.17900035 -0.052366473 -0.31992316 0.47525823 0.39258283 -0.5679323 0.6569265 -0.017397787
0.2599287 0.13525304 -0.48515123 0.20391308 0.5133375 -0.29513228 0.007429204 0.07396194
0.15542327 0.44475093 -0.24085793 -0.31728953 0.5424963 0.20420356 0.19640628 0.54699534
-0.47527093 0.122855745 0.16495818 -0.37169626 -0.024544243 -0.36370552 0.14882049 0.08580649
-0.3327061 -0.59170276 0.13040736 -0.28804657 0.3644042 -0.41831556 -0.27557075 0.6288397
-0.45935944 -0.48382744 0.31391546 -0.012987286 -0.1823383 -0.35034072 0.2543127 0.27393648
-0.2882175 -0.31936663 -0.10670161 -0.5481256 0.62583804 0.44389015 0.66798437 0.54914415
0.16697943 0.57538426 0.56272167 0.00046065476 -0.53645325 0.37064236 0.64050686 0.55705357
0.3441001 -0.2544946 0.18615705 0.24252908 0.41231212 0.48726797 -0.5010451 -0.19250542
-0.11275663 0.5131036 0.4189709 -0.18134122 -0.0357036 -0.09060219 0.37671623 -0.03324591
0.24135585 0.19985312 -0.3971787 -0.18773127 0.2685007 0.13728906 -0.29940262 -0.40741202
-0.10895277 0.52890074 -0.10246502 -0.14884245 0.49501604 -0.08503664 -0.06251511 0.2048855
0.556103 -0.20951733 0.13336848 -0.08282084 -0.42231187 0.26827264 0.10710492 -0.24881868

network.layer2.weight f4 [256, 192]
00000000: 1a6c 4b3d 8cc2 afbc 834a 383d a1ad 24bd
00000010: c0fa 8d3d 364b 0d3c 3c4f be3c f585 d9bc
00000020: 0a28 74bd f90b 33bd a2d5 1dbd b6d6 f13b
00000030: c772 81bd 532a 443d 056c b33c 1f5c fb3c
00000040: 38f5 843d b305 90bd 6c5b 923d ba44 1d3c
00000050: da05 edbb b5a9 033b eb70 a4ba 655e e1bc
00000060: 99bd 28bc 3479 c4bc 2c3e 3b3d 323c 223c
00000070: 265e 863c e344 4f3d 2443 5d3d 77f9 843d
00000080: e0fd 7f3c 7a66 463c e562 b8bc 979b 913d
00000090: 0a23 3f3d 96f3 493d aeee 8dbd 2eb3 ea3b
000000a0: f821 ddbc c72a febc 491e 3d3d bb25 a0bc
000000b0: 487e 843d 75da 87bd 103b 893d b3c4 1e3d
000000c0: 69f2 adbc 50d4 8fbd 6814 c93b 89be 8abd
000000d0: b829 1f3d b511 a0bc bfb1 12bd f371 0fbd
000000e0: 9d0c 023c bc54 173d 9476 e8bc b52c 463d
000000f0: 554c debb eade 8fbd 2ae8 c8bb 9de0 38bc
00000100: e0c7 b73c ead8 573d 11c2 20bd e2ee 683d
00000110: 5eff c6ba 77fa 28bd f974 933d 88cf 02bd
00000120: 0ce5 8f3d 2e9c d23c 7114 c8bc c484 aa3c
00000130: ebe3 4abd 2205 8a3c 5401 3e3c edb3 7e3d
00000140: 5b37 1cbc 3c79 23bc e724 2f3d 2215 1ebd
00000150: 8645 093d 3b82 fe3c f45b 84bd 4a28 82bd
00000160: dadb 203d fb5c a53c 1337 323d f116 d73c
00000170: 608b 7abd cbf2 98bc 5308 89bc 0dc6 7d3b
00000180: ff4a 8fbc 140d 45bd 2340 77bd 9c15 dcbc
00000190: 1037 5f3d 520b 62bd 69c5 42bb 82a0 52bd
000001a0: 69b0 8a3d 904a 7f3d 3542 34bd 5188 24bd
000001b0: f3a6 6d3d 7514 83bd dde0 7fbc 2835 103d
000001c0: db39 34bd 8aa8 93bd c781 7dbc eeed d53b
000001d0: 3639 aebc 546f 6cbd 1d6f f03c 8b5a 493d
000001e0: 3208 2cbd 8900 72bc 9e93 083d 791f 87bc
000001f0: 1db2 82bc 4489 013b 6a62 a83a aeba 493d
00000200: c142 4a3c a07b 7bbd 8bf7 8dbd 7966 3e3c
00000210: f0dc 873d 432c 20bd 3276 173c 9897 50bd
00000220: 07b8 92bd 303f 67bc 446f fc3c 6d37 4d3d
00000230: f47f 143d 6f89 853d 0330 71bd 1b03 4bbd
00000240: f526 05bd b364 7bbd 1c86 febc 367f 913c
00000250: dc66 fdbc 534d 42bb a0e5 4fbd 1839 4bbd
00000260: f063 99bc 61d4 b83c 274e db3c 206e a8bc
00000270: 4164 c0bc fc92 2bbd 113b 10bd c88f 283d
00000280: 4b56 623a 542a 9c3c 20f6 bfbc fda7 60bd
00000290: 37aa 4fbd f80b 30bd ab3c 343d b0ad 52bd
000002a0: 812a 8abd 8329 ab3c 5bd1 01bd 4653 89bc
000002b0: 9398 40bd 130f 273d 0b94 d33b 374f efbc
000002c0: 3da3 023d e636 07bd 49bf 033d 277b 783d
000002d0: b17b 68bd e41b dfbb 180f 593d ccf2 cf3b
000002e0: 1d3e 723d c3e9 b93c e66f b1bc 2b0d 543d
000002f0: cbe7 863b e096 5ebd bf6f 29bc a637 1e3c
00000300: dd6a 4fbe 4bae ad3d 0e39 0fbd 1127 953c
00000310: 48e2 41bd 3ae4 a6bd bb16 953d 1b62 d53d
00000320: ad28 883d 872f af3d 723b 1c3e a4f0 cd3d
00000330: 3031 ccbb a350 3f3d f427 463d cdc3 08be
00000340: b324 71bc 7d6a ad3d 0a6e f83b dfbe 543d
00000350: 553f 6e3c b34c c0bd 4593 3c3e f7f7 8ebc
00000360: d9a6 803d 9265 cdbd 04e5 42bd 9fd0 8c3d
00000370: 241e aa3d 201a 4abd 86bd 93bd b50c 02be
00000380: 2f01 1c3b ba38 06bd c7a0 963b c1a8 88bc
00000390: 5232 c63d f434 6fbe ef0d 163d a54a b93d
000003a0: 7f0d 87bd 60cd 983d 21bb ffbd 68c0 ddbd
000003b0: 722f 1a3d 9f77 ed3d 4584 3d3d 3076 f43d
000003c0: 0898 0c3d 284c 8b3d a661 93bd 53b4 923e
000003d0: 8fb1 84bd 6db2 87bc ac65 a73c c889 0d3d
000003e0: 7cd3 1c3d 0a0b 76bd da1f 0b3e e900 95bc
000003f0: d120 04bc 3d9f 4dbe 7bb9 ca3c 5a67 283d
0.04966364 -0.021455072 0.044992935 -0.040204648 0.069325924 0.008623889 0.023231141 -0.026553134
-0.059608497 -0.04371259 -0.038533814 0.007380332 -0.0632072 0.047891926 0.021902094 0.030683575
0.06492084 -0.07032337 0.071463436 0.009598905 -0.0072333636 0.0020090167 -0.0012545859 -0.027510831
-0.01029911 -0.023983575 0.04571359 0.009902047 0.016402315 0.050602805 0.05401911 0.06492894
0.015624493 0.012109393 -0.022508094 0.071097545 0.046664275 0.049304567 -0.0693029 0.007162473
-0.026993737 -0.031026257 0.04617146 -0.019549241 0.06469399 -0.06633464 0.067007184 0.038761806
-0.021233754 -0.07022917 0.006136466 -0.06774623 0.038858145 -0.019539693 -0.035814043 -0.03502078
0.007937578 0.036946043 -0.028376855 0.04838248 -0.006784002 -0.07024939 -0.0061311917 -0.011284021
0.022434175 0.0526971 -0.039247576 0.05686844 -0.0015182307 -0.041254487 0.07200045 -0.0319362
0.07026109 0.025709238 -0.02442381 0.02081526 -0.049533766 0.01684815 0.011596996 0.06218331
-0.009534682 -0.009977635 0.042759802 -0.038594373 0.03351357 0.031067958 -0.06462851 -0.06355341
0.039272167 0.020185938 0.043509554 0.026256057 -0.061168075 -0.01867046 -0.016727602 0.0038722784
-0.017491816 -0.048108175 -0.0603639 -0.026865773 0.05449587 -0.055186577 -0.0029719716 -0.051422603
0.06771929 0.062326968 -0.044008452 -0.040169064 0.058020543 -0.06400386 -0.015617576 0.035206944
-0.044000488 -0.07209881 -0.015472836 0.0065286076 -0.021267515 -0.05772336 0.029349858 0.049158614
-0.042000003 -0.014770635 0.033343904 -0.0164945 -0.015954072 0.0019765655 0.0012846712 0.049250297
0.012345017 -0.061397195 -0.06931981 0.011621111 0.06633937 -0.03910471 0.009244489 -0.05092582
-0.07164007 -0.014114186 0.030814774 0.050101686 0.036254838 0.06520354 -0.05888368 -0.04956351
-0.032507855 -0.06137533 -0.031069808 0.017760854 -0.030932836 -0.002964814 -0.050756097 -0.049614996
-0.018724412 0.022562208 0.026770664 -0.020560324 -0.023485305 -0.041888222 -0.03521258 0.041152745
0.00086340745 0.019063152 -0.023432791 -0.054847706 -0.05069944 -0.042980164 0.04400317 -0.051435173
-0.06746388 0.020893818 -0.031693798 -0.01676334 -0.047020506 0.04078586 0.006456857 -0.029212577
0.031893957 -0.03301134 0.032164846 0.060664322 -0.056758586 -0.0068087447 0.05299291 0.0063460823
0.059141267 0.022694474 -0.021659803 0.05177037 0.0041169873 -0.054343104 -0.010341584 0.009656822
-0.20255609 0.08480509 -0.03496652 0.018207105 -0.04733494 -0.081489995 0.07279726 0.10419103
0.06648383 0.08553987 0.15257052 0.10055664 -0.0062314495 0.04670776 0.048377946 -0.13355942
-0.014718222 0.08467577 0.007581477 0.05193984 0.014541467 -0.09389629 0.18415554 -0.017452223
0.06281824 -0.100291386 -0.047581688 0.06875729 0.0830653 -0.04934132 -0.07213883 -0.1270016
0.0023804416 -0.032768942 0.004596803 -0.01668203 0.096775666 -0.23360044 0.03663438 0.090474404
-0.06594371 0.07461047 -0.12486864 -0.10827714 0.037642904 0.115950815 0.04626872 0.11936605
0.034324676 0.06801635 -0.07196359 0.286532 -0.06479179 -0.016564572 0.020434223 0.034555227
0.038287625 -0.06006912 0.13586369 -0.01818891 -0.008064465 -0.20080276 0.024746647 0.04111419

network.layer2.bias f4 [256]
00000000: 3c06 57bd 19ed de3c e236 8fbd b8af 5f3d
00000010: b79c e4bc 192c cd3c 20fa b63d 5f86 f73d
00000020: b549 29bd 678c 6ebc c905 893c ca2e 013e
00000030: d971 413d 031f 123d 175e 2abd 9e88 a13c
00000040: 1092 87bb 4a99 033d c853 5fbd 619f 41bd
00000050: 26cb 5fbd 3f68 ce3d 3c72 3b3d 5062 acbc
00000060: cdfa c43c d7f1 053e 62e3 153e 0012 e7bc
00000070: 42fe 8bbd bd80 033e d50b 473d 08a4 c83c
00000080: 2665 d13b 26cd 763c 6ad0 a13d d754 15bb
00000090: 5cdb 03bc a480 743d 3ee3 ca3c b91c ba3b
000000a0: 4791 f73d 294e 1abd bd64 90bd 8825 b53c
000000b0: 93b3 173c d000 933d 72c0 543d b230 13bd
000000c0: 92cc a3b9 11b5 913d dcbd 833d 724b 84bd
000000d0: b2b5 8d3d 4c95 073d ad5c c43d 2897 bdbc
000000e0: 28b8 c83d f22e 333d d087 9d3d 82f4 02bd
000000f0: 016a 883d 0f71 9e3d 7674 f03d fdca ed3c
00000100: 5540 553d 6ba0 053e 25c9 4c3c dc38 48bd
00000110: fd09 0c3d 0690 b93d 5357 3c3c a6f0 69bb
00000120: 9003 a43d 0cb8 833d 5310 43bc 8077 d6bb
00000130: 2748 783c 614e 453d 6f63 f73d dcb4 863c
00000140: 69e0 473d 7dd2 0c3d 4a25 9e3d 5a92 6ebd
00000150: 74c9 37bd 56e5 91bd c46d 993d 0210 8abc
00000160: 977b 4b3d e494 a1bb 6d67 24bc 51cc 063e
00000170: 6d8e ab3d fa66 fe3d b60f d03b 72b1 603b
00000180: 6829 1abd 71c5 ae3d 84a5 44bd f109 293d
00000190: 28b4 82bd 9a5d 0b3c fcf8 b13d cdf5 6f3d
000001a0: de04 bf3d 5c6b 0c3d ddfa ac3c 5b39 cebc
000001b0: 3712 053c 2655 4c3c b595 8cb6 b376 963d
000001c0: daf2 c23b eeb9 b7bc e210 a13d 6672 f3bc
000001d0: 7382 8f3b 686b a935 5070 0b3d 5a1e 0f3d
000001e0: 546b 73bd 892f 253d 2382 db3d 2ff3 7d3d
000001f0: 5e98 073e 959d 8ebd e5b5 d73d 56b2 173d
00000200: 56f4 a83d 4838 253c 2e29 a93c dc3a 223d
00000210: 830d 573c 02c9 983d a5f8 8f3d d315 dabc
00000220: ac60 30bc 8eaa 7f3d afd0 8f3c f12a 1a3b
00000230: c6c2 d53d 168b b33d 4007 223d 5807 63bd
00000240: 37a3 b43b a3dd 44bd b517 313b 2c49 823c
00000250: 6d43 173c 35ec 71bd 6502 c63d e2c7 0a3e
00000260: 714f a5bc 8a56 be3d 7ddb f43c 2a20 d13c
00000270: 2d69 613d 4ea5 853d 4cd8 0f3d 0482 663d
00000280: d8dc c63c ea1b cd3d 7de9 d03d 35ef f6bb
00000290: 3ab7 e83c 0e2e aabb 6585 f63d 2ea4 843d
000002a0: 66c0 603d c93c e03d 8944 68bc cd23 65bc
000002b0: 56c2 80bd 0040 9fbb 666e 13bc 292e 8c3d
000002c0: 3f83 e33b 8343 943c 5e0d 73bb 7eb9 0cbd
000002d0: 769d 153d 335b 11bc b093 dd3c 7d6f c83d
000002e0: 4b35 033d b5c8 4dba 1f20 e33d d7f2 d1bc
000002f0: d691 903d 4794 9c3c ff83 db3d 0cd4 963d
00000300: 5666 0b3e c7f1 0c3d 8521 be3d 50ce 113e
00000310: bfba 0c3e 74d1 c23d fbaa 59bc d87c 613c
00000320: 9cab d73d 2414 d33d b594 ef3b 0cd1 0a3e
00000330: dceb 3a3d 7d54 d93d 3f00 0c3e a104 ab3d
00000340: 94e1 833d a36b e63d 208b 52bc 4971 963d
00000350: 8238 3d3d c134 c03d 7dd3 0d3c b1f6 af3b
00000360: 15b6 933d 340d 543a 4838 dc3c c773 1cbb
00000370: 5a82 9d3d 5768 6c3d 5b0b 40bc 97a8 5c3c
00000380: b226 e23d b5f5 833d 3585 063e 7e67 1a3c
00000390: eb64 ca3d fd0d c53d c214 24bc fffd 37bd
000003a0: 5e25 083e cdbd 80bd e9c8 043e 9cae 1d3d
000003b0: 9dca 913d c898 e63d 9524 95bc 3fa5 5dbd
000003c0: a2d0 553d be02 8a3d 0773 b63c 5b79 f2bc
000003d0: ab6c 9f3d 6421 a2bc fa34 143c 64e2 b23d
000003e0: e9bd 1fbd c915 6e3c 6268 c63d c9c1 f73c
000003f0: 7d51 fc3c 728f ccbc b1fe 8abc c0ba a23c
-0.05249618 0.027212666 -0.0699289 0.054610938 -0.027906759 0.025045441 0.08934426 0.12086176
-0.041330058 -0.014559842 0.016726391 0.12615505 0.047227714 0.035674106 -0.041593637 0.019718464
-0.004137285 0.03212861 -0.05452326 -0.047271136 -0.054637097 0.10078477 0.04576324 -0.021042973
0.024045372 0.13080536 0.14637521 -0.028206825 -0.06835605 0.12842079 0.04859527 0.024492279
0.0063902317 0.01506356 0.0790108 -0.0022786164 -0.008047905 0.059692994 0.02476656 0.0056796935
0.12088256 -0.037672196 -0.07050464 0.022112623 0.009259122 0.07177889 0.051941343 -0.03593511
-0.000312422 0.07114614 0.06432697 -0.064597026 0.06919421 0.033101365 0.09587989 -0.023143366
0.0980075 0.043745942 0.0769192 -0.031971462 0.06660844 0.07736408 0.11740963 0.029027456
0.052063305 0.13049476 0.0124991285 -0.04888235 0.034189213 0.090606734 0.011495429 -0.0035696416
0.08008492 0.064315885 -0.0119057475 -0.006545007 0.015153921 0.04817045 0.12079512 0.016443662
0.048798 0.034380425 0.07721956 -0.05824504 -0.044869855 -0.071238205 0.07491639 -0.016853336
0.04967841 -0.004931079 -0.010034424 0.13163878 0.08376775 0.12421985 0.006349529 0.0034285453
-0.037637144 0.08533753 -0.04800941 0.041269246 -0.06382018 0.008506203 0.08690068 0.058584023
0.093271 0.034282073 0.021115715 -0.025173834 0.008122019 0.012471473 -4.1897533e-06 0.07346859
0.0059493603 -0.022427525 0.07864548 -0.029717635 0.0043795644 1.262274e-06 0.034042656 0.034941055
-0.059428528 0.040328536 0.10718181 0.061999496 0.13241717 -0.0696365 0.105327405 0.03703531
0.082497284 0.010084219 0.020649519 0.039606914 0.01312578 0.07460214 0.07029847 -0.026621735
-0.010765236 0.062418513 0.017555563 0.002352413 0.10437541 0.08766763 0.039557695 -0.055426925
0.005512621 -0.04806293 0.0027022187 0.015904032 0.009232384 -0.059063155 0.096684255 0.13552812
-0.020179482 0.0929385 0.029889816 0.025528032 0.055031944 0.0652567 0.035118386 0.056276336
0.024275228 0.1001509 0.10200784 -0.00753584 0.028407682 -0.0051934784 0.12037162 0.06476627
0.054870985 0.10949094 -0.014176496 -0.013985586 -0.06287067 -0.0048599243 -0.008998489 0.06844742
0.006943136 0.018098598 -0.0037086825 -0.034356587 0.03652712 -0.008871841 0.027047962 0.0978689
0.032033246 -0.0007850037 0.11090111 -0.02562849 0.07059066 0.019113673 0.10718536 0.073646635
0.13613257 0.034410264 0.09283737 0.14238858 0.13743113 0.09512606 -0.013285394 0.013762675
0.10530779 0.10306576 0.0073114284 0.13556308 0.04563509 0.10611818 0.13671969 0.08350492
0.0643951 0.11250999 -0.012850553 0.07345826 0.04619647 0.09385062 0.00865638 0.005369984
0.07212464 0.00080891256 0.026882306 -0.002387272 0.07690878 0.057716694 -0.011721457 0.013467929
0.11042537 0.06443349 0.13136752 0.0094240885 0.0988253 0.09621809 -0.010014715 -0.044919964
0.13295504 -0.062862016 0.12967266 0.0384966 0.071187235 0.112596095 -0.01820592 -0.05411267
0.05220092 0.06738804 0.022271646 -0.029598882 0.07784399 -0.019791313 0.009045834 0.08734587
-0.03899947 0.014531561 0.09687878 0.030243771 0.030800575 -0.024970744 -0.01696715 0.01986444

network.layer3.weight f4 [64, 256]
00000000: 3c4c cc3c bcac 75bd 7a9e 0bbd 1dab d2bc
00000010: 79b6 b7bc 0f52 7cbd 34ae 3f3d f244 493c
00000020: da18 bd3c f13a 3a3d 1710 38bd c382 afbc
00000030: d768 ec3c 60ba 77bd db0c a4bc 8ec0 5b3c
00000040: d4aa 84bd 0099 cb3c a4cb edbc 9d5e fd3c
00000050: 4ed7 59bd 2781 253d 9e5c 55bd bdc8 4f3c
00000060: bfa4 42bc 4b64 383a e90f 403d ede9 82bb
00000070: 94ed 87bc 1623 e2bc e158 dcbc 45b1 4fbd
00000080: 369b 6a3d 8f30 08bc 5434 7cbd 9e4d 2d3d
00000090: 673f 02ba 82bb 463d e8e9 fabc 9a18 2a3d
000000a0: 3f18 e6bc 6428 aebc 401b 943c 03be 113d
000000b0: 8cf0 4d3d a701 eebb cced 313d 857e 52bd
000000c0: 17c2 163b e686 5bbd 2ae1 4bbd 47cd 173d
000000d0: 6fe9 6c3d 60ba f6bb 458c 213d 579f 31bd
000000e0: 628a 3abd 6a9c 113d 6412 78bc 3c83 803c
000000f0: 4028 263d 3ec7 3c3c 050f ea3b a817 183d
00000100: 58ed 8cbd 540e 83bc 066f 60bc 201a 6abc
00000110: c1f9 c3bc 2e20 3c3d 515b 3c3d 72a9 30bc
00000120: 3e1d 35bd 2497 0f3d d63a 433d 4a33 593d
00000130: c409 443d 8393 ac3c 2a3c 5e3d d163 72bd
00000140: 1a61 cebc c3b4 4abd 50db ed3b 91f6 26bd
00000150: 80e2 ccba 61fa 073b 7e56 a0bb f973 553c
00000160: d085 8ebc 10d1 2dbb a93d 87bd 5cb3 6bbd
00000170: c58e ac3c 34fd 35bd a7db 7fbd a26d 26bd
00000180: 207a 8dbb 1427 a83c 5c26 f3bc 2bee 22bd
00000190: 7304 84bd eeb6 813c 34eb 3e3d ac6a f2bc
000001a0: 219b 803c dab2 253d 0325 57bd 9321 c13c
000001b0: 311d 253d 5f1c 253d 8287 72bd 677a 89bd
000001c0: c9b0 bfbc 72f8 253d caaa 24bd 4045 2ebd
000001d0: 2f3f c83c abc7 24bd f8db f03c 5cd0 e2bc
000001e0: ec8a cbbc 2c4a 2d3d 8a48 2a3d 5096 9ebc
000001f0: 7f65 3abd 58af 24bc b027 61bd e36a 56bd
00000200: 3d14 373d 48b8 58bd 9588 963c 30c8 3f3c
00000210: 1179 5cbd 7ee4 c53c 0fcf 4d3b f169 68bd
00000220: 3d5c b9bc d3ac be3c 8216 89bd ccac b9bc
00000230: f894 8e3c 7ba4 47bd 88c5 223c 36af 693d
00000240: 118d fd3c fa97 c3bc 7a78 0fbd 79a3 163d
00000250: 31fe e23c ea55 72bd 9242 e6bc 30b5 9bbc
00000260: 9856 74bd 0317 63bc 3b3f 583c 7463 cc3c
00000270: e08d 15bd 5457 f53a b770 c0bc 5895 f1bc
00000280: 9243 583d 2fdb bebc b985 74bc fb77 013d
00000290: 6ca7 d73c d900 093d da4f cc3b dcff c9bc
000002a0: d824 17bd f461 32bc b6c7 52bd cdac 853c
000002b0: e22d 74bd 1079 4c3d 4ca5 e9bc 20f2 7c3d
000002c0: 3b5c 24bb 656e 05bc 2c27 af3a e012 7d3c
000002d0: 0b66 e13c 1bfd 42bd a042 413b 18c0 b63c
000002e0: f2e9 d13c 1a7c 74bd 36eb 95bb 25ce f4bc
000002f0: 1eff b63b 0df1 4d3d 6d94 98bb 78bf 96bc
00000300: 5a23 aebc 25d2 f53c 4fb4 3d3d 913c 5cbd
00000310: bc2e 10bd 9e78 503d f37a 153c 1cd7 c1bc
00000320: 8d2a ac3c 1df3 c03c ea58 cbbb fa7d b33b
00000330: 0943 583d ca3f debc 41c3 c1ba 7717 0d3c
00000340: 3661 5abc 3eb1 3c3d c3cf 7cbd a67e 50bd
00000350: 9ff7 883c caa1 fcbc 49d5 5cbc 7241 713d
00000360: a7d0 573d 6a72 64bd 41db ecba a8d4 b73c
00000370: aa00 a83c 1828 4c3b 27df 30bd f20a 6ebd
00000380: ac76 633d 39c5 89bc c7e2 2c3d 5631 11bd
00000390: 0849 113d a87e cc3c 6df6 683d c018 4c3c
000003a0: 4568 18bd aa38 043d b64d e73c 9dc8 423c
000003b0: dc18 e13b 97ec 15bc 0a58 533d 2c99 ea3c
000003c0: ac02 5ebd cdf9 b33b f278 b33b 08bc 563d
000003d0: 136e 023d ffcb 9c3c 666c 573c f851 ae3b
000003e0: 30b2 493c 4c5b c73c a237 08bd 940f 383c
000003f0: 650f b1bc 9874 99bc 1820 763d 20df 57bd
0.024938695 -0.059979185 -0.034086682 -0.025716359 -0.022425877 -0.061601695 0.046796992 0.012284504
0.02308314 0.045466367 -0.04493722 -0.021424657 0.028858585 -0.060480475 -0.020025661 0.013412608
-0.064778954 0.02485323 -0.029027767 0.030928904 -0.053183846 0.040406372 -0.05209028 0.012682137
-0.011880099 0.0007033988 0.046890173 -0.0039951713 -0.016592778 -0.02760462 -0.02689785 -0.050706167
0.057276927 -0.0083123585 -0.06157334 0.04231035 -0.0004968554 0.048518665 -0.030629113 0.041527368
-0.028087733 -0.021259494 0.0180794 0.0355816 0.05027823 -0.0072633806 0.04343967 -0.05139019
0.002300387 -0.053595446 -0.04977528 0.037061002 0.057839807 -0.007529542 0.039440412 -0.04336485
-0.04554213 0.03554956 -0.015141103 0.015687577 0.04056573 0.011522112 0.0071429037 0.037131935
-0.06881207 -0.015998043 -0.013698345 -0.014288455 -0.023922803 0.045929126 0.045985524 -0.010782586
-0.04421734 0.03505625 0.047663532 0.05302743 0.047860876 0.021066433 0.054256596 -0.059177224
-0.025192786 -0.049488794 0.00725881 -0.040762488 -0.0015631467 0.0020748603 -0.004893123 0.013028138
-0.017397791 -0.0026522316 -0.066035576 -0.057544097 0.021064172 -0.044430926 -0.062465336 -0.040631898
-0.004317537 0.020526446 -0.029681377 -0.039777916 -0.06446161 0.015834298 0.046611026 -0.02959188
0.015698971 0.04045377 -0.05252553 0.02357558 0.040311042 0.04031026 -0.05921126 -0.067127995
-0.023399727 0.04052014 -0.04020194 -0.04254651 0.02444419 -0.04022948 0.029401764 -0.027687244
-0.024846517 0.042307064 0.041573085 -0.019358784 -0.04550695 -0.010051571 -0.05496949 -0.05234803
0.044697035 -0.05291012 0.018375674 0.011705443 -0.053826395 0.024156805 0.0031403934 -0.05674166
-0.02262699 0.023275768 -0.06693746 -0.022665404 0.017405018 -0.048740845 0.00993479 0.05705186
0.030951055 -0.023876179 -0.035027005 0.036776993 0.027709099 -0.059163965 -0.028107915 -0.019007295
-0.059652895 -0.013860467 0.013198669 0.024949767 -0.036512256 0.0018718042 -0.023491247 -0.029490158
0.052798815 -0.023297874 -0.01492446 0.031608563 0.02632495 0.033448074 0.006235105 -0.024658136
-0.03690037 -0.010887612 -0.05145999 0.01631775 -0.05961407 0.04992014 -0.028521203 0.061754346
-0.0025079388 -0.008143996 0.0013363115 0.015446395 0.027514478 -0.04760466 0.0029489174 0.022308394
0.02562425 -0.059688665 -0.0045751585 -0.029883454 0.0055846116 0.050278712 -0.0046563656 -0.018401846
-0.021257091 0.030007431 0.046314534 -0.053768698 -0.03520082 0.05089628 0.009123552 -0.023662142
0.021016384 0.023553425 -0.0062056677 0.005477664 0.052798305 -0.027130026 -0.0014782922 0.0086115515
-0.013328841 0.04606747 -0.061721575 -0.05090203 0.016719637 -0.030838866 -0.0134785855 0.058900304
0.05268922 -0.055773176 -0.0018070714 0.02244027 0.02050813 0.0031151827 -0.043181565 -0.058115907
0.055533096 -0.016817676 0.04220846 -0.03544744 0.03547004 0.024962738 0.056875635 0.012457073
-0.037208814 0.0322806 0.028235298 0.01188865 0.0068694185 -0.009150646 0.051597632 0.028637491
-0.054201767 0.005492425 0.0054770643 0.052425414 0.031843256 0.019140242 0.013148403 0.00531983
0.01231055 0.024335526 -0.03325618 0.011234183 -0.021613786 -0.018732354 0.0600892 -0.052703023

network.layer3.bias f4 [64]
00000000: d434 6c3b 6a1c 623d bcdd d83b ba13 f23b
00000010: 6664 103d d3c0 f43c 3e10 793d 05fc 6d3b
00000020: a9bf 503d f4cc 953a e5b4 633c ad77 203d
00000030: df4d 9f3d d10d 09bd 890c e7ba 93b5 8fbc
00000040: 0af8 51bd ac54 a0bc 3e35 b93c 3db8 63bb
00000050: 1173 853d 6165 fe3c 89a0 293d 66ce bf3d
00000060: 9fa8 8ebc ebe6 bf3c 703e e63b c613 be3d
00000070: 5a66 0ebd e642 d03d a703 5c3d 9269 113c
00000080: 914a 853d 33db 8d3d 0ab3 7bbd 9409 803d
00000090: c06e b13c 1b91 77bd 3710 c03c 4233 44bd
000000a0: d3df 4a3d 11f4 9c3c 41e7 ca3d 3924 203d
000000b0: b641 76bd cb81 e93d bc1f b4bc 6ab8 72ba
000000c0: d6a8 d6bc 9d6b 033d 1e09 7cbc f06b c93c
000000d0: 0ed1 693d a51f 413d dfad 423d 97a0 333b
000000e0: 4d0c b33c bb8d 79bc 61d1 30bd 4219 b9bc
000000f0: 8173 4dbd e823 4a3c 85a2 343d 797e da3c
0.003604223 0.05520288 0.0066182297 0.0073876055 0.035251997 0.029877102 0.060806505 0.0036313545
0.05096403 0.0011428879 0.013898109 0.03917663 0.077785246 -0.033460442 -0.0017627637 -0.017542636
-0.05126194 -0.019571625 0.022608396 -0.0034747266 0.06516088 0.0310542 0.041412864 0.09365539
-0.01741439 0.02342554 0.007026486 0.09281115 -0.03476558 0.1016901 0.05371442 0.008875268
0.06508363 0.069265746 -0.06145004 0.06251827 0.021659255 -0.060441118 0.023445232 -0.047900446
0.04952986 0.019159349 0.099073894 0.039097045 -0.06012126 0.11401709 -0.021987788 -0.0009259047
-0.026203554 0.03208505 -0.015383033 0.024587601 0.057084136 0.04714932 0.047529098 0.0027408951
0.021856451 -0.015231545 -0.04316843 -0.022595052 -0.05015898 0.012337662 0.044100303 0.026671635

network.layer4.weight f4 [27, 64]
00000000: 20ff 73bd c174 09bc 8f22 b7bd 4758 c4bb
00000010: 80f6 aabc c792 87bc 24eb bcbd 0f59 cabd
00000020: e4cd c6bd 902a 3dbc 809b 553d d4d8 743d
00000030: ea6a cebc 2089 a7bc 7de6 89bd 5be0 2dbe
00000040: eae4 43bd cab2 61bd ca93 a5bd b39c babd
00000050: 89f9 013d 2fc4 19bd ed4c a1bd 61e7 7bbd
00000060: c2bd 22bd 1fad 1abe 7257 e8bd f029 6e3d
00000070: 97d5 923d eab9 09be 0e55 15be 3a5e 8bbd
00000080: 8120 fe3c b653 3abd 970d 16bd 7d2e 4b3d
00000090: a35b 073d d20b c63d c6f4 e93d ee6f 9fbd
000000a0: 284f a0bc 337f 32be a380 afbd d052 d0bd
000000b0: 8414 c43d 2671 33bc 6de7 6d3c 55e9 0fbd
000000c0: def2 cf3d 30c9 02be 4c4c da3d aa0b c23d
000000d0: 6036 133d 3e7b 63bd c6a4 c4bd ea34 ea3d
000000e0: 197f 3bbe 83a8 6cbd 10f8 7f3d 4780 e73d
000000f0: 900e 323d c830 d4bd 58ba 883d ce11 febd
00000100: 657f 4fbd cdcd b7bd 5ef0 ba3d 9cf3 bfbc
00000110: a8d8 d33c d026 19be 8eb0 a1bd 8148 3a3d
00000120: ee5f 77bd a0b7 58bd 3674 aabd 45db 5f3d
00000130: bad5 793d b8e2 a93c c997 603d e7a9 333c
00000140: 3fc7 a43c c6e2 8bbd 20e8 213c 07f2 67bd
00000150: 2aa2 cfbd ce5d 06be 5e9b 783d 5324 2cbe
00000160: c244 88bd 437f 713d 603b 87bd 5bb7 f8bc
00000170: a9f6 e63d de97 0ebe afc5 0ebe 5048 5ebd
00000180: ddc5 dcbd cafe 193e ac41 a33d 51a0 14be
00000190: d718 5dbd b32e 7dbd b4f0 3fbd 5080 883c
000001a0: 8dfb 11be 80c1 5a3d 7863 693d 8c00 f2bd
000001b0: 6e30 b83d 69db 1fbe f2f3 0cbe 5b08 33bc
000001c0: 085f 02bd 2668 3e3d 1949 7d3d e064 913b
000001d0: 884c 8c3d 7be0 1cbe 5983 c8bd b613 ccbd
000001e0: db77 31be 3f3c dcba 06c9 ba3d 5f02 853d
000001f0: 788e 9fbd 2c91 5e3d 97ae 32bd 987e 43bd
00000200: e01f 1cbd d344 ca3c 2be5 65bd 86d6 24be
00000210: 6e6a f83d 27fd a3bd 506e 043c 65eb 82bd
00000220: 3482 31bd d42d a83d e42e 57bd e911 eebd
00000230: 52fb ebbd 64f8 3e3d 16ea c0bd ffac 95bd
00000240: fd45 95bb 7367 be3d 723e 823d da99 22be
00000250: 632a 14be 1ccd 9b3d 7442 ac3c cea7 d1bd
00000260: 1ece 9bbc cec4 8abd 30ce e6bc 4ed4 09be
00000270: 3eb4 29bd fcf0 3c3d 6d3f 7dbd 98bd 903c
00000280: afd0 20bd 257b 32bd 7010 443c 155b 153c
00000290: 684a 1ebe abb4 5dbd 1862 6fbd b22b a73d
000002a0: eda1 d93b 7f55 21bd d861 693d 3c6c febd
000002b0: 2a72 d83d cc2f 0ebc 2c48 38bc 7cb5 eebd
000002c0: c811 b9bc dab2 f8bd dddd 8a3d fa0e c0bd
000002d0: 62a8 1b3e 438b c4bd b2fa 50bd 8c72 ffbd
000002e0: 8092 f1bd f719 c1bc 903c d7bc bccb 273d
000002f0: 88e3 b8bd 9e88 853d 3042 a1bc 3938 b63d
00000300: 7023 ee3d 3e15 a9bd 2ca8 de3c bb1b 4dbd
00000310: dc26 1a3d bff9 6d3d 70f9 403d 80a6 01be
00000320: 78e0 c33c bc3f 043d 7a3c a03d c6bf c83c
00000330: db70 12bd e82f aabd b8b2 cebc c80e b0bd
00000340: 4ad6 c13d e627 06be 5ee6 be3d 46e0 2ebc
00000350: 608a 62bd c053 65bd d9bc c1bc 409e d6bc
00000360: a809 e83c bb7d 88bd 8895 3abd fdcf 98bc
00000370: b929 013c ea61 c1bc 02d9 dc3c 5892 56bd
00000380: 051d 0abe 3ace d33d 3c99 713c 7f74 0abe
00000390: 55f1 66bd 104e ccbb 0863 7e3d 149f ef3d
000003a0: fac1 0abe 1447 f6bd e824 a63d 40c0 aebb
000003b0: 206d 953d e5f9 3ebd 392a 8cbd df18 b5bd
000003c0: b81d c6bd f23c 79bd c409 bbbd a467 213d
000003d0: df15 183e f4a5 e5bd a2c3 68bd 1071 cfbd
000003e0: 6ee7 19be 4181 963c 5641 d1bd 12fd 7bbd
000003f0: 109e f0bc 0028 943d aa10 dabd 7fc5 eb3d
-0.059569478 -0.008389653 -0.089421384 -0.005991969 -0.020869493 -0.016549481 -0.09224537 -0.09880268
-0.09707239 -0.011545792 0.05215025 0.059777096 -0.025197465 -0.020451128 -0.06733415 -0.16980116
-0.04782573 -0.055102147 -0.08084829 -0.09111919 0.031732116 -0.03754061 -0.078760006 -0.061499957
-0.03973175 -0.15105103 -0.11344804 0.058145463 0.07169645 -0.13449827 -0.14583227 -0.06805082
0.031021358 -0.04548999 -0.036634054 0.04960488 0.033046376 0.09670223 0.1142364 -0.07785021
-0.019568995 -0.17431335 -0.085694574 -0.10172045 0.095742255 -0.01095227 0.014520508 -0.035134632
0.10153745 -0.1277206 0.10659084 0.09474881 0.035940528 -0.055537455 -0.096017405 0.11435874
-0.18310203 -0.057777893 0.06249243 0.11303764 0.04347092 -0.10360867 0.06676167 -0.1240574
-0.050658602 -0.089748 0.09127878 -0.023431592 0.025860146 -0.14956212 -0.07895003 0.0454793
-0.06039422 -0.052909493 -0.08322947 0.05465247 0.06099484 0.02073799 0.054832254 0.010965801
0.02011454 -0.06830363 0.009882003 -0.0566273 -0.10138352 -0.13121721 0.060695045 -0.16810732
-0.066537395 0.058959257 -0.06603122 -0.030360868 0.112775154 -0.1392512 -0.13942598 -0.05426818
-0.10779927 0.150386 0.0797151 -0.14514281 -0.053978767 -0.061812114 -0.04686041 0.016662747
-0.14256115 0.053407192 0.056979626 -0.118165106 0.08993612 -0.15611042 -0.13764933 -0.010927285
-0.03182891 0.046486042 0.06183729 0.004437074 0.06850535 -0.15320008 -0.097906776 -0.09964697
-0.17330877 -0.0016802623 0.091203734 0.06494593 -0.07790846 0.054337665 -0.043623533 -0.04772815
-0.038116336 0.024691021 -0.056126755 -0.16097459 0.12129675 -0.08007269 0.008082941 -0.06392554
-0.043337062 0.08211866 -0.052534953 -0.1162451 -0.11522545 0.046623603 -0.09419648 -0.07308387
-0.0045554624 0.09297075 0.06359567 -0.15879002 -0.14469294 0.07607481 0.021027781 -0.10237084
-0.019019183 -0.06775819 -0.02817449 -0.13459894 -0.041431658 0.046128258 -0.061828066 0.01766853
-0.039261516 -0.04357447 0.01196681 0.009115954 -0.15458071 -0.054127377 -0.05844316 0.08162631
0.0066416175 -0.039388176 0.056978077 -0.12422988 0.1056865 -0.008678388 -0.011247676 -0.11655709
-0.022591487 -0.12143488 0.06780598 -0.093778566 0.15200952 -0.095968746 -0.05102033 -0.1247302
-0.11795521 -0.023571951 -0.026273996 0.04096578 -0.09027773 0.06520198 -0.019684881 0.08897442
0.11627853 -0.08256005 0.0271798 -0.050075274 0.037634715 0.058099505 0.047112882 -0.12661171
0.023910746 0.032287344 0.07824035 0.024505507 -0.03575216 -0.08309919 -0.025231704 -0.08596569
0.094647005 -0.13101158 0.09321283 -0.010673588 -0.055307746 -0.055988073 -0.02364962 -0.026198506
0.028324917 -0.06664606 -0.04555276 -0.018653864 0.007883483 -0.02360626 0.026958946 -0.052385658
-0.13487633 0.10342069 0.014746007 -0.13521002 -0.056382496 -0.0062348917 0.062106162 0.117002636
-0.13550559 -0.12025276 0.08112508 -0.0053329766 0.072962046 -0.046625037 -0.06843991 -0.088426344
-0.09673637 -0.060849138 -0.09132722 0.03940548 0.14852093 -0.11213294 -0.056827195 -0.10128987
-0.1502969 0.01837218 -0.1021754 -0.061520644 -0.029372245 0.07234192 -0.1064771 0.11512279

network.layer4.bias f4 [27]
00000000: c89f 1d3d 7082 2ebd d910 0a3e 1830 b03d
00000010: 3830 9f3d 0efb dbbd 6ae4 fcbd 328d a6bd
00000020: 9b29 febd 5c90 813d ba0a 0d3d 67dc 00be
00000030: f9bb 11be 8553 ac3d 6f38 f53d 495a 1e3d
00000040: 639a cdbd 44bc f53d 592b 673c 762f 033d
00000050: 88b9 463d f42f 2cbd 09bd fcbd 1a77 0fbd
00000060: ad46 c2bd 41aa 1cbd 6de5 a6bd
0.038482457 -0.042604864 0.1348299 0.08602923 0.07772869 -0.10741244 -0.12348254 -0.081323996
-0.12410279 0.063263625 0.034434058 -0.12584077 -0.14231862 0.084143676 0.119736545 0.03866032
-0.100392126 0.119987994 0.014109456 0.032027684 0.04851678 -0.04203792 -0.12340743 -0.035025693
-0.094861366 -0.038248304 -0.08149228
