DQN_panda_obs/model_panda_trained.pth (torch, 162903 bytes, 6 tensors)

network.layer1.weight f4 [128, 3]
000000 cc a4 06 3f de db 48 3e b6 98 2c 3f 17 0b e7 be
       0.5259521 0.19615123 0.6742052 -0.45125648
000010 c8 3d 87 3d a1 92 4f 3f 76 01 eb be f1 24 9c be
       0.06603581 0.8108311 -0.45899552 -0.30496934
000020 2e 63 89 bd ba d5 f3 3f 90 20 db 3f 24 76 08 3f
       -0.0670837 1.9049599 1.7119312 0.5330527
000030 5f 58 b5 bf 12 d8 65 3e d5 17 1d 3e 8f f5 ea be
       -1.4167594 0.22445706 0.15341122 -0.4589047
000040 2d 54 1b bf f6 d6 05 3f 53 fb 68 3f 19 76 f5 be
       -0.6067532 0.5228113 0.9100849 -0.47941664
000050 ef 49 b2 3b 28 6f a0 bf 2f ba 9d be c7 51 91 bf
       0.0054409425 -1.2533922 -0.3080611 -1.1353081
000060 a9 ad 6e bf 38 9f c5 be 48 85 70 3f e7 7a 03 40
       -0.93233734 -0.38598037 0.9395337 2.0543764
000070 05 2a a9 3f c7 ea 98 3f 57 96 ad bf 3b d2 05 bf
       1.3215948 1.1946648 -1.3561505 -0.5227391
000080 b7 35 8c bf c2 71 ce bf ee fa 06 be 55 ee 22 3d
       -1.0953892 -1.6128466 -0.1318166 0.039778072
000090 f6 3f 9b bf 16 1c af 3e b7 cc 14 3f 49 39 ce 3e
       -1.2128894 0.34201115 0.5812487 0.4027808
0000a0 8d 6f 6a be cf 66 15 bc 09 77 b2 bf f4 27 e6 be
       -0.22894116 -0.00911875 -1.3942577 -0.44952357
0000b0 c0 49 98 bf 10 23 9c bf 20 5f 40 3f 6e 96 58 3f
       -1.1897507 -1.21982 0.7514515 0.8460454
0000c0 85 93 01 be 26 91 73 3d b3 a1 5e 3f 4a f3 77 3f
       -0.1265393 0.059464596 0.86965483 0.96855605
0000d0 bc 7c b7 bf 61 42 a2 be 49 39 67 3e 1c bc f1 3f
       -1.4334941 -0.31691268 0.22580446 1.8885531
0000e0 ec 48 16 3f 9b ed b8 3f fe 97 9e 3f 34 90 62 3f
       0.5870502 1.4447511 1.2390134 0.88501287
0000f0 df b5 1d 40 15 8f 21 40 b1 7d 59 3f e3 2d 1c bf
       2.4642255 2.524358 0.84957415 -0.6100752
000100 d3 e7 ed be e1 d4 a8 3d a6 28 0e bf b8 d1 2e be
       -0.4646593 0.082437284 -0.55530775 -0.17072189
000110 70 c5 9b 3f 16 2f a8 bf 43 b0 3a 3f e4 54 87 3f
       1.2169628 -1.313937 0.72925204 1.0572782
000120 8f b2 88 be d3 82 45 3f 2f 53 9e be 97 73 93 bf
       -0.2669873 0.77152747 -0.3092284 -1.151965
000130 66 86 1c bf 9a 2a 46 3f fd 5b 69 bf 76 28 e8 3e
       -0.61142576 0.77408755 -0.9115599 0.4534337
000140 6b d4 90 3f ee 89 9c be aa cb c9 be 33 9a 6f 3f
       1.1314825 -0.30573982 -0.39413196 0.93594664
000150 a6 df ad be ac 1a 32 bf 88 d8 15 3f 8d f9 b4 3d
       -0.33959693 -0.6957195 0.58533525 0.088366605
000160 60 31 68 3f ba e6 8b be 58 19 b8 3e 97 65 da 3d
       0.9070034 -0.27324468 0.35956836 0.10663908
000170 5a ec 8c be 07 7a 43 bf 90 d1 ac 3e f6 31 66 3f
       -0.27524072 -0.76358074 0.33753633 0.89919984
000180 51 0e f3 3e db 9d 33 3f 59 54 61 3f 7c 11 47 bf
       0.4747186 0.70162743 0.8801933 -0.77761054
000190 ce 8d 69 be 90 08 9a bf dd ac 99 3f 5c ec ad be
       -0.22808 -1.2033863 1.2005879 -0.3396939
0001a0 9c e7 71 3d 0b 91 17 3f 23 5f a8 be 5c e6 9e bd
       0.05905877 0.59205693 -0.32885084 -0.07758781
0001b0 7f 71 88 be 92 ca 40 bf 09 88 2f 3f 76 ad b9 be
       -0.2664909 -0.753091 0.6856695 -0.36265153
0001c0 11 70 1d be 78 d0 6b 3f 43 49 2b 3e 0c d0 09 3f
       -0.15374781 0.92114973 0.16727166 0.5383308
0001d0 4f ee 77 be 2b 66 36 bf 29 40 1b bf 1e 7d 3d 3f
       -0.24212001 -0.71249646 -0.60644776 0.7401904
0001e0 16 10 c4 3e 2c 84 c1 3f b9 c3 fc 3d 34 44 d8 bd
       0.38293523 1.5118461 0.12342019 -0.10559884
0001f0 c2 5d 8a 3e e6 49 fa be 0a 15 c6 be 01 a3 88 3f
       0.27024657 -0.48884505 -0.38687927 1.0674745
000200 27 a7 28 bf 50 db 93 bf cf c5 15 3f e8 7f 60 3e
       -0.65880054 -1.1551304 0.58504957 0.21923792
000210 6c 8f 8c be 53 47 fb be fc 76 4d 3d 6f 42 90 3f
       -0.27453172 -0.49077854 0.0501623 1.1270274
000220 ce 5d a0 bf 79 69 61 bf 8b 34 7c 3d 9c 25 b2 be
       -1.2528627 -0.88051564 0.061573546 -0.3479432
000230 5f 37 6c 3f 4e 10 87 bf 3c e8 dc 3e 84 8c 9e 3b
       0.9227199 -1.0551851 0.4314593 0.004838528
000240 21 70 5b 3e 18 6c 47 be d9 ba 83 be dc 36 05 3f
       0.21429493 -0.19474828 -0.2572849 0.52036834
000250 1c f2 d8 bd 2d 0a 21 3d d0 6a 41 bd 0a c9 38 bf
       -0.10593054 0.039316345 -0.047221005 -0.7218176
000260 27 14 70 3f a1 91 92 3f b1 35 6e 3f 55 61 91 3f
       0.9378075 1.1450692 0.93050677 1.1357828
000270 01 ca 06 be 91 83 9e 3d 37 93 98 3f a3 01 9d bf
       -0.13162996 0.07739938 1.1919926 -1.2266124
000280 4a 95 52 3f ec 3c 0d 3f d6 c7 48 3e 5d 6f e4 be
       0.8225905 0.55171084 0.19607481 -0.44616213
000290 eb 06 5d be 5e e4 82 3e cb 30 97 3e fc 75 26 be
       -0.2158467 0.25564855 0.29529414 -0.16255945
0002a0 f3 0f 8e bf 85 03 0f 3f 05 a6 58 3f 17 e3 f9 be
       -1.1098617 0.55864745 0.84628326 -0.48806068
0002b0 c2 f2 8b 3f 19 1a 17 3e f0 9e 8b bf c6 19 f7 bd
       1.0933459 0.14756049 -1.0907879 -0.12065463
0002c0 8a e8 7f 3f bd 61 b3 bf 4a 70 23 3e 00 88 d6 be
       0.999642 -1.4014202 0.15960804 -0.41900635
0002d0 b0 4a f7 bd 35 0f 35 3f 4a f4 a0 3f d5 a9 25 3e
       -0.120747924 0.7072633 1.2574551 0.16178067
0002e0 36 38 d7 3e bb e1 12 bf d6 a1 21 bf 69 0a a2 be
       0.42035073 -0.5737569 -0.6313757 -0.31648567
0002f0 82 6d 86 bd 8d ce 0a 3f e9 6e 7d bf cd 59 c3 3e
       -0.06563856 0.5422142 -0.9899736 0.3815445
000300 32 81 ff 3e 45 6f fd be 9d 75 1a be 69 ae 90 3f
       0.49903256 -0.49498954 -0.15083928 1.1303226
000310 d7 80 72 3f dc 35 9b 3f 2c c8 c3 be eb 6b 00 bf
       0.94727844 1.2125812 -0.38238657 -0.5016467
000320 cf 2d 06 3f ae 7a dc be 45 32 96 3d 50 ea dd bd
       0.5241365 -0.43062347 0.07333807 -0.10835707
000330 fe ac 94 be ce b0 14 bf ce 4e 81 3f 39 17 06 bf
       -0.29038233 -0.5808228 1.0102174 -0.52379185
000340 47 5a 2b bf e7 fa 99 3f e3 bc 21 3e 93 5a 76 be
       -0.6693463 1.2029694 0.15794711 -0.24057989
000350 53 14 29 be 22 7e 42 3f 99 bf b8 3e 9c 53 63 3f
       -0.1651166 0.75973713 0.36083677 0.8879945
000360 ef cf 84 bf cf 71 ff bd 03 e9 07 be 78 f7 29 bf
       -1.0375956 -0.12472879 -0.1327248 -0.6639323
000370 14 0a 37 bf 19 16 00 3f 81 b6 35 bf fb b2 00 bf
       -0.71499753 0.5003372 -0.70981604 -0.502731
000380 98 41 88 3f 56 97 df 3e ba 24 71 3e e2 e5 3d be
       1.0645018 0.43670148 0.23549166 -0.18544725
000390 56 2f 3a 3f 0a ff b5 3e 10 7c 40 3f 45 fc 04 be
       0.7272848 0.35546142 0.75189304 -0.12986858
0003a0 33 d0 78 3e b5 2a 60 be 3c 52 b0 be 6b 4f 25 3f
       0.24298172 -0.21891291 -0.3443774 0.6457431
0003b0 71 b5 00 bf eb 3b 9d bf e1 db 68 3e 34 3d 2a 3e
       -0.5027686 -1.228391 0.22740127 0.1662491
0003c0 35 b5 b1 bf 4d e2 4d 3f a6 1e 29 3f 47 24 ff 3f
       -1.3883425 0.8042343 0.6606239 1.9932946
0003d0 f8 12 a2 3f 87 ea 8b 3f ca ab 13 3f 82 cf 12 40
       1.2662039 1.0930947 0.57684004 2.2939153
0003e0 c4 99 0f 3f 0a 00 82 bf 40 bd 36 bf 49 f1 71 3f
       0.56094 -1.0156262 -0.7138252 0.94508797
0003f0 a3 1b 88 bf cc 22 8e 3e 0e 37 8a 3f 9b bb a3 bf
       -1.0633434 0.27760923 1.0798051 -1.2791628

network.layer1.bias f4 [128]
000000 fb d3 3a 3f 0b 8b fe 3f 58 8e d4 3f 71 79 a0 3e
       0.72979707 1.9886183 1.660594 0.31342652
000010 57 6a b1 3f c9 31 a2 3f 86 48 c7 3f c3 f8 db 3f
       1.3860577 1.2671443 1.5569007 1.7185291
000020 66 d1 7c 3f 56 f3 e5 be 74 71 ba 3f eb 9d 74 3f
       0.98757017 -0.44912213 1.4565873 0.95553464
000030 90 f9 e7 3f d6 72 04 40 a1 9e d7 3f fd 5a a5 3f
       1.8123035 2.069509 1.6845285 1.2918392
000040 15 ae db 3f 22 94 85 3f a8 f2 44 40 68 4f d9 bd
       1.7162501 1.0435832 3.0773106 -0.10610849
000050 68 9b 84 3f 8c f0 8f 3f 6c 9e d9 3f df e8 8f 3f
       1.0359926 1.1245284 1.7001472 1.1242942
000060 c5 bc 19 40 c3 3e 4b 3f 9c bc 87 3f 40 11 b3 3f
       2.4021466 0.7939264 1.0604434 1.3989639
000070 1c 45 eb 3f 50 9c 22 40 fe b7 a2 be f7 4b 11 40
       1.8380466 2.5407906 -0.31781 2.2702615
000080 0b 23 36 3f 03 4c d3 3f ac ee e2 3f a7 78 bb 3f
       0.7114722 1.6507572 1.7729087 1.4646195
000090 fa 9d b5 3f c6 56 02 40 85 31 f1 3f 33 26 9f 3f
       1.4188836 2.0365462 1.8843237 1.2433532
0000a0 51 cc 92 3e c7 5a 4c be 20 fb 9f be 23 ae e6 3f
       0.28671506 -0.19956504 -0.3124628 1.8021892
0000b0 fe 2d 08 40 09 66 85 3f 5b 4a 01 40 14 d5 f0 3f
       2.1278071 1.0421764 2.0201633 1.8815026
0000c0 00 ee f4 be bf f6 13 40 98 b5 f1 3f da d6 9f be
       -0.4783783 2.3119352 1.8883543 -0.31218606
0000d0 f0 09 f8 3f 4d fd e4 3f 3f 98 f2 3f cc 1a 88 be
       1.9378033 1.7889801 1.8952712 -0.26582944
0000e0 3c c4 e2 3f cd 1a 12 40 22 ad d1 3f 9b 47 0d 40
       1.7716136 2.2828858 1.6380961 2.2074955
0000f0 4d cf 5c 3d 99 07 b5 3d 8f 6b c3 3f 74 47 ae 3f
       0.053908635 0.0883934 1.5267199 1.3615556
000100 f9 14 d0 3f 6b 7f b0 be 27 3d c2 3f 03 36 ef 3f
       1.62564 -0.34472212 1.5174912 1.8688358
000110 8f 68 00 40 cf 0f 93 3f f6 3e f6 be 67 83 8b 3f
       2.0063818 1.1489199 -0.4809491 1.0899476
000120 ce da c5 3f 67 d6 e9 3f 6d 0f 6a 3f b3 35 d2 be
       1.5457399 1.8268555 0.9142979 -0.41056594
000130 e8 3a a4 3f 7d 18 00 be 45 7b 31 40 ba 03 9d 3f
       1.2830477 -0.12509342 2.7731488 1.2266762
000140 e8 6b e0 3f b1 0e 6f bf c8 24 2c 40 54 97 75 3f
       1.753293 -0.9338179 2.689745 0.95934033
000150 ec c3 f9 3f 5b 2f c5 3f 82 1a fe be c3 62 10 40
       1.9512916 1.5405077 -0.496296 2.256028
000160 09 78 8b 3f 19 98 78 3f 3d df 12 40 dd 86 98 be
       1.0896007 0.9710708 2.2948754 -0.29790393
000170 d2 82 c8 3f c0 2c a6 3f 19 61 c3 3f 9c 8e 04 3c
       1.5664923 1.2982407 1.5264007 0.008090641
000180 e6 06 e0 3f ab 47 fa 3f 22 fb b5 3f e5 8d 26 3f
       1.7502105 1.9553121 1.4217265 0.65060264
000190 78 b9 03 40 74 fc 03 bf 11 7c f7 3f 6a 40 cb 3f
       2.058195 -0.5155709 1.9334737 1.5879033
0001a0 da 6e a8 3f a2 9e 09 40 a7 5f 03 40 1c c9 99 be
       1.3158829 2.1503072 2.0527132 -0.30036247
0001b0 f8 83 e0 be 1c 03 17 40 f8 c8 c6 3f e3 42 f4 3f
       -0.43850684 2.3595648 1.5530081 1.9082912
0001c0 bd 0e eb 3f 24 3e f8 3f d7 ca b5 be 69 51 c3 3f
       1.8363873 1.9393964 -0.35506317 1.525922
0001d0 47 80 00 40 b4 c8 46 bf 4a 1e 6d 3f af c7 a9 3f
       2.0078294 -0.7765 0.9262434 1.3264064
0001e0 57 fc 1c 40 1f 75 14 3f 78 ab 0e 40 ec 6c a7 3f
       2.4529016 0.5799121 2.2292156 1.3080115
0001f0 0b 2c 22 40 55 f4 70 3f a0 2c 29 3f b5 8d f0 3f
       2.5339382 0.9412282 0.6608372 1.8793246

network.layer2.weight f4 [256, 128]
000000 c6 46 44 bd 37 2d 97 bc db 55 51 3d fd ad 0e 3d
       -0.047919057 -0.018454177 0.05110727 0.034833897
000010 66 7d 46 bb 89 d3 a3 3d a0 31 80 bd 7a 45 81 bd
       -0.0030287146 0.079993315 -0.06259465 -0.0631208
000020 b6 db 5f bd 47 e0 78 bd 4f e0 a5 3d e7 3d ea 3c
       -0.054652892 -0.060760763 0.08099424 0.02859397
000030 3f 87 8d bd e5 87 6e bd f3 27 89 bd 4a bd a1 3d
       -0.06910562 -0.058235068 -0.06697073 0.07897432
000040 bd bd 37 bd ee 68 11 b9 9a 83 e9 bb 43 7c 9e bc
       -0.044858683 -0.00013867367 -0.007126284 -0.019346362
000050 89 cf 89 bd 23 64 d8 3c 62 7d 82 3c 49 d5 9b bb
       -0.06729037 0.026414936 0.015928928 -0.00475565
000060 0e 43 41 3d 4e 4a 19 3d e0 45 3f 3d e0 b0 72 bd
       0.04718309 0.037424378 0.046697497 -0.059250712
000070 f9 1b 8d bd a3 68 a8 bd c2 e1 56 bd 4c ff b1 bd
       -0.06890101 -0.08223083 -0.052461393 -0.08691272
000080 79 ea a9 bd 1f 4a 40 3d a5 5f 42 bd 41 43 81 bd
       -0.08296675 0.046945687 -0.047454495 -0.06311656
000090 7a e7 5b bd 41 f0 b0 bd ff 71 07 bd 02 c6 3e 3c
       -0.05368755 -0.08639575 -0.0330677 0.011643888
0000a0 57 8e a6 bc 26 85 ab 3d 93 34 1f 3c 58 cf 03 bd
       -0.020331545 0.083750054 0.0097171245 -0.03218016
0000b0 37 cd b1 3c 92 49 ee 3b 0d 04 68 bd 75 35 ac bc
       0.0217043 0.007271954 -0.056644488 -0.021021584
0000c0 5a da 22 3c 7d 83 31 3d e3 92 42 3d 3b f6 fc bc
       0.009939754 0.043338288 0.047503363 -0.03087913
0000d0 53 04 97 bd fd e0 79 3c 63 b0 2f bd 04 01 9d 3d
       -0.07373872 0.015251395 -0.042892825 0.07666209
0000e0 65 57 9e bd 36 a6 6c bd 38 01 d6 bb ee 22 4b bd
       -0.07731513 -0.0577757 -0.006530907 -0.04959386
0000f0 2d 91 98 3c f2 b3 d5 bc 44 ac 57 bd ed d7 6f 3d
       0.018623913 -0.026086781 -0.05265452 0.058555532
000100 9f 83 8a bd 20 7e 3a bc 2f ca 12 3d 07 2a 1e bd
       -0.06763386 -0.01138261 0.03583735 -0.0386143
000110 e2 17 2b bd 7e 6a 1f bc 62 41 93 bd d3 e7 71 3d
       -0.041770823 -0.00972998 -0.07190205 0.059058975
000120 ea 4d a0 bc 0a 1d 87 3d 91 4a 3d bd da be 39 bc
       -0.019568402 0.06597336 -0.04621369 -0.011337006
000130 8e e2 d4 bc 35 d0 98 bd aa 29 89 bc a3 92 ce 3c
       -0.025986936 -0.07461587 -0.0167435 0.025216406
000140 02 90 a4 bd bd e9 79 bc 9e e0 b4 bd dc 77 1b bb
       -0.0803528 -0.015253481 -0.08831905 -0.0023722565
000150 2e 0e 36 bd 75 0c 58 bd 80 f6 1a bc 2f 56 4d 3c
       -0.044447117 -0.052746255 -0.009458184 0.012532755
000160 dc f6 85 bd 94 2d 88 bc d6 db 85 3d 4e 09 41 3c
       -0.06541225 -0.016623296 0.06536071 0.011782004
000170 a6 28 7c 3d 15 bb 3c bd b3 27 58 3b 92 01 80 3d
       0.061562203 -0.046076853 0.0032982647 0.062502995
000180 5d 79 3e bd 22 ab 3f bd bb 39 76 3d c3 d8 2a 3c
       -0.04650246 -0.046794064 0.06011365 0.010427657
000190 5e c3 a8 3d da 41 af 3d 0b 7a 13 bd 52 d4 81 3d
       0.08240388 0.08557482 -0.03600506 0.06339325
0001a0 9d 3e 0f 3d fa a2 63 bd f2 53 35 3d 57 35 ad 3b
       0.034971822 -0.05557535 0.04426951 0.0052858996
0001b0 e2 8f 9a bd 20 74 27 3d 1d 55 55 bd 06 42 7d 3d
       -0.07546975 0.04088223 -0.052083123 0.061830543
0001c0 f0 38 0a 3d 00 7b a9 bd 60 c1 5a 3d fb a5 5b 3d
       0.033745706 -0.082754135 0.053407073 0.05362509
0001d0 f7 d6 f3 3c f4 70 9d bd 7b af 57 bd 8d 8c 80 bc
       0.02976559 -0.0768756 -0.052657586 -0.01569202
0001e0 39 89 9d 3d 85 84 34 bd 83 a2 b7 bc a1 fb 86 3d
       0.07692189 -0.044071693 -0.022416359 0.06590963
0001f0 3e 39 63 3d 28 92 8a bd 89 ad 7b 3d 3f 29 67 bd
       0.055474512 -0.06766158 0.061444793 -0.05643582
000200 bc 4b d1 bd 59 18 c3 bd ea 07 75 bd 15 f6 12 be
       -0.10219523 -0.09526128 -0.059822 -0.14351685
000210 b8 6a ca bb c7 38 af bc 8a 4e 80 bd 8e 2c 90 bd
       -0.0061772726 -0.021389378 -0.0626498 -0.07039748
000220 55 12 47 bd 2e 88 c9 bd ad 0c 74 3d e4 21 66 bd
       -0.048601467 -0.09840427 0.0595824 -0.056184664
000230 c9 4f ab bd 36 08 bd bd 34 bf 84 bd 7a 4a 51 bc
       -0.08364827 -0.09230082 -0.064817816 -0.012774104
000240 ec f4 8f bd 38 82 8c bd 13 8c c6 bc 30 df 0f bd
       -0.07029137 -0.06860775 -0.024236714 -0.035124958
000250 88 9d 24 3d 01 80 10 3d 8a 92 41 bd c4 ed af 3c
       0.040189296 0.035278324 -0.04725889 0.02147568
000260 ee 9f f5 3c be 0e db bd 04 05 11 bc b0 c9 60 3d
       0.029983487 -0.10696171 -0.0088512935 0.054879844
000270 28 f5 7c bd da 6f e1 bd 5e 0c a2 3d 23 9f 54 3d
       -0.061757237 -0.11007662 0.07912515 0.051909577
000280 71 ca c3 3c ca ba 69 bc 4a c4 06 be d8 3e 52 bd
       0.023900243 -0.014265725 -0.13160816 -0.051329464
000290 94 5a e8 bd 74 a4 c0 bd 9a 3e ba bd b4 06 62 bd
       -0.113454014 -0.09406367 -0.090939716 -0.055182174
0002a0 0e 83 83 bc 54 74 01 3b 4b a9 00 3d bc 24 41 3d
       -0.016053703 0.0019753175 0.03141145 0.047154173
0002b0 7b fc 14 bd 6d d7 6a bc 07 42 88 bd 8c f3 a4 3d
       -0.036373597 -0.014333588 -0.06653219 0.080542654
0002c0 1d 46 a0 3d 47 09 d7 bc 78 43 08 3d ee 25 8d bd
       0.07825873 -0.026249541 0.03326747 -0.06892
0002d0 82 78 02 3d fa 02 7b 3c 05 77 ed bd 09 5e dd bc
       0.031853206 0.015320534 -0.11594967 -0.027022379
0002e0 58 1c c6 bd eb f5 a3 3d ac be 91 3c 7c bf a7 3c
       -0.09673375 0.080058895 0.017791115 0.020477049
0002f0 38 07 13 bd 88 06 8d 3d c9 d6 7f bd 65 d5 f1 3c
       -0.035895556 0.06886011 -0.062460694 0.0295207
000300 fc 5e 32 bd 6e 58 63 bc b3 09 37 bd 19 01 47 bd
       -0.043547615 -0.013876064 -0.044686984 -0.04858503
000310 e0 dc 40 38 7e f3 28 bd ce 1f 83 3d 42 3e b4 bd
       4.5982073e-05 -0.041247837 0.06402551 -0.08800937
000320 72 7c a3 bd ba b3 3f bc 64 a4 35 bd 0f e2 08 bd
       -0.079827204 -0.011700565 -0.04434623 -0.03341871
000330 1b 69 b7 bd ed eb ba 3c e7 6c 3d 3d b0 a0 b8 bd
       -0.08955594 0.022817576 0.046246435 -0.09015024
000340 37 f1 bf 3c 00 1c d6 bd 0d 5f f9 3d 05 6d bb bd
       0.02343045 -0.10454559 0.121763326 -0.09151653
000350 72 f9 24 3d e6 e3 ee 3b 64 8c 5f bd e7 a6 0d bd
       0.040276952 0.007290351 -0.054577246 -0.034583
000360 6a b1 23 3d 5f 12 1f bd ed c5 6f bd 14 de 82 3d
       0.039964117 -0.03883588 -0.058538366 0.06390014
000370 34 f2 e2 bd ee 4a bc 3c 96 96 16 bb d4 60 ad 3d
       -0.11081353 0.022984948 -0.002297794 0.08465734
000380 62 b0 eb bc 04 b7 e7 bd 6b 70 94 3b d5 49 3d bd
       -0.02877063 -0.11314204 0.004530003 -0.04621299
000390 a3 b0 2f 3d 8e fe ad bd e8 bc de bc 38 0d 00 3d
       0.042893063 -0.08495818 -0.027189687 0.031262606
0003a0 78 97 da bd 80 fd 39 bd e1 75 50 3c 1a 33 87 3c
       -0.106734216 -0.045407772 0.012723417 0.01650386
0003b0 a4 6f 38 ba ad 00 8d 3c 09 9b 27 3d d0 b4 66 3d
       -0.0007035679 0.017212236 0.040919337 0.05632478
0003c0 72 15 08 3d 92 a8 ed bd 7a 6f 02 3d ac ab 70 3d
       0.033223577 -0.11604418 0.031844594 0.05875747
0003d0 f4 94 c3 3b 44 14 c8 bd 58 48 25 bd bf 72 ac bb
       0.0059686843 -0.0976949 -0.040352196 -0.0052627022
0003e0 13 fe 9e 3d e2 fc ae 3c 81 87 ac bd 6a 25 d8 bd
       0.077633046 0.021360818 -0.08424283 -0.10554011
0003f0 31 ef c0 bc 13 b1 04 3d ea a6 dc bb ab 5d 56 3d
       -0.023551555 0.032395434 -0.006733765 0.052335422

network.layer2.bias f4 [256]
000000 f1 eb 9c bd 3b bd cd bd 2c df 17 bd 9e af 47 bf
       -0.0766219 -0.100458585 -0.037078068 -0.78002346
000010 9e bf 29 3f 7f 19 93 3f fa e6 c3 3c 4b 77 02 be
       0.6630801 1.1492156 0.02391385 -0.12740819
000020 b5 1c 82 3f f2 24 1b 3d f1 92 8b 3f ca a9 8d 3e
       1.0165011 0.03787703 1.0904218 0.276686
000030 69 1f 96 3f f1 23 e4 bc ed 92 6e bd ef a3 aa 3f
       1.1728336 -0.02784917 -0.058245588 1.3331279
000040 26 f1 8f 3f ea 13 8c 3f 2c 74 99 3f 0f a0 97 3f
       1.1245468 1.0943577 1.1988578 1.1845721
000050 e6 22 a0 3f ea d5 5b bc 79 66 7e bd f3 6f b9 3f
       1.251065 -0.0134177 -0.062109444 1.4487289
000060 fa 28 a5 3f 18 d1 a7 3f 45 52 62 bd 80 d1 65 3f
       1.290313 1.3110685 -0.05525424 0.89772797
000070 91 e0 4c 3d 7c c6 98 3f f8 72 99 3d d8 f9 cd bd
       0.05001885 1.1935573 0.07492632 -0.100574195
000080 c1 5a 92 3f 2e ec 9a 3e 6e 67 8b bd bb d5 87 3d
       1.1433946 0.30258316 -0.06806837 0.06632563
000090 78 58 ac 3f 5e d4 1a 3d cf f5 4f 3f 28 f0 94 3f
       1.3464499 0.037800185 0.8123445 1.163579
0000a0 81 17 88 3f 1f ef 69 3f e3 aa 8f 3f c6 04 7e 3f
       1.0632173 0.91380495 1.1224025 0.99226034
0000b0 f9 93 e5 bc b6 10 6e 3c df f9 b5 3f 75 6b a3 3f
       -0.02802466 0.014530351 1.421688 1.2767168
0000c0 c7 3b d9 3e 16 28 97 3f 77 1d 88 3d ca 29 a8 3f
       0.4242842 1.1809108 0.06646245 1.3137753
0000d0 91 2c 46 bd 78 ae 9d 3f db 01 17 bd 35 3b 9d 3f
       -0.048382346 1.2318869 -0.036867004 1.2283694
0000e0 f2 93 b7 3f 46 df 99 3f d8 4b 95 3f 02 fd f1 3e
       1.4342024 1.2021263 1.1663771 0.47263342
0000f0 e1 6b 8d bd 35 d3 88 3f 38 cf 2f bd 08 76 ba 3f
       -0.06905342 1.0689455 -0.04292223 1.456727
000100 e7 bb 6e 3d 8d 62 90 bd aa 59 a2 bd 54 82 a9 3f
       0.058284666 -0.07050047 -0.07927258 1.3242898
000110 7f 74 12 bd 1b 49 61 bd 6b d7 80 3f b2 fb 92 3d
       -0.03575563 -0.05500136 1.006574 0.07176913
000120 96 b8 9b 3f 21 9b aa bd e9 bc aa 3f 99 95 80 3d
       1.2165706 -0.0833037 1.3338901 0.062785335
000130 13 ef c2 3f 44 a2 50 bd b8 fa b8 3e 61 79 5e bd
       1.522921 -0.050936 0.36128783 -0.054314975
000140 ca 51 af 3f c7 a3 bd 3f 13 a3 a8 3c 9d 73 b0 bc
       1.3696835 1.4815606 0.020585572 -0.021539504
000150 ee 9e 0c 3f a1 05 95 3f 42 49 a2 3f fe 18 c9 bd
       0.5493001 1.1642343 1.2678607 -0.0981922
000160 47 e6 c8 bd 98 9c b1 bd 1d 24 81 bc 08 5c 53 3c
       -0.09809547 -0.08672446 -0.01576429 0.01290036
000170 06 e9 51 bd 8d 40 88 3f 4a ef 93 3d 75 eb 80 bc
       -0.05124762 1.0644699 0.07223375 -0.015737275
000180 f8 4a b1 be b7 8d a6 3f 6f 4d ab 3f df 62 9f 3f
       -0.3462751 1.3011998 1.3383006 1.2452048
000190 c9 95 96 bd c0 04 3b 3c c2 56 6f 3f 10 48 a2 3f
       -0.07352788 0.011414707 0.93491757 1.2678242
0001a0 d9 b8 48 3f bc 90 aa 3f 5f 7a 87 bd 59 a4 a5 3f
       0.78407055 1.332542 -0.06615137 1.294078
0001b0 84 57 a9 3f 3c 20 8a 3f 39 82 41 bd 0b 1d 68 3d
       1.3229833 1.0791087 -0.04724333 0.056668323
0001c0 b2 35 8b bd 53 db 89 3f 8b 42 04 bf 7a 93 05 bf
       -0.06797351 1.0770057 -0.51664037 -0.52178156
0001d0 2b 6e 85 bc 66 2c c7 3f 49 ad ca 3f 64 1a b3 3c
       -0.016287884 1.5560424 1.5834132 0.02186317
0001e0 fe 00 a4 3f 26 24 b9 bc 46 34 07 3c e2 64 93 3f
       1.2812803 -0.022600245 0.008252209 1.1515162
0001f0 03 aa 93 3f 07 e1 51 3f ae 9d 44 bd b5 b7 89 bd
       1.1536258 0.8198399 -0.048001938 -0.067244925
000200 52 e9 a8 3f a5 79 08 3f d5 78 a3 bd 2d 36 96 3f
       1.3196204 0.53310615 -0.07982031 1.1735283
000210 9a 53 7f 3f c8 c7 1a be fd 76 de 3d 29 35 af 3f
       0.9973694 -0.15115273 0.10862539 1.3688098
000220 70 a0 81 3f 1d ee a9 3f 08 69 71 3d aa 07 8a 3f
       1.0127087 1.3275791 0.058938056 1.0783589
000230 d4 f9 95 be 5e 63 36 bd f6 ac 8b 3f e2 fa fd 3e
       -0.29292166 -0.044528358 1.0912158 0.4960547
000240 5a a4 96 3f 81 c3 32 bd 68 59 b5 3f b9 cb a9 3f
       1.1768906 -0.04364348 1.416791 1.3265296
000250 22 e9 59 3f 8c 3a aa 3f 98 5b 73 3f ce 68 68 3d
       0.8512136 1.3299117 0.95061636 0.056740575
000260 d3 d1 45 bd b2 ab 76 bd c8 d3 98 3f 74 93 84 bb
       -0.048295807 -0.060222335 1.193963 -0.004045898
000270 d2 95 a4 3f 4a 68 8f 3f 63 8a a3 3f ed 00 ba 3f
       1.2858222 1.1203701 1.2776607 1.4531533
000280 2a a1 8a 3f 7a 1e aa 3f b3 8d 97 3f 16 1d 55 bd
       1.0830433 1.3290551 1.1840118 -0.05202969
000290 86 b7 c6 3f fe 45 a9 3f 53 bf 08 3b 3b 56 8e 3f
       1.5524757 1.3224485 0.0020865991 1.1120065
0002a0 9d 9a ae 3f c3 be 97 3f 42 29 04 bd b9 ca 2a bd
       1.3640934 1.1855091 -0.03226591 -0.041697238
0002b0 ac be 8f bd 71 a5 64 bd 01 2c d1 bd de 85 05 3f
       -0.0701879 -0.05582184 -0.10213471 0.5215739
0002c0 f8 51 85 3e 85 2c bc 3f 73 98 94 3f ea e5 ac 3f
       0.260391 1.4701086 1.1609024 1.3507664
0002d0 d4 ff 2f bf 56 1c 91 3d b3 bc 0a bb 6d d5 9f bc
       -0.6874974 0.07085483 -0.0021169602 -0.019510949
0002e0 99 3c b2 3f 4c b0 9c 3e 4b b3 86 3f 97 ef a1 3f
       1.3924743 0.30603254 1.0523466 1.2651242
0002f0 f0 49 93 bc fc 0f 92 3f ab 68 9b 3f 2e 41 ad 3e
       -0.017979592 1.1411128 1.2141317 0.3383879
000300 0c b5 a0 3f d7 f8 a7 3f 22 ae a1 3f 3c 2b 78 bd
       1.2555251 1.3122815 1.2631266 -0.060588107
000310 e2 ac 05 3f bb 48 cc 3f 91 3b a8 3f 91 ab 96 3f
       0.52216923 1.5959696 1.3143178 1.1771108
000320 0e 3d 91 3d e3 7f 92 bd c9 6d 88 3f a3 4d 9b 3f
       0.070917234 -0.07153299 1.0658504 1.2133068
000330 e6 d3 8e 3f 35 a3 49 3f 4e 06 c6 3f 85 9f 98 3c
       1.1158416 0.7876466 1.5470674 0.018630752
000340 2e ae 13 bd ea dc ab 3b 1b ca f7 bb 99 57 a9 3f
       -0.036054783 0.005244841 -0.0075619346 1.3229858
000350 bf 52 0c bd 32 e4 94 3f f8 79 81 bd 18 77 9a 3f
       -0.0342586 1.163214 -0.06322092 1.2067595
000360 d1 7b 5d 3b 2c 50 b1 3f 78 85 d1 3f 31 74 a8 3f
       0.0033795724 1.3852592 1.6368856 1.3160459
000370 1c 2a 1c bd 44 3f 95 3f ec d0 eb bc 29 91 a6 3f
       -0.038126096 1.1659932 -0.028786145 1.3013049
000380 e1 75 87 bd 3c a1 29 bf b6 5a 3a 3d 52 12 87 bd
       -0.066142805 -0.6626165 0.045496665 -0.06595291
000390 1d e4 b7 bd 4a 84 87 3f 09 a2 da bc c8 f9 b4 3f
       -0.08979056 1.0587246 -0.026688593 1.4138727
0003a0 48 ba aa 3f 46 0a 33 3d 9f a1 cb 3f f6 5f ae 3f
       1.3338099 0.04371097 1.5908698 1.3623035
0003b0 93 93 0c 3f eb 27 4c be 99 27 9c 3f 99 26 97 bd
       0.5491268 -0.19937102 1.2199584 -0.07380409
0003c0 37 7f 87 3f fc 3c 9d 3f ba 19 77 bd 5d 76 1b 3f
       1.0585698 1.2284236 -0.06032727 0.60727483
0003d0 c3 68 23 bd 26 78 89 bc 65 3c 39 be 2a 48 4d 3d
       -0.03989483 -0.016780924 -0.18089445 0.05011765
0003e0 b5 e3 ae 3e 54 65 77 3c a5 b1 12 3f 38 7b 90 3f
       0.34158102 0.015099842 0.57302314 1.1287603
0003f0 88 c3 95 3f 3c a1 98 bd 49 b0 a0 3f 73 bf 16 bd
       1.1700296 -0.07452628 1.2553798 -0.036803674

network.layer4.weight f4 [26, 256]
000000 1c 34 5d 3d 54 b2 f7 3d 28 86 53 bd 81 8e c8 be
       0.054004773 0.1209456 -0.051641613 -0.39171222
000010 51 fa 1f bf 7e 72 0a 3f 2a b4 4e 3d eb 50 5d c0
       -0.6249133 0.5408095 0.050464787 -3.4580638
000020 9e 34 31 3f 28 b1 67 bd 00 b9 12 3f 39 39 84 bf
       0.6922091 -0.056565434 0.5731354 -1.0329963
000030 62 54 06 3f a0 f1 05 bd dc b7 2f 3d 7b 37 10 3f
       0.5247251 -0.032701135 0.04289995 0.56334656
000040 4c 22 00 3f 99 13 12 3f 34 6a 0f 3f 2f 5a 07 3f
       0.5005233 0.57061154 0.5602143 0.52871984
000050 0e 2a 1d 3f 9c e0 84 bc 9c cb a3 3c ce 08 16 3f
       0.61392295 -0.016220383 0.01999455 0.58607185
000060 33 1f 0a 3f 35 28 24 3f ba 79 66 3d 8a 64 51 3e
       0.53953856 0.6412385 0.05626843 0.20448509
000070 40 33 81 3a 48 52 8f 3f f8 81 05 bc 22 36 29 bd
       0.0009857193 1.1196985 -0.008148663 -0.04131139
000080 29 aa 32 3f d9 bc d9 bf 12 af 2d bd 70 cd e9 bc
       0.69790894 -1.7010757 -0.04240329 -0.028540343
000090 0b a5 24 3f fe 35 68 bd e3 34 82 bf 28 37 f5 3e
       0.64314336 -0.056692116 -1.017239 0.47893643
0000a0 d7 e5 1e 3f 8d 37 e2 3e 2b 08 01 3f b2 1f de 3e
       0.6206946 0.44183007 0.5040309 0.43383557
0000b0 40 27 95 bc c0 17 c0 3c 9f c7 1c 3f 41 17 0e 3f
       -0.018207192 0.023448825 0.612421 0.5550423
0000c0 24 90 da bf ff 18 04 3f 50 f5 f1 bc 15 e9 06 3f
       -1.7075238 0.5160064 -0.02953592 0.52699405
0000d0 80 eb 51 3c da 9d 0b 3f 36 1c 91 3e 52 21 39 3f
       0.012812495 0.5453774 0.28341836 0.7231647
0000e0 ee c5 1b 3f 73 a1 19 3f 4d af 2e 3f 0d 66 00 c0
       0.6084889 0.60011977 0.6823624 -2.0062287
0000f0 54 80 50 3d 46 61 32 3f f4 f5 ac 3c 88 e5 22 3f
       0.050903633 0.6967968 0.021113373 0.63631487
000100 0e d1 69 3d 3c 91 47 3d c0 c4 e8 bb f6 37 e2 3e
       0.057084136 0.04872249 -0.0071035326 0.4418332
000110 28 86 2f bd d2 f4 11 3d 68 d9 f0 3e 90 ca 0a bd
       -0.04285255 0.03563387 0.47040868 -0.033884585
000120 d7 78 24 3f c8 0a 40 3d ac 1c 13 3f 3e 67 38 3d
       0.64246887 0.04688528 0.57465625 0.045020334
000130 92 51 ca 3e 3c 3a b7 3c 5b 71 56 c0 96 06 6a bd
       0.39515358 0.022366636 -3.3506687 -0.057135187
000140 d2 50 12 3f 0b 61 21 3f f0 84 ba bc 20 c6 5a bb
       0.5715457 0.630387 -0.022768468 -0.0033382252
000150 00 bc 37 c0 42 f3 1c 3f a6 ad 18 3f 14 25 2d 3d
       -2.8708496 0.6130868 0.59639966 0.04227169
000160 44 ae 71 3d ac 0f 71 3d c0 46 11 3b dc 72 08 bd
       0.059004083 0.058852836 0.0022167414 -0.033312663
000170 88 b2 0b bc 75 6c e6 3e a4 ed 64 3d 56 8f 2c 3d
       -0.008526452 0.4500462 0.055890694 0.042128883
000180 2b c1 15 c0 8e 83 24 3f dc fc 09 3f 68 2d 07 3f
       -2.339915 0.64263237 0.5390146 0.5280366
000190 ac 7e cd bc 80 46 d7 3a cc 1d d1 3e 46 05 6a 3f
       -0.025084816 0.0016424209 0.40843046 0.91414297
0001a0 03 ed 83 3e 8f 25 fa 3e e5 75 2c bf 50 d2 07 3f
       0.25766763 0.4885678 -0.6736739 0.53055286
0001b0 32 38 35 3f 90 49 fb 3e 76 c4 1b bd 02 c7 ea be
       0.7078887 0.4907956 -0.038029157 -0.45854956
0001c0 b0 d7 de 3b e6 38 1a 3f f5 23 a0 bf 82 fe 91 bf
       0.0068006143 0.6024307 -1.2510973 -1.1405795
0001d0 14 93 8c bc 1d 1d e6 3f 8b 43 20 3f 50 31 a6 be
       -0.017159976 1.7977635 0.6260306 -0.32459497
0001e0 9c 9e 1f 3f 40 4f c4 3a f4 20 05 bd f2 03 2a 3f
       0.62351394 0.0014977232 -0.03250213 0.6641227
0001f0 93 c5 ff 3e 55 42 c5 3e 9c 59 2b 3d 74 39 07 3d
       0.49955425 0.3852717 0.041833505 0.033013776
000200 10 01 22 3f d4 0f 19 3e cc d1 4c bd 40 c7 e7 3e
       0.6328287 0.14947444 -0.050004765 0.45269203
000210 8e 41 37 3f 49 68 0c bf 97 aa c3 be 15 c4 2c 3f
       0.71584404 -0.54846627 -0.38216087 0.674867
000220 5e 40 2c 3f 27 7b 1c 3f 32 f0 2d bf 59 1f ce 3e
       0.67285717 0.61125416 -0.67944634 0.4025829
000230 1c 01 53 bf fc 3c f6 bc 8c 79 1b 3f ad 1b 17 bf
       -0.8242357 -0.030058376 0.6073234 -0.59026605
000240 64 ee 0c 3f 94 34 4f bd 5e 16 28 3f 85 e5 e6 3e
       0.55051255 -0.05058725 0.6565913 0.45096985
000250 f6 04 c1 3f 47 48 19 3f 35 9c d5 3e a0 6c 25 bf
       1.5079639 0.5987591 0.4172074 -0.64618874
000260 08 bb 2a bc d8 c9 14 3c 05 b3 ee 3e 72 7a 2e bd
       -0.010420568 0.009081326 0.46620956 -0.04259724
000270 4c fb 5c 3f e0 bf 0b 3f 4e 22 25 3f 83 66 f4 3e
       0.8632095 0.54589653 0.6450547 0.4773446
000280 9e 2c 19 3f fd 35 1a 3f 66 69 25 3f 40 6f 5d bd
       0.59833705 0.6023863 0.6461395 -0.054061174
000290 74 6c 11 3f 93 de 19 3f 70 b6 8e bc 17 6b 1e 3f
       0.5680611 0.60105246 -0.017420977 0.61882156
0002a0 38 d8 2e 3f de 6e 39 3f a0 fc f0 bc 98 da 28 bc
       0.68298674 0.72434795 -0.029417336 -0.010306023
0002b0 6a f4 35 3d e4 ed 66 3d 80 00 45 3d 92 6f ae bf
       0.044422545 0.056379214 0.04809618 -1.3627799
0002c0 37 69 f5 bf c6 31 01 3f f4 10 fb 3e 38 59 12 3f
       -1.9172734 0.50466573 0.49036372 0.57167387
0002d0 d3 1f cf 3d 80 97 b7 ba 26 a2 08 3d c8 7f 81 3c
       0.10113492 -0.0014006943 0.03335776 0.015808001
0002e0 5a 65 13 3f d0 eb 77 3e 80 a1 df 3e f9 6a 48 3f
       0.57576525 0.24211049 0.43677902 0.7828823
0002f0 80 5f 17 3b 93 74 ee 3e e3 93 18 3f 2d 39 a1 bf
       0.0023097694 0.46573314 0.5960066 -1.2595574
000300 4c af 02 3f 72 a7 57 3f 18 8e 43 3f a8 5e 7c 3d
       0.5104873 0.84239876 0.7638869 0.06161371
000310 31 ac 17 c0 c1 ec 2e 3f c2 7d 0a 3f d8 b0 1e 3f
       -2.3698847 0.6833001 0.5409814 0.6198859
000320 88 9f 20 bd 14 17 cf bc 5d e4 5b 3f 75 7b 0b 3f
       -0.03921464 -0.02527956 0.8589533 0.54485255
000330 23 d4 19 3f d7 a2 6a 3e 08 f5 00 3f ca 14 06 bd
       0.6008932 0.22913681 0.5037389 -0.03273467
000340 c8 5e 67 bc 28 05 e6 3c a8 2b 03 bd c0 8a 53 3f
       -0.014121719 0.02807863 -0.032024056 0.8263359
000350 2c b1 48 bd 32 15 3a 3f fa 0e 12 bf 53 84 23 3f
       -0.04899709 0.7268859 -0.570541 0.63873786
000360 b0 97 1b c0 27 ba 03 3f 06 ad 43 3f 0e 1d 06 3f
       -2.4311333 0.5145592 0.7643589 0.52388084
000370 18 e2 f3 3c 94 4f 2d 3f 22 53 5c bd d8 6b 16 3f
       0.029770896 0.6769955 -0.05379022 0.58758307
000380 f4 78 30 bd a1 02 1f be 70 75 fa 3c e8 76 fc 3c
       -0.0430841 -0.15528347 0.030573577 0.030818418
000390 ad 77 25 bf 9f da 2a 3f 48 a3 3d bd e1 56 d7 3f
       -0.64635736 0.6673984 -0.046298295 1.6823388
0003a0 89 96 0c 3f 3a d2 7d 3d bc b6 21 3f 0f 29 1a 3f
       0.549172 0.061968066 0.63169456 0.602189
0003b0 b3 50 20 3f dd 1b 15 c0 21 c5 38 3f 00 12 44 3b
       0.6262314 -2.3298256 0.72175795 0.0029917955
0003c0 65 4e 1a 3f ed c7 11 3f 42 7e 08 bd 42 3e 53 3e
       0.6027587 0.5694569 -0.033323534 0.20629218
0003d0 e8 57 1e 3c c6 e7 09 bd 98 48 ee bf f2 c3 74 3d
       0.009664513 -0.033668302 -1.8615904 0.05975718
0003e0 6c d1 a6 3e 20 c6 c3 bb f4 c9 41 3e 57 22 21 3f
       0.3258165 -0.005974546 0.18924695 0.62943023
0003f0 21 5d 2a 3f e0 5a b9 bc 82 1a 30 3f e4 92 6e bd
       0.66548353 -0.02262634 0.6879045 -0.058245555

network.layer4.bias f4 [26]
000000 33 8a 0c 3f 11 6d a1 3e 6d 5f 8b 3e 44 7e c8 be
       0.54898375 0.31528524 0.27221242 -0.39158833
000010 f1 af d6 3c 2a 20 b6 3e 6f 23 24 be 41 93 6f 3e
       0.026206942 0.35571414 -0.16029142 0.23396017
000020 94 99 d7 3e 71 9d 55 3f 47 0f 87 3f b2 80 2d 3f
       0.42109358 0.8344336 1.0551537 0.677745
000030 93 29 97 3f 6d f3 8b bb 9a 2d e8 3e d3 10 94 3e
       1.1809562 -0.004270962 0.4534729 0.28919086
000040 1e 0d 9c bd f0 cd 1e 3f 77 d1 ac 3e 74 bc 55 3f
       -0.076196894 0.62032986 0.3375356 0.8349068
000050 99 ca 3a 3f d6 0b 19 3f 89 bc 22 3f f8 82 f3 3e
       0.7296539 0.59783685 0.6356893 0.4756086
000060 3d 7d 18 3f 6b 76 fc 3e
       0.595661 0.49309096
