DDQN_panda_env2/runs/results_10/best-model-rw.pt (torch, 162903 bytes, 6 tensors)

network.layer1.weight f4 [128, 3]
000000 70 21 af be 3d 83 62 bd 21 14 59 3f b2 13 40 bf
       -0.34205198 -0.05530094 0.8479634 -0.7503005
000010 b6 b4 af 3f cd 64 c4 3b 67 9c 06 bf 8f c6 72 be
       1.3727024 0.0059934617 -0.525824 -0.23708557
000020 0e 2a e3 bd 33 86 12 bf 5d 32 1e 3f 86 98 eb 3e
       -0.11092006 -0.5723602 0.617956 0.46014804
000030 ef d3 20 3e db 85 a9 be ed 45 c2 be cf d0 60 bf
       0.15705846 -0.33109936 -0.37943974 -0.87818617
000040 04 f7 bf 3e b3 5d 34 be 83 1a 6f bf f0 83 27 3e
       0.37493145 -0.17613868 -0.9339983 0.16358924
000050 72 29 6a 3e 65 ea 4a bf 8c b3 02 bf 1a 5c 23 3e
       0.22867373 -0.7926391 -0.51055217 0.15953103
000060 21 a0 88 bf d2 24 71 3e 4f cb fe 3e e9 0f 8b bf
       -1.0673867 0.23549202 0.49764487 -1.086423
000070 56 7f f2 be 20 7f 29 3f fa d0 3f 3e 51 84 46 3d
       -0.47362775 0.662096 0.18732062 0.04846603
000080 8a 03 00 be 40 b1 41 bf 69 1a cd 3d ac 8e 06 3f
       -0.1250135 -0.7566109 0.10014803 0.5256145
000090 c8 c0 0f bf 7e ed 17 bf 49 dc 81 be 81 67 7c bf
       -0.56153536 -0.5934676 -0.25363377 -0.98595434
0000a0 ab 3b 96 be 63 43 29 3f 41 ee 68 bf ec 76 81 3f
       -0.29342398 0.6611845 -0.90988547 1.0114417
0000b0 77 f5 11 3f e4 26 34 bf b7 f1 b2 be f7 77 3e 3f
       0.57015175 -0.7037184 -0.3495004 0.744018
0000c0 da 59 ae 3f 79 80 ed be 89 fa cf 3d 1e 46 05 be
       1.362117 -0.4638708 0.10155208 -0.13015029
0000d0 47 8c d6 bd 82 2d 2f 3f a3 cd 51 bf ef 1e f0 be
       -0.104759745 0.68428814 -0.819544 -0.468986
0000e0 5d b4 80 3e 75 a4 91 be a3 1f 09 bf 65 65 4e 3f
       0.25137606 -0.28445783 -0.535639 0.80623466
0000f0 a8 ef af bf 5a df 8f 3e 22 c3 bf 3e e8 3e f4 3e
       -1.3745012 0.2810009 0.37453562 0.47704244
000100 a7 60 b4 bd 48 a2 da be d3 17 8b bf 82 7c e3 3d
       -0.088074975 -0.42701936 -1.0866646 0.11107732
000110 01 21 bb 3e 52 a6 65 bf 6e 47 27 3e ab d0 2d 3f
       0.36548617 -0.8970691 0.16335842 0.6789653
000120 c9 e9 34 bf a8 e1 95 3e cb 13 31 3f 09 8f 8a bf
       -0.7066923 0.29273725 0.69170827 -1.0824901
000130 90 1e 9e 3d 76 83 80 3e bd 27 d6 bc 68 2a 20 bd
       0.07720673 0.25100297 -0.026141996 -0.03910294
000140 3a ff 4a be e9 08 61 bf 8d bd 10 be 5f 2f 01 be
       -0.19823924 -0.8790422 -0.14134808 -0.12615727
000150 55 d5 13 bf 09 cf df be dd 74 25 3f 45 1d 42 bf
       -0.57747394 -0.43712643 0.64631444 -0.7582591
000160 2d 22 da 3e c6 c4 07 3f 05 88 e4 3f 35 37 27 bf
       0.426042 0.5303463 1.785401 -0.65318614
000170 6f f8 8a 3d a3 63 07 be 03 db b0 3d bd 72 0f bf
       0.06785666 -0.13221602 0.08635523 -0.5603445
000180 7a f5 d3 be 38 90 06 bf f7 eb 65 3f e4 e5 3a 3c
       -0.4139822 -0.5256381 0.8981318 0.011407349
000190 a0 69 1b bf e4 f2 d7 be 5c eb 31 3f 98 11 03 bf
       -0.60708046 -0.42177498 0.69499755 -0.5119872
0001a0 7a c0 50 be e5 af 75 bf 3d a6 a4 3e b8 e2 3c bd
       -0.20385924 -0.9597152 0.3215808 -0.046114653
0001b0 cb 78 34 bf 51 0a 1a be af 70 1c be d6 b3 a9 3f
       -0.70496815 -0.15042998 -0.1527736 1.3258007
0001c0 c9 f4 49 be 39 2c a5 3d 56 32 37 bd c8 34 2c be
       -0.19722284 0.080650754 -0.04472574 -0.1681701
0001d0 22 53 49 3f a9 d2 83 be cd 4d e3 be f5 c6 d3 3e
       0.78642476 -0.25746658 -0.44395295 0.4136273
0001e0 b5 2b e9 3a 24 58 74 be 5f 87 8b be d7 d1 6e bf
       0.0017789515 -0.23861748 -0.27251717 -0.9328894
0001f0 2b d2 0d bf 58 4a 0c bd 89 80 64 bf 6a 8f b6 3e
       -0.55398816 -0.034250587 -0.8925863 0.3565629
000200 d3 04 e1 bd d3 8e ba be 93 13 41 be f0 c3 30 3f
       -0.10987248 -0.3643709 -0.18855123 0.69048977
000210 d4 9f 04 bf ac de 3a 3f 16 b2 93 be 70 77 a9 bc
       -0.5180638 0.7299602 -0.28846806 -0.020686835
000220 6e e3 9c be f7 79 34 bf c2 19 11 be 7b b4 78 3f
       -0.30642265 -0.70498604 -0.14169982 0.9715039
000230 ee 00 03 3f 2c f1 87 bf 9f 4a 45 be ae d5 f1 3d
       0.51173294 -1.0620475 -0.19266747 0.11808334
000240 b5 75 ab bf 94 22 f7 3d 33 10 04 3f 96 f4 c8 3e
       -1.3395296 0.12067142 0.5158722 0.39249104
000250 dd 70 5a 3e 34 31 09 bf e6 50 fb be 1a af 1e bf
       0.21332116 -0.53590703 -0.49085158 -0.61985934
000260 94 e6 b3 be c5 41 21 bf 89 45 59 bf 72 6e 65 be
       -0.35136855 -0.6299098 -0.8487173 -0.22405413
000270 17 a7 9c bf d4 06 0e 3f 93 44 75 bd 5b 06 c4 be
       -1.2238492 0.5547917 -0.05987985 -0.382861
000280 71 86 fb 3e 02 cc 82 3e 8d 7c 8a bf 48 ec cf be
       0.49126008 0.2554627 -1.081926 -0.40609956
000290 43 4f e7 3e b9 89 b1 be 6b 8b 73 3d 90 76 a2 bb
       0.4517766 -0.34675387 0.05945913 -0.0049579814
0002a0 ad d5 50 be f8 3d 73 3d 78 46 00 bf b2 de 62 bd
       -0.20394011 0.05938527 -0.50107527 -0.05538816
0002b0 3c 69 c5 3e 0a fa db be ac 97 04 3d 7a 14 1c bc
       0.3855685 -0.42964202 0.032371208 -0.009526366
0002c0 a8 94 6f 3f a7 73 a4 be 9f 56 5a 3f 58 9a 86 be
       0.93586206 -0.32119486 0.85288423 -0.2628963
0002d0 6f ef 29 bf ce 8d c8 be ce 2c c4 3d e9 2f 88 bf
       -0.6638097 -0.39170688 0.09578858 -1.0639621
0002e0 27 15 90 3e b1 9f 01 3f 4a c1 bb be 75 f7 38 3b
       0.28141138 0.50634295 -0.36670905 0.0028223668
0002f0 d5 21 b8 ba 1a 71 07 bf 76 1f 75 3e df 2b a2 3e
       -0.0014048169 -0.52906954 0.23937783 0.31674096
000300 47 f9 09 bf aa ca 88 3e 4b 86 0e 3e b0 23 f5 3e
       -0.5389599 0.2671712 0.13918416 0.4787879
000310 ac d3 f2 be b3 08 17 bf 31 0d b5 bf f9 a7 09 3f
       -0.47427118 -0.5899765 -1.4144651 0.5377193
000320 11 00 31 3f 26 33 8e bf 06 3a b9 be e3 e7 14 3e
       0.69140726 -1.1109359 -0.3617708 0.14541583
000330 ae 32 85 bf 00 bb db 3e b3 43 0a 3f 07 2a 3a bf
       -1.0406091 0.42916107 0.5400955 -0.7272038
000340 8a 1b ba 3d b5 9d a8 3e cd 9e 32 be 18 07 29 bf
       0.09087284 0.3293282 -0.1744339 -0.6602645
000350 6e 06 34 3f cb 77 14 3f 02 15 6b bf 48 ff 11 bf
       0.7032231 0.5799529 -0.9182893 -0.57030153
000360 a9 f7 1e be 0f 41 57 be 97 45 90 be 1a 10 10 bf
       -0.15524162 -0.21020912 -0.28178093 -0.5627457
000370 a4 cb 80 3e 11 36 97 3e 24 77 e4 be 20 2d cc 3e
       0.25155365 0.29533437 -0.44622147 0.39878178
000380 1b c5 31 be 84 8e 69 bf ae ff 3e be 32 3e f3 3e
       -0.17360346 -0.91233087 -0.18652222 0.4750839
000390 89 f0 8f bf d7 5b cb bd c0 a2 b2 bc 0a 93 c3 be
       -1.124528 -0.099296264 -0.02180612 -0.3819812
0003a0 00 1f fc 3d ec 3d 75 be 92 42 35 bf 1b 20 81 3d
       0.123106 -0.23949403 -0.70804703 0.06304952
0003b0 c6 3a db bd 74 c3 c2 bd 9a 65 6e be 7f b3 59 bf
       -0.107045695 -0.09509936 -0.23280945 -0.85039514
0003c0 33 e4 3e bf 47 f4 c8 3e 90 ea a3 3e 9f e2 15 bf
       -0.74566954 0.3924887 0.32014894 -0.5854892
0003d0 14 7f 77 bd ae 3c 2f 3c fd cf 43 3f 32 ee da be
       -0.060423926 0.0106956195 0.7648924 -0.42759854
0003e0 1b 0f 54 be 78 a7 ec bd fa 5a f6 3d d8 f5 46 3e
       -0.20708887 -0.1155538 0.12029071 0.1942972
0003f0 7e c4 0b 3f c6 42 33 bf 9f fb 57 3f 90 04 38 bf
       0.545967 -0.70023763 0.8436832 -0.7188196

network.layer1.bias f4 [128]
000000 95 92 11 be 37 c0 09 be b5 01 c2 3e ee cd c0 be
       -0.14216073 -0.1345223 0.37891927 -0.37657112
000010 dc ee 03 3e cb 6d 59 3f c3 f0 86 3e 95 de 23 3f
       0.12884086 0.84933156 0.26355562 0.6401151
000020 21 ae 04 3f 02 1a c7 3e bb 32 b7 be f7 bd c8 3c
       0.518282 0.3888703 -0.35780892 0.024504645
000030 79 b1 e5 3e cb 22 1b bf 25 4c 08 3f 7e c6 fe bd
       0.44861963 -0.60599965 0.5324119 -0.12440203
000040 ba 6b 2a bf 71 9b 14 3f 77 a0 39 be ad 50 de 3e
       -0.6657063 0.58049685 -0.18127619 0.43420926
000050 fc 3b 4f be f3 21 f7 be 06 12 be 3e fa 68 3b 3e
       -0.20237726 -0.4826809 0.37123126 0.18301764
000060 20 51 a9 3e e3 b0 4e 3f d6 31 0a bf df 8b f4 3e
       0.33069706 0.8073866 -0.53982294 0.47762963
000070 77 b9 7b 3e d2 3b 31 3f 3f fe 13 bf 55 40 f2 be
       0.24582468 0.69231904 -0.57809824 -0.47314706
000080 40 97 0c bf fb 75 da 3e 6a 01 4c be f9 55 a7 3e
       -0.5491829 0.42668137 -0.19922414 0.3268278
000090 83 de 0e 3f 7f bc 7d 3f 71 3c 43 3f 97 a1 46 3f
       0.55808276 0.9911575 0.762641 0.77590317
0000a0 85 92 79 3f d2 89 4a 3f a4 bd 10 3f 60 86 2e 3f
       0.97489196 0.7911655 0.5653937 0.6817379
0000b0 50 a1 06 be c8 5e 97 3e ef 96 65 be d7 ed 2f 3f
       -0.13147473 0.295645 -0.22420858 0.6872229
0000c0 da 5d d2 be fe 0a e0 be 5b 1e 43 bf ad b0 14 3f
       -0.41087228 -0.43758386 -0.76218194 0.58082086
0000d0 17 67 05 3f e1 e6 b5 3e 56 55 bc 3e b5 05 1f 3f
       0.5211043 0.3552771 0.36783856 0.62118083
0000e0 c7 73 b3 be 41 e4 0a bf 3a 63 04 bf f3 38 0d 3d
       -0.3504927 -0.5425454 -0.5171391 0.03447814
0000f0 32 e2 f2 be 75 0f 0b 3f ca 47 09 3f 4a d6 bc 3e
       -0.47438198 0.5432046 0.53625166 0.3688224
000100 27 65 45 3f d3 39 62 3f 7d 65 82 3c ad 91 39 3f
       0.7710747 0.8836948 0.015917534 0.7248791
000110 c4 91 2c 3f db 8b 54 3e f8 81 d9 3d 07 75 f7 bd
       0.6740992 0.20756476 0.10620493 -0.12082868
000120 40 f6 66 3f 32 2c f6 3e 59 70 53 3f 31 2a d2 bc
       0.902195 0.48080593 0.82593304 -0.025654884
000130 9e 07 e2 3d 1f 40 6d 3f 95 17 e1 3e 40 a0 d5 be
       0.11036609 0.92675966 0.43963304 -0.41723824
000140 52 e7 42 3f 1a 7c 3a 3f 62 b0 b5 bc e9 fc 30 3f
       0.76134217 0.72845614 -0.022178832 0.6913591
000150 7f 91 7b bd 1c fc 1d 3f e2 8e 39 be 28 c8 15 3f
       -0.061418053 0.61712813 -0.18120912 0.5850854
000160 2b 84 5c 3f 60 fd 71 be c1 16 54 3f 78 eb 91 3e
       0.8613917 -0.23631811 0.8284722 0.2849996
000170 9d 89 17 3f ee 43 05 be 0e b9 61 bd 74 f6 73 3f
       0.59194356 -0.13014194 -0.055108123 0.9529793
000180 5b be 8b 3e d7 ce 4b 3f 76 93 ee 3e 30 0c b0 3e
       0.27293667 0.7961249 0.4659688 0.34384298
000190 a5 75 15 3d c3 2d 35 3f 70 70 b5 be 14 fe bc bd
       0.036489148 0.7077295 -0.35437346 -0.09228149
0001a0 9b 63 3b 3f 36 fb 32 bf 1e e9 71 3f a2 e3 21 3f
       0.7319886 -0.6991457 0.94496334 0.63237965
0001b0 56 0c b9 3d c8 8e 82 be 4a df 3f 3f cf 79 23 be
       0.09035556 -0.25499558 0.7495009 -0.15964435
0001c0 9d 1e ac be e9 7c a1 3c 7f eb 87 3e 51 fa e2 3e
       -0.33617106 0.019712882 0.26546857 0.443316
0001d0 f7 61 36 3f b1 49 21 bf a7 75 10 3f 53 7b 7b be
       0.7124323 -0.6300307 0.56429523 -0.24558763
0001e0 0f c1 1a 3f 2b 57 55 3e 69 61 ba 3e 51 45 8c 3e
       0.60450834 0.20834033 0.36402443 0.27396634
0001f0 98 a7 7c 3f db 22 42 3f 6a df ba be 36 8b 55 3f
       0.9869323 0.75834435 -0.36498576 0.83415544

network.layer2.weight f4 [256, 128]
000000 9c 3b b8 3d e6 31 53 bf ba 46 15 3f 07 ce 30 3f
       0.089957446 -0.82498014 0.58311045 0.6906437
000010 f3 2f eb 3e 34 e7 52 3f ba 1e 1e 3e d4 e9 22 3e
       0.4593502 0.8238404 0.15441409 0.15909511
000020 55 40 c4 3d 7a 1b 29 3e c0 2c 54 bd fa 43 79 3d
       0.09582583 0.16514388 -0.05180049 0.060855843
000030 22 a5 d5 3e 15 23 04 3e 77 46 32 3e 3e 90 be 3c
       0.4172755 0.12904008 0.17409693 0.02326214
000040 ae 1a c7 3f 75 24 64 3d 70 9b 94 3b 20 49 1c 3e
       1.5555017 0.05569883 0.004535131 0.1526227
000050 76 07 7d 3e 88 77 82 bd 78 85 fc 3d 4d e8 a6 3d
       0.24709877 -0.06370455 0.12330145 0.081497766
000060 b3 d6 3c 3e df 3c 1b 3e 9f 6f 84 bd e8 bb c5 3e
       0.18441276 0.15159939 -0.064666025 0.38619924
000070 c9 44 b9 bc ec 66 61 3e 0a 14 b2 3f f3 18 b9 3c
       -0.022615807 0.22011918 1.3912365 0.022594905
000080 3a 89 f0 3c b6 f0 33 3d f5 d1 40 3f 27 7b 4e 3f
       0.02936231 0.04393073 0.7532037 0.80656666
000090 34 a3 86 3e bb 6c 0a bf 96 c2 85 3d d2 d3 00 3e
       0.2629639 -0.5407216 0.06531255 0.12580803
0000a0 86 5a 3f 3f b0 39 01 3e c1 b2 47 3f 81 9d 89 3d
       0.747475 0.12619662 0.7800713 0.067194946
0000b0 83 f6 7c be 8b a2 3a 3f 21 c2 85 3e 33 f2 cb 3d
       -0.24703412 0.7290427 0.2612467 0.09958305
0000c0 df 2d ec 3d e5 33 65 bc 1b 27 95 3d de b1 45 3e
       0.11532187 -0.013989423 0.072828494 0.19306132
0000d0 69 b8 8c 3f 99 43 6b 3e 7f 1c bd 3d b6 51 aa 3e
       1.0993778 0.22975005 0.09233951 0.33265465
0000e0 a9 e6 3d 3d d5 3d 32 bd fe ca f1 3d 2a 75 b5 be
       0.046362553 -0.043516 0.11806296 -0.35440952
0000f0 4a 43 02 3e 88 61 87 3e a6 9c d4 3e de 62 a1 3e
       0.12720981 0.26441598 0.41525763 0.31520742
000100 57 f1 bc 3e 07 04 36 3f d3 30 82 3d ef ea 87 3d
       0.36902878 0.71099895 0.06356969 0.06636607
000110 58 f0 f3 3d 13 ea 3e 3e 92 75 1c 3d b8 76 96 be
       0.11911076 0.1864398 0.03819806 -0.2938745
000120 15 8a 55 3f 5c 0c 3f 3e 1c bf 98 3f a2 2f e2 3c
       0.8341382 0.18657058 1.1933322 0.027610604
000130 29 0c 7a 3e 28 8b 63 3f b7 4c 21 3f a6 9f ad 3d
       0.24418701 0.8888421 0.6300768 0.08477716
000140 b6 aa ba 3e fd 9b 86 3e da 9f 86 3f 45 de 2e 3e
       0.36458367 0.26290885 1.0517533 0.17076977
000150 f6 9f 90 3d 10 38 8d 3f 37 ef 8b 3f 60 1e 5c 3e
       0.0706176 1.1032734 1.0932378 0.21495962
000160 0a b6 82 3e 69 e0 8a 3d f7 00 43 3e e0 e4 76 3f
       0.2552951 0.06781084 0.19043337 0.96442986
000170 9e 48 25 3e 97 79 95 be e2 57 00 3e db 8d 6d 3f
       0.16140983 -0.29194328 0.12533525 0.9279458
000180 e4 b1 ec 3e 1f 70 14 3f 7b 8f f8 3e 0c c4 84 3c
       0.4622947 0.57983583 0.48546967 0.016206764
000190 0b 0a 62 3e 6a 15 8e 3f 7e e2 14 bc c8 0e 11 3e
       0.22074144 1.1100285 -0.009087203 0.14165795
0001a0 23 18 32 3f fa ab 25 3f 39 0f 81 3f 8c e3 1d 3e
       0.6956808 0.6471554 1.008277 0.15418833
0001b0 45 d2 05 bf 4b ef 6b be 6d 3c d5 3e e7 8d 93 bd
       -0.5227397 -0.23040502 0.41647664 -0.072048
0001c0 b4 18 ae be 46 79 ae 3d 3d bc 0c 3e b3 49 22 3e
       -0.34003222 0.08519225 0.13743682 0.15848427
0001d0 d9 22 c2 3e d5 c7 07 be 07 d2 bd 3d f9 04 b4 3d
       0.37917212 -0.13259824 0.09268575 0.08790011
0001e0 31 4c 28 bf 0e d2 8e be af 3d fe 3d 2c 68 23 3f
       -0.6574126 -0.27894634 0.12414109 0.6383083
0001f0 fa e6 79 3f 73 c8 ad 3e f9 36 4c 3e 4d eb 3f 3f
       0.9761807 0.33941993 0.19942845 0.74968415
000200 30 0d fb 3b 9c 1e 49 bf 8e b8 ec 3e da f6 e3 3e
       0.007661484 -0.7856233 0.46234554 0.4452427
000210 1e 54 30 3f 2b f2 25 3f d8 23 90 3c 56 78 8f 3e
       0.6887835 0.64822644 0.017595217 0.28021497
000220 96 4f 14 3b eb 5f 85 3d 56 f1 32 bc 6c 76 0b be
       0.0022630445 0.065124355 -0.010921797 -0.13619393
000230 50 54 e0 3e b0 a2 f8 bd c3 34 27 be a2 a1 18 bd
       0.43814325 -0.12140405 -0.16328721 -0.03726352
000240 d9 7e dd 3f 74 06 1a 3e 87 85 d9 3d 49 45 cd 3d
       1.7304336 0.15041524 0.106211714 0.10022981
000250 01 98 0e be 4c 7c ac 3d 54 17 27 bd 81 36 f6 bd
       -0.13925172 0.08422145 -0.04079373 -0.120221145
000260 c4 a7 80 bd 43 01 f6 3d d7 b5 7e bd b3 2d d5 3e
       -0.06281999 0.120119594 -0.062185135 0.41636428
000270 16 61 bc 3d dc fa 03 3d 45 78 c7 3f 58 b0 9e 3c
       0.09198205 0.03222166 1.5583578 0.019371197
000280 91 50 68 bd 7f 9a b3 3e 44 d2 4e 3f cf 74 7c 3f
       -0.05671746 0.3507881 0.8078959 0.98615736
000290 36 39 e0 3e 1c c5 06 bf 96 8a 37 3e ba 3a 7c 3e
       0.43793648 -0.52644515 0.1792396 0.24631777
0002a0 98 b8 48 3f 7a ea d7 3e 50 78 06 3f 58 27 80 3d
       0.7840667 0.4217108 0.5252733 0.06257504
0002b0 36 c9 a3 be 03 cc e9 3e 51 61 12 bf 91 67 7f 3e
       -0.3198945 0.4566346 -0.57179743 0.24941851
0002c0 bc a2 4a be 39 91 82 bc 65 0a 5b 3e c7 b8 05 3f
       -0.1978864 -0.015938388 0.21390684 0.5223507
0002d0 ba 05 60 3f fa 08 e2 be 56 b9 5f 3e cb b0 68 3e
       0.8750874 -0.44147474 0.21848044 0.22723691
0002e0 71 67 b2 3d a1 bd b1 bd 41 7e 11 bd 5b 3e 93 be
       0.08711136 -0.08678747 -0.035520796 -0.2875851
0002f0 e9 47 96 3e 91 e7 b2 bc 60 0e a1 3e 9b d2 c8 bb
       0.29351738 -0.021838935 0.3145628 -0.0061286218
000300 15 e7 3a 3e d3 bf 30 3f 57 4e 14 be 74 fd b1 3e
       0.18252213 0.690427 -0.1448301 0.34763682
000310 7c 32 82 3c 14 78 65 bd 47 e2 af 3d e3 73 e8 bc
       0.015893213 -0.05602272 0.08588081 -0.028375572
000320 22 2c 4d 3f 9a 5e b3 bd 58 e9 90 3f 23 d0 cd 3d
       0.80145466 -0.08758278 1.1321211 0.100494646
000330 d6 7d 3c 3e 07 1a 61 3f 2b 54 f8 3e a2 88 45 bc
       0.18407378 0.8793034 0.48501715 -0.012056502
000340 f9 6b b0 bd 62 75 93 3e cf 90 87 3f 5e 56 97 3d
       -0.08614344 0.28800493 1.0591067 0.0738952
000350 8e 8c 29 3e 63 d4 72 3f ab 1e 9d 3f 3d ff cf 3e
       0.16557524 0.94855326 1.2274984 0.4062442
000360 d6 5c 5c 3e 19 5d 8a bb 1c 80 23 bd 8f fb 34 3f
       0.21519789 -0.004222524 -0.039917096 0.7069635
000370 be 49 e2 3e 6b a7 1b bd 5f 50 86 be cd a8 63 3f
       0.44196886 -0.03800146 -0.26233193 0.88929445
000380 5d 58 28 3e 10 bb d9 3e 05 9c ff 3e b4 52 3d 3e
       0.16439958 0.4252553 0.4992372 0.1848858
000390 04 8c 32 3e 34 76 87 3f 26 1f 8f 3d 81 c7 7c bd
       0.17436224 1.0582948 0.06988363 -0.0617137
0003a0 8b f7 03 3f 35 bd 95 3f c9 3c 65 3f 4d c7 8a bd
       0.51549596 1.1698366 0.89545876 -0.06776295
0003b0 b3 ad 4d 3d 44 c5 71 3e 7c 2a c4 3e 3c 01 d1 bd
       0.05021448 0.23610407 0.38313663 -0.102053136
0003c0 1c e4 37 be d7 ce 1c be 24 e1 49 3e 8f d3 14 3d
       -0.1795811 -0.15313278 0.1971479 0.03633457
0003d0 9e 9b b5 3e 82 bf 4c 3c 9f 79 b5 3e 92 95 c2 3d
       0.3547029 0.012496831 0.35444352 0.095011845
0003e0 d7 b6 3b bf 9c 8c d0 be 71 98 58 3e d4 f3 aa 3e
       -0.73325866 -0.40732276 0.21151902 0.3338915
0003f0 e4 21 8f 3f 3e 52 0e 3f a4 d1 9a 3d aa 0b 0d 3f
       1.1182218 0.5559424 0.07559517 0.5509592

network.layer2.bias f4 [256]
000000 01 98 27 3e 6b 4f f4 3e 74 37 aa 3c da 87 85 3e
       0.16366579 0.4771684 0.020778395 0.2608021
000010 51 40 93 3c 84 4f c4 bd 71 94 e8 bd 8b d6 58 3d
       0.017975004 -0.09585479 -0.11356438 0.05293898
000020 55 7d 6a 3e b0 58 f9 3d 44 4c 70 bd a4 b8 8c be
       0.22899373 0.12175119 -0.058666483 -0.2748462
000030 94 4e 80 3d d9 93 99 bb b6 a0 8a 3e d7 b7 28 3e
       0.062649876 -0.0046868143 0.27075738 0.1647638
000040 d2 98 40 bd af 2a e0 bd 94 1e 8d 3d 16 76 c2 bb
       -0.04702074 -0.10945641 0.06890598 -0.005934487
000050 3f 8a c9 3d 13 dc 39 be be 7c dd 3d 88 9a 1d 3e
       0.098408215 -0.18150358 0.10814808 0.1539098
000060 30 d8 6d 3e 00 20 26 3d 68 78 7e be 78 80 65 3e
       0.23227 0.04055786 -0.24850619 0.22412288
000070 52 48 33 3e c9 dd a1 3e 60 7c a5 3e d4 0d bc bb
       0.17508057 0.3161452 0.32321453 -0.005738953
000080 8b 1a ca 3d 94 e5 2d 3e 25 1c 3c be a0 7f 45 3e
       0.09868344 0.16982108 -0.18370111 0.19286966
000090 f4 5b 27 3e 50 13 a9 3c ff c7 49 bd 12 e4 48 3e
       0.16343671 0.020639092 -0.049262997 0.19618252
0000a0 69 3a 51 be 3b 0f b4 3c c2 8a 09 3e 73 2d 80 3d
       -0.20432438 0.021979919 0.13431838 0.06258669
0000b0 c4 e6 3e be cd 37 4d 3d 45 d2 8d 3e 78 7d dc 3d
       -0.18642718 0.050102044 0.27699485 0.10766119
0000c0 8d 26 27 3e 3f 45 85 3e 2a 46 78 bd 09 c9 18 bc
       0.163233 0.26029393 -0.06061379 -0.009325274
0000d0 d2 37 0f 3e 4e ce a8 3d 66 64 37 3e 1d 71 71 3e
       0.13986138 0.082424745 0.17909393 0.23578306
0000e0 cd 92 4a 3e db f7 4d 3e 7a 6a 60 3d bb 7d 90 3d
       0.19782563 0.2011408 0.054789044 0.07055231
0000f0 77 22 e8 bd 6b ea 66 bd 6b d8 04 be a4 70 c9 3b
       -0.11334699 -0.056375902 -0.12973182 0.006147461
000100 f6 6a 5e 3e e9 a2 16 bc e5 33 7b 3e 66 23 4f 3e
       0.2172049 -0.009194114 0.24531515 0.20228347
000110 72 80 cb bc fb ae 44 bd 07 dd b6 bd 35 cb 31 3d
       -0.024841521 -0.048018437 -0.08928876 0.043406684
000120 91 8c 4d bd 8a bd 96 3e ab 30 91 3d ab b7 8c be
       -0.050182883 0.29441482 0.07089361 -0.27483878
000130 e3 5e 91 be 49 81 95 3e 57 6e 9a bd d3 ea e5 3d
       -0.28392705 0.292002 -0.07540577 0.1122643
000140 dc c8 e0 bd 57 27 1b 3c e4 40 13 3e bc b9 73 bd
       -0.10975811 0.009469829 0.14380223 -0.059503302
000150 64 1f 92 3e c2 3d 8e 3d a8 77 2e be 71 71 66 3d
       0.28539574 0.06945373 -0.17037833 0.05626053
000160 1f 7c ef bd f6 fa 3c 3e e8 91 2c 3e 85 6c e4 bd
       -0.11693596 0.18455109 0.16852534 -0.11153511
000170 29 09 82 3b bd c7 a3 ba 13 02 09 3e 59 8d eb 3c
       0.003968377 -0.001249544 0.13379698 0.028753923
000180 19 e1 33 3d 8f f6 da 3d bd b0 77 bc fc 96 e8 3a
       0.04391584 0.106915586 -0.015117821 0.0017745192
000190 df 82 a6 bc 6e e6 32 3e 98 39 ed 3d de 40 e8 bd
       -0.020326076 0.17470714 0.11583251 -0.113404974
0001a0 bb d1 96 3e ad 75 17 bc 11 21 90 be 44 91 e3 3d
       0.29456887 -0.009244365 -0.28150228 0.111116916
0001b0 ff 78 0a 3e 56 b2 0a 3e 62 8e 56 3e 8d 63 42 3e
       0.13522719 0.13544592 0.20952752 0.18983288
0001c0 82 de 46 bd e6 94 7e 3e 45 56 bd be a4 04 8b bd
       -0.048552044 0.24861488 -0.3697988 -0.067879945
0001d0 db 8c 5a 3d f4 60 34 be 58 61 91 be db 95 a4 bd
       0.053356986 -0.1761511 -0.2839458 -0.08036395
0001e0 19 db 9a 3e a4 5f 07 be d5 7d 5b bd 7d 18 e2 3d
       0.30245283 -0.13220078 -0.0535868 0.11039827
0001f0 77 03 e3 bd 0c 67 75 bd 1d 8a 1d bd c3 e7 f6 bd
       -0.11084645 -0.059912726 -0.038461793 -0.12055924
000200 a7 db 28 3e 46 a0 6d 3d 21 ca bd be ab 3a cf bd
       0.1649004 0.058014177 -0.37068275 -0.10118612
000210 72 0e 1d 3e e6 dd 0c 3e 48 58 27 3e 2d cf 82 3c
       0.15337542 0.13756523 0.1634227 0.01596793
000220 a3 84 72 3d d7 92 7e bd a0 df 67 bd d1 0b c4 3d
       0.059208523 -0.062151756 -0.05660975 0.09572566
000230 ce f4 9c 3d de ac c3 be 10 9d 97 3d 4b 95 00 3e
       0.0766388 -0.38217825 0.07403004 0.12556951
000240 dc ee 0c 3e 5c ee 59 3e 32 ba bf bd 26 68 35 3d
       0.13762993 0.21282333 -0.09361686 0.044288777
000250 5e bb 01 3e dc 5b 89 be c2 ce 19 3e 03 38 64 be
       0.12669131 -0.26827896 0.15020278 -0.22286992
000260 98 51 26 bd 68 ab 8e 3e 94 22 b2 3d 16 50 02 3d
       -0.040605158 0.27865148 0.086980015 0.031814657
000270 83 48 01 3e 64 3e a9 3e b9 c4 13 3e d3 c4 08 bd
       0.12625317 0.33055413 0.14430512 -0.03339083
000280 47 ac 6e be 1f 76 0c 3e 22 ca 27 3e b0 e4 b6 3d
       -0.23307906 0.13716935 0.16385701 0.089303374
000290 5c 39 26 3e 59 3a 46 3e 0e 8c 81 be f7 e9 8a 3d
       0.16232818 0.19358195 -0.25302166 0.067829065
0002a0 ef 7a cf 3d cd d5 1c 3e 3b 4f 03 3c 9f 3f 02 bb
       0.101308696 0.15315934 0.0080144955 -0.0019874347
0002b0 8e 67 bb bd 50 ef 4c bd 8c 72 60 be 63 d2 0c 3e
       -0.09150611 -0.050032914 -0.21918696 0.13752131
0002c0 81 42 af bd 5d 4f b4 be 41 3e 54 3e 08 93 ce bd
       -0.085576065 -0.352168 0.20726873 -0.10086638
0002d0 14 a1 09 3d 85 c3 b2 3d 2f f5 ad 3d 12 7d 96 3e
       0.03360088 0.08728699 0.08494031 0.29392296
0002e0 50 d4 2e bd 16 39 ac 3d 23 25 ff ba 32 11 a5 3c
       -0.042682946 0.08409326 -0.0019466024 0.0201498
0002f0 6f 1a 1d 3e 07 29 c4 3d 90 83 e5 3c 11 f2 36 3e
       0.15342115 0.09578138 0.028016835 0.17865779
000300 0d 91 6a 3d 72 a7 ff 3d 29 8f 30 bd 21 a9 c2 bc
       0.057267237 0.124831095 -0.04310528 -0.023762288
000310 5b c4 ec 3d 56 c9 63 3d e2 db e7 3c 90 45 f0 3d
       0.11560889 0.05561193 0.02830309 0.11732018
000320 a7 48 98 bc 84 c3 af 3e 8b 86 90 3c f7 fd 50 bd
       -0.01858933 0.34328854 0.01764228 -0.05102345
000330 01 bb b0 bd 9b 90 83 3e be 13 92 be c5 e0 06 3c
       -0.08629418 0.25696263 -0.28530687 0.0082323
000340 8f 49 be bd d9 32 07 3e 65 98 b1 3c 78 be 8b bb
       -0.09291374 0.1320299 0.021679113 -0.004264649
000350 90 0b 41 3e 69 a2 38 bd b3 8e 44 3e a2 eb 70 be
       0.18852067 -0.04507676 0.1919506 -0.23527387
000360 ac ed 60 bd 40 21 03 bc 20 34 93 3d a0 1b dd bc
       -0.05491416 -0.008003533 0.071876764 -0.026990712
000370 79 a5 e2 bd d1 99 89 bc 3f ba 03 3e 8b f4 4d 3e
       -0.11066718 -0.016796978 0.12864016 0.20112817
000380 92 28 aa be 03 3a b2 be ac d8 2b 3e 0b 1b 90 3e
       -0.33234078 -0.34809884 0.16781873 0.28145632
000390 af 50 fe 3d dd 5a 67 3e 82 c0 20 3e 73 d1 9d 3d
       0.12417733 0.22593255 0.15698436 0.07705965
0003a0 98 e3 9f 3e af cb 8b 3d 9d 7b 2a 3e aa 61 c9 3d
       0.31228328 0.06825959 0.16648717 0.09833081
0003b0 3d b8 78 bc 72 6c 9b be 5c 7f ea bd 6b c8 fc 3c
       -0.015180645 -0.30356175 -0.11450073 0.030857285
0003c0 53 4a ab bd 28 54 bd bd d7 fe 80 bc d8 ce ee bd
       -0.083637856 -0.09244567 -0.015746517 -0.11660546
0003d0 cc 4d b9 be 64 4f 0f 3e 63 2e 82 3e 54 30 b3 bd
       -0.36192167 0.13995129 0.25426015 -0.08749452
0003e0 ff 64 b8 bc bf cd 67 bd 76 95 a9 bc 0b 4a 79 bd
       -0.022509096 -0.0565927 -0.020701151 -0.06086163
0003f0 df 25 6b bd 4f ef e5 3e 3c 91 91 3e c5 ac c0 bd
       -0.057409164 0.4490914 0.28431118 -0.09407953

network.layer4.weight f4 [26, 256]
000000 2b 65 34 3e bd fb 70 3e d0 78 2d bd b9 4c e6 3d
       0.17616718 0.2353353 -0.042351544 0.112451024
000010 b8 58 60 3e 1a c7 89 bd 6d da fa 3d 79 96 31 3e
       0.21908844 -0.06727429 0.12248693 0.17342557
000020 e7 46 80 3e b0 fd 36 3e b6 e3 60 bd ea 72 36 3f
       0.25054094 0.17870212 -0.054904662 0.71269095
000030 39 41 ce 3d 1e 64 47 bd 6d 48 95 bc fb 9e 32 3e
       0.10071034 -0.048679464 -0.018223012 0.17443459
000040 a0 1e 33 3e 9b ff a7 3e 2c 1e 77 3d 5c 7d 3b 3d
       0.17492151 0.328122 0.06033151 0.04577385
000050 17 f1 e8 3d 9d 1d 0a 3f 6b 56 03 3e 02 c0 e8 3d
       0.11374109 0.53951436 0.12825935 0.113647476
000060 00 6d 8a 3e d0 09 1c 3d a5 9a 2d 3e 43 68 50 3e
       0.27036285 0.038095295 0.16953523 0.20352273
000070 0f c9 2e 3f cd f2 0c 3e b2 d3 7c 3c de 49 54 3e
       0.6827554 0.13764496 0.0154313315 0.20731303
000080 ce 01 18 3e 99 28 40 3e 4f 7e 64 3f c7 d0 3f 3e
       0.14844438 0.18765487 0.8925523 0.18731986
000090 1d 4f 5f 3e a4 72 c8 bc 29 c1 d6 3d 1f 3a 30 3e
       0.21807523 -0.024468727 0.10486061 0.17209671
0000a0 2b 25 7c 3d c0 93 4b 3c fd 66 c3 3d c0 12 b0 3c
       0.061558884 0.012425363 0.09541128 0.021493316
0000b0 b8 3d 74 3e aa b0 72 be 7a 2e 26 3e a7 2c e4 3d
       0.23851669 -0.23700204 0.16228667 0.11141329
0000c0 8b e1 d6 3d 61 d5 e9 3d 13 1b ae 3e a4 07 52 3e
       0.10492238 0.11417652 0.3400503 0.20510727
0000d0 fe 52 85 3e 6c ec f3 3d bf 7a 5a 3e b7 65 51 3e
       0.2603988 0.11910328 0.21335886 0.20448957
0000e0 da 51 26 3e 53 47 21 3e c3 2b 04 bd 92 52 61 3e
       0.16242161 0.15749864 -0.032268297 0.22004154
0000f0 b5 1b c1 3d 51 55 7e 3e 88 d8 0e 3f 71 f8 67 3f
       0.09429113 0.24837233 0.5579915 0.90613467
000100 0d 20 43 3e 6f 81 5c 3f dc ad 5b 3e 57 2b 34 3e
       0.19055195 0.86135 0.21453041 0.17594658
000110 1e 77 60 3d 9a 44 9d bc 17 a2 c7 bc 25 21 7c 3e
       0.0548011 -0.01919775 -0.024369283 0.24622019
000120 f2 2f 19 bd ed fe 20 3e b1 c7 38 3e c4 46 df 3e
       -0.03739924 0.15722246 0.18044926 0.43608677
000130 75 4f 24 3f d0 cc 53 3e 6a 94 06 bd 05 c2 2b 3e
       0.6418374 0.20683599 -0.032856382 0.16773231
000140 70 f2 52 3f 17 72 87 3e 4b 08 cf 3d ea 05 56 3d
       0.8240118 0.2645423 0.10109004 0.052251734
000150 02 ad c4 3d 98 4e 1c 3f 56 72 63 3f f4 34 1e 3d
       0.09603311 0.61057425 0.8884634 0.03862472
000160 4e 7f 1b 3e 0e 3b 15 3e 73 4a 42 3e 55 3e 1b 3e
       0.15185282 0.14573309 0.18973713 0.15160497
000170 96 f0 6d 3d d9 65 f6 3d 48 24 4d 3e d5 2b 2a 3e
       0.05809077 0.12031145 0.20033371 0.16618283
000180 b2 99 52 3e a0 c2 09 3e 44 a8 b4 3c a4 e5 1a bd
       0.20566443 0.1345315 0.022052892 -0.03781666
000190 60 c0 29 bc 12 81 3a 3e 1f 1f 30 3e 51 59 84 3e
       -0.010360807 0.18213299 0.17199372 0.25849393
0001a0 a1 ce 74 3e e7 63 16 3e 9a e8 bc bb 78 39 f7 3d
       0.23906948 0.14686547 -0.005765033 0.12071508
0001b0 51 50 d4 3d ba 68 ff 3d e6 fd db 3d 5b 54 f5 3d
       0.10366882 0.12471147 0.10741787 0.1197898
0001c0 c0 01 48 3d 39 6c 3f 3e 3d 1c 19 3f 28 84 53 3d
       0.048829794 0.18693627 0.59808713 0.051639706
0001d0 1a ee 1e 3e 3c 4b 5f 3e be bc 13 3f 07 f5 a5 3e
       0.15520516 0.21806043 0.5770987 0.32413504
0001e0 ee 8c 96 3e 31 fc 38 3e e0 f5 4c bc 9a e7 ad 3d
       0.29404396 0.18064953 -0.012509793 0.0849144
0001f0 cb cd 19 3f 40 8e 85 3a 81 75 3e 3e be 9b 94 3e
       0.6007964 0.0010189489 0.18599512 0.29025072
000200 71 3b 00 3e 08 f9 67 3d 95 5e 42 be c6 9f 02 3f
       0.12522675 0.05663398 -0.18981393 0.51025045
000210 4f 27 bf 3d 5c cc e9 3d 0e c4 14 3e fc 9c 31 3e
       0.093336694 0.114159316 0.14527914 0.17345041
000220 fc f3 0b bd 67 4b bd 3d b0 4e 1a bc 15 f8 39 3e
       -0.03416823 0.092428975 -0.009418175 0.18161042
000230 e5 25 53 3e f6 94 2f bd 08 cc 23 3e 54 27 ee 3c
       0.20619924 -0.04286667 0.159958 0.029071487
000240 c3 98 36 3e b0 c5 df 3d 4c 52 c2 bc 19 f3 8e 3e
       0.17831711 0.10926378 -0.023720883 0.27919844
000250 af 25 8b 3e 4e 45 4e 3e bf 12 ac 3d 52 ef ef 3d
       0.27177188 0.20143625 0.08402013 0.117155686
000260 c0 61 9e 3b 9a b0 63 3e e2 1f 2d 3e 5f f3 9f 3b
       0.00483343 0.22235337 0.16906694 0.004881307
000270 3b ab 69 3e 18 35 4d 3e 7e 8c e2 3d c0 47 a4 ba
       0.22819225 0.20039785 0.11061953 -0.001253359
000280 44 df 56 3d a9 25 81 3e aa f3 05 3e 6d 8f 64 3e
       0.052459016 0.25224045 0.13081232 0.22320338
000290 67 e5 33 3e 53 59 32 3e 7d bc 11 3e fb ab 0d bd
       0.17567979 0.17416887 0.14232059 -0.03458784
0002a0 34 e2 4c 3e 5f c3 01 3e 14 7d 26 3e 80 fd 7b 3d
       0.20008165 0.12672184 0.16258651 0.061521053
0002b0 92 22 5e 3e 30 20 22 bc 98 dd 86 3d 22 55 77 3e
       0.21692875 -0.009895369 0.065852344 0.2415357
0002c0 7e 83 7d 3d d8 28 c9 3c be 66 44 3e 96 91 4f 3f
       0.06189298 0.024555609 0.19179818 0.8108152
0002d0 03 ec 00 3e 8f 79 14 3e bc e9 15 3e c9 e5 19 3e
       0.12590031 0.14499496 0.14639944 0.15029062
0002e0 fe 42 12 3e d0 00 20 3e 97 f6 9d 3e 67 3c f3 3d
       0.14283368 0.1562531 0.30852196 0.11876755
0002f0 aa 74 fe 3d 95 d6 53 3e 9b cf d6 3d 10 d8 46 3e
       0.12424596 0.20687325 0.10488816 0.19418359
000300 8e d1 fb 3d 76 09 1b 3e ec 4c 87 bc 9e 11 62 3d
       0.12295829 0.15140328 -0.016516171 0.055192582
000310 38 49 4d 3e c3 8f 4a 3d cf 7d 4d 3e 67 1f 6a 3e
       0.20047462 0.049453508 0.20067523 0.22863542
000320 f4 51 4c 3d 26 b5 47 3e 3a a8 2b 3d 20 e6 41 3c
       0.049882844 0.19502696 0.04190848 0.011834651
000330 67 63 2d 3d 5a 33 47 3e d7 91 1f 3d 29 f6 45 3e
       0.042331126 0.19453183 0.038957443 0.19332184
000340 e4 3c 02 3e d5 aa 58 3e c3 1f 63 3e 74 89 1d 3e
       0.1271854 0.21158917 0.22180085 0.15384465
000350 62 58 7c 3e b2 1e 79 3d 63 0d df 3d cf 45 d2 3e
       0.2464309 0.06082029 0.10891225 0.41068885
000360 34 b0 41 3d 5c 88 94 3e 8f 91 87 3e ba 0f 64 3e
       0.04728718 0.29010284 0.2647824 0.22271624
000370 cb 72 05 3e ed 13 f3 3e 0e 4d 81 3e 5c 72 76 3e
       0.13032071 0.4747614 0.252541 0.24067062
000380 82 0e 09 3e f0 cd b2 bc 8b 0c 47 3e 0c c0 4c 3e
       0.1338444 -0.021826714 0.19438379 0.19995135
000390 a6 1f 31 3e 64 4d 25 3e f1 67 4b 3e bd 9c 40 3e
       0.17297229 0.16142803 0.19863869 0.18809791
0003a0 9d b7 60 3e 1b f7 1f 3e 7a 75 16 3e 0f d6 79 3e
       0.21945043 0.15621607 0.14693251 0.24398063
0003b0 2d aa 57 3e cd c8 67 3e 5d a8 40 3e fa ec 2a 3e
       0.2106101 0.22635193 0.18814225 0.16691962
0003c0 80 f6 80 3a cc 9e 59 3e 46 5f a0 3d e3 eb 3e 3f
       0.0009839088 0.21251982 0.07830672 0.74578685
0003d0 16 31 65 3e 80 23 0b 3e d9 ee 57 3e 9c 3d d0 3d
       0.22382006 0.13587761 0.21087207 0.10168001
0003e0 a8 22 ce bb 58 53 01 bd c4 8c 81 bc 9e 90 2e bd
       -0.0062907524 -0.031573623 -0.015814193 -0.042618386
0003f0 9b c0 c3 3d b3 b4 8c 3e 78 dd 97 3e 81 ad 10 3f
       0.09558221 0.27481613 0.29661155 0.56514746

network.layer4.bias f4 [26]
000000 c9 ab 0c 3c f7 39 6c bd 4d e4 98 3e db 92 b7 bd
       0.008585879 -0.057672467 0.2986168 -0.08963557
000010 91 f4 28 3b c0 8e ad 3e b1 05 98 bd c1 bb 5f 3e
       0.0025780539 0.33897972 -0.074229605 0.21848966
000020 69 09 b7 bd 17 5f 12 bd 21 0a cd 3d cb 98 2b 3e
       -0.08937342 -0.035735216 0.100116976 0.16757505
000030 76 6a 40 be 4e 12 2c 3f 75 b9 66 be fb 7a 26 bd
       -0.18790612 0.6721543 -0.22531684 -0.040644627
000040 2f bf 2f 3e 69 86 2e bd 1e 05 35 3d 69 63 07 3e
       0.17162775 -0.042608652 0.044194333 0.13221516
000050 55 7c 63 bc 0a 13 07 3e 37 db 10 3e 8c 2e ef bd
       -0.013884624 0.13190857 0.14146124 -0.116788
000060 21 67 87 3e 9d cf b4 3e
       0.2644587 0.35314646
