DDQN_panda_env2/runs/results_10/last-model.pt (torch, 162903 bytes, 6 tensors)

network.layer1.weight f4 [128, 3]
000000 b0 8e c0 be 19 e3 91 bd 2e f3 54 3f 63 66 72 bf
       -0.37608862 -0.071233936 0.8318356 -0.9468748
000010 2c 46 cc 3f d9 05 97 3d 19 c1 d9 be 1e ec a3 be
       1.5958915 0.07374162 -0.42530134 -0.3201608
000020 d0 98 0e be af 66 f4 be 3b f9 23 3f ef ab fb 3e
       -0.13925481 -0.4773459 0.6405217 0.49154612
000030 4c 7a 02 be b5 a3 01 bf 9e 7b 2f bf e1 7e 4f bf
       -0.12741965 -0.5064042 -0.68548 -0.81052977
000040 73 c4 b6 3e 26 38 68 be 96 6f 4e bf 08 24 8b 3e
       0.35696754 -0.22677669 -0.80639017 0.27175927
000050 08 8d 9a 3e 72 fb 32 bf 6d 6c 24 bf ce 75 8a 3d
       0.30185723 -0.69914925 -0.64227945 0.06760751
000060 2a 21 76 bf 26 cb a7 3e 3a 51 13 3f 5b 80 82 bf
       -0.96144354 0.32772177 0.57545817 -1.0195421
000070 ef 62 1d bf 0e ba 0e 3f fa d0 3f 3e 51 84 46 3d
       -0.61479086 0.55752647 0.18732062 0.04846603
000080 8a 03 00 be 22 e9 40 bf 90 6e f4 3d 87 53 25 3f
       -0.1250135 -0.7535573 0.119351506 0.6458058
000090 62 83 f1 be 69 b2 33 bf cc e1 6d be e1 b4 85 bf
       -0.4717055 -0.7019411 -0.23230666 -1.0445825
0000a0 e3 77 cd be 11 97 15 3f 4b 16 88 bf b7 8f 8f 3f
       -0.4013053 0.58433634 -1.0631803 1.1215733
0000b0 49 66 53 3f 02 a2 3f bf af 05 0b bf 76 fa 21 3f
       0.8257795 -0.7485658 -0.5430555 0.632728
0000c0 86 27 d6 3f 72 56 1e bf c7 14 97 3d 70 36 b1 bd
       1.6730812 -0.61850655 0.0737701 -0.08652961
0000d0 aa da 98 be 17 94 2d 3f 38 fb 3d bf 03 c8 29 bf
       -0.29854327 0.6780409 -0.74211454 -0.6632082
0000e0 96 df ad 3d 1e 77 82 be 1b 45 4f bf 2a 9f 2f 3f
       0.08489911 -0.25481504 -0.8096482 0.6860224
0000f0 a0 5e 9d bf a9 a4 91 3e e1 11 09 3f e8 3e f4 3e
       -1.2294502 0.28445938 0.53542906 0.47704244
000100 a7 60 b4 bd 48 a2 da be cd 2c 7a bf 95 f2 21 3e
       -0.088074975 -0.42701936 -0.9772461 0.15815194
000110 58 d5 c9 3e cf 57 53 bf cb ed 48 3e 5a 15 54 3f
       0.3942058 -0.8255586 0.19621961 0.8284508
000120 91 6d 38 bf 46 54 ca 3e 52 62 55 3f fa 5c 79 bf
       -0.72042185 0.3951742 0.8335315 -0.97407496
000130 bc 04 43 3d 4f f5 7b 3e bd 27 d6 bc 68 2a 20 bd
       0.047611937 0.24605297 -0.026141996 -0.03910294
000140 3a ff 4a be 06 46 4e bf d6 7d 29 be 7b ea 5c be
       -0.19823924 -0.805756 -0.16551909 -0.21573822
000150 cb 6e 1e bf 48 8c 36 bf 17 0a f6 3e c8 d2 26 bf
       -0.61887807 -0.713078 0.48054573 -0.65165377
000160 ff b7 0a 3f 2c a3 31 3f 8f 61 0b 40 82 15 6a bf
       0.54187006 0.69389606 2.1778295 -0.9143907
000170 ef 96 85 bd a3 63 07 be 03 db b0 3d bd 72 0f bf
       -0.06522929 -0.13221602 0.08635523 -0.5603445
000180 1e 96 03 bf 9d 32 1f bf d7 6f 4a 3f da 72 66 3c
       -0.51400936 -0.62186605 0.79076904 0.014065469
000190 8c 2e 37 bf 2c a1 32 bf 4b ff 20 3f c8 71 52 bf
       -0.715554 -0.6977718 0.62889546 -0.82204866
0001a0 c3 0a ae be b3 f0 65 bf 73 6b 8d 3e 10 ef bf bd
       -0.33992586 -0.898204 0.2762104 -0.093717694
0001b0 f4 fc 1b bf 69 83 5e be f4 b2 49 be 0e c0 b0 3f
       -0.6093285 -0.21729816 -0.19697171 1.380861
0001c0 aa af 88 be ff 5e d8 3d e2 46 b5 3d 5d 32 90 be
       -0.2669652 0.10564994 0.088514104 -0.28163424
0001d0 cd 83 4d 3f 9e 67 0b be d9 f4 1a bf ca 07 a2 3e
       0.8027924 -0.13613746 -0.6052986 0.31646568
0001e0 bd c7 bd 3d a3 6d af be f4 52 85 be 62 95 52 bf
       0.09266613 -0.34263334 -0.2603985 -0.8225919
0001f0 ef e5 2d bf db 22 a0 bd e5 5b 54 bf eb 08 a9 3e
       -0.67928976 -0.07819148 -0.8295272 0.33014616
000200 5c 77 21 be 0f ac 98 be 88 d0 ae be 89 9e 2a 3f
       -0.15768188 -0.2981877 -0.34143472 0.66648155
000210 ec e3 ff be 70 cb 33 3f ae 64 a9 be 5e 6a 5a be
       -0.49978578 0.70232296 -0.33084625 -0.21329638
000220 6f 0c 06 bf 26 c4 66 bf 8c 7d e8 3c a1 e7 bd 3f
       -0.5236272 -0.9014305 0.028380178 1.4836313
000230 2c a7 fe 3e ce 52 75 bf 1b d7 8e be f4 4a 7d 3d
       0.49736917 -0.95829475 -0.27898487 0.06183906
000240 cc 1f 9d bf f8 f9 16 3e 8d 86 2f 3f 96 f4 c8 3e
       -1.2275329 0.14743793 0.68564683 0.39249104
000250 dd 70 5a 3e 34 31 09 bf 44 c9 06 bf 32 82 75 bf
       0.21332116 -0.53590703 -0.52650857 -0.9590179
000260 8d 3e 16 bf 5f 42 04 bf dc 2d 7e bf 08 56 7a be
       -0.58689195 -0.51663774 -0.99288726 -0.24446881
000270 d4 41 95 bf 64 07 fc 3e cb c4 b4 bd 01 9c 0f bf
       -1.1660714 0.4922439 -0.08826598 -0.5609742
000280 73 27 0f 3f ff a1 d2 3e 12 51 7e bf be c8 05 bf
       0.5591957 0.41139218 -0.99342453 -0.52259433
000290 37 35 bb 3e 2d 82 68 be 39 08 9b 3d 93 e6 cb 3c
       0.36564037 -0.22705908 0.07569928 0.02489022
0002a0 ad d5 50 be f8 3d 73 3d 78 46 00 bf b2 de 62 bd
       -0.20394011 0.05938527 -0.50107527 -0.05538816
0002b0 3c 69 c5 3e 0a fa db be f9 f0 c7 bd 36 d0 04 be
       0.3855685 -0.42964202 -0.09762759 -0.12970051
0002c0 ea 2e 77 3f 00 67 9e be 2b c3 52 3f 18 76 98 be
       0.9655596 -0.30937958 0.8232905 -0.29777598
0002d0 2c a9 1b bf 85 8c f8 be 14 16 7e bd 52 60 75 bf
       -0.6080501 -0.48544708 -0.062032774 -0.958501
0002e0 0c 00 ca 3e 33 5f 20 3f fa 4e 80 be 6a 93 f7 bc
       0.3945316 0.6264526 -0.25060254 -0.03022166
0002f0 eb aa c3 bb fc 5a d6 be d6 05 c2 3e a2 e2 ef 3e
       -0.0059713027 -0.4186629 0.37895077 0.46852595
000300 d8 b5 d2 be e9 79 b8 3e da ca 6a 3e d8 66 1a 3f
       -0.4115436 0.3603051 0.22928944 0.6031318
000310 40 2d 03 bf ab 72 4a bf e6 87 b1 bf b5 bd 2d 3f
       -0.5124092 -0.7908122 -1.3869598 0.67867595
000320 62 49 72 3f 3d 63 81 bf ac 0b f1 be ef 68 9b 3d
       0.94643223 -1.010841 -0.47079217 0.07588374
000330 98 1d 70 bf 22 4e 10 3f 09 e7 2f 3f d9 38 20 bf
       -0.93795156 0.5636922 0.68711907 -0.6258674
000340 54 8e 2c 3e 27 17 cb 3e 0c 10 5c be 7f 04 6b bf
       0.16851169 0.396661 -0.21490496 -0.91803735
000350 7d 42 fa 3e 4c cd 4a 3f 93 da 12 bf 10 21 5f bf
       0.48878852 0.7921951 -0.5736477 -0.87159824
000360 70 2e 17 bd e5 d4 a4 be 64 ea 85 be 9f c1 e1 be
       -0.03690952 -0.32193676 -0.26155388 -0.44093034
000370 f0 b8 c6 3e 2d 6a d7 3e 78 df aa be 2e 34 88 3e
       0.3881297 0.42073193 -0.33373618 0.2660231
000380 df 7a c9 bd 7c 1a 6d bf 6d 88 8f be d1 45 ba 3e
       -0.09837889 -0.92618537 -0.28033772 0.3638139
000390 a4 d7 89 bf 6a c5 fd bd d9 8f c4 bd 57 d8 7b be
       -1.0768933 -0.12391169 -0.09597749 -0.24594246
0003a0 f7 e4 08 3d 3c f7 46 be c3 c8 22 bf 82 a8 55 3d
       0.033421483 -0.1943025 -0.6358759 0.052162655
0003b0 ec 48 44 be aa 25 bf bd 4e 5a 8a be e9 1e 50 bf
       -0.19168442 -0.09333356 -0.27022022 -0.81297165
0003c0 9f 21 20 bf a4 43 0d 3f e8 22 ed 3e 44 e8 f3 be
       -0.625513 0.55181336 0.46315694 -0.47638142
0003d0 96 22 06 be 1c 32 ad bc 52 84 32 3f d4 a0 3b bf
       -0.13099131 -0.021142058 0.69733155 -0.7329228
0003e0 4c 2c c4 be 4d 67 1d be b0 36 d0 3e bc 8f ed 3e
       -0.38315046 -0.15371437 0.40666723 0.46398723
0003f0 33 28 df 3e 64 39 57 bf 64 cc 3b 3f d5 6d 27 bf
       0.43585357 -0.84071946 0.7335875 -0.65401965

network.layer1.bias f4 [128]
000000 d9 f6 18 be e0 43 28 be c0 4d e7 3e 1d 5d a3 be
       -0.14937915 -0.16432142 0.45176506 -0.31906977
000010 26 73 88 3e d4 05 59 3f 9a e4 87 3e 93 ca 3e 3f
       0.2665035 0.8477452 0.26541597 0.74527854
000020 5a 21 09 3f 12 0d f5 3e bb 32 b7 be 1b 09 22 bc
       0.53566515 0.47861534 -0.35780892 -0.009889866
000030 36 59 0f 3f a3 b3 1b bf 84 db 0c 3f f1 84 3f bd
       0.559955 -0.6082098 0.55022454 -0.046757642
000040 6e b1 02 bf b2 2d 3a 3f d3 61 81 bd d3 81 16 3f
       -0.51051986 0.72725976 -0.063174866 0.58791846
000050 f1 35 1b be f3 21 f7 be 8e 9f cd 3e c8 25 27 3e
       -0.15157296 -0.4826809 0.40160793 0.16323006
000060 67 9f 8e 3e c9 3e 5e 3f d6 31 0a bf c7 39 f9 3e
       0.2785599 0.8681455 -0.53982294 0.48676893
000070 48 c4 c4 3e 24 94 2e 3f 5e b8 ec be 55 40 f2 be
       0.38431 0.68194795 -0.4623441 -0.47314706
000080 e5 91 0b bf e9 d1 07 3f 3e 12 86 3d 04 c4 b1 3e
       -0.5451949 0.5305467 0.06546448 0.3471986
000090 31 1d 1e 3f d0 92 78 3f 70 a9 66 3f ad b5 68 3f
       0.6176329 0.9709902 0.9010229 0.90902215
0000a0 13 b4 8e 3f 58 49 6b 3f 66 d3 11 3f ae df 4e 3f
       1.1148704 0.9190879 0.56963193 0.8081006
0000b0 82 86 1b be a6 a4 f5 3e 95 df da be 9b 0f 45 3f
       -0.1518803 0.4797718 -0.42748705 0.7697694
0000c0 c4 69 c4 be fe 0a e0 be d9 f6 29 bf c8 6f 39 3f
       -0.38361943 -0.43758386 -0.66392285 0.7243619
0000d0 e8 f6 0c 3f a1 c4 b0 3e c5 a5 ea 3e b3 72 2d 3f
       0.5506425 0.34525016 0.45829597 0.6775314
0000e0 c7 73 b3 be 41 e4 0a bf a5 90 cf be a6 09 ab 3c
       -0.3504927 -0.5425454 -0.40540043 0.020878624
0000f0 65 3c e1 be 3a 20 09 3f bf d3 1b 3f 41 7b b0 3e
       -0.4399139 0.535648 0.60869974 0.34469035
000100 2e 64 4d 3f 60 a9 6e 3f 8d 21 89 3c d9 97 51 3f
       0.8023099 0.93227196 0.016739631 0.81872326
000110 28 9c 25 3f 05 31 58 3e 8f 49 81 3e 59 7a 08 bf
       0.646914 0.2111245 0.25251433 -0.5331169
000120 11 25 83 3f c6 69 fa 3e b7 01 75 3f 92 29 f0 bc
       1.0245687 0.48908824 0.9570574 -0.029316697
000130 67 27 db 3d 50 de 83 3f bb 11 d1 3e 34 5c cb be
       0.10700875 1.0302219 0.4083384 -0.39718783
000140 79 eb 3f 3f 1c c7 4f 3f 64 8f 48 3e 70 a4 14 3f
       0.7496868 0.8116319 0.19585949 0.5806341
000150 2a a1 ac bc 62 1c 20 3f 55 af 81 3d 8d 52 1e 3f
       -0.021072943 0.6254331 0.0633227 0.6184471
000160 5c 21 6c 3f 60 fd 71 be e6 74 50 3f 09 4d a9 3e
       0.922384 -0.23631811 0.8142837 0.33066586
000170 bc 9a 38 3f d6 f2 09 bf 51 aa 06 be 0a 49 74 3f
       0.72111106 -0.53886163 -0.13150908 0.9542395
000180 5f 69 99 3e dd 8a 7e 3f 67 8a 13 3f 0f 90 f9 3e
       0.29963204 0.9943064 0.5763306 0.4874272
000190 1a 80 af 3d a2 cb 38 3f 07 d4 35 be 44 c4 38 bd
       0.08569355 0.7218572 -0.17756663 -0.04510905
0001a0 74 ee 45 3f 9e 15 1b bf cb 9f 7a 3f 7b b3 15 3f
       0.77316976 -0.6057986 0.97900075 0.5847699
0001b0 47 d9 34 3e 6c af 73 be 19 fa 5f 3f 97 a1 ae be
       0.1766101 -0.23797387 0.87490994 -0.34107658
0001c0 83 5f 7c be 1f ec b9 3b 9c 78 d2 3e 9b d3 d5 3e
       -0.2464581 0.0056739 0.41107643 0.41763005
0001d0 34 c5 4a 3f b1 e6 05 bf d1 13 34 3f 8e 27 16 be
       0.7920716 -0.5230513 0.7034274 -0.14663526
0001e0 7a 7e ed 3e 3e 28 09 3e f3 33 fc 3e 20 7f a5 3e
       0.46385556 0.13394257 0.49258384 0.3232355
0001f0 48 51 81 3f 3a d2 65 3f e0 28 b6 be c0 86 74 3f
       1.010293 0.89773905 -0.3557806 0.9551811

network.layer2.weight f4 [256, 128]
000000 30 9e 02 bd e6 7a ab bf 4a 81 16 3f cd 0e 14 3f
       -0.03188914 -1.3396881 0.5879103 0.57835084
000010 d9 58 b4 3f e2 15 45 3f 62 03 70 3d 2e e0 17 3e
       1.4089614 0.76986516 0.058596976 0.14831612
000020 3a d7 fd 3a d0 0e d6 3d c0 2c 54 bd b1 1e 74 bd
       0.0019366511 0.10452044 -0.05180049 -0.059599582
000030 07 3f ef 3e 0c 6c 81 ba 35 56 3b bc ce 7e 83 bd
       0.46727774 -0.000987412 -0.011434128 -0.064206704
000040 12 1d bd 3f 5e 69 05 3c 73 ed 6e bd 31 9e ed 3d
       1.4774497 0.008142797 -0.058331918 0.11602438
000050 c4 44 01 3e 88 77 82 bd 18 bb 03 3d e8 2e f9 bc
       0.12623888 -0.06370455 0.03216085 -0.030417874
000060 18 2d 7c 3d ba e1 ba 3d 9f 6f 84 bd 6e 80 b2 3e
       0.061566442 0.09125085 -0.064666025 0.3486361
000070 27 ca 9b bd d5 f2 fe 3d a2 06 c3 3f f3 18 b9 3c
       -0.07606917 0.1244866 1.5236399 0.022594905
000080 7a 41 9f bd fa 70 f7 3e f2 2a a3 3f 44 86 39 3f
       -0.077761605 0.48328382 1.2747481 0.724705
000090 4f 03 81 3e 55 8f 33 bf 46 7b ee 3c 2d 7e 00 3e
       0.25197837 -0.7014058 0.029111516 0.12548132
0000a0 41 46 80 3f c4 e4 06 3e c0 6e 36 3f fe c4 b5 3c
       1.002144 0.13173205 0.7126274 0.02218866
0000b0 1f e8 a3 be bb ee d3 3f 1b 69 1f be c6 ad 77 3d
       -0.32013032 1.655723 -0.15567438 0.060468458
0000c0 5c 5f c2 bc e5 33 65 bc a4 27 68 3f 0d 10 81 3e
       -0.023727112 -0.013989423 0.90685487 0.25207558
0000d0 5d 66 81 3f 4b c5 07 3d d9 e5 0e 3d 3a 09 ac 3e
       1.0109364 0.033147138 0.03488717 0.3360079
0000e0 a9 e6 3d 3d d5 3d 32 bd e2 ae 00 bd d3 e1 dd be
       0.046362553 -0.043516 -0.03141678 -0.43336353
0000f0 12 24 02 3d 4c 12 2c 3e ba dd d5 3e fa e0 62 3e
       0.03177268 0.16803855 0.41770726 0.22156134
000100 e0 5e a3 3e b5 8c c9 3f ca 18 bf bd e9 5e 11 3d
       0.3190832 1.5746065 -0.093309 0.035490904
000110 0a 55 90 3c e8 06 bf 3d 33 b6 86 3b d6 ea 0e be
       0.017618675 0.09327489 0.0041110753 -0.1395677
000120 7f b8 83 3f 51 d9 d8 3d 9f 5f 96 3f 62 c5 86 bd
       1.0290679 0.10588325 1.1747931 -0.065806165
000130 87 89 35 3e 5e 26 73 3f 54 53 12 3f bb bb dc bc
       0.17728244 0.9498042 0.571584 -0.026944986
000140 28 33 90 3e cd bf 82 3e 23 ed c8 3f 42 80 cf 3d
       0.2816403 0.25536957 1.5697368 0.10131885
000150 5f 0b 38 3d 87 d0 85 3f 28 d3 ce 3f b9 f3 46 3e
       0.04493272 1.0454262 1.615819 0.1942891
000160 7c 48 96 3e 69 e0 8a 3d f0 38 db 3d 2c ef 5e 3f
       0.29352176 0.06781084 0.10704219 0.870837
000170 3b 48 38 3e 2c 9b 10 be 81 16 61 bd ac 8f 5e 3f
       0.17996304 -0.14121693 -0.054953102 0.86937976
000180 f3 44 bb 3e 97 df 64 3f 43 2a 07 3f f1 d3 11 bd
       0.36576042 0.8940367 0.5279886 -0.035602514
000190 38 31 41 3e 16 95 89 3f 81 da 24 bd ee eb 2e 3d
       0.18866432 1.0748622 -0.040247444 0.04270547
0001a0 ac b4 35 3f ef 89 55 3f 67 bb 78 3f 5e b0 22 3d
       0.7097881 0.83413595 0.97160953 0.039718978
0001b0 a5 10 41 bf 25 ee f0 be 8f eb eb 3e ba 8d 2a be
       -0.7541602 -0.4705669 0.46078154 -0.16655627
0001c0 f8 28 14 bf 02 8e ea bd c4 d1 ac 3d e7 dc 64 3d
       -0.57875013 -0.11452867 0.08438447 0.05587473
0001d0 02 76 ce 3e 98 23 47 3e 21 aa bd 3d a6 1a 1d 3b
       0.40324408 0.19447172 0.09260965 0.0023972183
0001e0 b5 9d 53 bf c5 ce 75 be bf c2 bd 3d ac 65 1e 3f
       -0.82662517 -0.24004658 0.092656605 0.6187389
0001f0 52 d6 6e 3f fa ab dc 3e 5f aa 87 3d bf 21 4a 3f
       0.93295777 0.43099958 0.066242926 0.7895774
000200 e5 9e 5c bc c7 1d a8 bf 18 0e dd 3e 9e 1b f6 3e
       -0.013465618 -1.3134087 0.43174815 0.48067945
000210 73 b0 c3 3f bd d2 1b 3f b1 eb 03 bd a5 35 8f 3e
       1.5288223 0.60868436 -0.032207195 0.27970615
000220 e2 1d ed bc 6e 82 34 3d 56 f1 32 bc 56 14 3b be
       -0.028944913 0.0440697 -0.010921797 -0.18269476
000230 c4 e7 dc 3e 1d 03 54 be 2a b5 5a be 66 87 92 bd
       0.43145573 -0.20704313 -0.21358171 -0.071547315
000240 6c 81 e7 3f 00 d3 3a 3e 5f 98 48 3d 46 2d f6 3d
       1.8086371 0.18244553 0.048973437 0.12020354
000250 60 cd 5f be 4c 7c ac 3d 21 03 ad bd 88 00 1e be
       -0.21855688 0.08422145 -0.084478624 -0.1542989
000260 2a d0 b2 bd 4d f8 c9 3d d7 b5 7e bd 7f d8 b7 3e
       -0.087311104 0.09861813 -0.062185135 0.3590736
000270 4f e0 a8 3d 0d a6 d5 3c 5f 8b ea 3f 58 b0 9e 3c
       0.082459085 0.026080156 1.8323783 0.019371197
000280 14 23 c3 bd 46 d6 0e 3f c0 6f af 3f 82 67 6b 3f
       -0.09528175 0.55795705 1.3705978 0.91954815
000290 e2 39 d0 3e 74 59 08 bf a1 47 6a 3e b7 cc 92 3e
       0.4066916 -0.53261495 0.22878887 0.2867181
0002a0 2e f8 77 3f 16 20 d9 3e 8f 27 f2 3e 43 84 ae 3d
       0.9686307 0.42407292 0.47295806 0.08521321
0002b0 08 94 ca be b7 d9 a4 3f 81 c1 75 bf 2a 37 68 3e
       -0.39566064 1.2878941 -0.9599839 0.22677293
0002c0 1e e8 90 be 39 91 82 bc a6 85 73 3f aa 15 0a 3f
       -0.2830209 -0.015938388 0.95125806 0.53939307
0002d0 52 f8 4f 3f 11 dd fe be 70 21 44 3e 45 57 85 3e
       0.8123828 -0.49778035 0.1915338 0.26043144
0002e0 71 67 b2 3d a1 bd b1 bd 79 97 5a bd 85 c9 bc be
       0.08711136 -0.08678747 -0.05336711 -0.36872497
0002f0 a6 b9 36 3e 2e ab 4f bd d0 bf ab 3e 53 47 60 bc
       0.17844257 -0.05070036 0.3354478 -0.01368888
000300 e4 f5 48 3e 55 4f bb 3f 90 88 59 be 06 23 a9 3e
       0.1962505 1.4633585 -0.212435 0.33034533
000310 f1 6f ee bb 88 14 bf bd 59 53 cb 3d b4 2f b0 3d
       -0.007276528 -0.09330088 0.09928007 0.08602849
000320 1f e4 6b 3f b9 45 b9 bd b9 eb 92 3f c8 a1 3f 3d
       0.9214496 -0.09046502 1.1478187 0.046785146
000330 0b 90 e1 3d 6c 29 6c 3f 43 07 d7 3e ef f0 0c be
       0.11013802 0.92250705 0.41997728 -0.13763784
000340 3d 11 b9 bd 9f ce 97 3e bc 86 d3 3f 05 df 0b 3e
       -0.09036491 0.29649827 1.6525493 0.13659294
000350 63 ca 6e 3e 64 38 68 3f a2 db e6 3f ad 12 b8 3e
       0.23319392 0.90711045 1.8035777 0.35951748
000360 53 c6 95 3e 19 5d 8a bb 3f 9b 64 bd 22 ac 22 3f
       0.29252872 -0.004222524 -0.055812117 0.63543904
000370 da 1c e7 3e bb ac 96 3d a4 0b ab be 67 f6 58 3f
       0.451392 0.073571645 -0.3340732 0.8475098
000380 9f 61 bb 3d 44 3b 17 3f 6d 27 01 3f 93 b1 44 3e
       0.09149479 0.5907481 0.50450784 0.19208364
000390 dd 27 d9 3d c6 99 83 3f 54 27 e2 3c 32 b5 e4 bd
       0.106033064 1.0281303 0.027606644 -0.11167373
0003a0 44 a8 05 3f 7c 9b b0 3f ad c0 60 3f dc 82 97 bd
       0.5220988 1.379745 0.87794 -0.07398006
0003b0 50 97 a6 bd 5d 14 9d 3d 1c 17 ca 3e ca 42 a1 bd
       -0.08134329 0.076698996 0.39470756 -0.07874067
0003c0 64 94 a3 be b0 2f 62 be 6a f6 52 3e 28 46 1e 3c
       -0.3194915 -0.22088504 0.20601812 0.009660281
0003d0 51 36 cd 3e a3 d2 42 3e e8 8d b2 3e 1c 74 28 3d
       0.40080503 0.19025664 0.3487389 0.041126356
0003e0 73 de 3d bf a6 ac bc be 66 db 53 3e 64 5e 90 3e
       -0.74167556 -0.3685047 0.20689163 0.28197014
0003f0 ef e2 8b 3f 24 c3 1b 3f bf de 20 bd 0a 6d 10 3f
       1.092863 0.60844636 -0.039274927 0.5641638

network.layer2.bias f4 [256]
000000 b9 73 67 3e be cb 16 3f 74 37 aa 3c 8d 30 b3 3e
       0.22602738 0.58904636 0.020778395 0.3499798
000010 95 42 71 3d eb 98 5e be cd 21 2a bd 8c 67 e1 3d
       0.05890139 -0.21738021 -0.04153614 0.11006078
000020 fe 6d 9a 3e d3 7a 0c 3e 44 4c 70 bd 15 78 eb bd
       0.30162042 0.13718729 -0.058666483 -0.11497513
000030 7a 53 1f 3e d9 93 99 bb b0 c9 c6 3e 8f a3 82 3e
       0.15559188 -0.0046868143 0.3882575 0.2551541
000040 c0 94 56 3d f4 f6 29 3d 94 1e 8d 3d 16 76 c2 bb
       0.052387953 0.04149528 0.06890598 -0.005934487
000050 d9 b2 33 3e 7e 24 42 be 38 07 55 3e ee 77 70 3e
       0.17548694 -0.18959233 0.20803535 0.2348325
000060 fc 14 98 3e 00 20 26 3d 58 42 4f be 1a 8d 98 3e
       0.2970351 0.04055786 -0.20240152 0.29795152
000070 b5 8f 76 3e 83 46 d6 3e 7b f6 71 3e 0b 5f 57 3c
       0.24078257 0.4185067 0.23629181 0.013145219
000080 fb 59 56 3e 2c d7 80 3e 8d 2b 00 bd e0 ef 7d 3e
       0.20932762 0.25164163 -0.031291533 0.24798536
000090 60 28 6e 3e 23 10 8f 3c a8 c4 ff 3b 57 4d 8e 3e
       0.2325759 0.01746375 0.0078054257 0.2779338
0000a0 b3 3c 20 be 3b 0f b4 3c 0c 6c 61 3e 73 2d 80 3d
       -0.15648155 0.021979919 0.22013873 0.06258669
0000b0 7a 1e 35 be 2b 1d 35 bd 04 8f b6 3e 5f 62 2a 3e
       -0.17687407 -0.04421727 0.35655987 0.16639088
0000c0 48 19 72 3e a6 85 af 3e 1f 24 8e 3d b0 a3 be 3b
       0.23642457 0.34281653 0.06940483 0.005817853
0000d0 2d d4 3b 3e 79 41 58 3e 52 90 77 3e 74 29 aa 3e
       0.18342657 0.21118726 0.24176148 0.3323475
0000e0 ee ec 87 3e 86 82 9f 3e 0f 73 f9 bb e3 8e 16 3e
       0.2654795 0.3115427 -0.007612593 0.14702944
0000f0 ae ed bb 3b 33 61 8b 3d 8e af e9 bc e6 f4 2e 3e
       0.0057351207 0.06805649 -0.028526094 0.17085609
000100 1d 38 aa 3e ec 6b 7f 3e fc f4 a5 3e b7 49 94 3e
       0.33245936 0.24943513 0.3241347 0.2896249
000110 72 80 cb bc fb ae 44 bd f1 72 26 bc 0f ce dc 3d
       -0.024841521 -0.048018437 -0.01015924 0.1078149
000120 91 8c 4d bd d1 e6 c0 3e ec 0c 42 3e 49 4f 9a be
       -0.050182883 0.376761 0.18950242 -0.30138615
000130 56 b9 03 be a8 8c b8 3e 57 6e 9a bd f8 b6 80 3e
       -0.12863669 0.36044812 -0.07540577 0.25139594
000140 b0 8e 8d 3d 2f 3b e2 3d 59 37 64 3e 47 3d 33 3c
       0.06911981 0.110464446 0.22286738 0.010939903
000150 d6 f7 c3 3e f2 a7 4e 3e cf ba 45 3d 71 71 66 3d
       0.3827502 0.20181254 0.048273858 0.05626053
000160 ed 2c 9f bd 3c e9 6c 3e 59 5d 7d 3e c8 90 3d bd
       -0.07772241 0.23135847 0.2474264 -0.046280652
000170 dd 5b 04 3e 5e ff 55 3d e2 53 3f 3e 79 2c 17 3e
       0.12925668 0.05224549 0.18684343 0.14763059
000180 2e 16 26 3e 82 08 46 3e bd b0 77 bc fc 96 e8 3a
       0.16219398 0.19339183 -0.015117821 0.0017745192
000190 df 82 a6 bc 34 e9 8e 3e 0d 83 ed 3d 73 c7 03 bd
       -0.020326076 0.27912295 0.115972616 -0.03217263
0001a0 6a 45 c1 3e 36 63 aa 3d a8 ec b4 be bf 11 58 3e
       0.3774827 0.08319704 -0.35336804 0.2110052
0001b0 92 f1 88 3e c6 0b 77 3e 9e 67 98 3e e6 86 95 3e
       0.26746804 0.24125585 0.29766554 0.29204482
0001c0 82 de 46 bd 7f 80 9f 3e 52 1e 93 be a4 04 8b bd
       -0.048552044 0.31152722 -0.2873407 -0.067879945
0001d0 56 b7 0d 3e 4e e7 59 bd ab a7 d4 bd 91 5c 8b 3c
       0.13839468 -0.053199105 -0.103835426 0.017011913
0001e0 b7 26 d8 3e ac c2 09 be d5 7d 5b bd 2d 9f 5c 3e
       0.42217037 -0.13453168 -0.0535868 0.21545096
0001f0 11 21 33 bd 0c 67 75 bd 96 98 e1 3d 06 0b 8b bd
       -0.043732706 -0.059912726 0.110154316 -0.06789212
000200 f8 db 83 3e 46 a0 6d 3d ad c5 09 bf a2 27 8f 3d
       0.2575376 0.058014177 -0.53817254 0.06989981
000210 b8 8a 81 3e c9 36 52 3e 72 04 6a 3e bf 78 26 3e
       0.25301147 0.20528711 0.22853258 0.16256998
000220 a3 84 72 3d 53 23 77 bd 3a de 16 3e 92 1a 3a 3e
       0.059208523 -0.060336422 0.1473321 0.18174198
000230 b2 8a 0e 3e c5 61 92 be fb f6 d4 3c a7 f2 2f 3e
       0.13920096 -0.28590217 0.025996676 0.17182408
000240 f8 82 63 3e d3 14 74 3e 32 ba bf bd 04 cf fd 3d
       0.2221793 0.23836069 -0.09361686 0.12393001
000250 78 ec 46 3e 4f 28 00 be 40 58 77 3e d7 2d 04 be
       0.19426143 -0.12515377 0.24154758 -0.12908112
000260 98 51 26 bd 00 23 b0 3e e1 68 2a 3e 17 d0 bf bb
       -0.040605158 0.34401703 0.1664157 -0.0058536637
000270 ea 77 4b 3e 8f 71 cc 3e bd f8 7d 3e d3 c4 08 bd
       0.19869962 0.39930388 0.24801917 -0.03339083
000280 19 60 66 be 31 18 48 3e 1b 05 83 3e b0 36 37 3e
       -0.22497596 0.19540478 0.25589833 0.17891955
000290 d5 78 81 3e 2f d0 80 3e e5 a7 1d be f7 e9 8a 3d
       0.252875 0.2515883 -0.15396078 0.067829065
0002a0 2f 21 42 3e 70 46 86 3e 6b 67 fe 3d 9f 3f 02 bb
       0.18957971 0.26225615 0.12422069 -0.0019874347
0002b0 40 f3 90 3c 50 ef 4c bd 0e 7b 0c be 6b 89 79 3e
       0.017694116 -0.050032914 -0.13718817 0.24368827
0002c0 81 42 af bd be f7 76 be d7 ff 92 3e c1 d3 cd 3c
       -0.085576065 -0.24117944 0.28710815 0.025125386
0002d0 a7 9c 12 3e 34 9c 35 3e 1c 16 1b 3e 7a 51 cd 3e
       0.1431757 0.17735368 0.15145153 0.40101224
0002e0 e0 62 a4 3c e4 89 44 3e 52 cb 16 bd 06 a5 08 3e
       0.020066679 0.19193226 -0.036814995 0.13344201
0002f0 a7 9e 81 3e 3f d1 4a 3e ee ad 9f 3c 51 8a 84 3e
       0.25316355 0.19806384 0.019492116 0.25886777
000300 6f 78 0b 3e e4 5d 55 3e 29 8f 30 bd 21 a9 c2 bc
       0.1362016 0.20836598 -0.04310528 -0.023762288
000310 1e da 7b 3e 3c a0 b8 3d ee 93 22 3e a5 e2 55 3e
       0.24594924 0.09014937 0.15876743 0.2088724
000320 a7 48 98 bc fe 09 c2 3e 8b 86 90 3c f7 fd 50 bd
       -0.01858933 0.37898248 0.01764228 -0.05102345
000330 5b 14 ab bc 1d e6 bd 3e 2e 0c 86 be 5b 47 61 bd
       -0.02088373 0.37089625 -0.26181167 -0.05499969
000340 11 04 14 3d a5 ab 47 3e c5 83 ac 3d cd 82 cd 3d
       0.03613669 0.19499071 0.084235705 0.10034714
000350 a4 18 9e 3e 69 a2 38 bd c1 fb 9a 3e 81 05 7b be
       0.30878174 -0.04507676 0.30270198 -0.24513818
000360 ac ed 60 bd fd b6 b5 3d 6a 32 06 3e e2 b4 a6 bc
       -0.05491416 0.08872793 0.13105169 -0.020349924
000370 85 4b 4d 3c b7 97 9d 3d 1a 22 49 3e 35 93 98 3e
       0.012530212 0.07694953 0.19641915 0.2979981
000380 7f 8f 8b be ac cd cf be 8c ec 83 3e c2 7f bf 3e
       -0.27257916 -0.40586603 0.25766408 0.3740216
000390 59 58 65 3e af 16 9c 3e 1d fe 77 3e ba 22 f4 3d
       0.22396983 0.30486056 0.2421803 0.11920686
0003a0 ed fc c0 3e 9e 37 c1 3d 01 c7 7e 3e a7 40 3f 3e
       0.37692967 0.09434436 0.24880601 0.18677007
0003b0 ba 62 a8 3d 4d 06 b2 be bc bf 59 3c bc 95 1e 3e
       0.082219556 -0.34770432 0.013290342 0.15486807
0003c0 53 4a ab bd 13 8a 28 3b e0 a7 bd 3c de 8c 01 3e
       -0.083637856 0.0025717064 0.023151338 0.12651393
0003d0 68 b2 87 be d5 93 80 3e 3a 7c a4 3e b0 aa 88 bb
       -0.265033 0.25112787 0.32126027 -0.004170738
0003e0 8a c5 b2 3c bf cd 67 bd 76 95 a9 bc 0b 4a 79 bd
       0.02182271 -0.0565927 -0.020701151 -0.06086163
0003f0 e7 f7 a9 3c 37 80 06 3f b8 61 b3 3e 6a 8c 46 3d
       0.020748092 0.5253939 0.3503549 0.048473753

network.layer4.weight f4 [26, 256]
000000 ae e4 4e 3e cd 1b aa 3e d0 78 2d bd 45 40 01 3e
       0.20204422 0.33224335 -0.042351544 0.12622173
000010 a2 25 72 3e 62 cd 2b bd 3a 39 00 3e 5c 5f 35 3e
       0.23647168 -0.041943915 0.1252183 0.17712158
000020 0c 7d 89 3e b9 bf a8 3e b6 e3 60 bd a8 70 6b 3f
       0.26853216 0.32958773 -0.054904662 0.91968775
000030 ba ff e9 3d 1e 64 47 bd db 2c a9 bd 55 f0 2f 3e
       0.11425729 -0.048679464 -0.082605086 0.17181523
000040 5e 36 5a 3e 27 78 d7 3e 2c 1e 77 3d 5c 7d 3b 3d
       0.21309802 0.42083856 0.06033151 0.04577385
000050 6c 8c 12 3e 9d 1d 0a 3f 6a 03 1d 3e a1 5b 00 3e
       0.14311379 0.53951436 0.15333334 0.12534954
000060 8f d7 93 3e d0 09 1c 3d 92 b6 2b 3e b5 d3 6a 3e
       0.28875396 0.038095295 0.16768864 0.22932322
000070 fb 3a 54 3f 09 1e 47 3e 75 5b 96 bd 3d 15 67 3e
       0.829025 0.19445051 -0.07341663 0.22566696
000080 59 9b 27 3e 76 28 4f 3e b5 a3 87 3f 44 96 5f 3e
       0.16367854 0.20230278 1.0596834 0.21834666
000090 e2 eb 77 3e a4 72 c8 bc 12 41 ea 3d 2b 93 4c 3e
       0.24211076 -0.024468727 0.114381924 0.19978015
0000a0 a2 d3 8a 3d c0 93 4b 3c db ec cc 3d c0 12 b0 3c
       0.06778647 0.012425363 0.10006114 0.021493316
0000b0 b4 1f 7a 3e cf 2b 39 be 50 f6 39 3e 77 36 df 3d
       0.24426156 -0.18083118 0.18160367 0.1089906
0000c0 e1 6b d2 3d 57 4f 02 3e 12 38 d0 3e bb 0e 94 3e
       0.102744825 0.12725578 0.40667778 0.28917488
0000d0 3e ee 94 3e b5 b6 0c 3e 1c ff 64 3e 6e d9 61 3e
       0.29088014 0.13741572 0.22362942 0.22055599
0000e0 aa 39 30 3e 1b 36 43 3e ad 51 a1 3d a2 9d 75 3e
       0.17209497 0.19063608 0.078769065 0.23985913
0000f0 88 60 2c 3e 35 96 96 3e 94 15 2b 3f 2f 7e 8c 3f
       0.16833699 0.29411474 0.668298 1.0976008
000100 41 f2 54 3e d0 77 92 3f ef 25 63 3e fd 25 4e 3e
       0.20795538 1.1442814 0.2218244 0.20131679
000110 1e 77 60 3d 9a 44 9d bc e3 08 0f 3e c2 de 8a 3e
       0.0548011 -0.01919775 0.13968234 0.27123076
000120 f2 2f 19 bd 8b c8 48 3e ef 48 4d 3e c4 46 df 3e
       -0.03739924 0.19607751 0.20047353 0.43608677
000130 70 ed 62 3f e6 2d 64 3e 6a 94 06 bd 55 4a 3c 3e
       0.8864355 0.22283134 -0.032856382 0.1838773
000140 ef e6 7b 3f 94 ef 8f 3e a8 5a f4 3d 93 cc c1 3d
       0.9839925 0.2811247 0.11931354 0.094628476
000150 c3 9a f3 3d 51 57 45 3f 0c c1 95 3f f4 34 1e 3d
       0.11894753 0.7708636 1.1699538 0.03862472
000160 5c ff 1c 3e 38 3e 2d 3e 8e 58 55 3e 5e 52 31 3e
       0.15331787 0.16918266 0.20834562 0.17316577
000170 87 17 1c 3d 00 40 30 3e 5d f0 6b 3e 6d 8b 31 3e
       0.038108375 0.17211914 0.2304091 0.17338343
000180 14 39 62 3e a9 60 01 3e 44 a8 b4 3c a4 e5 1a bd
       0.22092086 0.12634529 0.022052892 -0.03781666
000190 60 c0 29 bc 80 47 57 3e f6 27 34 3e 95 25 a9 3e
       -0.010360807 0.21023369 0.17593369 0.33036485
0001a0 cf cd 87 3e eb 1a 21 3e 33 d1 07 3d 36 17 00 3e
       0.26524207 0.15732925 0.033158492 0.12508854
0001b0 e4 e0 e7 3d 84 78 10 3e 5c ab e6 3d e0 f7 18 3e
       0.11322191 0.14108473 0.11263153 0.14938307
0001c0 c0 01 48 3d 77 15 4e 3e 52 27 41 3f 28 84 53 3d
       0.048829794 0.20125376 0.75450623 0.051639706
0001d0 a9 30 37 3e 67 5b 76 3e 55 09 64 3f b5 79 b7 3e
       0.17889656 0.24058305 0.8907674 0.35835043
0001e0 25 2b c9 3e 59 fd 2a 3e e0 f5 4c bc 3e ee c8 3d
       0.3929073 0.16698207 -0.012509793 0.09811066
0001f0 09 61 5a 3f 40 8e 85 3a 32 0d 4c 3e 84 83 a3 3e
       0.85304314 0.0010189489 0.19926909 0.31936276
000200 2d 87 1a 3e 08 f9 67 3d d0 dd 45 be 58 62 53 3f
       0.15090628 0.05663398 -0.19322896 0.82571936
000210 87 97 ee 3d 24 57 05 3e 5d 21 1e 3e 0c df 3c 3e
       0.11649995 0.13021523 0.15442415 0.1844446
000220 fc f3 0b bd 63 d7 e9 3d f3 8d 1b 3d 86 d2 3b 3e
       -0.03416823 0.11418035 0.03797717 0.18342027
000230 97 ce 5f 3e 1c 35 18 3e 85 bc ca 3d 27 91 7b 3d
       0.21856152 0.1486401 0.098992385 0.061417725
000240 54 5c 41 3e ab 45 0f 3e 4c 52 c2 bc 55 e1 8d 3e
       0.18882877 0.1399142 -0.023720883 0.27710977
000250 b9 0a 94 3e 63 7c 9c 3e 33 68 c6 3d bd c3 09 3e
       0.2891443 0.3056365 0.09687843 0.13453574
000260 c0 61 9e 3b b0 25 81 3e 77 87 47 3e f1 7a db 3c
       0.00483343 0.25224066 0.1948527 0.026792021
000270 19 53 7e 3e b1 1d 71 3e 45 66 01 3e c0 47 a4 ba
       0.24836387 0.23546483 0.12636669 -0.001253359
000280 29 74 93 3d 3a 02 87 3e 6f 73 1d 3e cd 7f 7d 3e
       0.0719989 0.26368886 0.15376066 0.24755783
000290 8d d2 46 3e 38 c5 57 3e 97 a0 1e 3e fb ab 0d bd
       0.19416256 0.21071327 0.15490948 -0.03458784
0002a0 18 13 65 3e b9 c7 00 3e 83 55 2d 3e 80 fd 7b 3d
       0.22370565 0.12576188 0.16927151 0.061521053
0002b0 25 bf ca 3e 30 20 22 bc 38 15 e1 3d f7 70 85 3e
       0.39598957 -0.009895369 0.10990375 0.26062748
0002c0 7e 83 7d 3d 45 34 f2 3d af a1 5f 3e c6 f2 80 3f
       0.06189298 0.11826376 0.21839021 1.0074089
0002d0 9e 83 23 3e f5 0c 10 3e d1 c6 23 3e 19 b4 35 3e
       0.15968177 0.14067443 0.15993811 0.17744483
0002e0 7d 1e a0 3e 99 34 2d 3e cd e7 a0 3e e4 4d 03 3e
       0.3127326 0.16914596 0.3142685 0.12822682
0002f0 89 8b 14 3e 57 55 53 3e ce ac d9 3d 1d 4c 46 3e
       0.14506353 0.20638023 0.10628663 0.19364972
000300 59 70 18 3e 95 b9 44 3e ec 4c 87 bc 9e 11 62 3d
       0.14886607 0.19211419 -0.016516171 0.055192582
000310 58 1d 5b 3e 41 25 ce 3d 79 cb 7c 3e 4c 1c 73 3e
       0.21397913 0.10065699 0.24686994 0.23741263
000320 f4 51 4c 3d 44 db 4e 3e 3a a8 2b 3d 20 e6 41 3c
       0.049882844 0.2020083 0.04190848 0.011834651
000330 fa 15 ef 3d 33 d7 5e 3e 28 38 db 3d f0 03 1c 3e
       0.116741136 0.2176178 0.1070407 0.15235877
000340 ca 90 10 3e 51 85 62 3e 0f 0c 87 3e 2d 9d 35 3e
       0.14117733 0.22121169 0.26376387 0.17735739
000350 04 89 8b 3e b2 1e 79 3d b4 b0 01 3e cf 45 d2 3e
       0.27252972 0.06082029 0.12665063 0.41068885
000360 34 b0 41 3d 0c 71 9a 3e 2d 9b 80 3e 43 46 54 3e
       0.04728718 0.30164373 0.2511839 0.20729928
000370 49 2b fb 3d b4 d3 1a 3f f9 13 89 3e d4 59 80 3e
       0.12264115 0.60479283 0.2677305 0.25068533
000380 a1 5b 3b 3e 2e 0f da bc 03 30 61 3e 37 5a 68 3e
       0.18296672 -0.026618566 0.21990971 0.22690664
000390 07 b6 45 3e 3c d2 1c 3e 47 16 5a 3e 85 6d 4d 3e
       0.19307719 0.15314573 0.2129756 0.2006131
0003a0 18 bd 7a 3e 2d 05 1e 3e 4a 8d 1c 3e 22 eb 7f 3e
       0.24486196 0.15431662 0.15288273 0.2499204
0003b0 fd 4b 68 3e 04 32 82 3e 13 c4 68 3e 3f d2 3b 3e
       0.22685237 0.25428784 0.22731046 0.18341921
0003c0 80 f6 80 3a b5 65 80 3e c0 9e b3 3d c9 42 84 3f
       0.0009839088 0.25077596 0.087705135 1.0332881
0003d0 e4 a1 c0 3e f5 a4 27 3e 37 90 5d 3e 33 07 0a 3e
       0.37623513 0.1637152 0.21637045 0.13479309
0003e0 fa 68 e0 3d 58 53 01 bd c4 8c 81 bc 9e 90 2e bd
       0.10957523 -0.031573623 -0.015814193 -0.042618386
0003f0 32 cd 01 3e 77 2c a4 3e 96 66 a5 3e 4f f8 29 3f
       0.12675932 0.32065174 0.3230483 0.66394514

network.layer4.bias f4 [26]
000000 71 70 9a 3d d3 c8 21 bc fa f5 e1 3e 9f 12 78 bd
       0.07540978 -0.00987454 0.44132978 -0.060564633
000010 49 5e 58 3d b0 43 ad 3e 0a 62 61 be ef ca 8e 3e
       0.052824292 0.33840704 -0.22010055 0.278892
000020 3e a2 8d 3c 55 e1 2d bd 44 0b f5 3d 1d 4c 17 3e
       0.017289277 -0.04245122 0.11965039 0.14775129
000030 64 03 ef bd 55 e2 33 3f 42 ce 96 be 08 28 b7 bb
       -0.116705686 0.7026723 -0.29454237 -0.005589489
000040 73 11 25 3e 19 6c 19 bd 34 76 97 3d 07 09 fe 3d
       0.16119938 -0.037456606 0.07395592 0.124040656
000050 f7 fa 3b bd 6e 70 34 3e 97 d5 39 3e ea 10 9f bd
       -0.045893636 0.17621014 0.18147884 -0.07766898
000060 f5 f6 be 3e 5e 8e a2 3e
       0.37297788 0.31749243
