DDQN_panda_env2/runs/results_9/best-model-loss.pt (torch, 162903 bytes, 6 tensors)

network.layer1.weight f4 [128, 3]
0	0xbf0523ac	-0.52007556
1	0x3ebc876f	0.36822078
2	0x3d9f1b37	0.07768863
3	0xbf531431	-0.82452685
4	0x3eadd18e	0.3394894
5	0x3ea303a7	0.31838724
6	0xbf8cfbed	-1.1014382
7	0x3f1db314	0.61601377
8	0x3f1504ef	0.58210653
9	0xbf173971	-0.59072024
10	0xbedbd59b	-0.42936406
11	0x3e483a73	0.19553547
12	0xbf58cde2	-0.8468915
13	0xbe810501	-0.2519913
14	0xbe04f3fb	-0.12983696
15	0xbf9056d4	-1.1276498
16	0x3e10e178	0.1414851
17	0x3c04f031	0.008113907
18	0xbe2e781e	-0.17038009
19	0x3f11c967	0.5694794
20	0x3ee8a9ce	0.4544205
21	0xbee9441b	-0.45559773
22	0xbf77b293	-0.9675686
23	0xbdb3e05a	-0.08783026
24	0x3f8c636d	1.0967842
25	0x3d747d4c	0.059689805
26	0x3e1bc2cc	0.15211028
27	0x3d818b76	0.06325428
28	0xbf79f9ac	-0.97646594
29	0xbee5b6f6	-0.4486615
30	0xbf1116eb	-0.56675595
31	0x3e5e9312	0.2173579
32	0x3f2a3907	0.66493267
33	0xbea7749a	-0.32706147
34	0xbe845d49	-0.2585242
35	0x3f2b6777	0.6695475
36	0xbec13251	-0.377337
37	0xbf08c4e4	-0.5342543
38	0xbf113aef	-0.5673055
39	0xbf35b242	-0.70975125
40	0x3f04eddf	0.5192546
41	0x3ecd9489	0.40152386
42	0xbf87b6d0	-1.0602665
43	0xbdbe1d67	-0.09282952
44	0xbd013fd8	-0.031555027
45	0xbf01ba9a	-0.50675356
46	0xbeffaeeb	-0.4993814
47	0xbf18e56c	-0.5972507
48	0x3e8ebbfe	0.27877802
49	0xbe5f3c0c	-0.2180025
50	0xbf7f6f6d	-0.997794
51	0xbf8a2b72	-1.0794508
52	0xbf7e80b0	-0.9941511
53	0xbebbbd5b	-0.36667904
54	0xbf794322	-0.9736806
55	0xbf220bfd	-0.6329954
56	0xbc2ca4de	-0.010537354
57	0xbf1c848f	-0.6113977
58	0xbf32d358	-0.69853735
59	0xbebdb1ef	-0.37049815
60	0xbefdf078	-0.49597526
61	0xbea1f812	-0.31634575
62	0x3eaf05ac	0.34184015
63	0xbf548924	-0.8302176
64	0x3d36cc75	0.04462858
65	0x3d85b14b	0.065279566
66	0xbd3203eb	-0.043460768
67	0x3e80262d	0.25029126
68	0xbedca21c	-0.4309243
69	0xbfabedf7	-1.3431996
70	0x3eedeb39	0.46468523
71	0x3de4b531	0.11167372
72	0xbf0d02ae	-0.55082214
73	0x3f18afed	0.5964344
74	0xbe1fa789	-0.15591253
75	0xbe944d23	-0.289651
76	0xbe7fecf0	-0.24992728
77	0x3f1a8452	0.60358155
78	0xbfa3c63d	-1.2794873
79	0x3eb25d7d	0.3483695
80	0x3e273b9f	0.16331337
81	0xbf84e0a8	-1.038106
82	0x3d6c011c	0.057618245
83	0x3f000871	0.5001288
84	0xbf1cbf30	-0.6122923
85	0x3f227743	0.6346323
86	0xbe2acbde	-0.16679332
87	0xbee2e59d	-0.44315806
88	0xbf818d4d	-1.0121247
89	0xbd6c79b7	-0.057733264
90	0xbf4c38b6	-0.79774034
91	0x3e51c7b1	0.20486332
92	0x3ea4053f	0.32035252
93	0xbf4312fe	-0.76200855
94	0xbeedad14	-0.4642111
95	0xbe35aeb9	-0.17742433
96	0xbf866a53	-1.0501198
97	0xbed94fee	-0.42443794
98	0x3e10e957	0.14151512
99	0xbf7d4809	-0.9893804
100	0xbe66ff9a	-0.22558442
101	0x3eb9e5f1	0.36308244
102	0xbe869bdb	-0.26290783
103	0x3eb54ac6	0.3540861
104	0xbf072226	-0.5278648
105	0xbf151d9d	-0.5824831
106	0x3f24ee01	0.64425665
107	0x3f0688c4	0.5255244
108	0xbf7fecd0	-0.9997072
109	0xbe3c7baf	-0.18406557
110	0x3e835d64	0.2565719
111	0xbee75456	-0.4518153
112	0x3f4bf403	0.7966921
113	0xbde8c19c	-0.11365053
114	0xbf72e402	-0.9487916
115	0xbea0a4ec	-0.31375825
116	0xbf020aa2	-0.50797474
117	0x3f0db769	0.55357987
118	0xbf44807d	-0.7675856
119	0x3f442e6b	0.7663333
120	0xbefd88ff	-0.49518582
121	0x3e641e81	0.22277261
122	0x3da7df63	0.081969045
123	0x3f58f0f8	0.8474269
124	0x3dc65491	0.096840985
125	0x3d4b6f9b	0.049666982
126	0xbf4641fe	-0.77444446
127	0xbe8ba50c	-0.27274358
128	0x3f1a106d	0.60181314
129	0xbeb929e7	-0.3616478
130	0xbe56cf7e	-0.2097759
131	0x3ec0141c	0.37515342
132	0xbf78cdfa	-0.97189295
133	0x3d360cb9	0.044445727
134	0x3eaf1565	0.3419601
135	0xbee8a733	-0.45440063
136	0xbdc62e7b	-0.09676834
137	0x3eac9444	0.33706868
138	0xbf7c59b4	-0.98574376
139	0xbf1ac293	-0.60453147
140	0xbedb1350	-0.42788172
141	0xbe6b9cc9	-0.23009028
142	0x3edf7f06	0.436516
143	0x3eda47bd	0.42632857
144	0xbf8b3fb9	-1.0878822
145	0xbf1738bd	-0.5907095
146	0x3ea540d8	0.32276034
147	0xbf466f44	-0.7751353
148	0x3f1fa685	0.62363464
149	0x3f0aceff	0.542221
150	0xbe7fcdd5	-0.24980862
151	0xbea24a36	-0.31697243
152	0x3f2831fc	0.6570127
153	0xbf8c7f04	-1.0976262
154	0x3ee7499e	0.45173353
155	0x3f0805f0	0.5313406
156	0xbed15a90	-0.40889406
157	0xbda640f5	-0.08117858
158	0x3ef51821	0.4786997
159	0xbf684f1d	-0.9074572
160	0x3e1fa000	0.15588379
161	0x3f08e83c	0.5347936
162	0xbe235542	-0.15950492
163	0x3d81804e	0.063233
164	0x3f104a9a	0.5636383
165	0xbeeaa7ef	-0.45831248
166	0xbf28d960	-0.6595669
167	0x3f0ee150	0.5581255
168	0xbecf7026	-0.4051525
169	0x3e43a2b9	0.19105043
170	0x3eca6f1d	0.39537898
171	0xbf41c948	-0.75697756
172	0x3f4e5765	0.80602103
173	0xbd6c06e4	-0.05762376
174	0xbf94ffd6	-1.1640575
175	0x3ebea632	0.37236172
176	0x3edac47e	0.42728037
177	0xbf9a0231	-1.2031919
178	0x3e749cd5	0.23887952
179	0x3d5e1bc8	0.054225713
180	0xbf47f20e	-0.7810372
181	0xbe28171a	-0.16415063
182	0x3ec9540c	0.39321935
183	0x3d0446d2	0.032294102
184	0xbdb5fcaa	-0.088860825
185	0xbe0c61b1	-0.13709141
186	0xbeeec9b1	-0.46638253
187	0x3fb3ad14	1.4037194
188	0x3eaeb74b	0.34124216
189	0xbf39d204	-0.72586083
190	0xbd17ab5c	-0.037028655
191	0x3f1dd553	0.6165363
192	0x3e95dbd3	0.29269275
193	0x3dede500	0.11615944
194	0xbc827c55	-0.015928427
195	0xbe079fb4	-0.13244516
196	0x3e97056b	0.2949632
197	0x3f2b172d	0.6683224
198	0x3f88d150	1.0688877
199	0xbed9f6e8	-0.42571187
200	0x3cc28c2c	0.02374848
201	0xbe1ce905	-0.15323265
202	0xbeffabe9	-0.49935845
203	0xbc40ecf1	-0.011775241
204	0xbd918bab	-0.07106718
205	0xbf603165	-0.8757537
206	0xbf02653c	-0.5093572
207	0xbf6b776d	-0.91979104
208	0xbddd5e63	-0.108090185
209	0x3f108e4a	0.56467116
210	0xbf17b4c3	-0.59260195
211	0x3eefb622	0.46818644
212	0x3f054f56	0.5207418
213	0x3f1ff244	0.62479043
214	0xbf0d2150	-0.55128956
215	0x3f22e69c	0.6363313
216	0xbf3b0935	-0.73060924
217	0xbf230716	-0.6368269
218	0x3eb11e2a	0.34593326
219	0xbdb9de6a	-0.09075625
220	0x3e9e19bb	0.30879006
221	0xbe361707	-0.17782222
222	0xbf2a1dc8	-0.6645169
223	0xbe545d12	-0.20738629
224	0x3f026939	0.5094181
225	0xbf736e60	-0.95090294
226	0x3f0b96ae	0.54526794
227	0x3edaaa4b	0.42708048
228	0x3f9eec72	1.2415907
229	0xbebfe49e	-0.3747911
230	0x3e322739	0.17397775
231	0xbf3641d8	-0.7119422
232	0xbf35445f	-0.7080745
233	0xbed118dc	-0.4083928
234	0xbf27c5b3	-0.6553604
235	0xbe06f67d	-0.13179965
236	0xbe6d2f3e	-0.23162553
237	0xbf7ba13b	-0.98292893
238	0x3eadb5a2	0.33927637
239	0x3edd57f1	0.43231156
240	0x3ebb9ea1	0.36644462
241	0x3f27d45a	0.655584
242	0xbea749ae	-0.326734
243	0xbbef4eb3	-0.007303083
244	0xbe916a1f	-0.28401276
245	0x3ec31ded	0.3810877
246	0x3f05384d	0.52039033
247	0xbefcaa98	-0.49348903
248	0x3f220477	0.6328806
249	0x3ef30748	0.47466493
250	0xbe6318d2	-0.22177437
251	0xbf44a6d1	-0.7681704
252	0xbf80d635	-1.0065371
253	0xbe5edaf6	-0.21763214
254	0xbd73a0d0	-0.059479535
255	0xbe593468	-0.21211398

network.layer1.bias f4 [128]
0	0x3f62c96c	0.88588595
1	0xbe3d934e	-0.18513224
2	0x3dcab8b5	0.09898511
3	0x3f2ba880	0.67053986
4	0x3c744241	0.014908374
5	0x3ddd6abe	0.10811375
6	0xbe301b8b	-0.17198007
7	0xbd5411b1	-0.051774684
8	0x3f4f17a9	0.8089548
9	0x3e350bbc	0.17680258
10	0x3f4083c1	0.7520104
11	0x3f288aa0	0.65836525
12	0xbdba5863	-0.0909889
13	0x3d4a6897	0.04941615
14	0x3d0b6464	0.034031287
15	0xbd544803	-0.05182649
16	0xbe908bee	-0.28231758
17	0x3ed986d1	0.4248567
18	0x3f4cc705	0.7999118
19	0x3f6303c0	0.886776
20	0xbd8e1d08	-0.06939131
21	0x3f2989b0	0.6622572
22	0x3e419067	0.18902741
23	0xbc5da647	-0.013528413
24	0x3f34b11e	0.7058276
25	0x3f6bbb4c	0.9208267
26	0xbe55ad4e	-0.20866892
27	0x3f19cd25	0.6007865
28	0x3f4180d7	0.7558722
29	0xbe120a0c	-0.14261645
30	0x3f28ec46	0.65985525
31	0x3ecd8381	0.40139392
32	0xbe7e0ed4	-0.24810344
33	0x3e76b94b	0.24094121
34	0xbe442dd6	-0.1915811
35	0xbead59e7	-0.33857653
36	0x3f014037	0.5048861
37	0x3d9c1e8a	0.07623012
38	0x3f4ee16a	0.80812705
39	0xbe93264c	-0.28740156
40	0x3f12fbfd	0.57415754
41	0x3f5bead1	0.85905176
42	0x3e024328	0.1272093
43	0x3db30f50	0.08743155
44	0x3f2c892a	0.67396796
45	0x3f5b42bf	0.8564872
46	0x3f48ea99	0.7848297
47	0x3f4fac55	0.8112233
48	0x3d27b18e	0.040940814
49	0xbe84db24	-0.2594844
50	0x3e996225	0.2995769
51	0x3f659871	0.8968573
52	0x3f3a9a94	0.7289212
53	0x3f39f303	0.7263643
54	0x3ecfa393	0.40554485
55	0xbca6d2a4	-0.020364113
56	0x3dd03a38	0.10167354
57	0x3f4bb744	0.79576516
58	0xbec2b573	-0.3802906
59	0xbb4d002f	-0.0031280627
60	0x3d3c6254	0.04599221
61	0xbefa210d	-0.4885334
62	0x3e333d47	0.17503844
63	0x3f5563ba	0.83355296
64	0xbf032b53	-0.5123798
65	0x3f137aee	0.5760945
66	0x3f06405e	0.52441967
67	0x3f649d66	0.8930267
68	0x3f91fe13	1.1405662
69	0x3f69eb4b	0.91374654
70	0x3f2f773b	0.68541306
71	0x3e074fbf	0.13214014
72	0x3f73d941	0.9525338
73	0xbe1121c8	-0.14173043
74	0x3e86948e	0.26285213
75	0xbc0e60d8	-0.008690082
76	0x3ebd4033	0.36963043
77	0x3f70ec1f	0.9411029
78	0x3e7f02c3	0.24903397
79	0x3f3b4923	0.7315847
80	0xbc2c13db	-0.010502781
81	0x3f1597f7	0.58435005
82	0x3d1ef7f4	0.038810685
83	0xbe1f2621	-0.15541889
84	0xbe0e80d2	-0.13916329
85	0xbb015599	-0.0019734858
86	0x3d176210	0.036958754
87	0x3f0d730f	0.5525369
88	0x3f4ce867	0.8004212
89	0xbeb24273	-0.34816322
90	0x3e0f8601	0.14015962
91	0x3f8289d8	1.0198317
92	0x3f6fdef9	0.93699604
93	0x3de14d93	0.11001124
94	0x3eccbe92	0.39989144
95	0xbdc189ec	-0.09450135
96	0xbdd623b0	-0.104560256
97	0x3e31a23a	0.17347041
98	0x3f108128	0.56447077
99	0x3f25d742	0.6478158
100	0x3f20ab53	0.6276142
101	0xbe30441d	-0.17213483
102	0xbe51b72f	-0.20480035
103	0x3f7371c7	0.95095485
104	0x3ea74e4b	0.3267692
105	0x3f3ee283	0.7456438
106	0x3ef28a7f	0.4737129
107	0x3f8a5879	1.080825
108	0xbe05d06d	-0.1306779
109	0x3f3b45eb	0.7315356
110	0x3e7a3f50	0.24438214
111	0x3e19128c	0.14948481
112	0x3f67c7d7	0.90539306
113	0x3f09279b	0.5357606
114	0x3e4c672d	0.19961233
115	0xbd04ea81	-0.032450203
116	0x3f18e96b	0.5973117
117	0x3f043a64	0.516516
118	0xbdee7cc6	-0.116448924
119	0x3f5e9411	0.8694468
120	0x3f1ecf76	0.6203531
121	0xbe19a012	-0.15002468
122	0xbc97b3bf	-0.018518327
123	0x3aeac801	0.0017912389
124	0x3d5691b6	0.052385055
125	0x3f5fbd2c	0.8739803
126	0x3e9a42d9	0.30129126
127	0x3e0a4539	0.13502969

network.layer2.weight f4 [256, 128]
0	0x3e376f9b	0.17913668
1	0x3e55849d	0.20851369
2	0x3e17e3eb	0.14833038
3	0x3db478de	0.08812116
4	0x3e6fa100	0.2340126
5	0x3eca72d7	0.3954074
6	0xbd1a54aa	-0.0376784
7	0x3e8ebf97	0.27880546
8	0xbf07bc54	-0.5302174
9	0x3ebf1b92	0.37325722
10	0xbc34e67d	-0.011041281
11	0x3de6762c	0.11253008
12	0x3ee75417	0.45181343
13	0x3e45b116	0.19305834
14	0x3e38822e	0.1801841
15	0x3f333db1	0.7001601
16	0x3e5c6bf5	0.21525557
17	0x3ef2da77	0.474323
18	0x3e26574b	0.16244237
19	0x3efd40d1	0.49463513
20	0x3d3f2657	0.046667423
21	0x3e5fa11b	0.218388
22	0xbe99efcb	-0.3006576
23	0x3f21df85	0.6323169
24	0x3edb9f2f	0.42894885
25	0x3c93f230	0.01805982
26	0x3ed8a81d	0.4231576
27	0x3daac13c	0.08337638
28	0x3f4bdc8f	0.7963342
29	0x3e7c2a29	0.24625458
30	0x3dd1da04	0.10246661
31	0x3ea1be07	0.31590292
32	0x3d92d2bd	0.071691014
33	0x3e190baa	0.14945856
34	0xbde559bf	-0.11198758
35	0xbd175482	-0.036945827
36	0x3df9be7c	0.12194535
37	0xbef21610	-0.47282457
38	0x3f14a57c	0.5806501
39	0xbdb60305	-0.08887295
40	0x3e115b55	0.14194997
41	0xbf0d8169	-0.5527559
42	0xbb1dd0b5	-0.0024080698
43	0x3d36f74f	0.044669446
44	0x3e02a32d	0.12757559
45	0x3e2cecde	0.16887233
46	0x3ef519c3	0.47871217
47	0x3e34c58a	0.1765348
48	0x3e17c6dc	0.14821953
49	0x3e14c088	0.1452657
50	0x3c116a95	0.008875509
51	0x3e0ba73e	0.13638017
52	0x3d99a06f	0.075013034
53	0x3d638ec5	0.055556078
54	0xbd8283e5	-0.06372813
55	0xbdc0fdc2	-0.094234005
56	0x3d491016	0.049087606
57	0x3f877e5f	1.058544
58	0x3dcc6ed7	0.099820785
59	0x3f4ec6eb	0.80772275
60	0x3d5b324f	0.053514775
61	0x3d31d73c	0.043418154
62	0x3f820346	1.0157249
63	0x3e01aa97	0.12662731
64	0x3d96b5d7	0.07358902
65	0xbca6c40d	-0.020357156
66	0xbeee77cf	-0.46575782
67	0x3d8a9a2c	0.06767687
68	0x3f0bf484	0.54669976
69	0x3db994c4	0.09061578
70	0x3e1861d0	0.14881063
71	0x3c2a1c2e	0.010382695
72	0x3cfe7471	0.031061383
73	0xbe2472dd	-0.16059442
74	0x3d74d5ee	0.05977433
75	0x3e5478f7	0.2074927
76	0xbf1bf515	-0.6092084
77	0x3ee7ea90	0.45296144
78	0x3e655239	0.22394647
79	0x3e462f5d	0.19354005
80	0xbe775901	-0.24155046
81	0x3d67ace6	0.056561373
82	0xbcae6f7b	-0.021293392
83	0x3ec9f713	0.39446315
84	0x3e47e3f9	0.19520558
85	0xbc6a4df9	-0.014300817
86	0x3eca4c51	0.3951135
87	0x3eb6b0f6	0.35681885
88	0x3dbdb2cb	0.09262618
89	0xbd984d85	-0.07436661
90	0x3d4660bd	0.0484321
91	0x3f3b54be	0.7317618
92	0x3ec3eade	0.38265127
93	0x3dd4eeea	0.10397132
94	0x3f6b46a2	0.9190465
95	0x3f1cac37	0.6120028
96	0x3e91399c	0.28364265
97	0x3e2d3683	0.16915326
98	0x3e38623f	0.18006228
99	0x3e98b229	0.29823425
100	0x3e0da2e5	0.1383167
101	0x3e702677	0.23452173
102	0x3e3f7575	0.1869715
103	0x3e0b4818	0.1360172
104	0x3f317685	0.6932147
105	0x3b4bdbd7	0.0031106377
106	0x3e9a91e7	0.3018944
107	0x3dd72765	0.10505561
108	0xbe0d5699	-0.13802566
109	0x3dabacd6	0.08382575
110	0xbe99feb4	-0.30077136
111	0x3ca3f803	0.020015722
112	0x3d9bb454	0.07602754
113	0x3c792c62	0.015208336
114	0xbed3d3e7	-0.41372606
115	0x3cfe4a40	0.031041265
116	0x3e2ba1ca	0.16760936
117	0x3d11892a	0.0355312
118	0xbd23fdc2	-0.040036924
119	0x3eef401b	0.46728596
120	0x3d3967b3	0.04526491
121	0x3e0dbc16	0.1384128
122	0x3eabfa4b	0.33589396
123	0x3ed45556	0.41471356
124	0x3d75fb4e	0.060054116
125	0xbef5df5b	-0.4802197
126	0xbc999555	-0.018747965
127	0x3c88e946	0.016712796
128	0x3de8895b	0.113543235
129	0x3ddb43c3	0.10706284
130	0xba5e9773	-0.00084911956
131	0x3d3fcf45	0.046828527
132	0x3eb1ede4	0.3475181
133	0x3f00f7aa	0.50377905
134	0xbda0a494	-0.07843891
135	0x3e87b60b	0.26506075
136	0xbee3bbf7	-0.44479343
137	0x3eff0849	0.4981101
138	0xbc1e4e20	-0.009662181
139	0xbc5d164a	-0.013494084
140	0x3f0c7734	0.5486939
141	0x3c8cc73f	0.017184852
142	0x3eb48d8e	0.35264248
143	0x3f41e182	0.7573472
144	0x3e551111	0.20807292
145	0x3ef0ee6c	0.470569
146	0x3e9c06c7	0.3047392
147	0x3f1a2ae9	0.60221726
148	0xbced8ba5	-0.028997252
149	0x3e28ad8c	0.16472453
150	0xbdfe3b82	-0.12413694
151	0x3f119868	0.5687318
152	0x3eb7c7c5	0.358946
153	0xbcc8fc30	-0.024534315
154	0x3e92884c	0.2861961
155	0x3dfff067	0.12497025
156	0x3f5a32bd	0.8523367
157	0x3ebdaaeb	0.37044463
158	0x3d8c860e	0.068615064
159	0x3eb3f9c9	0.35151508
160	0x3debaf3e	0.11508034
161	0x3e1225bb	0.14272206
162	0xbc800eec	-0.015632115
163	0x3cf18986	0.029484522
164	0x3e5d1c68	0.21592867
165	0xbe90dc04	-0.2829286
166	0x3f326a4b	0.6969344
167	0x3bdb5a00	0.0066940784
168	0x3d8c93bf	0.06864118
169	0xbed236e0	-0.4105749
170	0x3df99968	0.12187463
171	0xbcd9c492	-0.02658299
172	0x3d6a9617	0.057272043
173	0x3e0e3502	0.13887408
174	0x3f1087fe	0.5645751
175	0x3dc50a2b	0.0962108
176	0x3debe22b	0.115177475
177	0x3da8f665	0.08250121
178	0x3d6abf79	0.05731151
179	0xbaa20f3f	-0.0012364163
180	0x3d1dc283	0.03851558
181	0x3e000f1a	0.12505761
182	0xbd2a0f72	-0.041518636
183	0x3d9d9666	0.07694702
184	0x3ce25a09	0.027630823
185	0x3f815e7a	1.0106957
186	0x3daa5434	0.08316842
187	0x3f5b7c9e	0.85737026
188	0x3cbaf80b	0.022823354
189	0xbd276079	-0.040863488
190	0x3f3ca0e6	0.7368301
191	0x3d393b39	0.045222495
192	0xbcd5fe26	-0.026122164
193	0xbcb1ddbe	-0.02171218
194	0xbea29bd5	-0.31759515
195	0x3d1b4395	0.037906248
196	0x3f1a1870	0.6019354
197	0x3c3a491a	0.011369968
198	0x3dc3726f	0.09543311
199	0xbd3245f5	-0.043523747
200	0x3e016d6b	0.12639396
201	0xbd6610e2	-0.056168444
202	0x3df6614b	0.12030276
203	0x3d6e7320	0.05821526
204	0xbece3f46	-0.4028265
205	0x3f166684	0.58750176
206	0x3ea28849	0.31744602
207	0x3db65870	0.08903587
208	0xbd1193fd	-0.035541523
209	0x3d86f0cf	0.06588899
210	0xbd13c8dc	-0.036080226
211	0x3eeb44cd	0.45950928
212	0x3ecc66b2	0.399221
213	0x3e3d8dde	0.1851115
214	0x3e327480	0.17427254
215	0x3f0e03eb	0.5547473
216	0x3dd1afdc	0.10238621
217	0x3d4104c4	0.047123685
218	0x3e7f181f	0.24911545
219	0x3f39caac	0.7257488
220	0x3e3087a2	0.1723924
221	0x3cba1fc1	0.02272022
222	0x3f373a1b	0.71573037
223	0x3f35ed5a	0.71065295
224	0x3ed1014d	0.40821305
225	0x3dc1de43	0.09466221
226	0x3e1cc12f	0.15308069
227	0x3e3b89f4	0.18314344
228	0x3c8d311e	0.017235335
229	0x3ed83078	0.4222448
230	0x3e6a2688	0.22866261
231	0x3d8210af	0.063508384
232	0x3f3d1b5a	0.7386986
233	0x3d97279a	0.073806
234	0x3eae4146	0.34034175
235	0x3d8b3531	0.06797255
236	0xbd7b5592	-0.061360903
237	0x3d21499b	0.039376836
238	0xbed6b6d8	-0.41936374
239	0x3e04e18b	0.12976663
240	0x3dc3091b	0.09523221
241	0x3c266278	0.010155313
242	0xbe8f0a9c	-0.27937782
243	0xbdc24885	-0.09486488
244	0x3d914a61	0.07094265
245	0x3db6e6e0	0.08930755
246	0x3d6c52ad	0.057696033
247	0x3ed16eb7	0.4090478
248	0xbcd7e993	-0.026356494
249	0x3c207806	0.009794241
250	0x3ec7de48	0.39036775
251	0x3f06c537	0.52644676
252	0x3e0dc474	0.13844472
253	0xbf02eaab	-0.51139325
254	0x3e23048d	0.15919705
255	0x3e5e2f54	0.21697742

network.layer2.bias f4 [256]
0	0x3e5fb8a8	0.21847785
1	0x3e0c725b	0.13715498
2	0x3cbfab64	0.023397155
3	0x3ebce24e	0.36891407
4	0x3eec9d70	0.46213865
5	0x3e423fb3	0.18969612
6	0x3eba929f	0.36439988
7	0x3f2bfd71	0.67183596
8	0x3d9b89ad	0.07594619
9	0x3e60244a	0.21888843
10	0x3e5d2b85	0.21598633
11	0x3e45643e	0.1927652
12	0x3e752de3	0.23943286
13	0x3d8f1e67	0.06988221
14	0x3bd0bdf3	0.0063703
15	0x3e31c802	0.17361453
16	0x3ec3ad2f	0.38218066
17	0x3e336f9b	0.17523043
18	0x3e87f57a	0.2655447
19	0x3e52a94e	0.20572397
20	0x3e602535	0.21889193
21	0x3dab2760	0.083571196
22	0xbd61714e	-0.055039696
23	0x3e60e1ae	0.2196109
24	0xbd88d4b4	-0.06681195
25	0x3cc2730f	0.023736505
26	0xbdaf1570	-0.08549011
27	0x3ea6bbbb	0.32565102
28	0x3ea5af03	0.32360086
29	0x3e80b131	0.25135186
30	0x3e78c890	0.24295259
31	0x3e8d2735	0.27568975
32	0x3e57b017	0.21063267
33	0x3e873ef8	0.2641523
34	0x3e78b28c	0.2428686
35	0x3e87a8fc	0.26496112
36	0xbda64ad3	-0.0811974
37	0x3e832f9e	0.25622267
38	0x3e9b5151	0.30335477
39	0x3eb391f6	0.35072297
40	0x3e7191f4	0.23590833
41	0x3dceb264	0.10092619
42	0x3e0fa29b	0.14026873
43	0xbebb8171	-0.36622193
44	0x3e9ee557	0.31034347
45	0x3e829fa3	0.25512418
46	0x3eb284a3	0.3486682
47	0x3e863882	0.26214987
48	0x3e66a0f4	0.22522336
49	0x3e84d80d	0.25946084
50	0xbd3bc797	-0.04584464
51	0x3eadda55	0.33955637
52	0xbc854d65	-0.016272256
53	0x3ea8c156	0.32960004
54	0xbca837dd	-0.02053445
55	0x3eb31b0e	0.3498158
56	0x3ed41854	0.4142481
57	0x3e23a73e	0.15981767
58	0x3d1ea7e9	0.03873435
59	0x3e70d5b4	0.23519021
60	0x3f1fa4c1	0.6236077
61	0x3e975a85	0.29561248
62	0xbd5a4610	-0.053289473
63	0x3e5a5c9c	0.2132439
64	0x3db135b8	0.08652824
65	0x3b28d0ae	0.0025759148
66	0x3eddcfe7	0.4332268
67	0x3e611c1e	0.21983382
68	0xbda78bed	-0.081809856
69	0x3e8bb871	0.27289155
70	0x3e843968	0.25825047
71	0x3ec2187f	0.37909314
72	0x3eb9e482	0.3630715
73	0x3e9eed4d	0.3104042
74	0x3d50da47	0.050989415
75	0x3e8c2085	0.2736856
76	0x3e3b74cf	0.18306278
77	0x3e8edbd9	0.27902105
78	0x3e446281	0.19178201
79	0xbdac23ab	-0.084052406
80	0x3e689c4f	0.22715877
81	0x3e8b8c77	0.27255604
82	0x3e0e7523	0.13911872
83	0x3eb93887	0.3617594
84	0x3e64c7e8	0.22341883
85	0x3e4e43d8	0.20143068
86	0x3e8c5be1	0.27413848
87	0x3ecb5da4	0.3971988
88	0x3d7f0156	0.062257133
89	0x3dd79f14	0.105283886
90	0x3e0a5a31	0.13510968
91	0x3e8c35a1	0.27384666
92	0x3e7f1f7f	0.24914359
93	0x3ec70f80	0.38879013
94	0x3e31fab0	0.17380786
95	0x3ea7bbef	0.3276057
96	0x3e8a7e6e	0.27049583
97	0x3ea00150	0.31251
98	0x3e3534d3	0.17695932
99	0x3eb8b345	0.36074272
100	0x3d3ee087	0.046600845
101	0x3d7d16ff	0.06178951
102	0x3e119c00	0.14219666
103	0xbdb178d3	-0.086656235
104	0x3eb4cb61	0.35311416
105	0x3e2709c6	0.16312322
106	0x3c79bf23	0.015243324
107	0x3d79f921	0.061028603
108	0x3e873db1	0.26414254
109	0x3dc9ed71	0.098597415
110	0x3e9db041	0.30798534
111	0x3df70b42	0.12062694
112	0x3e58b4af	0.21162675
113	0xbf07925a	-0.5295769
114	0x3eb2bd60	0.34910107
115	0x3bd58bee	0.006516925
116	0x3e295189	0.1653501
117	0x3e260e3e	0.1621637
118	0x3d52697f	0.05137014
119	0xbd456456	-0.04819139
120	0x3eb36560	0.3503828
121	0x3eece832	0.462709
122	0xbd481627	-0.04884925
123	0xbd19c9e8	-0.03754607
124	0x3c76e754	0.015069801
125	0x3e9a6f70	0.30163145
126	0x3e9cd96a	0.30634624
127	0x3eb9b733	0.36272582
128	0x3d5089b0	0.05091256
129	0x3e341f43	0.1759005
130	0x3d260c4f	0.040539082
131	0x3ea88660	0.3291502
132	0x3eab76a4	0.33488953
133	0x3e3fba38	0.1872338
134	0x3e8b0f86	0.2716028
135	0x3f4cd55b	0.80013055
136	0x3e4b60ae	0.19861099
137	0x3e299dfa	0.1656417
138	0x3ed884af	0.4228873
139	0x3e88519b	0.2662476
140	0x3c881d1f	0.016615449
141	0x3e9573e9	0.29189995
142	0x3e60d602	0.21956638
143	0x3c26863b	0.010163839
144	0x3e5d1027	0.21588193
145	0x3eb0b073	0.3450962
146	0xbc8ba648	-0.017047063
147	0x3e72bc82	0.23704723
148	0x3e64df9b	0.22350924
149	0x3e99cd72	0.30039555
150	0xbc0d44fd	-0.008622405
151	0xbd28ffca	-0.041259564
152	0xbc6f0d09	-0.01459051
153	0xbd9e3076	-0.07724087
154	0x3e28db97	0.16490017
155	0x3e5d05e8	0.21584284
156	0xbda16ca4	-0.0788205
157	0xbd44d7e6	-0.04805746
158	0x3d591fec	0.05300896
159	0x3ea9fa2c	0.33198678
160	0x3f089a7d	0.5336073
161	0x3e9e4f8c	0.30920064
162	0x3e5e472d	0.21706839
163	0x3e65f8db	0.22458212
164	0x3eb9e277	0.3630559
165	0x3e3c0d64	0.18364483
166	0x3ea48f35	0.32140508
167	0x3e773669	0.2414185
168	0x3e0d08f6	0.1377295
169	0x3eb1a630	0.34697104
170	0x3e86b983	0.2631341
171	0x3e95ecab	0.29282126
172	0xbb619312	-0.0034419936
173	0x3e8d32d5	0.27577844
174	0x3e764926	0.24051341
175	0x3e872bd2	0.2640062
176	0x3e6b1250	0.22956204
177	0xbd6c86bc	-0.05774568
178	0x3e0bc803	0.13650517
179	0x3e8ac952	0.2710672
180	0x3da597f8	0.08085626
181	0x3d978832	0.07399024
182	0x3e9eda9e	0.31026167
183	0x3e895a67	0.26826784
184	0x3e0cfab3	0.13767509
185	0x3e8d1ede	0.27562612
186	0xbc52f7c6	-0.012876457
187	0x3cf4ae37	0.029868228
188	0x3e6e13de	0.23249766
189	0x3dfcd1d8	0.12344712
190	0x3e7214b0	0.23640704
191	0x3e2a9598	0.16658628
192	0x3ea2e06c	0.31811845
193	0x3e9093c3	0.28237733
194	0x3dbe4360	0.092901945
195	0x3ebed72f	0.37273547
196	0x3ec9af23	0.3939143
197	0x3bcda71b	0.006276024
198	0x3e81927e	0.25307077
199	0x3e97ff8e	0.2968716
200	0xbd9acac6	-0.07558207
201	0x3ea5b876	0.32367295
202	0x3e31df10	0.17370248
203	0xbd2438fa	-0.0400934
204	0xbc3ff490	-0.011716023
205	0xbcdbb433	-0.026819324
206	0x3d4e2120	0.05032456
207	0x3e9641dd	0.29347125
208	0xbd35f779	-0.04442546
209	0x3ea28042	0.31738478
210	0x3e779499	0.2417778
211	0x3d227746	0.03966453
212	0x3e6aa8df	0.22915982
213	0x3e785284	0.24250227
214	0x3e596294	0.21229011
215	0x3ea3512f	0.31897876
216	0xbe0e4d08	-0.13896573
217	0x3e91c6a3	0.2847186
218	0x3e2fcccb	0.17167966
219	0x3e46b67a	0.19405547
220	0x3e84d1c2	0.25941283
221	0x3e49c32b	0.19703357
222	0x3f14cc7f	0.58124536
223	0xbce7a2ed	-0.028275931
224	0x3e4ac1f2	0.19800547
225	0xbd504eca	-0.05085639
226	0x3ebe980f	0.37225387
227	0xbd843624	-0.06455639
228	0x3d3c58a9	0.04598299
229	0xbd88f48c	-0.066872686
230	0x3e793d03	0.2433968
231	0x3e82d50e	0.25553173
232	0x3e0c1c10	0.1368258
233	0xbe72e18b	-0.2371885
234	0x3e9df72b	0.30852637
235	0x3e9630f6	0.2933423
236	0x3e9fde3b	0.31224236
237	0x3ec6e5f0	0.38847303
238	0x3e881b6b	0.26583418
239	0x3e100002	0.14062503
240	0x3e339973	0.17539005
241	0x3db00d4d	0.08596287
242	0x3e68edf5	0.22747023
243	0xbc2f24e0	-0.010689944
244	0x3e96d5c3	0.29459962
245	0x3b9739d0	0.004615046
246	0x3e494884	0.19656569
247	0xbc04f45e	-0.008114902
248	0x3d972095	0.073792614
249	0x3c9ba216	0.018998187
250	0x3e2795cc	0.16365737
251	0x3e5017cb	0.20321576
252	0x3e963806	0.29339617
253	0xbd297b0e	-0.04137712
254	0x3eba7945	0.36420646
255	0x3d51343b	0.0510752

network.layer4.weight f4 [26, 256]
0	0x3de3a02e	0.11114536
1	0x3df64995	0.120257534
2	0x3dcb9c9d	0.09941981
3	0x3dc9dca9	0.09856541
4	0x3e728b40	0.23685932
5	0x3e34d49c	0.17659229
6	0x3e2453b3	0.16047554
7	0x3f0dce30	0.5539274
8	0x3dd950ca	0.106111124
9	0x3e032f31	0.12810971
10	0x3e33dfb4	0.17565805
11	0x3e478f40	0.1948824
12	0x3e19c3ce	0.150161
13	0xbd3c4818	-0.04596719
14	0x3be91137	0.007112648
15	0x3e322490	0.1739676
16	0x3e7066a0	0.23476648
17	0x3e2bdc01	0.16783144
18	0x3e08f103	0.13373189
19	0x3e4f2a6d	0.20231028
20	0x3e53562a	0.20638338
21	0x3d0c8c66	0.034313582
22	0xbca2347c	-0.019800417
23	0x3e484839	0.19558801
24	0xbc7753c0	-0.015095651
25	0xbc8949fc	-0.016758911
26	0xbd705532	-0.058675
27	0x3dd70e78	0.105008066
28	0x3e86e9d7	0.2635028
29	0x3e4eab86	0.20182618
30	0x3e602edc	0.21892875
31	0x3e7056b9	0.23470582
32	0x3e2c25e7	0.16811334
33	0x3e567552	0.20943192
34	0x3e3b4361	0.18287422
35	0x3e355a71	0.17710282
36	0x3d685bc6	0.056728147
37	0x3e374fa0	0.17901468
38	0x3e50f336	0.20405278
39	0x3e648f6e	0.22320339
40	0x3e588402	0.21144107
41	0x3e5bb5ca	0.21456066
42	0x3ea18b31	0.31551507
43	0x3e416ddb	0.18889563
44	0x3dedcfac	0.11611876
45	0x3e91c3bd	0.2846965
46	0x3e0c5873	0.13705616
47	0x3e8bfb85	0.27340332
48	0x3dc7f7d1	0.09764064
49	0x3e78e495	0.24305947
50	0xbc28a9e0	-0.010294408
51	0x3e701da8	0.23448813
52	0x3ce712c0	0.028207183
53	0x3e70e021	0.23522998
54	0xbd4b5e0e	-0.049650244
55	0x3e5b0872	0.2138994
56	0x3d855dd2	0.065120354
57	0x3e4454ce	0.19172975
58	0x3cfabbf9	0.03060721
59	0x3e8d8b41	0.27645305
60	0x3ef944b2	0.48685223
61	0x3e44cfb6	0.1921986
62	0xbc6560e8	-0.014000155
63	0x3e79b434	0.24385148
64	0x3e1bbc17	0.1520847
65	0x3e59c423	0.21266226
66	0x3e85b45e	0.26114172
67	0x3e033f1f	0.12817048
68	0xbba57270	-0.0050490424
69	0x3e6127fe	0.21987912
70	0x3e7c7b99	0.24656524
71	0x3e783142	0.2423754
72	0x3dfa5d6c	0.1222485
73	0x3e6bfd21	0.2304578
74	0xbd5730d7	-0.05253681
75	0x3e0d8a15	0.13822205
76	0x3e78c78b	0.2429487
77	0x3e113988	0.14182103
78	0x3e47ace1	0.19499542
79	0x3d236a00	0.03989601
80	0x3e11b74e	0.14230081
81	0x3e6f7856	0.23385748
82	0x3e300bff	0.17192076
83	0x3ebdfd1c	0.3710717
84	0x3e76ae37	0.24089895
85	0x3e4feffd	0.20306392
86	0x3e1904b2	0.14943197
87	0x3e6df703	0.23238759
88	0x3df0f64f	0.1176573
89	0x3e2f33db	0.17109625
90	0x3e83b013	0.2572027
91	0x3e577bd0	0.21043324
92	0x3e8f4d5c	0.27988708
93	0x3e23f872	0.16012743
94	0x3e1c1242	0.1524134
95	0x3e856920	0.26056767
96	0x3e516a31	0.20450665
97	0x3e7ca220	0.24671221
98	0x3e560b07	0.20902644
99	0x3e44ae96	0.19207224
100	0x3e258ec4	0.16167742
101	0x3e5899b1	0.21152379
102	0x3e224011	0.15844752
103	0xbc3138b8	-0.010816745
104	0x3e6a8572	0.22902468
105	0x3e8fdf23	0.28099927
106	0x3d708f1a	0.058730222
107	0x3e5f94ae	0.2183406
108	0x3e6c242a	0.2306067
109	0x3e054017	0.1301273
110	0x3e0b7fb2	0.1362293
111	0x3e2a46bf	0.1662855
112	0x3e210765	0.15725477
113	0xbe4aef3b	-0.19817822
114	0x3e6af36f	0.22944425
115	0xbe8c93c5	-0.2745649
116	0x3e57d908	0.21078885
117	0x3e8b4c90	0.2720685
118	0x3c4fc190	0.012680426
119	0x3d4b074c	0.049567506
120	0x3e3248ea	0.17410627
121	0xbde4f33d	-0.111792065
122	0x3b636b14	0.0034701275
123	0x3bac90d0	0.0052662864
124	0xbd4e662e	-0.050390415
125	0x3e414f8b	0.18878
126	0x3f07e5e3	0.53085154
127	0x3e5391ed	0.20661135
128	0x3e7a2f59	0.24432124
129	0x3de6e031	0.1127323
130	0x3d7080da	0.058716632
131	0x3ee03db7	0.43797085
132	0x3e802f05	0.25035873
133	0x3e665c9e	0.22496268
134	0x3e5b67d6	0.21426329
135	0x3e8cad1c	0.27475822
136	0x3e726d2b	0.23674457
137	0x3df2d43d	0.118568875
138	0x3e2c3b33	0.16819458
139	0x3e6117a0	0.21981668
140	0xbc87e87c	-0.01659035
141	0x3e5c7580	0.21529198
142	0x3e1953c6	0.14973363
143	0xbcbc7670	-0.023005694
144	0x3e25d6ec	0.16195267
145	0x3eccca16	0.3999793
146	0xbd4b86c0	-0.049689054
147	0x3e78036d	0.24220057
148	0x3e8c9ea7	0.27464792
149	0x3e40c772	0.18826082
150	0xbd4bfaf0	-0.04979986
151	0xbd1987ac	-0.037482902
152	0xbadb6cc0	-0.0016740784
153	0xbac4c540	-0.0015012398
154	0x3e2c20ee	0.16809437
155	0x3e249c1a	0.16075173
156	0xbd709ba2	-0.058742173
157	0xbca92290	-0.020646363
158	0xbbc7ae90	-0.0060938075
159	0x3e179518	0.14802969
160	0x3e99fb7d	0.30074683
161	0x3e23125f	0.15924977
162	0x3e648863	0.22317652
163	0x3e5727f2	0.21011332
164	0x3df4a5d5	0.119456924
165	0x3e5b0eb2	0.21392325
166	0x3e8aec7c	0.27133548
167	0x3e4a7c64	0.19774014
168	0x3e28ef66	0.16497573
169	0x3e90ad95	0.28257433
170	0x3e48819b	0.1958069
171	0x3e71a9bf	0.23599909
172	0x3c54cb09	0.0129878605
173	0x3e20b0e1	0.15692474
174	0x3e3e1945	0.18564327
175	0x3e4f7c74	0.20262319
176	0x3e38306a	0.17987218
177	0x3cf72d24	0.030172892
178	0x3dfa7f0b	0.12231263
179	0x3e47fffe	0.19531247
180	0x3e3b6e6b	0.1830384
181	0x3e8542d6	0.26027554
182	0x3e324750	0.17410016
183	0x3e631bf3	0.2217863
184	0x3df8ebb1	0.121543296
185	0x3e1b9c7d	0.15196414
186	0x3a2eea80	0.00066725165
187	0xbc3329c0	-0.010935247
188	0x3e5d09d2	0.21585777
189	0x3e1d10e2	0.15338472
190	0x3e36e6bb	0.17861454
191	0x3de39bde	0.11113714
192	0x3e0598db	0.13046591
193	0x3edfd604	0.43717968
194	0x3e5f8c44	0.21830851
195	0x3e81f67a	0.2538336
196	0x3e1f3882	0.155489
197	0xbd510638	-0.05103132
198	0x3e123727	0.14278851
199	0x3e6d3caa	0.23167673
200	0xbd743bdd	-0.059627403
201	0x3e74909f	0.23883294
202	0x3e5debd8	0.21671999
203	0x3d5dd4d4	0.054158047
204	0xbd334baa	-0.04377333
205	0x3c84aca4	0.016195603
206	0xbbb5a170	-0.0055429265
207	0x3e3ac814	0.18240386
208	0x3d658d08	0.0560427
209	0x3e3db603	0.18526463
210	0x3e508a18	0.20365179
211	0x3c221b78	0.009894244
212	0x3e322d4a	0.17400089
213	0x3e4c7f8f	0.19970535
214	0x3e441d2c	0.19151753
215	0x3eb1bb1a	0.3471306
216	0xbe0689f8	-0.13138568
217	0x3e5268da	0.2054781
218	0x3e00a483	0.12562756
219	0x3e0d25a3	0.13783889
220	0x3e22f508	0.15913785
221	0x3e1366df	0.14394711
222	0x3e7f9795	0.24960168
223	0x3d350f52	0.044204064
224	0x3e39883f	0.1811838
225	0xbd71d496	-0.05904063
226	0x3de2390c	0.11046037
227	0xbe810b55	-0.25203958
228	0xbc9c33c8	-0.01906766
229	0x3cce7378	0.025201544
230	0x3ef81782	0.48455435
231	0x3e36eca0	0.17863703
232	0x3e62cc1d	0.22148176
233	0xbe689bd4	-0.22715694
234	0x3e2b33b7	0.16718946
235	0x3e8aebeb	0.27133116
236	0x3e703223	0.23456626
237	0x3e19f42a	0.15034547
238	0x3e5d97ab	0.21639888
239	0x3e2dd627	0.16976224
240	0x3e037618	0.12838018
241	0xbd75f754	-0.060050324
242	0x3de98006	0.11401372
243	0x3d246d7c	0.040143475
244	0x3e7e6c62	0.24846032
245	0x3e65a2f9	0.2242545
246	0x3de9c7fd	0.11415098
247	0x3d2f790e	0.042840056
248	0x3d31b1ce	0.04338246
249	0x3c953338	0.0182129
250	0x3e2c6b71	0.1683786
251	0x3e51cefb	0.20489113
252	0x3e31f051	0.1737683
253	0xbd05e4ea	-0.032689013
254	0x3e12b52d	0.14326926
255	0x3d4e33ce	0.050342374

network.layer4.bias f4 [26]
0	0xbd802064	-0.06256178
1	0x3df59700	0.119916916
2	0x3f466a95	0.7750638
3	0xbe9998b5	-0.2999932
4	0x3e9b784c	0.30365217
5	0x3ea86c04	0.3289491
6	0x3c8ff010	0.017570525
7	0x3ddaf63a	0.10691495
8	0x3f18dc8e	0.5971154
9	0xbd8a6ec4	-0.06759408
10	0x3e944ad7	0.28963348
11	0x3f785c00	0.9701538
12	0xbe8f3202	-0.2796784
13	0x3f46d7b4	0.77672887
14	0xbe8572ab	-0.26064047
15	0x3daf8fe8	0.0857237
16	0x3f2ceed3	0.67551917
17	0xbd4c1d73	-0.049832772
18	0x3e96a477	0.29422352
19	0x3ec8ca37	0.39216778
20	0x3d8a6d05	0.06759075
21	0x3df801cc	0.12109718
22	0x3f1f2771	0.6216956
23	0xbe53140e	-0.20613119
24	0x3e8865cf	0.26640174
25	0x3ea83a06	0.32856768
