DDQN_panda_env2/runs/results_9/last-model.pt (torch, 162903 bytes, 6 tensors)

network.layer1.weight f4 [128, 3]
0	0xbef94506	-0.48685473
1	0x3ee06afb	0.4383162
2	0x3d568902	0.052376755
3	0xbf56fac2	-0.83976376
4	0x3ed3ad77	0.4134328
5	0x3eb0bee7	0.34520647
6	0xbf8f9aed	-1.1219155
7	0x3f3e681e	0.7437762
8	0x3f1f5e10	0.62252903
9	0xbf0ee787	-0.5582203
10	0xbed2c699	-0.41167143
11	0x3def5eae	0.116879806
12	0xbf566b4e	-0.83757484
13	0xbeb73331	-0.35781243
14	0xbe1f783e	-0.15573213
15	0xbf8dddfe	-1.1083372
16	0x3e5211de	0.20514628
17	0xbce56363	-0.028001493
18	0xbea9a74d	-0.33135453
19	0x3eedb93f	0.46430394
20	0x3f347529	0.7049127
21	0xbec86104	-0.39136517
22	0xbf6cf556	-0.9256185
23	0xbeb90000	-0.36132812
24	0x3fbe719b	1.487842
25	0xbe1150af	-0.14190935
26	0x3d8a7960	0.06761432
27	0x3c6a0857	0.014284215
28	0xbf6ed33b	-0.9329106
29	0xbf2d6fdf	-0.67748827
30	0xbf01d960	-0.5072231
31	0x3ecd4f45	0.4009954
32	0x3f3c5e3c	0.7358129
33	0xbe783421	-0.24238636
34	0xbd971733	-0.07377472
35	0x3f352c2f	0.70770544
36	0xbefed5d1	-0.49772504
37	0xbf20beb7	-0.6279101
38	0xbf2a1a2d	-0.6644619
39	0xbf3be419	-0.73394924
40	0x3f2b8a55	0.6700795
41	0x3eee0120	0.46485233
42	0xbf84cf7a	-1.0375817
43	0xbe2d7b81	-0.16941644
44	0xbdaaad1d	-0.083338
45	0xbf1be1f0	-0.6089163
46	0xbf1e114f	-0.6174516
47	0xbf358777	-0.7090983
48	0x3e8ebbfe	0.27877802
49	0xbe5f3c0c	-0.2180025
50	0xbf7f6f6d	-0.997794
51	0xbf8947f0	-1.0725079
52	0xbf89ec71	-1.0775281
53	0xbec3555d	-0.38151065
54	0xbf6f3c30	-0.93451214
55	0xbf1f684e	-0.6226853
56	0xbda48c91	-0.080346234
57	0xbf182c80	-0.594429
58	0xbf448ef9	-0.7678066
59	0xbed92f27	-0.42418787
60	0xbf0b8087	-0.5449299
61	0xbedd10a2	-0.43176752
62	0x3ed0dbd7	0.40792724
63	0xbf4d5add	-0.8021677
64	0x3dc17006	0.09445195
65	0x3cc4ae39	0.024008857
66	0xbd815864	-0.06315687
67	0x3eaa1f5a	0.33227044
68	0xbeecc396	-0.4624297
69	0xbfab47db	-1.3381304
70	0x3ee6f023	0.45105085
71	0x3dd05ac1	0.1017356
72	0xbef660e2	-0.4812079
73	0x3f27f463	0.6560728
74	0xbd87d963	-0.0663326
75	0xbe704fd7	-0.23467956
76	0xbddd060e	-0.107921705
77	0x3f13abf7	0.5768427
78	0xbfa6b18b	-1.3022932
79	0x3e8dd25f	0.27699563
80	0x3e2883e2	0.1645656
81	0xbf859b24	-1.043797
82	0x3e11f313	0.14252882
83	0x3f04250e	0.5161904
84	0xbf1f386f	-0.62195486
85	0x3f0e731a	0.5564438
86	0xbe0e9d4d	-0.13927193
87	0xbefa3ff4	-0.48876917
88	0xbf80ced1	-1.0063115
89	0xbe01c9f5	-0.12674697
90	0xbf45f84f	-0.77332014
91	0x3e9195bb	0.28434548
92	0x3e9ede71	0.31029084
93	0xbf394b3e	-0.72380435
94	0xbf0bd695	-0.546243
95	0xbe88f729	-0.26751068
96	0xbf8626b0	-1.0480556
97	0xbef1daa9	-0.47237137
98	0x3e196f1a	0.14983788
99	0xbf7af614	-0.98031735
100	0xbe68fb06	-0.22752008
101	0x3eafdab1	0.34346536
102	0xbe869bdb	-0.26290783
103	0x3eb54ac6	0.3540861
104	0xbf072226	-0.5278648
105	0xbefc043a	-0.49221975
106	0x3f02aebb	0.5104787
107	0x3f53c343	0.8271982
108	0xbf799e57	-0.9750723
109	0xbe16c609	-0.14723982
110	0x3e6620a6	0.22473392
111	0xbf324822	-0.69641316
112	0x3fb7090a	1.4299634
113	0xbd91ac25	-0.07112912
114	0xbf79702c	-0.97436786
115	0xbec4b2d1	-0.38417676
116	0xbeebbe6d	-0.4604372
117	0x3f2514f6	0.6448511
118	0xbf4742d5	-0.7783635
119	0x3f4e6519	0.8062301
120	0xbeeca399	-0.46218565
121	0x3e9b62d5	0.3034884
122	0x3d640eda	0.055678226
123	0x3f9ee035	1.2412173
124	0xbdda00e5	-0.10644702
125	0x3af4df97	0.0018682358
126	0xbf452bec	-0.77020144
127	0xbe3b6789	-0.18301214
128	0x3f39de16	0.726045
129	0xbebdbbc7	-0.37057325
130	0xbe66329c	-0.22480243
131	0x3ee60974	0.44929087
132	0xbf71b437	-0.9441561
133	0x3ddf212c	0.10894999
134	0x3ea6687e	0.32501596
135	0xbecb9b95	-0.39767137
136	0x3c3511a5	0.01105157
137	0x3ea03da0	0.31297016
138	0xbf77fb6a	-0.96868
139	0xbf3008fc	-0.6876371
140	0xbeec83f9	-0.46194437
141	0xbe50fdf6	-0.20409378
142	0x3f186486	0.59528387
143	0x3ee2012c	0.4414152
144	0xbf8d59e8	-1.1043062
145	0xbf27e5d5	-0.6558507
146	0x3e8d81a4	0.2763797
147	0xbf42ae43	-0.7604715
148	0x3f1084f8	0.56452894
149	0x3f3b97c3	0.73278445
150	0xbe67b8d2	-0.22629097
151	0xbea1a0eb	-0.31568083
152	0x3f3480b7	0.70508903
153	0xbf899ef1	-1.075163
154	0x3f0d3c4b	0.55170125
155	0x3f09a014	0.53759885
156	0xbeb63655	-0.35588327
157	0x3db3e774	0.087843806
158	0x3f0172bb	0.5056569
159	0xbf64667d	-0.89218885
160	0x3e8f4f66	0.27990264
161	0x3f0d6541	0.55232626
162	0xbc26cb7d	-0.010180351
163	0x3e923156	0.28553265
164	0x3f251d93	0.6449825
165	0xbefb15b3	-0.49039993
166	0xbf421df4	-0.75826955
167	0x3f1a0f3a	0.60179484
168	0xbe9a008f	-0.3007855
169	0x3eab2cdc	0.33432662
170	0x3f0f1fca	0.5590788
171	0xbf2eb3e3	-0.68243235
172	0x3f604826	0.8761009
173	0xbd0e3f7b	-0.03472851
174	0xbf9791d0	-1.1841373
175	0x3eda7170	0.4266467
176	0x3eecce8c	0.46251333
177	0xbf9ba723	-1.2160381
178	0x3e5d7b86	0.21629152
179	0xb95bbf76	-0.00020956792
180	0xbf4bd03e	-0.7961463
181	0xbe616520	-0.22011232
182	0x3f080411	0.53131205
183	0x3d0446d2	0.032294102
184	0xbdb5fcaa	-0.088860825
185	0xbe0c61b1	-0.13709141
186	0xbf104a64	-0.5636351
187	0x3f9b7c8c	1.2147384
188	0x3f02ab33	0.5104248
189	0xbf384310	-0.7197733
190	0x3dcbaf22	0.09945513
191	0x3f21154c	0.6292312
192	0x3e95dbd3	0.29269275
193	0x3dede500	0.11615944
194	0xbc827c55	-0.015928427
195	0xbd094613	-0.033514094
196	0x3f00e774	0.5035317
197	0x3f38dd42	0.7221261
198	0x3fb012a1	1.3755685
199	0xbf132a27	-0.57486194
200	0x3d33d34c	0.04390268
201	0xbe01b9c4	-0.1266852
202	0xbef02f58	-0.4691112
203	0xbe0aea6d	-0.13565989
204	0x3cf951a8	0.030434445
205	0xbf552957	-0.83266205
206	0xbf4dad38	-0.80342436
207	0xbf619651	-0.8811999
208	0xbbcff314	-0.006346116
209	0x3f0ecb26	0.5577873
210	0xbf17fa2f	-0.59366125
211	0x3f156918	0.58363485
212	0x3f0b67e8	0.54455423
213	0x3f41351a	0.7547165
214	0xbf09f229	-0.5388513
215	0x3f09a523	0.53767604
216	0xbf2e635f	-0.6812038
217	0xbf18aeaa	-0.59641516
218	0x3e8c7743	0.2743474
219	0xbdb9de6a	-0.09075625
220	0x3e9e19bb	0.30879006
221	0xbe361707	-0.17782222
222	0xbf1e52ef	-0.61845297
223	0xbe395b8b	-0.18101327
224	0x3f1c6714	0.61094785
225	0xbf76716c	-0.9626682
226	0x3f2977a3	0.66198176
227	0x3eed7714	0.46379912
228	0x3fbd2bf5	1.477904
229	0xbf107028	-0.56421137
230	0x3e1f7ee6	0.15575752
231	0xbf3135bf	-0.69222635
232	0xbf486326	-0.7827629
233	0xbeeb8443	-0.45999345
234	0xbf2bddcd	-0.67135316
235	0xbe6e203c	-0.23254484
236	0xbe5a15da	-0.21297398
237	0xbf74ec6c	-0.9567325
238	0x3edd0024	0.4316417
239	0x3ed8f57b	0.42374787
240	0x3ebb9ea1	0.36644462
241	0x3f27d45a	0.655584
242	0xbea749ae	-0.326734
243	0x3d5c487b	0.05378006
244	0xbdc73984	-0.09727767
245	0x3ea66c2c	0.32504404
246	0x3f240ae8	0.6407914
247	0xbef38e4e	-0.47569507
248	0x3f1271c6	0.57204854
249	0x3f09b622	0.5379354
250	0xbf28d6fe	-0.6595305
251	0xbeb3d152	-0.35120636
252	0xbf7d7734	-0.99010015
253	0xbe9f6c7a	-0.3113745
254	0xbd9e2eaf	-0.07723748
255	0xbe55f3b3	-0.20893745

network.layer1.bias f4 [128]
0	0x3f5f1f34	0.8715699
1	0xbe7ce3e8	-0.24696314
2	0x3d01a8fe	0.031655304
3	0x3f303e0b	0.6884467
4	0x3b967c5f	0.004592463
5	0x3ccfbb35	0.025357822
6	0xbbe882fd	-0.007095693
7	0xbe53deac	-0.20690411
8	0x3f5e36a1	0.8680211
9	0x3ddfad03	0.10921671
10	0x3f2ddf11	0.679185
11	0x3f1b18cd	0.6058472
12	0xbd73f07d	-0.05955552
13	0xbc8897c5	-0.016673932
14	0xbcc8e385	-0.024522552
15	0xbc8d80aa	-0.017273266
16	0xbe908bee	-0.28231758
17	0x3edcd682	0.43132406
18	0x3f40bf10	0.7529154
19	0x3f5f28b3	0.8717148
20	0x39a7392a	0.00031895313
21	0x3f221b6d	0.633231
22	0x3e223097	0.15838848
23	0xbcc09f12	-0.02351335
24	0x3f3bd12d	0.7336605
25	0x3f6e21f6	0.9302057
26	0xbe477abf	-0.19480418
27	0x3f14b604	0.58090234
28	0x3f4c6867	0.79846805
29	0xbe27d661	-0.16390373
30	0x3f223101	0.63356024
31	0x3eb6d2a4	0.3570758
32	0xbea73d46	-0.32663935
33	0x3e58830c	0.2114374
34	0xbe442dd6	-0.1915811
35	0xbe89da79	-0.26924494
36	0x3ef5c049	0.47998264
37	0x3d30cf25	0.0431663
38	0x3f5b422b	0.8564784
39	0xbe6c3821	-0.23068286
40	0x3f0b024e	0.5430039
41	0x3f6c2088	0.9223714
42	0x3e32d3fb	0.17463677
43	0x3e0d3059	0.13787974
44	0x3f25cc22	0.64764607
45	0x3f5e5b93	0.8685848
46	0x3f49c8b9	0.78821903
47	0x3f4682d1	0.7754336
48	0x3c7ca928	0.015421189
49	0xbe7158de	-0.23569056
50	0x3ec7f686	0.3905527
51	0x3f5e8c36	0.86932695
52	0x3f32ea58	0.6988883
53	0x3f32655d	0.6968592
54	0x3e926c13	0.2859808
55	0x3d0fbc91	0.03509194
56	0x3d6a273a	0.057166316
57	0x3f48dc62	0.7846128
58	0xbee2c76f	-0.4429278
59	0xbd0137de	-0.03154742
60	0x3be5e514	0.0070158336
61	0xbefa210d	-0.4885334
62	0x3eba10e6	0.36341017
63	0x3f4b1c1c	0.79339767
64	0xbf032b53	-0.5123798
65	0x3ef0ea5a	0.47053796
66	0x3f1d1e9e	0.61374843
67	0x3f6fb455	0.9363454
68	0x3f8133a5	1.0093886
69	0x3f65907e	0.896736
70	0x3f2796ce	0.65464485
71	0x3dd8419d	0.1055939
72	0x3f783249	0.9695173
73	0xbe1121c8	-0.14173043
74	0x3e6c229f	0.23060082
75	0xbd95be0c	-0.07311639
76	0x3eef2339	0.4670656
77	0x3f6d630e	0.9272927
78	0x3e8f8175	0.28028455
79	0x3f3368fa	0.70082057
80	0xbc2c13db	-0.010502781
81	0x3f1908a5	0.59778816
82	0x3ca84505	0.020540724
83	0x3e9cc9b3	0.30622634
84	0xbe2c812b	-0.16846149
85	0xbba8c1d3	-0.005150059
86	0x3d551fbe	0.052032225
87	0x3ec38d5a	0.3819378
88	0x3f27da88	0.6556783
89	0xbeb24273	-0.34816322
90	0x3de59b84	0.11211303
91	0x3f8b8f28	1.0903063
92	0x3f671a97	0.9027495
93	0x3d650f55	0.055922825
94	0x3eff4be8	0.498626
95	0xbd9bf702	-0.076154724
96	0xbe017d34	-0.12645417
97	0x3e102d41	0.14079763
98	0x3f086a69	0.5328737
99	0x3f1b38a1	0.60633284
100	0x3f19523a	0.5989109
101	0xbe393898	-0.18087995
102	0xbe731ecb	-0.23742215
103	0x3f74c981	0.9561997
104	0x3eaf8d96	0.3428771
105	0x3f56d926	0.8392509
106	0x3ee1185c	0.43963897
107	0x3f8bdacd	1.0926148
108	0xbe05d06d	-0.1306779
109	0x3f36d3a0	0.71416664
110	0x3e81ddf5	0.25364652
111	0x3e28d4c6	0.16487417
112	0x3f626996	0.8844236
113	0x3f03ffc0	0.5156212
114	0x3e99ace2	0.30014712
115	0xbc95fa76	-0.018307906
116	0x3f0d9b66	0.55315244
117	0x3eff1a1a	0.498246
118	0xbdab9b7e	-0.08379267
119	0x3f590373	0.8477089
120	0x3f0d54f7	0.5520777
121	0xbe72182b	-0.23642032
122	0xbe4e8670	-0.20168471
123	0x3c4120bc	0.01178759
124	0x3ca567c1	0.020191075
125	0x3f6fd90e	0.93690574
126	0x3e830542	0.2558995
127	0x3f01ed1a	0.50752413

network.layer2.weight f4 [256, 128]
0	0x3dcee682	0.101025596
1	0x3e59cb96	0.21269068
2	0x3e0325b1	0.12807347
3	0xbca57b67	-0.020200444
4	0x3e646024	0.223023
5	0x3eca9a7c	0.39570987
6	0x3a8e1648	0.001084038
7	0x3e999494	0.2999617
8	0xbf56e0a3	-0.8393652
9	0x3f100fce	0.56274116
10	0xbd9121fc	-0.0708656
11	0x3d176fa2	0.036971696
12	0x3f6281d1	0.88479334
13	0x3e4f53e6	0.20246848
14	0x3e1a04d0	0.15040898
15	0x3f960471	1.1720105
16	0x3e5c6bf5	0.21525557
17	0x3ee9b60a	0.45646697
18	0x3d119723	0.035544526
19	0x3eea236d	0.45730153
20	0xbd20ea91	-0.0392862
21	0x3dffbc94	0.1248714
22	0xbeedcbda	-0.4644459
23	0x3f20623e	0.62649906
24	0x3eed1e39	0.4631212
25	0xbd842ef1	-0.06454266
26	0x3edf2099	0.43579558
27	0x3c5b2c23	0.013377222
28	0x3f50cc02	0.8156129
29	0x3e805779	0.25066736
30	0x3d05b794	0.032645777
31	0x3e90695e	0.2820539
32	0x3cbf9a68	0.023389056
33	0x3d998ca1	0.07497526
34	0xbde559bf	-0.11198758
35	0xbc0d711f	-0.008632927
36	0x3d135507	0.03596976
37	0xbf78bda5	-0.97164375
38	0x3f08f637	0.53500694
39	0xbe1d6a93	-0.15372686
40	0x3d88435f	0.06653475
41	0xbf6770bb	-0.9040639
42	0xbd9d945b	-0.07694312
43	0xbd1d1300	-0.038348198
44	0x3d4c2c6a	0.049847044
45	0x3da283c9	0.07935292
46	0x3ee1301c	0.43982017
47	0x3e089d6e	0.13341305
48	0x3d81806c	0.06323323
49	0x3e1887a3	0.14895491
50	0xbd8f734a	-0.070044115
51	0x3d996cc6	0.0749145
52	0xbadd99ba	-0.0016906776
53	0xbc4d751f	-0.012540131
54	0xbde6361a	-0.11240788
55	0xbe3c1214	-0.18366271
56	0x3c875596	0.016520303
57	0x3f8bf2f1	1.0933515
58	0x3ddbf5fe	0.10740279
59	0x3f5328c5	0.82484084
60	0xbc3eace6	-0.011637902
61	0x3d31d73c	0.043418154
62	0x3f923d2f	1.1424922
63	0x3d52ced5	0.05146678
64	0x3d96b5d7	0.07358902
65	0xbd650a73	-0.05591817
66	0xbf733411	-0.9500132
67	0xbd92f350	-0.071753144
68	0x3f17ea0f	0.5934152
69	0x3c1b905c	0.009494867
70	0x3dccf7e7	0.10008221
71	0xbd59d0c8	-0.053177625
72	0xbd9b9c52	-0.07598175
73	0xbe2472dd	-0.16059442
74	0xbc42942f	-0.01187615
75	0x3e4f3af4	0.20237333
76	0xbf7baca4	-0.98310304
77	0x3ed3774a	0.41301948
78	0x3e51cca3	0.20488219
79	0x3e05f896	0.1308311
80	0xbe775901	-0.24155046
81	0xbcf78533	-0.030214882
82	0xbda8dce7	-0.08245259
83	0x3f206f53	0.6266987
84	0x3e3b47b4	0.18289071
85	0xbc8ef913	-0.017452752
86	0x3f0833b6	0.53203905
87	0x3ebdaec3	0.37047395
88	0x3e26b4d8	0.16279924
89	0xbd984d85	-0.07436661
90	0xbd3ca44d	-0.046055127
91	0x3f83538f	1.0259875
92	0x3e98ee42	0.29869276
93	0x3dd8cbef	0.10585772
94	0x3f7969fc	0.97427344
95	0x3f1ddbe2	0.6166364
96	0x3e85aaa5	0.26106754
97	0x3dbd5de3	0.09246423
98	0x3dc20395	0.094733395
99	0x3e5723a7	0.21009694
100	0x3db75923	0.08952548
101	0x3f22d5e2	0.6360761
102	0x3df89b79	0.12139029
103	0x3d59e0b9	0.053192828
104	0x3f2ec23d	0.68265134
105	0xbddeb951	-0.1087519
106	0x3e88c507	0.2671282
107	0x39800549	0.00024418
108	0xbe0d5699	-0.13802566
109	0x3bed968c	0.0072506126
110	0xbeb77d1a	-0.35837632
111	0xbd34e9d2	-0.0441683
112	0x3c06dd2d	0.008231443
113	0xbd7fe1a5	-0.06247105
114	0xbf5fd100	-0.87428284
115	0x3e53edf2	0.20696238
116	0x3dd0d078	0.10196012
117	0xbd20195c	-0.039086685
118	0xbdee00f9	-0.11621279
119	0x3ee690fc	0.4503249
120	0x3ba7032b	0.005096813
121	0x3e0aa310	0.13538766
122	0x3ebb5830	0.3659072
123	0x3ed3f4a9	0.41397598
124	0x3baadced	0.0052143247
125	0xbf55370c	-0.8328712
126	0xbda35485	-0.07975105
127	0x3eabcb87	0.33553717
128	0x3db9713f	0.09054803
129	0x3df54de6	0.119777486
130	0xbc2d0648	-0.01056058
131	0xbc304dc4	-0.010760728
132	0x3e94a3ef	0.2903132
133	0x3f0357b4	0.513057
134	0xbd92e2c7	-0.071721606
135	0x3e65e99b	0.22452395
136	0xbf27f62e	-0.65610015
137	0x3f2bd735	0.67125255
138	0xbd416c7d	-0.047222603
139	0xbd6d9c38	-0.05801031
140	0x3f6b120b	0.91824406
141	0x3d03117d	0.0319991
142	0x3e900a60	0.28132915
143	0x3f958d38	1.1683722
144	0x3e551111	0.20807292
145	0x3eddf88d	0.43353692
146	0x3e665f68	0.22497332
147	0x3f126b4b	0.57194966
148	0xbd9c03cd	-0.076179124
149	0x3de72e87	0.11288171
150	0xbe91d3cd	-0.28481904
151	0x3f1b3493	0.60627097
152	0x3ef55ff3	0.47924766
153	0xbd89b61b	-0.06724187
154	0x3ea3a312	0.3196035
155	0x3dae64cd	0.0851532
156	0x3f7c8a5f	0.9864864
157	0x3eaf6715	0.34258333
158	0x3d028a88	0.031870395
159	0x3e98827f	0.2978706
160	0x3d5ee643	0.054418813
161	0x3dc60075	0.09668056
162	0xbc800eec	-0.015632115
163	0x3d0e2151	0.03469974
164	0x3e28384c	0.16427726
165	0xbf4f5035	-0.8098176
166	0x3f23689a	0.63831484
167	0xbd00d9c5	-0.03145768
168	0x3d22638d	0.03964572
169	0xbf26bf02	-0.65135205
170	0x3d97ad4a	0.07406099
171	0xbd98e404	-0.074653655
172	0x3c6e7da3	0.014556321
173	0x3dc02b40	0.09383249
174	0x3f047444	0.5173991
175	0x3d91a9ee	0.0711249
176	0x3d72bfe4	0.059265032
177	0x3da8a729	0.08235008
178	0x3c5a8523	0.013337406
179	0xbd0affe9	-0.03393546
180	0xbb7c8662	-0.0038532247
181	0x3db1da8d	0.086842634
182	0xbdaab44c	-0.0833517
183	0x3cfc2eb5	0.03078399
184	0xbc1fe049	-0.009758064
185	0x3f8fe5a5	1.1241957
186	0x3dc2498d	0.09486685
187	0x3f6264b0	0.88434887
188	0xbc987b09	-0.018613355
189	0xbd276079	-0.040863488
190	0x3f4b0645	0.7930644
191	0x3b8570fb	0.004072306
192	0xbcd5fe26	-0.026122164
193	0xbd5a96d3	-0.053366493
194	0xbf2825a8	-0.6568246
195	0xbc9f4b0b	-0.019444963
196	0x3f2769f5	0.6539605
197	0xbd03660d	-0.032079745
198	0x3d888a4f	0.06667005
199	0xbda7359c	-0.08164522
200	0x3d9190fc	0.07107732
201	0xbd6610e2	-0.056168444
202	0x3d9e9503	0.077432655
203	0x3d864ef3	0.06558027
204	0xbf29a6a4	-0.662699
205	0x3f0d9dd1	0.55318934
206	0x3e8bee8d	0.27330437
207	0x3d62e7f1	0.055396978
208	0xbd1193fd	-0.035541523
209	0x3c9f9452	0.019479904
210	0xbd9a1625	-0.07523755
211	0x3f638793	0.88878745
212	0x3eae7c6d	0.34079304
213	0x3e3a54f4	0.1819647
214	0x3e7c7508	0.24654019
215	0x3f08b6dd	0.5340403
216	0x3e17d6e5	0.1482807
217	0x3d4104c4	0.047123685
218	0x3e43d121	0.19122745
219	0x3f8892a8	1.0669756
220	0x3e462549	0.1935016
221	0x3cfaa6ff	0.030597208
222	0x3f4d0d2b	0.8009822
223	0x3f3e3d67	0.7431244
224	0x3eadad24	0.33921158
225	0x3d36ea53	0.044657063
226	0x3dce01b8	0.100589216
227	0x3de4281d	0.111404635
228	0xbc407f5e	-0.011749117
229	0x3f95ef65	1.1713682
230	0x3e34070d	0.17580815
231	0x3ca7306b	0.02040883
232	0x3f2dc776	0.6788248
233	0x3cdade5d	0.02671736
234	0x3e962b71	0.29330018
235	0x3d0d7b35	0.034541328
236	0xbd7b5592	-0.061360903
237	0xbb7eb915	-0.0038867642
238	0xbeebde69	-0.46068123
239	0x3db6893e	0.089128956
240	0x3d79ae21	0.060957078
241	0xbd08e253	-0.033418965
242	0xbf1ac9ac	-0.60463977
243	0xbb49bc20	-0.0030782297
244	0x3d0410a0	0.032242417
245	0x3d39a503	0.045323383
246	0x3bb2fb9d	0.0054621235
247	0x3ecf2d16	0.40464085
248	0xbd638c2c	-0.0555536
249	0x3c812109	0.015762823
250	0x3ea95f76	0.33080643
251	0x3f103074	0.56323934
252	0x3dcf251c	0.101145
253	0xbf40df6e	-0.75340927
254	0x3ddf583a	0.109055
255	0x3f18dc38	0.5971103

network.layer2.bias f4 [256]
0	0x3db0f4df	0.086404555
1	0x3db1a7c7	0.08674579
2	0x3db2ee48	0.08736855
3	0x3e92a6c2	0.2864285
4	0x3ee584e6	0.44827956
5	0x3df51745	0.11967329
6	0x3ea85d28	0.32883573
7	0x3f31bc82	0.69428265
8	0x3d8bfe45	0.068356074
9	0x3de2694b	0.11055239
10	0x3e6f2cb9	0.23356904
11	0x3e06a219	0.13147773
12	0x3e111ebb	0.14171879
13	0x3d8f1e67	0.06988221
14	0x3bd0bdf3	0.0063703
15	0x3dd029bf	0.101642124
16	0x3eabcfab	0.33556876
17	0x3e0fded5	0.14049847
18	0x3e53f117	0.20697437
19	0x3e17ac18	0.14811742
20	0x3e439ddd	0.19103189
21	0x3dab2760	0.083571196
22	0xbd61714e	-0.055039696
23	0x3e273a43	0.16330819
24	0xbd88d4b4	-0.06681195
25	0x3cc2730f	0.023736505
26	0xbdaf1570	-0.08549011
27	0x3e8b153d	0.2716464
28	0x3ea018d7	0.3126895
29	0x3e3cc747	0.18435393
30	0x3e312c4d	0.17302056
31	0x3e45071e	0.19240996
32	0x3e25b64b	0.1618282
33	0x3e0a25ee	0.13491032
34	0x3e74ccb3	0.23906212
35	0x3e4db7a2	0.20089582
36	0xbda64ad3	-0.0811974
37	0x3e5c1b58	0.21494806
38	0x3e54f86f	0.20797895
39	0x3e9a60a3	0.30151853
40	0x3df52c04	0.11971286
41	0x3d30e9cc	0.043191716
42	0x3e7cd96d	0.24692316
43	0xbeb1792b	-0.34662756
44	0x3e8272b5	0.2547814
45	0x3e85fb09	0.26168087
46	0x3e421784	0.18954283
47	0x3e57dff1	0.2108152
48	0x3e5f0058	0.21777475
49	0x3e5aa988	0.21353734
50	0xbd3bc797	-0.04584464
51	0x3e877b41	0.26461223
52	0xbc854d65	-0.016272256
53	0x3e4e8b9b	0.20170443
54	0xbca837dd	-0.02053445
55	0x3eb27ed3	0.34862384
56	0x3efdfdca	0.49607688
57	0x3d8f3408	0.06992346
58	0x3d1ea7e9	0.03873435
59	0x3e4c4ca8	0.19951117
60	0x3f0db814	0.55359006
61	0x3e7d6907	0.24747096
62	0xbd5a4610	-0.053289473
63	0x3e146ed0	0.14495397
64	0x3da9b306	0.08286099
65	0xbc83dff5	-0.016098002
66	0x3ea6dade	0.32588857
67	0x3e233c26	0.15940914
68	0xbda78bed	-0.081809856
69	0x3e43b7a5	0.19113024
70	0x3e874f55	0.26427713
71	0x3eb7a548	0.35868287
72	0x3eb3b995	0.35102525
73	0x3e83a591	0.25712255
74	0xbe40aafb	-0.18815224
75	0x3e4ef1c3	0.20209412
76	0x3d9a8609	0.075450964
77	0x3e9013f3	0.2814022
78	0x3e0dfdff	0.13866423
79	0xbdac23ab	-0.084052406
80	0x3e88c3cc	0.2671188
81	0x3e8a3b49	0.26998356
82	0x3e0f74b3	0.14009361
83	0x3ed7aef0	0.42125654
84	0x3e1bb5f2	0.15206125
85	0x3dbd7ebc	0.09252688
86	0x3e50da94	0.20395881
87	0x3ee35c4d	0.44406357
88	0x3d2e8037	0.042602744
89	0x3dac81fc	0.0842323
90	0x3dc8bde3	0.09801843
91	0x3e3b5782	0.182951
92	0x3e891987	0.26777288
93	0x3ecae0fe	0.3962478
94	0x3da83f4e	0.082151994
95	0x3e8e8c9c	0.2784165
96	0x3e4ab390	0.1979506
97	0x3e8d0202	0.27540594
98	0x3d3d3609	0.04619411
99	0x3e99f58a	0.30070144
100	0x3d18d2ed	0.03731053
101	0x3b1b5e8f	0.0023707484
102	0x3dd38c1c	0.10329458
103	0xbdb178d3	-0.086656235
104	0x3ebc58d5	0.36786523
105	0x3dff11dd	0.12454579
106	0x3c79bf23	0.015243324
107	0xbd506da2	-0.050885804
108	0x3e0ec02f	0.139405
109	0x3d555d12	0.052090712
110	0x3e937ef7	0.28807804
111	0x3d7220dc	0.05911337
112	0x3e1b4aba	0.15165225
113	0xbf0a6292	-0.54056656
114	0x3e9a06dc	0.30083358
115	0x3dcc3e8d	0.09972868
116	0x3da55cc8	0.08074337
117	0x3d74495e	0.05964028
118	0x3d52697f	0.05137014
119	0xbd50156f	-0.05080169
120	0x3e96d3f9	0.29458597
121	0x3f2aeb30	0.6676512
122	0xbd481627	-0.04884925
123	0xbd19c9e8	-0.03754607
124	0x3c76e754	0.015069801
125	0x3e7dcf9e	0.24786231
126	0x3e818974	0.2530018
127	0x3ea80043	0.328127
128	0x3d84af24	0.06478718
129	0x3e905ce7	0.2819588
130	0x3d260c4f	0.040539082
131	0x3ea76fbc	0.32702434
132	0x3e8deb18	0.27718425
133	0x3e41400e	0.18872091
134	0x3e56b791	0.20968463
135	0x3f5481db	0.83010644
136	0x3e4c883c	0.19973844
137	0x3d968544	0.07349637
138	0x3edced04	0.4314958
139	0x3e68f32f	0.22749017
140	0x3c881d1f	0.016615449
141	0x3e73ba6b	0.23801582
142	0x3e75500c	0.23956317
143	0x3c26863b	0.010163839
144	0x3e2d1426	0.16902217
145	0x3ea67fa4	0.32519257
146	0xbc8ba648	-0.017047063
147	0x3e820385	0.2539331
148	0x3e2f2e39	0.17107476
149	0x3e586c32	0.21135023
150	0xbc0d44fd	-0.008622405
151	0xbd28ffca	-0.041259564
152	0xbc6f0d09	-0.01459051
153	0xbd9e3076	-0.07724087
154	0x3d6558f8	0.05599305
155	0x3e4e1d0b	0.20128267
156	0xbda16ca4	-0.0788205
157	0xbd44d7e6	-0.04805746
158	0x3d591fec	0.05300896
159	0x3e81524d	0.25258103
160	0x3f13387a	0.5750805
161	0x3e81b15e	0.25330633
162	0x3e5a436f	0.21314786
163	0x3dd83f2e	0.105589256
164	0x3ea0f842	0.31439406
165	0x3e3b6fbc	0.18304342
166	0x3e0b63fb	0.13612358
167	0x3e37631a	0.17908898
168	0x3d8439c7	0.06456333
169	0x3ec6550d	0.38736764
170	0x3e3ef617	0.18648563
171	0x3e397366	0.18110427
172	0xbb619312	-0.0034419936
173	0x3e2c19b6	0.16806683
174	0x3e1d8ce2	0.15385774
175	0x3e5bc5ef	0.21462224
176	0x3e475f4e	0.1946995
177	0xbd6c86bc	-0.05774568
178	0x3d5e5acf	0.05428582
179	0x3e52d6cd	0.20589752
180	0x3da76bb0	0.08174837
181	0x3c4aeaf3	0.012385118
182	0x3e4e05b2	0.2011936
183	0x3e3869a7	0.18009053
184	0x3dc55b3c	0.09636542
185	0x3e8d3fa3	0.27587613
186	0xbc52f7c6	-0.012876457
187	0x3cf4ae37	0.029868228
188	0x3e84ea71	0.25960115
189	0x3e13017c	0.14356035
190	0x3e3840bd	0.17993446
191	0x3e00f755	0.1259435
192	0x3e70e3e0	0.23524427
193	0x3e77d173	0.24200992
194	0xbc68b2c6	-0.014202779
195	0x3e951d8a	0.291241
196	0x3ed6cb16	0.41951817
197	0x3bcda71b	0.006276024
198	0x3e481824	0.19540459
199	0x3e860057	0.26172134
200	0xbd9acac6	-0.07558207
201	0x3eabf12d	0.3358244
202	0x3d5ca39c	0.053866968
203	0xbd2438fa	-0.0400934
204	0xbc3ff490	-0.011716023
205	0xbcdbb433	-0.026819324
206	0x3d4e2120	0.05032456
207	0x3e8bf27c	0.27333438
208	0xbd35f779	-0.04442546
209	0x3e920609	0.2852023
210	0x3e82ed5b	0.25571713
211	0x3d227746	0.03966453
212	0x3e2f95c2	0.17146972
213	0x3ddb7134	0.10714951
214	0x3de70d8e	0.11281882
215	0x3e970c85	0.2950174
216	0xbebcdcc7	-0.3688719
217	0x3e5e2eb3	0.21697502
218	0x3d72abe5	0.059245963
219	0x3df6d628	0.12052566
220	0x3e233e70	0.15941787
221	0x3da4bff3	0.08044424
222	0x3f0c6eb9	0.5485645
223	0xbce7a2ed	-0.028275931
224	0x3defd4cc	0.1171051
225	0xbd504eca	-0.05085639
226	0x3ea3a713	0.31963405
227	0x3afc541d	0.0019251142
228	0x3d2df415	0.042469103
229	0xbd88f48c	-0.066872686
230	0x3e6271aa	0.22113672
231	0x3e493b6f	0.19651578
232	0x3d371685	0.04469921
233	0xbee8938c	-0.4542507
234	0x3e8d37d8	0.27581668
235	0x3e9eba86	0.3100168
236	0x3e87496a	0.26423198
237	0x3ebab4dd	0.36466113
238	0x3e5e0eed	0.21685381
239	0x3d27f21e	0.041002385
240	0x3dcb0c9a	0.09914513
241	0x3db00d4d	0.08596287
242	0x3e1fbe55	0.1559995
243	0xbc2f24e0	-0.010689944
244	0x3e805340	0.25063515
245	0x3ce8ff2c	0.028441988
246	0x3e08c18e	0.13355085
247	0xbc04f45e	-0.008114902
248	0x3e1d0cfb	0.15336983
249	0x3c9ba216	0.018998187
250	0x3d74a1c7	0.059724595
251	0x3ddeaa16	0.10872285
252	0x3e859406	0.26089495
253	0xbd297b0e	-0.04137712
254	0x3eb74eac	0.3580221
255	0x3d51343b	0.0510752

network.layer4.weight f4 [26, 256]
0	0x3dfe578d	0.12419043
1	0x3e20aef0	0.15691733
2	0x3dd3bc7e	0.103386864
3	0x3e019a68	0.12656558
4	0x3e834a3b	0.2564257
5	0x3e4e36bf	0.20138071
6	0x3e443df5	0.1916426
7	0x3f051245	0.51981
8	0x3e3768d8	0.17911088
9	0x3e0e39a2	0.13889173
10	0x3e7503aa	0.23927179
11	0x3e6371b0	0.22211337
12	0x3e4af451	0.19819762
13	0xbd3c4818	-0.04596719
14	0x3be91137	0.007112648
15	0x3e324790	0.17410111
16	0x3e826b83	0.2547265
17	0x3e60e125	0.21960886
18	0x3e1eb4ca	0.15498653
19	0x3e38c5cd	0.18044205
20	0x3e74dae4	0.23911625
21	0x3d0c8c66	0.034313582
22	0xbca2347c	-0.019800417
23	0x3e5b2a53	0.21402864
24	0xbc7753c0	-0.015095651
25	0xbc8949fc	-0.016758911
26	0xbd705532	-0.058675
27	0x3e085c59	0.13316478
28	0x3ea31e1e	0.31858915
29	0x3e59f713	0.21285658
30	0x3e8413fa	0.2579649
31	0x3e82615e	0.2546491
32	0x3e531a29	0.20615448
33	0x3de1a6c7	0.110181384
34	0x3e4f4505	0.20241173
35	0x3e449c72	0.19200304
36	0x3d685bc6	0.056728147
37	0x3e381d7d	0.17979999
38	0x3e6313e5	0.22175558
39	0x3e83333d	0.2562503
40	0x3e6cb9be	0.2311773
41	0x3e825959	0.25458792
42	0x3f091b70	0.5355749
43	0x3ed31541	0.41227153
44	0x3de46e81	0.111538894
45	0x3ea181b0	0.31544256
46	0x3e0dba8c	0.13840693
47	0x3ea41510	0.3204732
48	0x3de40e60	0.11135554
49	0x3e899cc9	0.2687743
50	0xbc28a9e0	-0.010294408
51	0x3e8cfdf5	0.27537504
52	0x3ce712c0	0.028207183
53	0x3e70a417	0.23500095
54	0xbd4b5e0e	-0.049650244
55	0x3e7b1896	0.24521098
56	0x3e02ad00	0.12761307
57	0x3e646dd8	0.22307527
58	0x3cfabbf9	0.03060721
59	0x3e9653ec	0.29360902
60	0x3ef25217	0.47328255
61	0x3e66d223	0.22541098
62	0xbc6560e8	-0.014000155
63	0x3e8cc78d	0.27495995
64	0x3e6fc240	0.23413944
65	0x3e90f15c	0.28309143
66	0x3e8a0b82	0.26961905
67	0x3e221cdc	0.15831321
68	0xbba57270	-0.0050490424
69	0x3e6fdfaa	0.23425165
70	0x3e9f9e94	0.31175673
71	0x3e8c3ec3	0.27391633
72	0x3e1a3bda	0.15061894
73	0x3e84dd70	0.25950193
74	0xbe0f2535	-0.13979037
75	0x3e215190	0.1575377
76	0x3e91b625	0.28459278
77	0x3da5e288	0.08099848
78	0x3e85d7ed	0.261413
79	0x3d236a00	0.03989601
80	0x3e5ec44a	0.21754566
81	0x3e8b56b1	0.27214578
82	0x3e7155a1	0.23567821
83	0x3eaaa1bb	0.33326516
84	0x3e8b6e51	0.27232602
85	0x3e55e52a	0.208882
86	0x3e3836b7	0.17989622
87	0x3e7a58b5	0.24447902
88	0x3e4e6375	0.20155127
89	0x3e785e5c	0.24254745
90	0x3ed46ade	0.41487783
91	0x3e7b70e0	0.24554777
92	0x3eb01220	0.34388828
93	0x3e35fdf2	0.17772654
94	0x3e3ea5a0	0.18617868
95	0x3e919a60	0.2843809
96	0x3e738eab	0.23784892
97	0x3e6164ca	0.22011104
98	0x3e64a922	0.22330144
99	0x3e5e0dc5	0.2168494
100	0x3e5389aa	0.20657983
101	0x3e40e050	0.18835568
102	0x3e443aeb	0.191631
103	0xbc3138b8	-0.010816745
104	0x3e84342c	0.25821054
105	0x3e9cd89a	0.30634004
106	0x3d708f1a	0.058730222
107	0x3e94f816	0.29095525
108	0x3e8f701e	0.28015226
109	0x3e49cb60	0.19706488
110	0x3e19848e	0.14991972
111	0x3e563eb4	0.20922357
112	0x3e5108a7	0.20413457
113	0x3bfef816	0.007781039
114	0x3e7742c6	0.24146566
115	0xbe966787	-0.2937586
116	0x3e6b46e6	0.22976264
117	0x3e948fbf	0.2901592
118	0x3c4fc190	0.012680426
119	0x3d4b074c	0.049567506
120	0x3e59f9b6	0.21286663
121	0xbe390795	-0.18069299
122	0x3b636b14	0.0034701275
123	0x3bac90d0	0.0052662864
124	0xbd4e662e	-0.050390415
125	0x3e47d197	0.19513546
126	0x3f3e334f	0.7429704
127	0x3e76d034	0.2410286
128	0x3ed11b62	0.40841204
129	0x3d100884	0.03516437
130	0x3d7080da	0.058716632
131	0x3f0c6605	0.5484317
132	0x3e97e80a	0.2966922
133	0x3e9285f7	0.28617832
134	0x3e7cdbb4	0.24693185
135	0x3e83cd20	0.25742435
136	0x3e8106ab	0.252004
137	0x3e1281ae	0.14307281
138	0x3e4c21be	0.19934747
139	0x3e80e13d	0.25171843
140	0xbc87e87c	-0.01659035
141	0x3e82bfe5	0.2553703
142	0x3e556ab8	0.20841491
143	0xbcbc7670	-0.023005694
144	0x3e57ddf6	0.21080765
145	0x3f238c86	0.63886297
146	0xbd4b86c0	-0.049689054
147	0x3e8a0605	0.26957718
148	0x3e9e8c7c	0.30966556
149	0x3e733481	0.23750497
150	0xbd4bfaf0	-0.04979986
151	0xbd1987ac	-0.037482902
152	0xbadb6cc0	-0.0016740784
153	0xbac4c540	-0.0015012398
154	0x3e45e340	0.1932497
155	0x3e51e554	0.20497638
156	0xbd709ba2	-0.058742173
157	0xbca92290	-0.020646363
158	0xbbc7ae90	-0.0060938075
159	0x3e28fdbf	0.16503046
160	0x3eae5543	0.34049425
161	0x3e2a96c4	0.16659075
162	0x3e87970c	0.26482427
163	0x3e72a82f	0.2369697
164	0x3e124c47	0.1428691
165	0x3ebd3143	0.36951646
166	0x3e6310d7	0.22174393
167	0x3e61ae82	0.22039226
168	0x3e552174	0.20813543
169	0x3ea7d11a	0.3277672
170	0x3e607f9c	0.21923679
171	0x3e8e2e43	0.2776967
172	0x3c54cb09	0.0129878605
173	0x3e630fcf	0.22173999
174	0x3e40e7d0	0.1883843
175	0x3e6b17fd	0.2295837
176	0x3e5b009e	0.21386954
177	0x3cf72d24	0.030172892
178	0x3e25b5a1	0.16182567
179	0x3e6b57df	0.22982739
180	0x3e7a30e7	0.24432717
181	0x3eae942d	0.34097424
182	0x3e6351da	0.22199193
183	0x3e7a1281	0.24421121
184	0x3e40035c	0.18751281
185	0x3e322a95	0.17399056
186	0x3a2eea80	0.00066725165
187	0xbc3329c0	-0.010935247
188	0x3e7c4a15	0.24637635
189	0x3e5af11f	0.21381043
190	0x3e598e53	0.21245699
191	0x3dff56cb	0.12467726
192	0x3e005abe	0.12534615
193	0x3f2d3c11	0.6766978
194	0x3e7f5d25	0.24937876
195	0x3edd04f6	0.43167847
196	0x3e322477	0.17396723
197	0xbd510638	-0.05103132
198	0x3e34f009	0.17669691
199	0x3e8bf08a	0.27331954
200	0xbd743bdd	-0.059627403
201	0x3e924ac3	0.28572664
202	0x3e6a1ceb	0.22862594
203	0x3d5dd4d4	0.054158047
204	0xbd334baa	-0.04377333
205	0x3c84aca4	0.016195603
206	0xbbb5a170	-0.0055429265
207	0x3e4de0cc	0.20105284
208	0x3d658d08	0.0560427
209	0x3e6c4c2c	0.23075932
210	0x3e7e9c2d	0.24864264
211	0x3c221b78	0.009894244
212	0x3e4d43a8	0.2004534
213	0x3e4e9e35	0.20177539
214	0x3e592efa	0.21209326
215	0x3ed5b51a	0.41739732
216	0xbe344abb	-0.17606632
217	0x3e6e0539	0.2324418
218	0x3e0e8521	0.13917972
219	0x3e3a897c	0.18216509
220	0x3e48cec5	0.19610126
221	0x3e2a93fe	0.16658017
222	0x3e8b9510	0.27262163
223	0x3d350f52	0.044204064
224	0x3e5d64b1	0.21620442
225	0xbd71d496	-0.05904063
226	0x3ddb4ccf	0.107080095
227	0xbe8b4e26	-0.2720806
228	0xbc9c33c8	-0.01906766
229	0x3cce7378	0.025201544
230	0x3f2fb01d	0.686281
231	0x3e6a7a73	0.22898273
232	0x3e5df4b5	0.2167538
233	0xbe53d8b1	-0.2068813
234	0x3e5048ab	0.2034022
235	0x3ea96f3c	0.33092678
236	0x3e8d53f2	0.27603108
237	0x3e3a5312	0.18195751
238	0x3e7a1221	0.24420978
239	0x3e48aa08	0.19596112
240	0x3e0bf54a	0.13667789
241	0xbd75f754	-0.060050324
242	0x3dfb5909	0.122728415
243	0x3d246d7c	0.040143475
244	0x3e8758a2	0.2643481
245	0x3e8dca33	0.27693328
246	0x3e05b362	0.1305671
247	0x3d2f790e	0.042840056
248	0x3e0249cb	0.12723462
249	0x3c953338	0.0182129
250	0x3e43fdcd	0.19139786
251	0x3e6c80ac	0.2309596
252	0x3e6e88de	0.23294398
253	0xbd05e4ea	-0.032689013
254	0x3e3c95a4	0.18416458
255	0x3d4e33ce	0.050342374

network.layer4.bias f4 [26]
0	0xbe3c24de	-0.18373439
1	0x3cb82c41	0.02248204
2	0x3f89e918	1.077426
3	0xbeec116a	-0.46107036
4	0x3ea1ea99	0.31624296
5	0x3ea32e77	0.31871387
6	0x3cf6d88f	0.03013256
7	0x3dab3dde	0.083614096
8	0x3f051eb0	0.5199995
9	0xbe1959ea	-0.14975706
10	0x3e699e21	0.22814228
11	0x3f86aa25	1.0520674
12	0xbe8fdfd7	-0.28100464
13	0x3f7bd0fc	0.9836576
14	0xbea00e05	-0.31260696
15	0xbbacad2a	-0.005269666
16	0x3f4e6d59	0.806356
17	0xbca0a43d	-0.019609565
18	0x3e915159	0.28382376
19	0x3eeb801f	0.45996186
20	0x3e27ac2d	0.16374274
21	0x3c9471db	0.018120697
22	0x3f4f029a	0.80863345
23	0xbe81e727	-0.25371668
24	0x3eacf53e	0.33780855
25	0x3ee3e2dc	0.44509017
