DDQN_panda_env2/runs/results_1/best-model.pt (torch, 162903 bytes, 6 tensors)

network.layer1.weight f4 [128, 3]
-0.20111522 -0.48167726 0.4113932 -0.97492826 -0.4903303 0.6463672 0.044631444 -0.740049
0.07578148 0.882326 0.05755134 -0.29477578 -0.978992 0.42031282 0.38802996 -0.63774306
-0.3686302 0.055408247 -0.6232265 -0.48220152 -0.54387796 -0.7569427 -0.5799069 0.027356058
1.0258465 -0.22426198 0.22836031 -0.4180695 -0.53990275 0.119315855 0.99099976 -0.379023
0.80272883 -0.9455803 -0.08765581 -0.018160911 -0.2747126 -0.83052963 0.504507 1.2266963
-0.09625557 -0.3323435 -0.079850875 -0.65240556 0.14940657 -1.0692743 -0.3380616 -0.13429238
0.118090145 -0.50035477 0.43823066 0.09084976 0.35333025 0.4885656 -0.5059115 0.37775755
0.30451772 -0.96756923 -0.27856773 0.023835544 -0.7938269 -0.3519512 -0.49968374 -0.37210062
-0.62902933 -0.0013647458 -0.13285232 0.017538594 0.3246361 -0.3647327 0.3614373 0.3363548
0.059875738 1.1385615 0.39136454 0.99286157 -0.25115794 0.42652404 -0.96818626 0.30608073
0.28668556 0.7601593 0.3343418 -0.33501223 -0.9624249 0.08626772 0.20823362 -0.58453494
-0.88192636 -0.48773733 -0.73693097 -0.43922332 -0.6565503 0.16225003 0.15241383 -0.348634
-0.3455575 -0.612917 -0.05573494 -1.1169337 -0.2660786 -0.23285209 -1.1687466 -0.5664091
0.092039615 -0.7042122 -0.25123346 -0.011642783 -0.5142395 -0.010307166 0.5882836 -0.9305344
-0.68266654 0.046667013 -0.47532716 -0.26491287 -0.022646936 0.2585842 0.51627845 -0.20512915
0.41468433 -0.50631 0.4552332 0.15124393 -0.76981896 -0.796193 -0.37222108 1.2223449
0.5005657 -0.941282 -0.49264315 -0.43663964 -0.14354509 0.2004182 0.434572 0.3139253
-0.013548879 -0.07254199 -1.0454928 -0.54125535 -0.5607984 0.93887514 -0.3131922 0.6033231
-0.14558478 1.3678085 0.14194547 -0.23829278 -0.75004524 -0.6874911 -0.35703152 -0.4254403
0.15142855 -0.33769724 -0.5890111 0.07647246 -0.22717391 -0.3039709 -0.09499349 -0.3114308
-0.782721 -0.031779733 -0.6768911 -0.56665766 0.42729688 -1.3018731 -0.0037146788 0.056066155
0.2967275 0.15868032 -0.15409021 0.22167225 -0.24085343 0.37188533 -1.3361586 0.039848935
0.041098226 -0.292388 -0.86541384 -0.062304482 0.92579806 -0.2534554 0.55164915 -0.42469713
0.209441 -0.09804124 -0.39501446 -0.48538962 0.4589511 -0.15421224 -0.58115906 0.6123983
-0.7208491 -0.15941286 0.020809421 -0.095235534 -0.3485886 0.20006706 0.5057074 -0.3521331
-0.49709985 -0.53726566 1.2003394 0.46409616 -0.48239213 -0.5655207 0.21383621 -0.7169963
-0.5482314 -0.41987202 -0.23241748 -0.2815474 -0.021863393 0.02484469 -0.64702904 -0.36642337
0.71233743 -0.23149315 0.7217968 -1.1506381 0.36318722 0.20596509 -0.8267479 -0.26687378
0.2999526 0.61940145 -0.40136388 -0.04505856 0.039777666 -0.63459444 -0.2021039 0.103840254
-0.75052255 0.21985273 -0.009143676 -0.07291877 -0.15042147 0.09697286 -0.7634366 -0.73249775
-0.46355683 0.39317423 0.2917091 -1.0015932 -0.23455614 -0.3223077 -0.014725783 -0.57326835
-0.53954357 -0.21787024 0.78285444 0.026008092 -0.4140247 -0.17712131 -0.6070338 -1.0778869
00000000: 26f1 4dbe 679e f6be 21a2 d23e e694 79bf
00000010: 930c fbbe 5278 253f 76cf 363d da73 3dbf
00000020: 5233 9b3d 1ee0 613f f4ba 6b3d daec 96be
00000030: 389f 7abf 3e33 d73e ddab c63e 2143 23bf
00000040: 19bd bcbe c2f3 623d c68b 1fbf 1ee3 f6be
00000050: 963b 0bbf ffc6 41bf c774 14bf d019 e03c
00000060: f04e 833f efa4 65be 49d7 693e 350d d6be
00000070: 1137 0abf df5b f43d 29b2 7d3f 4d0f c2be
00000080: a37f 4d3f 8d11 72bf e484 b3bd 31c6 94bc
00000090: 21a7 8cbe 979d 54bf 5f27 013f 6204 9d3f
000000a0: a421 c5bd ed28 aabe db88 a3bd 0d04 27bf
000000b0: 09fe 183e fbdd 88bf 6916 adbe f183 09be
000000c0: 3fd9 f13d 4017 00bf c55f e03e 700f ba3d
000000d0: b4e7 b43e 4525 fa3e 6b83 01bf 7069 c13e
000000e0: bfe9 9b3e 9eb2 77bf 6ea0 8ebe c242 c33c
000000f0: 3d38 4bbf f332 b4be 8cd6 ffbe f983 bebe
00000100: 1108 21bf 45e1 b2ba 700a 08be 19ad 8f3c
00000110: b436 a63e 3fbe babe 4f0e b93e b236 ac3e
00000120: 4340 753d 62bc 913f ef60 c83e 2d2c 7e3f
00000130: c697 80be 5c61 da3e 0edb 77bf 9db6 9c3e
00000140: 73c8 923e cd99 423f d92e ab3e b986 abbe
00000150: 7a61 76bf 21ad b03d 323b 553e 15a4 15bf
00000160: edc5 61bf b5b8 f9be 82a7 3cbf e1e1 e0be
00000170: ae13 28bf df24 263e 5f12 1c3e 2880 b2be
00000180: eaec b0be 21e8 1cbf 524a 64bd aff7 8ebf
00000190: 743b 88be c770 6ebe 7d99 95bf 3000 11bf
000001a0: 447f bc3d 4047 34bf aca1 80be 5fc1 3ebc
000001b0: 33a5 03bf 63df 28bc c199 163f 8137 6ebf
000001c0: 3cc3 2ebf e925 3f3d 155e f3be a9a2 87be
000001d0: 1186 b9bc 2665 843e d32a 043f 600d 52be
000001e0: 8151 d43e 889d 01bf 5314 e93e b0df 1a3e
000001f0: db12 45bf 4ed3 4bbf c393 bebe cc75 9c3f
00000200: 1325 003f dbf7 70bf b93b fcbe 3b8f dfbe
00000210: 7cfd 12be 6e3a 4d3e 3980 de3e d1ba a03e
00000220: 1efc 5dbc e590 94bd b5d2 85bf b68f 0abf
00000230: 7c90 0fbf 1f5a 703f ba5a a0be 6273 1a3f
00000240: 2d14 15be 5914 af3f 275a 113e 0603 74be
00000250: f702 40bf 6bff 2fbf d6cc b6be 50d3 d9be
00000260: 1610 1b3e a7e6 acbe 6ec9 16bf 989d 9c3d
00000270: 47a0 68be 13a2 9bbe f28b c2bd dc73 9fbe
00000280: 6760 48bf 772b 02bd bc48 2dbf 7a10 11bf
00000290: a8c6 da3e c7a3 a6bf f871 73bb a0a5 653d
000002a0: abec 973e 187d 223e d3c9 1dbe 0dfe 623e
000002b0: 48a2 76be c167 be3e 3f07 abbf a338 233d
000002c0: 9d56 283d e1b3 95be c38b 5dbf fc32 7fbd
000002d0: 1a01 6d3f e8c4 81be e138 0d3f e771 d9be
000002e0: b477 563e d8c9 c8bd 563f cabe fd84 f8be
000002f0: a3fb ea3e d0e9 1dbe d7c6 14bf 23c6 1c3f
00000300: 9189 38bf 203d 23be 8578 aa3c d90a c3bd
00000310: 347a b2be 61de 4c3e 0a76 013f ca4a b4be
00000320: df83 febe 3e8a 09bf b9a4 993f 039e ed3e
00000330: 1afc f6be f7c5 10bf e1f7 5a3e 128d 37bf
00000340: e558 0cbf 77f9 d6be d9fe 6dbe fb26 90be
00000350: dc1a b3bc 1787 cb3c b2a3 25bf d89b bbbe
00000360: bf5b 363f 8a0c 6dbe adc7 383f 1c48 93bf
00000370: adf3 b93e 83e8 523e c0a5 53bf aea3 88be
00000380: 6393 993e 1891 1e3f 917f cdbe 538f 38bd
00000390: e8ed 223d c874 22bf 53f4 4ebe 33aa d43d
000003a0: 3f22 40bf 1321 613e 5bcf 15bc 7056 95bd
000003b0: 1608 1abe b599 c63d 9570 43bf f984 3bbf
000003c0: 5257 edbe 224e c93e e55a 953e 3534 80bf
000003d0: 7c2f 70be 8405 a5be 6944 71bc b7c1 12bf
000003e0: 871f 0abf 6019 5fbe 2669 483f ec0e d53c
000003f0: 0cfb d3be 4a5f 35be 9166 1bbf 33f8 89bf

network.layer1.bias f4 [128]
0.8053961 0.08116046 0.4770546 0.55034345 0.974082 0.47872052 -0.048117813 -0.12365447
0.36043578 0.260632 -0.19126125 0.06750298 0.11058109 0.43974033 0.73396033 -0.02777867
0.9912653 0.673502 0.93626136 0.7392008 0.059648454 0.024158012 0.6542454 0.7736814
0.6522985 0.321989 0.47286218 0.7209399 0.84670186 -0.23353532 0.2671967 -0.45594385
0.5449527 0.5288615 -0.33892936 -0.08698004 0.3307288 -0.120090626 0.66216624 -0.55337626
0.37827516 0.46232724 0.47784814 0.3053806 0.5972261 1.0607092 0.5413297 0.10780003
0.8434266 0.26555985 0.75287825 -0.41540834 0.910645 0.3488098 0.39961666 -0.076858915
-0.16133533 0.90640765 0.019958323 0.28728235 0.23956585 1.1223781 0.49848124 0.3554807
0.6088712 0.5463589 -0.6151861 0.34934366 0.26750138 0.17906304 0.9379082 -0.18684827
0.19748574 0.6542941 0.6450078 -0.18137507 -0.3476863 0.17908847 -0.5199525 0.33382013
1.0061115 0.50607425 0.16699542 0.983884 0.7618745 0.086963125 -0.41637743 -0.13063842
0.24848334 0.73008376 1.0009943 0.20844834 0.16078793 0.87534326 -0.40280366 0.64296526
0.78886396 0.23417105 0.08220094 0.48582602 -0.39542732 0.2973236 -0.5556539 0.07105855
0.35451913 0.7891953 0.21539843 0.7878538 0.06903078 -0.4336428 -0.4648332 -0.20280087
-0.45512846 0.4825883 -0.056261525 -0.41313386 -0.12569247 0.74779725 0.86722577 0.520271
-0.37921837 1.1323376 0.664428 0.6469055 -0.43371692 0.92414546 0.26697075 1.0012522
00000000: 702e 4e3f 7537 a63d 8040 f43e 4fe3 0c3f
00000010: 705d 793f db1a f53e 2f17 45bd 8e3e fdbd
00000020: 0a8b b83e 8f71 853e fdd9 43be 013f 8a3d
00000030: 5778 e23d a525 e13e d3e4 3b3f 1890 e3bc
00000040: 90c3 7d3f a16a 2c3f d3ae 6f3f 433c 3d3f
00000050: f051 743d 06e7 c53c a07c 273f fc0f 463f
00000060: 09fd 263f bedb a43e fe1a f23e 848f 383f
00000070: 74c1 583f e223 6fbe 02ce 883e 7971 e9be
00000080: 0582 0b3f 7863 073f 2688 adbe 9722 b2bd
00000090: 4955 a93e 13f2 f5bd ba83 293f 11aa 0dbf
000000a0: 48ad c13e 28b6 ec3e 83a8 f43e d95a 9c3e
000000b0: cfe3 183f 52c5 873f 9594 0a3f 43c6 dc3d
000000c0: ceea 573f 76f7 873e a1bc 403f 67b0 d4be
000000d0: 0820 693f 3397 b23e 8e9a cc3e 3568 9dbd
000000e0: 1735 25be 550a 683f a37f a33c ac16 933e
000000f0: c050 753e 16aa 8f3f ef38 ff3e 9101 b63e
00000100: fcde 1b3f 2dde 0b3f d67c 1dbf 2cdd b23e
00000110: f1f5 883e 4d5c 373e c01a 703f 2755 3fbe
00000120: b439 4a3e d17f 273f 3b1f 253f 63ba 39be
00000130: f003 b2be f862 373e 9b1b 05bf 79ea aa3e
00000140: 43c8 803f 158e 013f d900 2b3e d2df 7b3f
00000150: 350a 433f b919 b23d 6c2f d5be 14c6 05be
00000160: 6b72 7e3e c5e6 3a3f 9520 803f 7b73 553e
00000170: 97a5 243e 7f16 603f 483c cebe 5f99 243f
00000180: fdf2 493f 89ca 6f3e f758 a83d 30be f83e
00000190: 7375 cabe cd3a 983e 563f 0ebf 2587 913d
000001a0: 8883 b53e b408 4a3f 6891 5c3e c9b0 493f
000001b0: 0260 8d3d 6e06 debe 9efe edbe 08ab 4fbe
000001c0: 9906 e9be d015 f73e 7c72 66bd 4886 d3be
000001d0: 87b5 00be a46f 3f3f 8202 5e3f 7b30 053f
000001e0: e928 c2be 70f0 903f f417 2a3f 999b 253f
000001f0: 2510 debe cc94 6c3f 64b0 883e 0829 803f

network.layer2.weight f4 [256, 128]
-0.07943355 0.05788589 -0.057901748 0.05731883 0.03106623 0.060023457 -0.07637185 -0.072656244
-0.048416927 -0.075080216 0.020291474 0.06463566 0.014311643 -0.032975126 0.018703073 -0.07591416
-0.07118584 -0.06134927 -0.062402923 -0.020086318 0.0074757338 -0.014332448 0.012215504 -0.02186786
-0.009509709 -0.06251874 -0.01900918 -0.041560322 -0.0838754 -0.009228116 -0.055131134 -0.06415918
-0.047559146 0.0669054 -0.059497368 0.06597414 0.057205778 0.010901613 -0.06274807 0.06215639
-0.035564583 -0.03657099 -0.08219868 -0.08100684 -0.02270792 -0.06118249 0.029814098 0.036095623
0.07103689 0.07695206 -0.0038160796 -0.07594136 0.051060732 -0.048879392 -0.06712002 0.06025289
0.011530577 -0.01927546 -0.07724115 0.07288462 0.0353314 -0.06330862 0.03706555 0.08562653
0.07315376 -0.058392 -0.06730856 0.013272053 0.06327536 -0.03627445 -0.080732465 -0.06830522
-0.036968116 -0.069417305 -0.03860513 -0.077320635 -0.06321925 -0.074785635 0.039907932 -0.042770177
-0.06341063 -0.020139134 0.06643681 0.01708489 -0.058892485 -0.0007935812 0.009883689 -0.013737238
-0.065806635 -0.028627057 0.082018085 0.00806533 -0.024357865 0.024619274 0.04786507 -0.033989947
0.012393757 -0.0814525 0.030420097 -0.0147387525 0.012429056 -0.075826354 0.056491315 0.04351371
0.029310957 0.014477981 -0.014135655 0.056064345 -0.0641202 -0.07359734 0.0830334 0.0387842
0.009311798 -0.052290898 -0.036720134 -0.025296781 0.034307335 -0.057673525 -0.01075949 -0.038691815
0.0853244 -0.06485936 -0.08184139 -0.027561752 0.08537742 0.016216643 0.024755921 0.003298836
0.061999016 -0.08591688 0.06933404 -0.08779502 -0.08892185 -0.018348796 -0.021463107 -0.09107172
0.055471927 -0.096340954 -0.028475842 -0.02782727 0.042529535 -0.013853127 0.07202028 -0.053699616
-0.014072483 -0.008991834 0.032748967 0.036313534 -0.0742856 -0.08871279 0.053481195 -0.06339164
-0.045998987 -0.06267436 0.06694871 -0.014708505 -0.05086064 -0.012764038 0.018573493 0.050917417
-0.05741128 0.0724337 -0.05657561 -0.07157472 0.032454185 0.0016841124 -0.021390771 -0.088082224
0.013312847 0.022264043 0.017535625 0.009366617 0.033272766 0.044650786 0.00828202 0.053686887
-0.06191225 -0.068274 0.051205646 -0.005878077 -0.08135133 -0.038100857 -0.08369489 -0.003935332
-0.023918768 0.0062203184 0.032706033 0.01816465 0.043346554 0.015037368 0.017644519 0.010840646
0.06964248 -0.052397948 0.046655014 -0.07431251 0.04616705 -0.019211538 0.062391058 0.06371429
0.051334627 0.014685882 -0.0913373 -0.091273785 -0.019668613 0.016640475 -0.027491493 -0.07142771
0.05069077 0.061594903 0.045904454 0.054752152 0.02630969 -0.07598789 0.033705086 -0.022956675
0.012578854 0.05034934 -0.03271451 -0.062951855 0.037833426 -0.060582653 0.06682889 -0.020583615
0.038941074 0.004372263 0.016707433 0.049296387 0.0031632034 0.01742474 -0.011842169 -0.029760232
0.017163662 -0.021806382 -0.0749461 -0.08105097 -0.084951185 0.036862023 -0.02773898 0.03113457
0.083242476 -0.025861695 0.016623639 0.06934489 0.062322278 -0.013355104 0.016286945 -0.06984005
0.008839505 -0.07711487 0.06950286 0.0112748565 0.013930619 -0.055565137 -0.050077487 0.05485472
00000000: 0fae a2bd c119 6d3d 622a 6dbd 26c7 6a3d
00000010: 9b7e fe3c 28db 753d d868 9cbd cccc 94bd
00000020: d450 46bd a8c3 99bd 4e3a a63c b35f 843d
00000030: 627b 6a3c ed10 07bd 3037 993c e278 9bbd
00000040: e2c9 91bd 5f49 7bbd 359a 7fbd 108c a4bc
00000050: 00f7 f43b a5d2 6abc 8a23 483c 3a24 b3bc
00000060: 9cce 1bbc d309 80bd 24b9 9bbc 283b 2abd
00000070: dec6 abbd 8631 17bc 2fd1 61bd e365 83bd
00000080: 61cd 42bd b305 893d 83b3 73bd 731d 873d
00000090: 9b50 6a3d ae9c 323c 0f82 80bd b397 7e3d
000000a0: 2bac 11bd 76cb 15bd c857 a8bd eae6 a5bd
000000b0: f605 babc 7e9a 7abd b23c f43c 01d9 133d
000000c0: ca7b 913d 0b99 9d3d 3117 7abb 2587 9bbd
000000d0: 0f25 513d c235 48bd 3976 89bd bccb 763d
000000e0: bfea 3c3c 92e7 9dbc 9c30 9ebd 8844 953d
000000f0: a8b7 103d f3a7 81bd 0cd2 173d f65c af3d
00000100: a3d1 953d 732c 6fbd 12d9 89bd 0673 593c
00000110: 8396 813d 8594 14bd 1057 a5bd 9be3 8bbd
00000120: e16b 17bd a92a 8ebd 6a20 1ebd 485a 9ebd
00000130: 1879 81bd 3629 99bd 8076 233d c82f 2fbd
00000140: 6fdd 81bd d3fa a4bc 0610 883d 9cf5 8b3c
00000150: 3f39 71bd 5508 50ba 32ef 213c 2712 61bc
00000160: a1c5 86bd 4a83 eabc 19f9 a73d 7224 043c
00000170: 258a c7bc 5cae c93c 2a0e 443d 0b39 0bbd
00000180: 2f0f 4b3c 91d0 a6bd 9133 f93c cf7a 71bc
00000190: 3da3 4b3c d94a 9bbd 7063 673d 6f3b 323d
000001a0: 881d f03c 0e35 6d3c 3c99 67bc baa3 653d
000001b0: 7451 83bd 34ba 96bd 6a0d aa3d 2edc 1e3d
000001c0: 8390 183c fb2e 56bd da67 16bd 323b cfbc
000001d0: d985 0c3d 133b 6cbd 9248 30bc 4f7b 1ebd
000001e0: 8fbe ae3d fcd4 84bd 759c a7bd 2fc9 e1bc
000001f0: 5bda ae3d c4d8 843c eecc ca3c 4931 583b
00000200: aef2 7d3d 30f5 afbd 01ff 8d3d e0cd b3bd
00000210: a91c b6bd 3750 96bc 66d3 afbc cf83 babd
00000220: 8836 633d 684e c5bd 2b46 e9bc 04f6 e3bc
00000230: 7333 2e3d 3af8 62bc 5e7f 933d 21f4 5bbd
00000240: 4690 66bc 7c52 13bc c823 063d 80bd 143d
00000250: 0c23 98bd 0daf b5bd 190f 5b3d 7ad3 81bd
00000260: 6f69 3cbd 6a5b 80bd 681c 893d f1fb 70bc
00000270: 3f53 50bd 4120 51bc 7027 983c c88e 503d
00000280: 1728 6bbd 1f58 943d d4bb 67bd c495 92bd
00000290: aeee 043d 6fbd dc3a b33b afbc 7464 b4bd
000002a0: 211e 5a3c 1563 b63c dfa6 8f3c 7076 193c
000002b0: 0649 083d bee3 363d 4fb1 073c c8e6 5b3d
000002c0: b397 7dbd 3dd3 8bbd 03bd 513d e29c c0bb
000002d0: 879b a6bd a50f 1cbd 3a68 abbd f5f3 80bb
000002e0: 4bf1 c3bc d0d3 cb3b c3f6 053d 08ce 943c
000002f0: 288c 313d 4b5f 763c 3d8b 903c f79c 313c
00000300: b7a0 8e3d 3b9f 56bd 5419 3f3d 2831 98bd
00000310: a919 3d3d 8461 9dbc c48d 7f3d a37c 823d
00000320: 4244 523d 0e9d 703c 0d0f bbbd c0ed babd
00000330: 1220 a1bc 9b51 883c d735 e1bc b148 92bd
00000340: 20a1 4f3d f04a 7c3d 4f06 3c3d cb43 603d
00000350: 6b87 d73c 8a9f 9bbd 580e 0a3d a30f bcbc
00000360: 8a17 4e3c 1c3b 4e3d a6ff 05bd e7ec 80bd
00000370: 39f7 1a3d 8425 78bd 96dd 883d f89e a8bc
00000380: ad80 1f3d 3345 8f3b 07de 883c 02eb 493d
00000390: bf4d 4f3b 54be 8e3c a805 42bc bbcb f3bc
000003a0: cf9a 8c3c 4ca3 b2bc 577d 99bd 0dfe a5bd
000003b0: e3fa adbd a2fc 163d db3c e3bc ed0d ff3c
000003c0: 087b aa3d e8db d3bc 4c2e 883c b204 8e3d
000003d0: a545 7f3d 5ecf 5abc 336c 853c 4d08 8fbd
000003e0: 92d3 103c 67ee 9dbd 8457 8e3d 2dba 383c
000003f0: 403d 643c 4598 63bd 0d1e 4dbd 58af 603d

network.layer2.bias f4 [256]
0.0736816 0.06566661 0.25926825 0.023045713 0.16865303 0.19468854 0.39299807 0.14277737
0.1616206 0.15362473 0.37179455 0.40771797 0.22354458 0.22086684 0.22795787 0.3260004
0.010809509 0.2471289 0.14193839 0.25547674 -0.0705651 0.36329734 0.20522799 0.25464004
0.15721734 0.0228593 0.19697385 0.42580605 0.3127617 0.17285101 0.20911735 0.378921
0.3339028 0.25651506 0.2984138 0.26481754 0.2003851 0.23137416 0.2972448 0.200182
0.024437627 0.26410604 0.030000253 0.21683304 0.29477745 0.14398211 0.1727214 0.37484524
0.21044827 -0.031799335 0.30983084 0.29389474 0.3347461 0.28969923 0.22997037 0.15613344
-0.08293281 0.0854709 -0.034391113 0.053563952 0.25613648 -0.026216628 -0.07785889 0.04096961
0.26732808 0.3406732 0.2019607 0.26158354 0.31050506 0.27246258 0.08093044 0.05925155
0.3167369 0.22161403 0.23677808 0.02837226 0.2351067 0.25286296 0.12459432 -0.04983976
0.22530323 0.08095288 -0.0026084264 0.44560492 0.278885 0.38648146 -0.058349255 0.36787495
0.019994553 0.18899085 -0.021399956 0.028137121 -0.095826365 0.29299563 0.32926318 -0.037270237
-0.033410363 0.2636495 0.2460132 0.30076864 0.23582584 0.30882978 0.23915884 -0.0067640073
0.02110723 0.37863714 0.20844255 0.31421664 0.0062876805 0.39362663 0.28310415 0.3916216
0.26757884 0.12607494 0.0027539588 -0.07713895 -0.07535425 0.31596124 -0.07423068 0.31445596
0.46381447 0.170382 -0.056833364 0.35414308 0.31665254 0.32768935 0.3627403 0.21411224
0.27296025 -0.051109217 0.1494578 0.001268868 0.26412997 0.24696489 0.19487324 0.0394424
0.27083308 0.36904377 0.42760602 0.22329074 0.06502664 0.36954743 0.38440058 0.2917971
-0.08606833 0.27614692 0.44029835 -0.035854883 0.22599998 0.016773703 0.2679178 0.29784438
0.32228366 0.017401498 0.06266876 0.35601333 -0.08404615 0.21780364 0.06283563 0.0081490725
0.24039488 0.2580733 0.27895287 0.20562644 0.29487902 0.044173826 0.26149118 0.29753384
0.22852178 0.32550293 0.25682566 -0.0499983 0.22039367 0.17810045 0.2355436 0.17316425
0.4230373 0.26882502 0.37085733 0.3136581 0.19519985 0.012328908 0.30772296 0.36394155
0.025430486 0.25944045 0.26540524 0.30248937 0.18751654 0.26152155 0.47304344 -0.0725888
0.1592033 0.24489775 0.28450954 0.14577095 0.24410155 0.05546443 0.24667695 0.20737442
-0.044521023 0.41071656 0.027005782 0.13660222 0.12245573 0.07690222 0.05417863 -0.06008403
-0.09068469 -0.05163263 0.32706794 0.31202865 0.20152502 0.18042064 0.3674905 0.32992488
0.21812387 0.20977513 -0.083478674 0.2701076 0.07256075 -0.06110017 0.2383363 0.24748729
0.2654304 0.4096819 -0.045825485 0.33248106 -0.037769366 0.3699719 0.26714325 -0.08661256
0.33560812 -0.07601238 0.34924605 0.21577644 0.38754514 0.2623123 0.4079232 0.20248553
0.28089368 -0.09586339 -0.040456094 0.25530297 0.28111497 0.15657295 0.18933888 0.070868775
0.21603227 0.1592931 0.20209688 0.3954978 0.32366937 0.1936229 0.26245794 0.07349551
00000000: 61e6 963d 377c 863d cfbe 843e 5dca bc3c
00000010: 61b3 2c3e 6f5c 473e 0b37 c93e 3b34 123e
00000020: df7f 253e cd4f 1d3e db5b be3e 69c0 d03e
00000030: dfe8 643e eb2a 623e ca6d 693e 86e9 a63e
00000040: 5e1a 313c 5c0f 7d3e 4c58 113e d9cd 823e
00000050: 6f84 90bd 1c02 ba3e 4927 523e 2e60 823e
00000060: 95fd 203e 6d43 bb3c 83b3 493e 4003 da3e
00000070: 4d22 a03e dbff 303e dc22 563e ef01 c23e
00000080: 4ff5 aa3e f155 833e b2c9 983e 2a96 873e
00000090: c031 4d3e 59ed 6c3e 7830 983e 83fc 4c3e
000000a0: 6b31 c83c e838 873e 17c3 f53c 7b09 5e3e
000000b0: 12ed 963e 0c70 133e e1dd 303e b7eb bf3e
000000c0: c07f 573e 0540 02bd 26a2 9e3e 5f79 963e
000000d0: d763 ab3e 7553 943e 5a7d 6b3e 72e1 1f3e
000000e0: add8 a9bd 5e0b af3d b2dd 0cbd e065 5b3d
000000f0: 5224 833e 41c4 d6bc 7b74 9fbd c0cf 273d
00000100: 3adf 883e b86c ae3e c9ce 4e3e 47ee 853e
00000110: 85fa 9e3e 3780 8b3e dcbe a53d c1b1 723d
00000120: 572b a23e caee 623e f475 723e f16c e83c
00000130: d0bf 703e 4177 813e 4f2b ff3d c724 4cbd
00000140: e4b5 663e a0ca a53d 22f2 2abb 5426 e43e
00000150: 04ca 8e3e e6e0 c53e a1ff 6ebd 1b5a bc3e
00000160: 9ecb a33c d186 413e f64e afbc d27f e63c
00000170: 9d40 c4bd 8603 963e 2f95 a83e ada8 18bd
00000180: 4ed9 08bd 11fd 863e e2ea 7b3e 59fe 993e
00000190: 547c 713e f01e 9e3e 0ee6 743e 9ba4 ddbb
000001a0: 12e9 ac3c badc c13e f771 553e 01e1 a03e
000001b0: e308 ce3b 6e89 c93e 07f3 903e a082 c83e
000001c0: 1800 893e ca19 013e c37b 343b 07fb 9dbd
000001d0: 5453 9abd acc5 a13e 4106 98bd 5f00 a13e
000001e0: 1779 ed3e 9e78 2e3e 1aca 68bd 3e52 b53e
000001f0: 4820 a23e e6c6 a73e 19b9 b93e 3d40 5b3e
00000200: 72c1 8b3e e657 51bd 770b 193e 2550 a63a
00000210: 0b3c 873e 5de4 7c3e da8c 473e 5b8e 213d
00000220: a2aa 8a3e 4ef3 bc3e 2def da3e 54a6 643e
00000230: b02c 853d 5235 bd3e 27d0 c43e 6e66 953e
00000240: 9844 b0bd 2163 8d3e c96e e13e 92dc 12bd
00000250: 8a6c 673e 0169 893c 862c 893e 0f7f 983e
00000260: 5d02 a53e 968d 8e3c 7b58 803d 6147 b63e
00000270: 6320 acbd eb07 5f3e f7af 803d b083 053c
00000280: 132a 763e 2f22 843e e9d2 8e3e bd8f 523e
00000290: 62fa 963e 9def 343d 2ce2 853e 5b56 983e
000002a0: 9d01 6a3e 52a8 a63e a77e 833e 04cb 4cbd
000002b0: e1ae 613e f75f 363e 5732 713e f851 313e
000002c0: 5898 d83e 6fa3 893e 03e1 bd3e cb97 a03e
000002d0: 78e2 473e 30ff 493c dd8d 9d3e 8c56 ba3e
000002e0: 9853 d03c 61d5 843e 32e3 873e e3df 9a3e
000002f0: 5604 403e 27e6 853e c032 f23e 70a9 94bd
00000300: 3106 233e 7ac6 7a3e 3cab 913e fb44 153e
00000310: c2f5 793e ac2e 633d e298 7c3e f659 543e
00000320: ad5b 36bd 7149 d23e 3b3b dd3c 74e1 0b3e
00000330: 12ca fa3d e97e 9d3d 69ea 5d3d ac1a 76bd
00000340: e5b8 b9bd bd7c 53bd 7375 a73e 38c2 9f3e
00000350: 935c 4e3e 30c0 383e b727 bc3e eaeb a83e
00000360: dd5b 5f3e 4bcf 563e def6 aabd 8b4b 8a3e
00000370: bb9a 943d 2c44 7abd 6e0e 743e 4f6d 7d3e
00000380: 7ee6 873e d3c1 d13e 81b3 3bbd f53a aa3e
00000390: 0db4 1abd f56c bd3e 00c7 883e ed61 b1bd
000003a0: d4d4 ab3e 61ac 9bbd 61d0 b23e 80f4 5c3e
000003b0: 516c c63e cc4d 863e 4fdb d03e 5e58 4f3e
000003c0: 4cd1 8f3e 0654 c4bd 4ab5 25bd 12b7 823e
000003d0: 4dee 8f3e a954 203e 0de2 413e a623 913d
000003e0: 9037 5d3e bb1d 233e 7cf2 4e3e b07e ca3e
000003f0: feb7 a53e 1545 463e e360 863e d084 963d

network.layer4.weight f4 [26, 256]
0.051247567 0.035799317 0.16472697 -0.03496332 0.21520531 0.25841448 0.15676795 0.06016282
0.16669814 0.17697118 0.21744461 0.2530389 0.1784031 0.15196046 0.085455954 0.19337007
0.042052835 0.1125957 0.35902005 0.12805793 0.05789141 0.1244336 0.19599943 0.12752387
0.08083379 0.034144912 0.14541383 0.2879289 0.26164663 0.179307 0.12391353 0.13232289
0.1971916 0.09004051 0.1697611 0.007867926 0.24329719 0.08502302 0.20701617 0.14179671
0.27303317 0.102418356 -0.011737261 0.077281326 0.21164344 0.15029153 0.19294214 0.17175838
0.14013398 -0.010925107 0.18861708 0.17104632 0.09238036 0.17083496 0.226814 0.2012601
0.018542547 0.060509667 -0.035764463 -0.01448983 0.073445 -0.0614971 0.05220922 0.057328235
0.1461753 -0.0019333082 0.06795081 0.55548507 0.13905366 0.1600747 0.034076832 0.0419975
0.12424122 0.22853792 0.11844877 -0.023385383 0.1561454 0.13444127 0.21399115 0.03970655
0.14175794 -0.045486905 0.0088775 0.5045195 0.25791752 0.11644807 0.04656051 0.08811966
0.04046476 0.24125043 0.01888062 0.047273308 0.041434675 0.14018494 0.1083347 0.05317355
0.04676397 0.23054248 0.19280514 0.2466972 0.096303254 0.10779981 0.14852105 0.0084715905
-0.05961762 0.099840805 0.18336473 0.06604961 -0.055405855 0.16717725 0.26574555 0.17237824
0.13595292 0.17413294 0.1346377 0.02851953 -0.017261013 0.12239657 -0.04129283 0.13915059
0.21508038 0.03702785 0.013562905 0.1658388 0.097941905 0.21696913 0.20428479 0.13672063
0.090542994 -0.054657154 0.19910215 0.054375164 0.124551505 0.15887766 0.15640754 -0.043317154
0.20238121 0.23305628 0.11591145 0.19864364 0.044236794 0.365495 0.47455263 0.1947902
0.015461564 0.13731608 0.3583106 0.04522519 0.07104391 0.050962623 0.15404198 0.44635826
0.14987335 -0.008448407 0.019828225 0.28482223 -0.050408967 0.53779614 -0.039980233 0.029997349
0.14554611 0.18018378 0.14060397 0.15513565 0.21334782 0.046426382 0.24554509 0.16865762
0.18035813 0.22357175 0.16604477 0.0074048564 0.1987184 0.1391544 0.09783267 0.16365294
0.26910248 0.12145446 0.16373329 0.1410907 0.17908415 -0.04568381 0.14546078 0.16073374
-0.05835571 0.20771322 0.16689916 0.20475917 0.14759372 0.12761761 0.52998453 0.0015326291
0.21775809 0.46026555 0.09701288 0.15449883 0.16728535 0.048822686 0.23997392 0.22031678
0.079407126 0.27284563 0.041265212 0.15322618 0.20589887 -0.020489015 -0.008033957 -0.022096343
0.055673942 0.016888382 0.21697478 0.13850811 0.14595681 0.20489751 0.18511635 0.17893374
0.13722356 0.11515816 0.042799234 0.07251122 -0.0069292923 0.031972997 0.23355827 0.16420764
0.12560879 0.10477885 0.013076832 0.13792478 0.03260712 0.12094901 0.17694902 -0.040840432
0.21478492 0.06205392 0.24660905 0.16268054 0.2072796 0.15812886 0.31652015 0.18413067
0.09391254 0.022086827 0.013344087 0.18228021 0.14860399 -0.17336926 0.03665972 -0.05821328
0.08022198 0.17183866 0.18077011 0.15663993 0.22897936 0.17811473 0.1319644 -0.03139598
00000000: f8e8 513d 4ea2 123d 30ae 283e b335 0fbd
00000010: c85e 5c3e e74e 843e c787 203e 4a6d 763d
00000020: ebb2 2a3e ef37 353e cda9 5e3e 518e 813e
00000030: 4daf 363e 869b 1b3e 8803 af3d ce02 463e
00000040: 983f 2c3d 9398 e63d 7ad1 b73e 9e21 033e
00000050: 8b1f 6d3d 0bd7 fe3d 13b4 483e 9e95 023e
00000060: 308c a53d 89db 0b3d 5de7 143e 6b6b 933e
00000070: 8cf6 853e 419c 373e 60c6 fd3d a77f 073e
00000080: 98ec 493e 2967 b83d dbd5 2d3e 79e8 003c
00000090: e622 793e 8d20 ae3d 0cfc 533e 2833 113e
000000a0: 01cb 8b3e b7c0 d13d a44d 40bc ac45 9e3d
000000b0: 0fb9 583e 06e6 193e a092 453e 6ee1 2f3e
000000c0: 487f 0f3e 38ff 32bc d624 413e c426 2f3e
000000d0: ea31 bd3d 5cef 2e3e ee41 683e 2117 4e3e
000000e0: 8ae6 973c fcd8 773d c27d 12bd c066 6dbc
000000f0: 556a 963d 62e4 7bbd 56d9 553d 03d1 6a3d
00000100: faae 153e 0f67 fdba cb29 8b3d 4534 0e3f
00000110: 1564 0e3e 9fea 233e 2694 0b3d 9205 2c3d
00000120: 2e72 fe3d d805 6a3e 4595 f23d b492 bfbc
00000130: 94e4 1f3e f9aa 093e 7f20 5b3e 56a3 223d
00000140: fe28 113e 7a50 3abd ef72 113c 3128 013f
00000150: c40d 843e 537c ee3d 3cb6 3e3d 1578 b43d
00000160: 60be 253d 5a0a 773e 88ab 9a3c a8a1 413d
00000170: 68b7 293d a48c 0f3e 95de dd3d 82cc 593d
00000180: 948b 3f3d 5413 6c3e b66e 453e 319e 7c3e
00000190: a43a c53d 26c6 dc3d e715 183e 6dcc 0a3c
000001a0: 9b31 74bd 5679 cc3d f7c3 3b3e 0545 873d
000001b0: 40f1 62bd 8330 2b3e cd0f 883e ec83 303e
000001c0: 3e37 0b3e e84f 323e 77de 093e caa1 e93c
000001d0: f866 8dbc 0eab fa3d ac22 29bd 7e7d 0e3e
000001e0: 083e 5c3e 84aa 173d f236 5e3c a5d1 293e
000001f0: c495 c83d 282d 5e3e 0830 513e 7e00 0c3e
00000200: 9b6e b93d 2ee0 5fbd 6fe1 4b3e 7eb8 5e3d
00000210: dc14 ff3d d3b0 223e 4c29 203e 546d 31bd
00000220: 053d 4f3e 4ea6 6e3e fb62 ed3d 3d69 4b3e
00000230: a431 353d 2922 bb3e 90f8 f23e 1577 473e
00000240: 8052 7d3c 969c 0c3e 7d74 b73e 0d3e 393d
00000250: 787f 913d 2fbe 503d 2ebd 1d3e 1289 e43e
00000260: 6678 193e 306b 0abc cd6e a23c 38d4 913e
00000270: a279 4ebd 02ad 093f 50c2 23bd 00bd f53c
00000280: 0a0a 153e 1982 383e 7dfa 0f3e e1db 1e3e
00000290: da77 5a3e 9729 3e3d 2c70 7b3e 95b4 2c3e
000002a0: cdaf 383e feef 643e a407 2a3e 70a4 f23b
000002b0: d67c 4b3e 7e7e 0e3e 7f5c c83d a394 273e
000002c0: cdc7 893e 1ebd f83d b3a9 273e 157a 103e
000002d0: d661 373e f21e 3bbd acf3 143e 6397 243e
000002e0: 6606 6fbd c6b2 543e 9de7 2a3e 63ac 513e
000002f0: cf22 173e 31ae 023e 11ad 073f 80e2 c83a
00000300: fafb 5e3e eda7 eb3e b0ae c63d f134 1e3e
00000310: da4c 2b3e 4cfa 473d b9bb 753e b99a 613e
00000320: 34a0 a23d 6cb2 8b3e b605 293d 53e7 1c3e
00000330: 27d7 523e 94d8 a7bc dca0 03bc 6403 b5bc
00000340: 5c0a 643d 8159 8a3c a32e 5e3e 12d5 0d3e
00000350: b475 153e a7d0 513e 248f 3d3e 683a 373e
00000360: 5584 0c3e 0bd8 eb3d 404e 2f3d c380 943d
00000370: 1e0f e3bb 1ef6 023d e629 6f3e 0c26 283e
00000380: 979f 003e 4b96 d63d 3540 563c 273c 0d3e
00000390: 0b8f 053d 1db4 f73d 2032 353e 4c48 27bd
000003a0: 94f0 5b3e 402c 7e3d 1587 7c3e ba95 263e
000003b0: 1a41 543e 88ec 213e ee0e a23e c08c 3c3e
000003c0: 3855 c03d 6fef b43c 28a1 5a3c aaa7 3a3e
000003d0: a52b 183e b687 31be 8128 163d 0c71 6ebd
000003e0: 6c4b a43d 79f6 2f3e cd1b 393e 3866 203e
000003f0: 9179 6a3e b563 363e ad21 073e 1299 00bd

network.layer4.bias f4 [26]
0.022307482 -0.0075707724 0.22869548 0.019999344 -0.065282956 0.26413548 0.007570817 -0.070770346
0.20018291 -0.12023418 0.2124094 0.40708467 -0.1154024 0.6207141 -0.26444978 -0.005117466
0.08998527 -0.0317792 0.20950791 0.30870882 0.09757958 0.17063282 0.12874946 -0.1974103
0.1529677 0.2523756
00000000: 2ebe b63c 3e14 f8bb 262f 6a3e aad5 a33c
00000010: 12b3 85bd c43c 873e 9e14 f83b 0bf0 90bd
00000020: c0fc 4c3e 563d f6bd da81 593e 676d d03e
00000030: 1858 ecbd 1fe7 1e3f f665 87be 6bb0 a7bb
00000040: 324a b83d e82a 02bd 3e89 563e 150f 9e3e
00000050: ced7 c73d 5fba 2e3e e6d6 033e ed25 4abe
00000060: 91a3 1c3e 6037 813e
