DDQN_panda_env1/best-model.pt (torch, 162903 bytes, 6 tensors)

network.layer1.weight f4 [128, 3]
0	0xbf238b9a	-0.6388489
1	0xbe39ae5a	-0.18132916
2	0x3ee77d8e	0.45212978
3	0xbf3fd65a	-0.7493645
4	0xbf33d229	-0.70242554
5	0x3e4ceb8a	0.20011726
6	0xbeb06e97	-0.34459373
7	0x3eabde2c	0.3356794
8	0x3f2af696	0.6678251
9	0xbf09a5a8	-0.53768396
10	0xbf1d545c	-0.6145685
11	0xbd09b7c4	-0.03362252
12	0x3ec52134	0.38501894
13	0xbe12e54d	-0.14345284
14	0x3e0e86c0	0.1391859
15	0xbef0d6f9	-0.4703901
16	0xbee1d3cc	-0.441069
17	0xbde6895c	-0.11256668
18	0x3e9bc16f	0.30421016
19	0xbf07e277	-0.5307993
20	0x3f22901b	0.6350114
21	0xbe2c9e9e	-0.16857383
22	0xbe7b7042	-0.24554542
23	0x3eefa78f	0.46807525
24	0x3f01c1c4	0.5068629
25	0xbeadac4e	-0.3392052
26	0xbbacf13b	-0.0052777804
27	0x3e3a4d54	0.18193561
28	0xbe6d2534	-0.23158723
29	0xbeb02159	-0.34400442
30	0xbf2b0d8b	-0.6681754
31	0xbee04403	-0.4380189
32	0x3e5c6bfa	0.21525565
33	0x3ec181f8	0.3779447
34	0x3f0e1f91	0.55516917
35	0xbe874d4d	-0.26426163
36	0xbe77e2f5	-0.24207671
37	0xbebfcb82	-0.37459952
38	0x3ebb3858	0.36566424
39	0xbec9e190	-0.39429903
40	0x3f0a6000	0.54052734
41	0xbf03bae0	-0.51457024
42	0x3e85b805	0.26116958
43	0xbe536306	-0.20643243
44	0x3ed38841	0.4131489
45	0x3ea8cc24	0.32968247
46	0x3f144963	0.5792448
47	0xbdc8be36	-0.09801905
48	0xbefd5880	-0.49481583
49	0x3eae019d	0.33985606
50	0x3e9c280a	0.30499297
51	0xbd08dbbf	-0.03341269
52	0xbee2e513	-0.44315395
53	0x3f1485a1	0.580164
54	0x3e83c535	0.25736395
55	0xbdad7609	-0.08469779
56	0xbee27df9	-0.44236735
57	0x3d7596cd	0.059958268
58	0xbf0e2b37	-0.5553469
59	0x3e6a0f99	0.22857513
60	0xbf27d248	-0.6555524
61	0xbe8d2c5d	-0.2757291
62	0xbd80f995	-0.06297604
63	0xbeab7f78	-0.33495688
64	0xbf294071	-0.66113955
65	0xbee840d8	-0.45361972
66	0xbe325e88	-0.17418873
67	0xbbc5b799	-0.0060338494
68	0x3f01c92d	0.50697595
69	0x3f215250	0.63016224
70	0xbca12d06	-0.01967479
71	0xbf083bf6	-0.53216493
72	0xbf3cb94e	-0.7372025
73	0xbeb3bc9b	-0.35104832
74	0xbe8ce2a3	-0.2751666
75	0xbe0933ca	-0.13398662
76	0xbeca5fee	-0.39526314
77	0xbeeab43a	-0.45840627
78	0xbf1d777f	-0.6151046
79	0x3be93629	0.007117052
80	0x3f0e629c	0.55619216
81	0xbee1a4b9	-0.44070986
82	0xbf2e1544	-0.680012
83	0x3f1a9832	0.6038848
84	0xbf043c71	-0.51654726
85	0x3e85ea32	0.2615524
86	0x3e5c3df8	0.21508014
87	0x3ea396eb	0.3195108
88	0xbec03569	-0.3754075
89	0x3eb9735c	0.36220825
90	0x3e9d5628	0.30729795
91	0x3e9ce3b0	0.30642462
92	0xbee6f8bb	-0.4511164
93	0x3da5d2a3	0.080968164
94	0x3dffe34f	0.124945275
95	0xbf263400	-0.64923096
96	0x3e875d36	0.26438302
97	0x3e13005c	0.14355606
98	0xbe05c141	-0.13062002
99	0xbd22df27	-0.039763596
100	0x3e22e990	0.1590941
101	0xbf00b07f	-0.5026931
102	0xbeb736a1	-0.35783866
103	0xbf112e95	-0.56711704
104	0xbe1de346	-0.15418729
105	0xbedf5698	-0.43620753
106	0xbec0c430	-0.3764968
107	0x3f081dd6	0.53170526
108	0x3ed5f382	0.41787344
109	0x3eab96e3	0.33513555
110	0x3efac75d	0.48980227
111	0xbf15df9f	-0.58544344
112	0xbf2aa772	-0.6666175
113	0x3da95ff4	0.08270255
114	0xbf0a540d	-0.540345
115	0x3ec81a82	0.39082724
116	0x3efb8dd5	0.49131647
117	0xbdacb2bc	-0.084325284
118	0xbcd31e79	-0.025771366
119	0xbdf9db5f	-0.12200045
120	0x3d885d3c	0.06658408
121	0xbd6378d1	-0.05553514
122	0x3e5481de	0.20752665
123	0x3df67f56	0.12036006
124	0x3f09914d	0.53737336
125	0xbe8289c1	-0.25495723
126	0x3e5fe78d	0.21865673
127	0xbdf48765	-0.11939887
128	0xbeddd58c	-0.43326986
129	0x3ea7d846	0.3278219
130	0x3eaffcc6	0.34372538
131	0x3f225024	0.63403535
132	0xbc8a8e82	-0.016913656
133	0xbea7f6d7	-0.3280551
134	0xbec5696c	-0.38556993
135	0x3e607a6a	0.21921697
136	0xbf0ca21a	-0.5493485
137	0xbea9b3ed	-0.33145085
138	0x3f041bbd	0.51604825
139	0xbde878d2	-0.1135117
140	0x3eb7349d	0.35782328
141	0xbd95c6d9	-0.07313318
142	0xbeaa0531	-0.33207086
143	0x3e24f171	0.16107728
144	0x3ea700de	0.3261785
145	0xbd09120d	-0.03346448
146	0xbdc0c3dc	-0.09412357
147	0xbeb12eaa	-0.34605914
148	0xbf36f013	-0.71460074
149	0x3e7264a6	0.23671207
150	0xbea95137	-0.33069775
151	0xbf1804a7	-0.593821
152	0x3f0d11ae	0.551051
153	0x3d92d782	0.07170011
154	0xbe0c91e1	-0.13727523
155	0xbe4f3600	-0.20235443
156	0xbdb7f7a7	-0.08982783
157	0x3eb8afe1	0.36071685
158	0xbe2095eb	-0.15682189
159	0x3eb46b14	0.35237944
160	0xbd864796	-0.06556623
161	0x3f0dc7d9	0.5538307
162	0xbf3ff3aa	-0.74981177
163	0xbcfa2539	-0.030535327
164	0xbed4367a	-0.41447812
165	0x3f10ee72	0.5661384
166	0x3e48f1ad	0.19623442
167	0x3f00d551	0.50325495
168	0x3dd2cdda	0.10293169
169	0x3efc37f2	0.49261433
170	0x3f2af8e1	0.6678601
171	0xbe1a581d	-0.15072675
172	0x3ec9df35	0.39428106
173	0x3e8a824a	0.27052528
174	0xbf16459b	-0.5869996
175	0x3e1972ac	0.1498515
176	0x3e705d75	0.23473151
177	0x3ea31811	0.318543
178	0x3e079880	0.13241768
179	0x3d0f9853	0.035057377
180	0xbead3ba5	-0.33834568
181	0x3e5506af	0.20803331
182	0xbe1c1c67	-0.1524521
183	0x3e265d7d	0.162466
184	0x3f0226aa	0.50840247
185	0x3f1794a9	0.5921121
186	0xbdb50951	-0.088396676
187	0xbe4382c4	-0.19092852
188	0xbd8b99e1	-0.068164594
189	0x3f0f7334	0.5603516
190	0x3e4963de	0.19667003
191	0x3c99cbd9	0.01877396
192	0x3efff23a	0.49989492
193	0x3c66f2d9	0.014095985
194	0x3f1f9591	0.62337595
195	0xbf02eb61	-0.5114041
196	0xbe4de592	-0.20107105
197	0x3f27c3bf	0.6553306
198	0x3f0d4b4d	0.55193025
199	0x3cdc3522	0.026880804
200	0xbd9dde24	-0.077083856
201	0xbe7f3d95	-0.24925835
202	0xba3592a3	-0.00069264526
203	0x3e271dc8	0.16319954
204	0xbf00d22e	-0.5032071
205	0x3e3becda	0.1835207
206	0x3ee8a10f	0.45435378
207	0x3ed4e141	0.41578105
208	0xbe369ac3	-0.17832474
209	0xbefe70d2	-0.4969545
210	0xbdf048fd	-0.117326714
211	0x3c441e17	0.011970065
212	0xbe25857c	-0.16164201
213	0x3eb3d7b8	0.35125518
214	0xbec5b444	-0.38614094
215	0x3d8c2e01	0.06844712
216	0xbf207e03	-0.6269228
217	0xbe1ac47f	-0.1511402
218	0xbdad010b	-0.084474646
219	0xbee71408	-0.4513247
220	0x3ebde29e	0.37086958
221	0x3ead7ba1	0.33883384
222	0xbf18dcc2	-0.5971185
223	0xbf2e4d0f	-0.6808633
224	0x3ee80e0e	0.45323223
225	0x3cc4cfbf	0.024024842
226	0xbd7f0c40	-0.062267542
227	0x3ebaf18f	0.3651242
228	0xbcf2138b	-0.029550334
229	0x3e8742f2	0.26418263
230	0x3e91ead6	0.28499478
231	0x3e29ca7b	0.16581146
232	0xbf179815	-0.59216434
233	0xbeddaea9	-0.43297318
234	0xbef0a8c3	-0.47003755
235	0x3e70f58f	0.23531173
236	0x3e102a85	0.1407872
237	0x3f0b8222	0.5449544
238	0x3eda0832	0.42584378
239	0x3e4c96f9	0.19979466
240	0x3dcc9ea3	0.09991195
241	0x3eade611	0.3396459
242	0x3e1f3a37	0.15549551
243	0x3eb846f6	0.3599164
244	0x3d92824f	0.07153761
245	0xbf29dd9f	-0.6635379
246	0x3e87f1c6	0.26551646
247	0x3ec6e4e1	0.38846496
248	0xbe0ea5b6	-0.13930401
249	0x3e08eff9	0.13372792
250	0xbeb0fee9	-0.3456948
251	0x3eacb908	0.33734918
252	0xbf38ffff	-0.7226562
253	0xbd2a8e2c	-0.041639492
254	0x3c4706b6	0.012147596
255	0x3e9f8ba5	0.31161228

network.layer1.bias f4 [128]
0	0x3f265c8b	0.6498496
1	0xbe18d871	-0.14926316
2	0x3e97d7ca	0.2965682
3	0x3d5afc8d	0.053463507
4	0x3edfeaa7	0.43733713
5	0x3f0b9b51	0.5453387
6	0x3d941000	0.07229614
7	0x3ed0e83b	0.40802178
8	0x3d4196d7	0.047262993
9	0x3e32dfbf	0.17468165
10	0x3e4b89d2	0.19876793
11	0xbe92e79f	-0.28692338
12	0x3ed0bbfd	0.40768424
13	0xbf1134df	-0.567213
14	0x3e0b55d0	0.13606954
15	0x3f0977ad	0.53698236
16	0xbe1e9d84	-0.15489775
17	0x3ecf99b3	0.4054695
18	0xbe09b1ec	-0.13446778
19	0x3dbe69ea	0.09297545
20	0x3e096bca	0.13420025
21	0x3e9610ae	0.293096
22	0xbe6b543d	-0.22981353
23	0x3ecc4149	0.3989356
24	0x3f1b08d4	0.60560346
25	0xbe5e8724	-0.2173124
26	0x3eeeb307	0.46620962
27	0x3eafd88c	0.343449
28	0xbeca3df6	-0.39500397
29	0x3da66b3e	0.081259236
30	0xbea80808	-0.32818627
31	0x3eedb1b3	0.46424636
32	0xbf06fe75	-0.5273202
33	0xbed68d5e	-0.4190473
34	0xbe04d023	-0.12970023
35	0xbe843184	-0.25819027
36	0x3e9ceafd	0.30648032
37	0x3c6ce500	0.014458895
38	0x3f2f1631	0.68393236
39	0x3f27b37d	0.6550825
40	0xbea7677c	-0.3269614
41	0xbee2da33	-0.44307098
42	0x3ee15d34	0.4401642
43	0xbe3829e4	-0.1798473
44	0xbe0a9343	-0.13532738
45	0x3da3bd86	0.07995133
46	0xbedcb4fd	-0.43106833
47	0x3e83b99e	0.25727552
48	0xbf0750c2	-0.528576
49	0x3f347118	0.7048507
50	0x3f17ada9	0.5924936
51	0x3f35e5f0	0.7105398
52	0xbe78f9eb	-0.24314086
53	0xbef7a72a	-0.48369724
54	0x3e63c348	0.22242463
55	0x3e12b35b	0.14326231
56	0x3f24d4fe	0.643875
57	0xbe552f2e	-0.20818779
58	0x3d64996e	0.055810384
59	0xbea6e63f	-0.3259754
60	0xbf123980	-0.5711899
61	0x3ed65c84	0.4186746
62	0x3ef02557	0.46903488
63	0x3e33c110	0.17554116
64	0x3edbf60a	0.4296115
65	0x3efa2580	0.48856735
66	0x3ec0424f	0.3755059
67	0xbeeda55b	-0.4641522
68	0xbeb513f2	-0.3536678
69	0x3f0a48f2	0.54017556
70	0xbf0ba21d	-0.5454424
71	0x3db684f3	0.08912077
72	0x3e19de83	0.15026288
73	0xbebe0afe	-0.3711776
74	0x3e54453d	0.20729537
75	0x3f34a9e1	0.70571715
76	0x3f176b54	0.59148145
77	0x3e53d1da	0.20685521
78	0x3f12f9e6	0.57412565
79	0xbe961a62	-0.29317003
80	0xbd9a313a	-0.075289205
81	0x3c6d90af	0.014499827
82	0xbe81128a	-0.25209457
83	0x3f1fa60d	0.6236275
84	0xbd95d895	-0.073167
85	0xbeaa9460	-0.33316326
86	0x3eea32ed	0.45741978
87	0x3ef1227f	0.4709663
88	0x3e822171	0.2541614
89	0xbef40b2f	-0.47664782
90	0x3db14beb	0.08657058
91	0x3eea0f5f	0.45714852
92	0x3d4a451a	0.049382307
93	0x3d9fd905	0.07805065
94	0xbf144d70	-0.5793066
95	0x3eeff774	0.4686848
96	0x3dc8bfe8	0.09802228
97	0x3f0fda2c	0.5619228
98	0x3f08e510	0.5347452
99	0x3f0dc64b	0.55380696
100	0xbee3628b	-0.4441112
101	0x3eafb340	0.34316444
102	0xbe25071f	-0.16115998
103	0x3e60e449	0.21962084
104	0x3ddc827f	0.10767078
105	0x3bf2e835	0.007412935
106	0x3eb2da81	0.3493233
107	0x3ed6ef64	0.41979516
108	0x3e231cd4	0.15928966
109	0x3c0fa248	0.008766718
110	0x3ec6a513	0.38797817
111	0x3e89f8c3	0.26947603
112	0x3eca1aa1	0.3947344
113	0x3e84eea0	0.25963306
114	0x3ef98fb0	0.48742437
115	0x3e8b3c43	0.27194414
116	0x3eb55aac	0.3542074
117	0xbe8b7751	-0.2723947
118	0xbe7dff65	-0.24804457
119	0xbe2ad8dd	-0.1668429
120	0xbdeb9f9a	-0.11505051
121	0x3ec7daf8	0.39034247
122	0x3f1806e6	0.59385526
123	0x3d6d6dfd	0.05796622
124	0x3eae1985	0.34003845
125	0x3e69ae0d	0.22820301
126	0xbdc3a39f	-0.095526926
127	0x3d573b87	0.052547004

network.layer2.weight f4 [256, 128]
0	0x3da31903	0.07963755
1	0x3e1e4391	0.15455462
2	0x3cc2186e	0.02369329
3	0x3e174b9d	0.14774938
4	0x3d2e8196	0.04260405
5	0x3e49efb9	0.19720353
6	0xbb819a7c	-0.0039551836
7	0x3e1ca7fe	0.15298459
8	0x3c50fcf9	0.012755626
9	0x3daec11c	0.085329264
10	0x3dd2c9b2	0.102923766
11	0xbd9cfbc7	-0.0766521
12	0x3dac8c98	0.08425254
13	0x3d948282	0.07251455
14	0x3d98e035	0.07464639
15	0x3d93da92	0.07219423
16	0x3bddc3bc	0.006767718
17	0x3a0f9f6c	0.0005478773
18	0xbd8fd696	-0.07023351
19	0x3d506801	0.050880436
20	0x3e3f47c7	0.18679725
21	0x3e06f283	0.13178448
22	0x3d2d66b6	0.04233428
23	0xbd853f30	-0.06506193
24	0x3df5cabc	0.12001559
25	0x3d8569d1	0.065143235
26	0x3d6c8f6d	0.05775397
27	0x3dc14fc5	0.09439043
28	0x3d237c85	0.039913673
29	0x3cf9f0cc	0.030510329
30	0xbd1bdb8d	-0.038051177
31	0x3d495418	0.049152464
32	0x3daaad10	0.0833379
33	0xbd87db2f	-0.06633603
34	0x3e0a1be8	0.13487208
35	0x3d405429	0.04695526
36	0xbc2bd32e	-0.010487361
37	0x3d8347de	0.06410192
38	0x3d939867	0.07206803
39	0x3e63a25a	0.22229901
40	0x3bc2cd1d	0.0059448616
41	0x3cca9cb1	0.02473292
42	0x3d25ae9e	0.04044973
43	0x3deefd5c	0.11669418
44	0x3df6aff8	0.12045282
45	0x3e3a169b	0.18172686
46	0xbd271e45	-0.04080035
47	0x3df9a407	0.12189489
48	0x3d69496c	0.056954786
49	0x3e220f29	0.15826096
50	0x3ca3034c	0.019899033
51	0x3e3b7f53	0.18310289
52	0xbd91f8c8	-0.071275294
53	0x3d9a9208	0.075473845
54	0x3e0f721c	0.14008373
55	0x3ccae407	0.024766935
56	0x3d676e4b	0.056501668
57	0x3da94937	0.08265918
58	0x3d6f1e59	0.05837855
59	0xbd033cc6	-0.03204038
60	0xbc8cdd51	-0.017195376
61	0x3e053f12	0.1301234
62	0x3e539eba	0.20666018
63	0xbe0b74cb	-0.13618772
64	0x3de092f5	0.1096553
65	0x3e0132d2	0.12617043
66	0x3ccda20c	0.025101684
67	0x3df0a2a4	0.11749771
68	0x3d1b833b	0.037966948
69	0x3c48bc5e	0.0122519415
70	0x3d1ebd40	0.0387547
71	0x3dd6ad63	0.1048229
72	0x3dea234a	0.11432512
73	0x3ceab097	0.028648658
74	0x3d6fcb32	0.05854339
75	0x3e17e5d0	0.1483376
76	0x3e06ff7d	0.13183399
77	0x3dbe9dfd	0.093074776
78	0x3dda6e11	0.10665525
79	0x3ccaccaa	0.024755795
80	0x3dbe3eba	0.09289308
81	0x3d5ac0a2	0.053406365
82	0x3da4be7d	0.08044145
83	0x3b762663	0.0037559501
84	0x3e80832b	0.25100073
85	0xbc9b0b79	-0.018926369
86	0x3e37c6c5	0.17946918
87	0x3e10e92c	0.14151448
88	0x3e386cd6	0.18010268
89	0x3dbdc79b	0.09266587
90	0xbe4576f8	-0.19283664
91	0x3d8a99a2	0.067675844
92	0x3e5576cc	0.20846099
93	0x3e42e2dc	0.19031852
94	0x3d98e805	0.07466129
95	0x3d559100	0.052140236
96	0x3e131a66	0.14365539
97	0x3c81be77	0.015837891
98	0x3dcd77b3	0.100325964
99	0x3e12a969	0.14322437
100	0xbafae990	-0.0019143093
101	0x3d21e37a	0.03952358
102	0x3e370fe2	0.17877153
103	0x3dec144c	0.11527309
104	0x3e4095d8	0.18807161
105	0x3d064998	0.03278503
106	0x3e36c5ad	0.17848845
107	0x3d6bd67f	0.057577606
108	0x3d55d84c	0.05220823
109	0xbd45e21d	-0.04831134
110	0x3cb08997	0.021549983
111	0x3d7a9d04	0.061184898
112	0x3ca3a001	0.019973757
113	0x3e4e8a2c	0.20169896
114	0x3e3251be	0.17413995
115	0x3db30b46	0.087423846
116	0xba0d3981	-0.0005387292
117	0x3e34b6d7	0.17647873
118	0x3d83f7e7	0.06443768
119	0x3e0a0537	0.13478552
120	0x3d6e1af3	0.05813117
121	0x3e43f911	0.1913798
122	0xbcaa3176	-0.020775538
123	0x3de8ccfc	0.11367223
124	0x3d30a0a6	0.043121956
125	0x3d90b292	0.070653096
126	0x3da5c5b1	0.08094347
127	0x3e4e9525	0.20174082
128	0x3d9f09b9	0.07765526
129	0x3d93ae91	0.0721103
130	0xbd8b2aa4	-0.067952424
131	0xbd844963	-0.0645931
132	0x3d67ef67	0.056624796
133	0xbdb1e724	-0.08686665
134	0x3b99e78c	0.004696792
135	0xbd62d125	-0.055375237
136	0xbd4a2739	-0.049353812
137	0x3c50bb93	0.012740034
138	0x3c4a770f	0.012357487
139	0x3d3cefd1	0.046127144
140	0xbd81f313	-0.06345191
141	0xbd14bf37	-0.03631517
142	0x3d72fe40	0.059324503
143	0x3ca4e717	0.020129723
144	0xbca578e9	-0.020199256
145	0xbd5d6712	-0.054053374
146	0x3d2966c2	0.041357763
147	0x3d170fec	0.03688042
148	0x3cfa337a	0.030542124
149	0xbc383fa5	-0.011245643
150	0x3da54f1d	0.0807173
151	0x3d8d5194	0.069003254
152	0xbd644e65	-0.055738825
153	0x3d1fd7df	0.03902423
154	0x3d8c4ec4	0.06850961
155	0xbd07e0f2	-0.03317351
156	0xbdb07bd2	-0.08617367
157	0xbd96ae7e	-0.073575005
158	0x3d95b1a4	0.07309273
159	0x38f82c21	0.00011833781
160	0xbd4ef758	-0.050528854
161	0x3d489de2	0.048978694
162	0xbcab5efb	-0.020919314
163	0xbd9bd9a9	-0.07609875
164	0xbd1ce199	-0.038301084
165	0x3d0aacfb	0.033856373
166	0xbb9d62db	-0.0048030443
167	0xbd0b960d	-0.034078646
168	0xbb809251	-0.0039236923
169	0xbd76843e	-0.06018471
170	0xbd023fb8	-0.03179905
171	0xbd87f32c	-0.06638178
172	0xbbac7502	-0.005262972
173	0xbcad3d79	-0.021147477
174	0x3d38e716	0.045142256
175	0x3d4e641f	0.05038845
176	0x3d8868b3	0.06660595
177	0x3d8dca33	0.06923332
178	0x3c727dca	0.014800498
179	0x3d23e0d8	0.04000935
180	0xbb9409eb	-0.004517784
181	0x3d5039eb	0.050836485
182	0xbd5c826c	-0.053835317
183	0x3b851ba7	0.0040621343
184	0xbd81d58b	-0.06339558
185	0x3b9a74b4	0.004713619
186	0xbbd2c450	-0.0064320937
187	0xbd5689d8	-0.05237755
188	0xbd91de6e	-0.07122503
189	0x3b7e2c7f	0.0038783846
190	0x3c95b38d	0.018274093
191	0xbc4b14ec	-0.012395125
192	0xbd34c34f	-0.044131573
193	0xbd452a08	-0.048135787
194	0x3d0eb83b	0.034843665
195	0x3d37b8e6	0.044854067
196	0xbd95da45	-0.07317022
197	0xbd0f2c29	-0.034954224
198	0x3d7a1c8a	0.061062373
199	0x3ca78190	0.020447522
200	0xbd6f4a9d	-0.058420766
201	0x3d8f43fb	0.06995388
202	0xbd5197a0	-0.05116999
203	0x3d9579a4	0.07298592
204	0xbd70c47f	-0.058781143
205	0xbd0dc863	-0.03461493
206	0xbbec5bd5	-0.0072130957
207	0xbd716966	-0.058938406
208	0xbd08c237	-0.033388343
209	0x3cc2d69b	0.023783972
210	0xbc9e6fe3	-0.019340461
211	0x3c5d4127	0.013504303
212	0x3d83f1d1	0.06442607
213	0xbda50962	-0.0805843
214	0x3d047009	0.032333408
215	0x3c95a3f3	0.018266654
216	0xbdb4836b	-0.088141285
217	0xbc87f4e6	-0.016596269
218	0x3d07ed90	0.03318554
219	0x3d22d148	0.039750367
220	0x3d446ac5	0.047953386
221	0x3c10901d	0.008823422
222	0x3d9a0680	0.07520771
223	0xbd1ec9cd	-0.03876667
224	0x3cef0f6e	0.029182162
225	0x3d327dbf	0.043576952
226	0x3d9f6fec	0.07785019
227	0xbd10f22e	-0.03538721
228	0x3c8d5932	0.017254446
229	0xbc82ed64	-0.015982337
230	0xbd633f03	-0.055480015
231	0x3ca355be	0.019938346
232	0xbd5bb406	-0.05363848
233	0x3d3aea1d	0.045633424
234	0x3d2c80bb	0.042114954
235	0x3c07468e	0.008256568
236	0x3d98b159	0.074557014
237	0xbd89a954	-0.0672175
238	0x3beeadfb	0.0072839237
239	0xbd976215	-0.073917545
240	0xbd7277a2	-0.059196122
241	0x3d3f629f	0.04672491
242	0xbcb25226	-0.021767687
243	0xbce0be35	-0.027434448
244	0xbd436450	-0.047703087
245	0xbca90ac2	-0.020635013
246	0xbc1f2c44	-0.009715144
247	0x3d74bb4c	0.059748933
248	0xbd6409c0	-0.05567336
249	0x3db2032b	0.086920105
250	0xbd3cc8cb	-0.04608993
251	0xbd97164a	-0.07377298
252	0x3bdac5dc	0.0066764187
253	0xbc63dece	-0.013908101
254	0x3d1003b5	0.035159785
255	0x3b662970	0.0035119914

network.layer2.bias f4 [256]
0	0x3e006691	0.12539126
1	0xbbe9e4a7	-0.007137853
2	0x3e4191e3	0.18903308
3	0xbd9fa85d	-0.077957846
4	0x3e1dcaef	0.15409444
5	0xbdaf1669	-0.08549196
6	0x3da77cff	0.08178138
7	0x3df526a8	0.11970264
8	0x3e24791f	0.16061829
9	0x3e323e79	0.17406644
10	0x3e505a9e	0.20347068
11	0x3bcde333	0.006283188
12	0x3dc46754	0.09590021
13	0xbd808a28	-0.06276351
14	0x3df10218	0.117679775
15	0x3dccc924	0.09999302
16	0x3d915875	0.0709695
17	0x3b688b7f	0.0035483537
18	0xbc680383	-0.0141609935
19	0x3e11e86d	0.1424882
20	0x3e4afd37	0.19823156
21	0x3de39f7d	0.11114404
22	0x3e4c8700	0.19973373
23	0x3e03b907	0.12863551
24	0x3db56ff0	0.08859241
25	0x3da6f458	0.081520736
26	0x3d6fa0b0	0.058502853
27	0x3da3d6ab	0.07999929
28	0x3d99d0e3	0.07510545
29	0x3dd3cede	0.10342191
30	0xbd7f5e13	-0.062345576
31	0x3c2d21e5	0.010567163
32	0x3dbfa2a4	0.09357193
33	0x3d2ab4de	0.041676395
34	0x3e147b16	0.14500079
35	0x3e3fe3cc	0.18739241
36	0xbc19a876	-0.009378543
37	0x3e073cba	0.13206759
38	0x3dc60797	0.096694164
39	0x3e0f1186	0.13971528
40	0x3e5fb7fc	0.21847528
41	0xbd93c4e0	-0.07215285
42	0xbd9c2796	-0.07624738
43	0x3dd3c335	0.10339967
44	0x3e164b91	0.14677264
45	0xbd0bbb00	-0.034113884
46	0x3e43f2f8	0.19135654
47	0x3e50d543	0.20393853
48	0x3d07956e	0.03310149
49	0x3dd50eda	0.10403223
50	0x3e3a8bfa	0.1821746
51	0x3d8a9be5	0.06768016
52	0x3d5edbf8	0.054408997
53	0x3e35c480	0.1775074
54	0x3da27806	0.07933049
55	0x3da1ba55	0.07896868
56	0x3e687e2d	0.22704382
57	0x3dda1a94	0.106496006
58	0x3df3b846	0.11900382
59	0x3d2fd866	0.042930983
60	0xbd021d8d	-0.031766463
61	0x3daf63ed	0.08563981
62	0x3d93d3c1	0.07218123
63	0x3aa76cdb	0.001277353
64	0x3e5b20d8	0.21399248
65	0x3d069470	0.032856405
66	0x3e0a76e8	0.13521922
67	0x3d4f4d87	0.050611045
68	0x3e377984	0.17917448
69	0x3c8f6819	0.017505692
70	0x3c8af148	0.016960755
71	0x3d4fa770	0.05069679
72	0x3e1508fc	0.14554209
73	0xbccb17c5	-0.024791608
74	0x3e428913	0.18997602
75	0x3e187d24	0.14891487
76	0x3c25b82e	0.010114713
77	0xbd5cc8bd	-0.053902376
78	0x3dc15071	0.09439171
79	0x3dd63613	0.104595326
80	0x3deeaf9a	0.11654587
81	0x3d8cca69	0.06874544
82	0x3c211f21	0.009834082
83	0x3d526e13	0.051374506
84	0x3e261bf4	0.16221601
85	0x3de033b8	0.109473646
86	0x3de3060f	0.1108514
87	0x3caf16b3	0.021373129
88	0x3ceaf9be	0.02868354
89	0x3d37651b	0.044774156
90	0xbd6c50cc	-0.05769424
91	0xbd9c719e	-0.07638858
92	0x3e0a50cc	0.13507384
93	0x3cd655e2	0.026163999
94	0xbc5852b0	-0.013203308
95	0xbc0247c2	-0.007951679
96	0x3e3fb132	0.18719938
97	0x3d117ab8	0.035517424
98	0xbc3a278d	-0.011361969
99	0xb8910242	-6.914559e-05
100	0x3e1a4990	0.15067124
101	0x3de7dc29	0.11321289
102	0xbbeba0a0	-0.007190779
103	0x3d528d0c	0.051404044
104	0x3df35e1f	0.118831865
105	0xbd2b9ba0	-0.041896462
106	0x3d5a56b7	0.053305354
107	0xbdb4aab7	-0.08821624
108	0x3e091ec8	0.13390648
109	0xbd830499	-0.06397361
110	0xbbc94ce6	-0.0061432
111	0x3c2b03e2	0.010437937
112	0x3d60fc08	0.054927856
113	0x3d928fb7	0.07156318
114	0x3e0263df	0.1273341
115	0x3d402fa4	0.046920434
116	0x3dd4010a	0.10351761
117	0xbc3a10f3	-0.01135658
118	0x3e2a253f	0.16615771
119	0x3d92e577	0.07172673
120	0x3c06f64f	0.0082374355
121	0x3dab5ad1	0.08366931
122	0xbbe7f6e4	-0.007078992
123	0x3de6c134	0.11267319
124	0xbc825f8d	-0.015914703
125	0x3e3065f7	0.17226397
126	0x3de3d7a9	0.11125118
127	0x3e6874ef	0.22700857
128	0x3d82573d	0.06364296
129	0x3da8c808	0.08241278
130	0xbda49903	-0.08036997
131	0x3ce773d5	0.028253475
132	0x3da0cbf7	0.07851403
133	0xbd4bd18b	-0.049760383
134	0x3dadb13f	0.08481073
135	0x3dbe30d4	0.09286657
136	0x3bcf3233	0.006323123
137	0x3b8c1381	0.004274786
138	0x3d26849e	0.040653817
139	0x3cd2c111	0.025726827
140	0x3d6d5796	0.057944857
141	0x3d315082	0.04328967
142	0xbb06e36a	-0.0020582327
143	0x3e09d52d	0.13460226
144	0xbcadb5c5	-0.021204839
145	0x3dd92adc	0.10603878
146	0x3d368f37	0.044570174
147	0xbd8d78a9	-0.0690778
148	0x3d89adc2	0.06722595
149	0x3d169095	0.036758978
150	0x3daeb9fe	0.08531569
151	0x3e040c17	0.12895237
152	0x3d3641a2	0.044496186
153	0x3df5e0cb	0.120057665
154	0xbdb4701a	-0.08810444
155	0x3d5361e6	0.051607035
156	0x3e2cb16d	0.16864558
157	0xbdb876cd	-0.090070345
158	0x3c23fa0a	0.010008344
159	0x3dbbd08a	0.09170635
160	0x3d791ebc	0.060820326
161	0x3e38ba4d	0.18039818
162	0x3e53b168	0.20673144
163	0xbdb18d93	-0.08669581
164	0x3dc2b6f2	0.0950755
165	0x3e16c04a	0.1472179
166	0x3d5c813e	0.053834192
167	0x3d39c4c6	0.045353673
168	0x3dc1404f	0.09436094
169	0xbd74b30d	-0.05974107
170	0x3d3d38ab	0.04619662
171	0x3d8fa591	0.07014001
172	0x3d5fcd6c	0.054639265
173	0x3dc4df3f	0.09612893
174	0x3dc4f79d	0.09617541
175	0xbc7311d6	-0.014835795
176	0x3e048a1d	0.12943311
177	0x3d80b286	0.06284051
178	0x3da3217a	0.079653695
179	0x3e0728de	0.13199183
180	0x3e2a0db7	0.16606794
181	0x3e250a81	0.16117288
182	0x3e1ed246	0.155099
183	0xbcc94d2b	-0.02457293
184	0xbd414375	-0.047183473
185	0x3e3d2a95	0.18473275
186	0x3e0f3eea	0.13988844
187	0x3d9de24d	0.07709179
188	0x3d834e17	0.06411379
189	0x3cb35280	0.021889925
190	0x3d97aff3	0.074066065
191	0x3df2fc66	0.118645474
192	0xbaeea9d5	-0.0018208573
193	0xbdc21cba	-0.094781354
194	0xbd0f5d0d	-0.03500085
195	0x3cee6e8e	0.029105451
196	0xbd2d0a8a	-0.04224638
197	0x3d9a2c66	0.075279996
198	0x3d9e855f	0.07740282
199	0x3e234a3a	0.15946284
200	0x3de2b56f	0.11069762
201	0x3c3e09be	0.011599002
202	0x3e0106ca	0.12600246
203	0x3e1b141c	0.1514439
204	0x3e0b8d07	0.13628016
205	0x3d632b52	0.055461235
206	0xbd87c2d0	-0.066289544
207	0x3d0458a8	0.03231111
208	0x3d9bdc1c	0.07610342
209	0x3d118bef	0.03553384
210	0x3e1871a3	0.14887099
211	0xbc7d8735	-0.01547413
212	0x3e4a373c	0.19747633
213	0x3e1b6b0a	0.15177551
214	0x3da69f99	0.081359096
215	0x3e4424ed	0.19154711
216	0x3d35a9df	0.044351455
217	0xbd51773c	-0.0511391
218	0x3b879552	0.0041376734
219	0x3e0cfd82	0.1376858
220	0x3dbf53f1	0.093421824
221	0x3c80410a	0.015656013
222	0x3ca64e73	0.02030108
223	0x3da09d6e	0.07842527
224	0x3e3bee8a	0.18352714
225	0x3c3a8def	0.011386379
226	0xbdb04d6e	-0.086085185
227	0x3b322058	0.0027179923
228	0x3d3eb313	0.046557497
229	0x3d83daba	0.06438203
230	0x3e121370	0.14265227
231	0x3da0379e	0.07823108
232	0x3df6194a	0.12016542
233	0x3e48863f	0.19582461
234	0x3ba37f13	0.0049895137
235	0x3dd94863	0.1060951
236	0x3dd78529	0.10523445
237	0xbb5332a4	-0.003222623
238	0x3d8f8033	0.07006874
239	0xbdb5788b	-0.08860882
240	0x3caf235e	0.02137917
241	0x3e6b6e27	0.22991239
242	0xbdbca73f	-0.09211587
243	0x3d887a19	0.06663913
244	0xbd8dd063	-0.06924512
245	0x3c755b69	0.014975407
246	0x3d3589d5	0.0443209
247	0x3dc68042	0.09692432
248	0x3dcf8fa3	0.101348184
249	0xbd0ae8e0	-0.033913493
250	0x3c5bd1b9	0.013416701
251	0x3cb2c07d	0.021820301
252	0xbd053234	-0.03251858
253	0xbd937e93	-0.072018765
254	0x3d75847b	0.059940796
255	0x3d715b6d	0.05892508

network.layer4.weight f4 [26, 256]
0	0x3d4106f2	0.047125764
1	0xbbf03d70	-0.0073315427
2	0x3e178bc4	0.1479941
3	0x3d106dae	0.03526085
4	0x3dbe5927	0.09294348
5	0x3cf44ab8	0.029820785
6	0x3dfec293	0.12439456
7	0x3d4f2f27	0.050582077
8	0x3ca3ad08	0.019979969
9	0x3d565b09	0.05233291
10	0x3c46278a	0.012094388
11	0x3cfb2a6e	0.03065988
12	0x3dbc2654	0.09186998
13	0x3c17aa30	0.009256884
14	0x3dd72ba8	0.10506374
15	0x3d159700	0.036520958
16	0x3dc13790	0.09434426
17	0x3d296d60	0.041364074
18	0x3d773e0c	0.060361907
19	0x3dcb24c6	0.09919123
20	0x3d0f3ffa	0.034973122
21	0x3dcba2d8	0.09943169
22	0x3c7354cb	0.014851759
23	0x3cdea631	0.027178856
24	0x3d8cba65	0.068714894
25	0x3d1f2f01	0.038863186
26	0x3d40d755	0.047080357
27	0x3d79a016	0.060943685
28	0x3cde1eec	0.027114354
29	0x3d4d7f7e	0.050170414
30	0x3c947f04	0.018126972
31	0xbbd7e710	-0.006588824
32	0x3b3f5d88	0.0029200036
33	0x3c7cb322	0.015423568
34	0x3d4eda60	0.050501227
35	0x3cb15147	0.021645201
36	0xbc2dd5a7	-0.010610021
37	0x3ddb4dee	0.10708223
38	0x3dc9e79a	0.098586276
39	0x3dd05316	0.101720974
40	0x3c93da4b	0.018048426
41	0x3d46840a	0.048465766
42	0x3cf10a46	0.029423844
43	0x3dda0b48	0.10646683
44	0x3d236e0c	0.03989987
45	0x3dabec62	0.08394696
46	0x3d14a7a0	0.036292672
47	0x3dbb8f45	0.09158186
48	0x3d4b94db	0.049702507
49	0x3c256728	0.010095395
50	0x3d3e990a	0.04653267
51	0x3c8fc5b3	0.017550325
52	0x3c8689c7	0.01642312
53	0x3d57d1ab	0.05269019
54	0x3cd6063e	0.026126023
55	0x3d3becb3	0.04588003
56	0x3cde03bb	0.027101388
57	0x3dba6710	0.09101689
58	0x3c82d991	0.015972884
59	0x3c4d8d97	0.012545965
60	0x3ddca92e	0.10774456
61	0x3da1caa6	0.0789998
62	0x3d4151d7	0.04719719
63	0x3b6e69a5	0.0036378887
64	0x3d936ca2	0.071984544
65	0x3d26f164	0.04075755
66	0x3dad06ca	0.084485605
67	0x3c33b599	0.010968589
68	0x3db70685	0.089367904
69	0xbc0a1dd8	-0.008429967
70	0x3de9d2eb	0.114171825
71	0x3c7717f0	0.015081391
72	0x3bae7e9c	0.0053251516
73	0x3c252d34	0.010081578
74	0x3ba66525	0.0050779753
75	0x3d3c9eec	0.046049997
76	0x3cc2c4c6	0.02377547
77	0x3d702552	0.05862934
78	0x3d86b1f4	0.065769106
79	0x3dd39865	0.10331801
80	0x3dc93e65	0.09826354
81	0x3de77165	0.11300925
82	0x3d4a8d38	0.049451083
83	0x3da1d783	0.07902434
84	0x3bec595e	0.007212802
85	0x3dd6a80d	0.10481272
86	0x3dd4f956	0.103991196
87	0x3d36aa46	0.04459598
88	0xbba8a478	-0.0051465593
89	0xbc0662c3	-0.008202258
90	0x3cfad908	0.030621067
91	0x3d211adc	0.039332256
92	0x3d01104f	0.031509694
93	0xbcd82f78	-0.026389822
94	0x3d7f6a18	0.06235704
95	0x3d17bebc	0.037047133
96	0x3d5cf735	0.053946692
97	0xbc63dc88	-0.013907559
98	0xbbdbccd0	-0.006707765
99	0x3ce97cea	0.028501946
100	0x3da6a10d	0.08136187
101	0x3deaaec6	0.11459117
102	0xbd351888	-0.044212848
103	0x3c0d22a0	0.008614212
104	0x3e1b896e	0.15189144
105	0xbd64d2b4	-0.055865005
106	0xba9fe840	-0.0012199953
107	0x3c7b1212	0.0153241325
108	0x3dcd2a98	0.1001789
109	0x3bdf21cc	0.006809449
110	0x3d39c4d9	0.045353744
111	0x3d8cc7bd	0.068740346
112	0x3db16707	0.08662229
113	0x3e1298cb	0.14316098
114	0x3bfbc3d0	0.007683255
115	0x3bcb1483	0.0061975135
116	0x3dc9deaf	0.09856927
117	0x3dda1e9a	0.10650368
118	0x3ddfa848	0.10920769
119	0x3d9cc2dc	0.07654354
120	0x3ccc66eb	0.024951419
121	0x3d26448d	0.04059272
122	0x3cddebfc	0.027090065
123	0x3d12529b	0.03572331
124	0xbd7d8b3c	-0.061900362
125	0x3db098cf	0.08622896
126	0x3d9bc0ab	0.07605108
127	0x3bb91c7b	0.005649147
128	0x3cfc25fb	0.03077983
129	0x3d37e29a	0.04489384
130	0x3dd57355	0.104223885
131	0x3d877cd2	0.066156045
132	0x3c4adc48	0.012381621
133	0xbbfe1510	-0.0077539757
134	0x3b957b3d	0.0045618103
135	0x3d5a7c6b	0.05334131
136	0xbc873c0c	-0.016508125
137	0x3cc2c128	0.023773745
138	0xbc9b6d78	-0.018973097
139	0x3d8d0933	0.0688652
140	0x3cb09b48	0.021558419
141	0x3d18debb	0.037321787
142	0x3a3a31a3	0.00071027334
143	0x3cebcbf0	0.028783768
144	0x3df3f0bb	0.1191115
145	0x3d26f87e	0.040764324
146	0x3cc61885	0.024181614
147	0x3d94fe70	0.072750926
148	0x3e190706	0.14944085
149	0xbd7b4f18	-0.061354727
150	0x3c83416d	0.016022408
151	0x3dc5381a	0.09629841
152	0x3d1ac4e0	0.03778541
153	0x3d82e166	0.063906476
154	0x3d31279c	0.043250665
155	0x3dccee3d	0.10006378
156	0x3dcb7f48	0.09936386
157	0x3d34ea7c	0.044168934
158	0x3dd75f2e	0.10516201
159	0x3de4b8bc	0.11168048
160	0x3c9a87f2	0.018863652
161	0x3d0198f5	0.03164001
162	0x3dcba6e2	0.0994394
163	0xbd648004	-0.055786148
164	0x3daa464c	0.08314189
165	0x3db6a24d	0.08917675
166	0x3d0c7525	0.034291405
167	0x3dbb8107	0.091554694
168	0x3dba93b0	0.091102004
169	0xbca9b074	-0.020714022
170	0x3d551170	0.052018583
171	0x3d6b1344	0.05739142
172	0x3d18b2af	0.03727978
173	0x3d6a3867	0.057182696
174	0x3a7a08e3	0.00095380674
175	0x3cfbdba4	0.030744381
176	0x3e01e05d	0.12683244
177	0x3d2b0151	0.041749302
178	0x3d6a88a0	0.057259202
179	0x3dbbf93c	0.09178397
180	0x3c7d07d9	0.015443766
181	0x38e73e1c	0.00011026507
182	0x3cdc0665	0.026858518
183	0xbd1da4ac	-0.03848712
184	0x3d35c520	0.044377446
185	0x3de3fe92	0.1113254
186	0x3d08185d	0.03322636
187	0xbd657390	-0.056018412
188	0xbaa13e74	-0.0012301938
189	0xbbffe9e0	-0.0078098625
190	0x3dd646bf	0.104627125
191	0x3dc41e47	0.095760874
192	0x3c8d6bc0	0.017263293
193	0x3da0d947	0.07853942
194	0x3c30926c	0.010777097
195	0xbd1f8dcc	-0.038953587
196	0x3d59aaaa	0.053141274
197	0x3d85238a	0.06500919
198	0x3daf355c	0.08555099
199	0x3d9bd3a6	0.07608728
200	0x3d8dbbb5	0.06920568
201	0xbc994a60	-0.018712223
202	0x3c99bcd7	0.018766804
203	0x3ced5234	0.028969862
204	0x3e0d800e	0.1381838
205	0x3d9fa07f	0.07794284
206	0x3d789e42	0.0606978
207	0x3dd39ece	0.10333024
208	0x3d230bbf	0.039806124
209	0x3d1df3e6	0.038562678
210	0x3d39f4ba	0.045399405
211	0xbce9f5f2	-0.028559659
212	0x3d1c9e23	0.03823675
213	0x3dc2ed76	0.09517948
214	0x3dae2b73	0.08504381
215	0x3c5ac641	0.0133529315
216	0xbd1e7ebc	-0.038695082
217	0x3ce06604	0.027392395
218	0xb8aa0c00	-8.108467e-05
219	0x3da5bf00	0.08093071
220	0x3df8ffe8	0.12158185
221	0x3cd06eef	0.025443522
222	0x3d90227f	0.070378296
223	0x3dbc2873	0.091874026
224	0x3dac1f5f	0.08404421
225	0x3db5d7f9	0.08879084
226	0x3c5b9d39	0.013404184
227	0xbbb35500	-0.0054727793
228	0xbc0e53cb	-0.00868697
229	0x3da9d178	0.08291906
230	0x3b74952e	0.0037320363
231	0x3d825880	0.06364536
232	0x3db03943	0.08604672
233	0x3d141203	0.03614999
234	0xbc658e3e	-0.014010964
235	0x3c6546cb	0.013993929
236	0x3d161563	0.03664149
237	0x3cbe5136	0.023232084
238	0x3de1108d	0.10989485
239	0x3c89949c	0.016794495
240	0x3dd267b4	0.10273686
241	0x3dba4275	0.09094707
242	0x3c7d8e8b	0.015475879
243	0x3b458560	0.0030139312
244	0x3b889fa0	0.0041694194
245	0x3d1bd7a6	0.038047455
246	0x3dd9a655	0.106274284
247	0x3d698758	0.05701384
248	0x3d48a552	0.048985787
249	0x3d276ac2	0.040873297
250	0xbd0df712	-0.034659453
251	0x3de0cc14	0.10976425
252	0x3d4e50ea	0.050370134
253	0x3ccc6234	0.02494917
254	0x3d86ae8d	0.06576262
255	0x3d617007	0.05503848

network.layer4.bias f4 [26]
0	0x3d2cc1ec	0.042177126
1	0x3d60cd50	0.0548833
2	0x3d419b25	0.047267098
3	0x3d4e4dba	0.050367095
4	0x3bf554c8	0.0074869134
5	0x3dd7aa5e	0.10530542
6	0x3dafb576	0.08579533
7	0x3be5e450	0.0070157424
8	0x3d6a9c9c	0.05727826
9	0x3ddec679	0.108776994
10	0x3d0dc549	0.034611974
11	0x3c86e422	0.016466204
12	0x3d5e8f23	0.054335725
13	0xbba67d99	-0.0050808904
14	0x3acc3d21	0.0015582183
15	0x3d72a486	0.059238933
16	0x3d3ebc1d	0.046566118
17	0x3ddc37c5	0.10752825
18	0x3d57ebbc	0.05271505
19	0x3da45b0b	0.080251776
20	0x3c8fd0dd	0.017555648
21	0x3d049dc9	0.03237704
22	0x3dc69f05	0.09698299
23	0xbca593c2	-0.020212058
24	0x3d94a2cd	0.07257614
25	0x3ced542f	0.028970806
