DDQN_panda_env1/model_panda_trained3.pth (torch, 275663 bytes, 8 tensors)

network.layer1.weight f4 [192, 3]
0.30349785 0.40007114 0.4814282 0.106431454 -0.23327684 -0.27935463 -0.4211247 -0.4297549
0.26856712 0.19292307 -0.40098232 0.3909101 -0.49893636 -0.46532536 0.28374466 -0.285327
-0.08998357 0.3831932 -0.41366956 0.17752314 0.15586844 -0.027814731 0.13607644 -0.4922531
0.081097744 0.03645419 0.25367242 0.0004380744 0.40878674 -0.08859585 0.17573304 -0.29485565
-0.4209795 0.4606561 -0.604763 0.492799 -0.60016584 0.3881148 0.051405136 -0.5938524
-0.54828906 0.42851293 -0.61906964 0.46350974 -0.20290805 -0.32259688 0.18627508 0.54181206
0.31287587 0.03384843 -0.45654812 -0.63043207 -0.1317332 0.5549061 -0.16878228 0.24053164
0.19620796 -0.021123372 0.110892 0.26353386 -0.20560136 0.13607265 -0.4871271 -0.6613966
0.32086024 0.46252176 0.39619103 0.27951318 0.35675916 -0.48573998 -0.345643 0.06033026
-0.14526995 0.46562952 -0.21796627 0.15882397 -0.44589978 0.5463917 0.034807265 0.3072852
0.13746361 -0.5258563 0.29277095 0.28547835 -0.022123395 -0.12514827 0.28520584 -0.55067325
0.19931886 0.4336903 -0.39831507 0.35184956 -0.4814775 0.28505325 -0.061852664 -0.23166096
0.2183369 0.5572683 -0.11547462 0.46732816 0.44452682 0.4287883 -0.30795982 0.38244942
-0.19144078 0.10752503 0.18004544 0.0048849666 0.39399287 0.026378106 0.43050843 0.6048117
0.24544857 -0.02523874 0.5370986 -0.01690711 0.12020239 0.32910767 -0.3481622 0.03693717
0.4344279 -0.5718102 -0.16567348 0.36771324 0.25842103 0.26160634 0.49303713 -0.0065213484
-0.2870196 -0.57748747 -0.06909708 -0.5357955 0.58298266 -0.5009199 0.17276269 -0.12361213
-0.30185276 -0.17894205 -0.21756607 0.4395335 0.4989325 0.13839075 -0.45118612 0.021738108
0.21990077 -0.37255308 0.14790209 -0.54797125 0.22130808 -0.19791538 -0.2325662 -0.2712701
-0.30553398 0.5873296 0.1482103 0.026763195 -0.27150187 0.05731273 0.5707353 -0.3039449
-0.5338669 -0.09781776 -0.082464844 0.34765047 -0.17389335 -0.18754895 0.40101546 0.5957002
0.08024422 0.3654039 -0.010907124 -0.57698274 0.15545087 -0.014856826 0.2691871 0.073383056
0.01333736 -0.5899833 0.49487844 -0.28946632 -0.56448543 -0.2240274 -0.05698549 -0.14627913
0.045534823 -0.041730355 -0.5762297 0.028796168 0.17971575 -0.31213906 0.08418433 -0.12584569
-0.4699998 -0.06558193 -0.26097712 -0.4190128 0.01154625 -0.17581859 -0.16760467 -0.21067859
0.31262663 -0.25961173 -0.43608195 -0.17145774 0.2692895 -0.07137949 0.49093887 -0.64638317
0.34229666 -0.17072906 0.1813217 -0.38979512 0.21800475 0.5501347 0.0035611808 -0.49681076
-0.0024154724 0.22684607 0.48105878 -0.4954359 0.1936287 -0.1859437 0.14025006 0.57113934
0.45606428 -0.32218584 -0.55517524 -0.15504213 0.6167737 0.25098708 0.19746478 0.32992625
-0.52170247 0.27114242 0.13168457 0.10259253 -0.07785243 -0.36318028 -0.59529185 0.04615683
-0.2655407 -0.22458969 -0.07813685 -0.463416 0.039814614 -0.41965175 0.28055522 0.19152
-0.31229308 0.49458835 0.3951864 0.3367732 -0.20013691 -0.25420794 0.57676 -0.52609515
00000000: 1264 9b3e 20d6 cc3e c27d f63e bcf8 d93d
00000010: 20e0 6ebe 9207 8fbe a89d d7be d608 dcbe
00000020: a181 893e a08d 453e 8e4d cdbe 5e25 c83e
00000030: 9674 ffbe 203f eebe fb46 913e 6116 92be
00000040: 4e49 b8bd e631 c43e 7fcc d3be a0c8 353e
00000050: fa9b 1f3e b8db e3bc 9f57 0b3e 9908 fcbe
00000060: 9316 a63d fd50 153d 5ae1 813e 5aad e539
00000070: 7f4c d13e be71 b5bd 5df3 333e 52f7 96be
00000080: a08a d7be 1edb eb3e bfd1 1abf 2750 fc3e
00000090: 78a4 19bf fcb6 c63e 318e 523d b606 18bf
000000a0: ac5c 0cbf 0c66 db3e 597b 1ebf 2651 ed3e
000000b0: 21c7 4fbe 6b2b a5be e5be 3e3e 32b4 0a3f
000000c0: 4431 a03e a7a4 0a3d adc0 e9be ff63 21bf
000000d0: 11e5 06be 530e 0e3f 43d5 2cbe ed4d 763e
000000e0: bdea 483e ec0a adbc 581b e33d e9ed 863e
000000f0: 2a89 52be a156 0b3e b968 f9be 4a51 29bf
00000100: cb47 a43e a7cf ec3e 8dd9 ca3e 5a1c 8f3e
00000110: 23a9 b63e e9b2 f8be 1ff8 b0be dd1c 773d
00000120: a5c1 14be fe66 ee3e 8d32 5fbe c0a2 223e
00000130: fa4c e4be 54e0 0b3f 1092 0e3d 7c54 9d3e
00000140: 43c3 0c3e 859e 06bf 13e6 953e 382a 923e
00000150: 1f3c b5bc de26 00be 8006 923e ecf8 0cbf
00000160: 3e1a 4c3e a80c de3e f4ef cbbe a025 b43e
00000170: 3884 f6be 80f2 913e 3859 7dbd 8838 6dbe
00000180: b593 5f3e 23a9 0e3f f57d ecbd a345 ef3e
00000190: 0599 e33e 248a db3e e9ac 9dbe 69d0 c33e
000001a0: 0d09 44be 1536 dc3d d55d 383e 1212 a03b
000001b0: 6fb9 c93e e616 d83c 9a6b dc3e f1d4 1a3f
000001c0: df56 7b3e 79c1 cebc 4b7f 093f c880 8abc
000001d0: ac2c f63d cd80 a83e 5142 b2be 6e4b 173d
000001e0: 556d de3e 2762 12bf 4fa6 29be e944 bc3e
000001f0: c34f 843e 44f1 853e 5d6f fc3e 09b1 d5bb
00000200: 3cf4 92be 38d6 13bf c582 8dbd e529 09bf
00000210: 5a3e 153f 493c 00bf b4e8 303e 5b28 fdbd
00000220: 728c 9abe 963c 37be a4c9 5ebe 890a e13e
00000230: 1574 ff3e 4eb6 0d3e de01 e7be 1e14 b23c
00000240: ab2d 613e 47bf bebe a573 173e d847 0cbf
00000250: 969e 623e 54aa 4abe d525 6ebe eae3 8abe
00000260: f36e 9cbe 3c5b 163f 71c4 173e 7d3e db3c
00000270: 4b02 8bbe c1c0 6a3d b51b 123f aa9e 9bbe
00000280: 80ab 08bf ae54 c8bd 54e3 a8bd 3eff b13e
00000290: 1911 32be d50c 40be e651 cd3e cf7f 183f
000002a0: 1557 a43d 3816 bb3e cbb3 32bc 24b5 13bf
000002b0: 832e 1f3e 0b6a 73bc e4d2 893e db49 963d
000002c0: f184 5a3c 2509 17bf b560 fd3e ee34 94be
000002d0: 1e82 10bf 7067 65be 9e69 69bd 32ca 15be
000002e0: b982 3a3d 73ed 2abd ca83 13bf f1e5 eb3c
000002f0: 6807 383e b1d0 9fbe d668 ac3d b1dd 00be
00000300: d0a3 f0be d24f 86bd cb9e 85be d988 d6be
00000310: 7c2c 3d3c ca09 34be 8fa0 2bbe 21bc 57be
00000320: 9910 a03e d4eb 84be 2246 dfbe 9e92 2fbe
00000330: 50e0 893e 692f 92bd 575c fb3e 5e79 25bf
00000340: 8241 af3e 99d3 2ebe 65ac 393e 3a93 c7be
00000350: a33c 5f3e a1d5 0c3f b362 693b fb5d febe
00000360: e74c 1ebb 564a 683e 564d f63e c6a9 fdbe
00000370: 9a46 463e 0668 3ebe b69d 0f3e 3036 123f
00000380: 4281 e93e 8bf5 a4be f71f 0ebf 5dc3 1ebe
00000390: e2e4 1d3f 6181 803e 3534 4a3e 18ec a83e
000003a0: 4b8e 05bf 2ed3 8a3e 52d8 063e 081c d23d
000003b0: 1871 9fbd c4f2 b9be 0c65 18bf f20e 3d3d
000003c0: f3f4 87be d7fa 65be 3606 a0bd dd44 edbe
000003d0: a614 233d 98dc d6be efa4 8f3e d21d 443e
000003e0: e1e4 9fbe af3a fd3e df55 ca3e 896d ac3e
000003f0: b1f0 4cbe 8b27 82be 8ba6 133f 2cae 06bf

network.layer1.bias f4 [192]
-0.3141328 0.083755545 0.32753748 -0.078870036 -0.040169362 0.17383794 0.109187126 -0.48854676
0.381479 0.01094484 -0.47824502 -0.21185331 -0.24621859 0.60148406 0.45953196 0.5084033
-0.00676221 0.3490874 0.099226244 0.13141444 -0.23268771 0.48347634 0.5718547 0.24009682
-0.32704762 -0.46289653 -0.5636765 -0.14381652 0.3002454 -0.34768775 -0.0060724355 -0.5019547
-0.29999942 0.64885217 -0.43797934 0.7338796 -0.04166581 0.28671154 0.4783591 -0.04274306
0.40480483 0.5781665 -0.23092884 -0.2667244 -0.10274215 0.16631082 0.22392406 -0.31025052
-0.073880814 -0.52124727 0.52692354 0.25966868 -0.0052392804 0.504708 0.29707107 0.3008892
-0.5615926 0.55180764 0.34425297 -0.152892 -0.22606097 -0.54333276 0.23819654 -0.46549988
0.2629228 -0.14655904 0.4152301 0.3519758 0.44554365 -0.035414703 -0.49540517 -0.043432277
-0.40174294 -0.44797188 -0.48224634 0.20166408 -0.22353524 -0.12913002 0.7635753 -0.11220691
-0.34008238 0.09151829 -0.2879002 0.4261664 -0.24661535 0.74804 -0.1305099 0.29485902
0.13164024 -0.53620815 0.540552 -0.5508998 0.56747985 0.338658 0.5142637 -0.35602832
-0.29861674 0.4140665 0.44681382 0.04192684 -0.14211483 0.5077346 0.105575055 0.3860527
0.29384145 -0.33643925 -0.56125367 0.49767628 -0.49111596 -0.4568162 -0.47639072 0.31394133
0.676741 0.083576076 0.40489176 -0.40425828 0.7000067 0.5537512 -0.25926396 0.34953728
0.4532545 0.34354252 -0.53750014 0.2937913 0.18392031 -0.17193154 -0.34369978 -0.3539631
-0.04842237 -0.1994885 -0.44746143 -0.47861364 -0.4824694 0.053669546 0.3890372 0.028454036
-0.23065896 0.54565185 -0.5139644 0.10536449 -0.235159 0.4765376 0.055635095 -0.015062258
-0.0123343095 0.16803107 0.52493143 -0.03462339 -0.46689892 -0.13416336 -0.09858721 0.6252278
0.15220466 -0.52229285 0.67091566 0.31790602 -0.18437652 -0.3678144 -0.46834275 -0.31629947
-0.051344123 -0.44826064 0.40586025 -0.1692224 -0.20549151 0.06568585 0.43616638 0.6422827
-0.008816087 -0.18312632 -0.44041207 -0.26752183 0.08103318 -0.2112118 0.18210794 0.70008814
0.4792276 0.49791047 0.16391264 0.16791184 0.19764769 0.36789748 0.1611518 0.29399633
0.08795531 0.07473974 -0.3621548 -0.5130898 0.10984667 0.20436142 -0.2803829 0.3777344
00000000: 04d6 a0be 0788 ab3d feb2 a73e 9d86 a1bd
00000010: a188 24bd 9302 323e 809d df3d cd22 fabe
00000020: 3751 c33e fc51 333c 88dc f4be 13f0 58be
00000030: ba20 7cbe dcfa 193f c647 eb3e b826 023f
00000040: 8795 ddbb 95bb b23e 2137 cb3d 8291 063e
00000050: b045 6ebe 368a f73e 1265 123f f1db 753e
00000060: c972 a7be c600 edbe 1a4d 10bf a344 13be
00000070: c4b9 993e 2104 b2be 48fb c6bb 1a80 00bf
00000080: 8699 99be 2d1b 263f d43e e0be 89df 3b3f
00000090: c5a9 2abd dbcb 923e 7ceb f43e 5913 2fbd
000000a0: 9442 cf3e b802 143f 9c78 6cbe 1a90 88be
000000b0: 7a6a d2bd 624d 2a3e 594c 653e 28d9 9ebe
000000c0: d34e 97bd 7670 05bf 76e4 063f 4bf3 843e
000000d0: 45ae abbb 8b34 013f b319 983e 260e 9a3e
000000e0: 88c4 0fbf 4443 0d3f ed41 b03e b88f 1cbe
000000f0: 877c 67be db17 0bbf cbe9 733e 0056 eebe
00000100: d19d 863e 9313 16be 0a99 d43e 2c36 b43e
00000110: 4c1e e43e 020f 11bd bfa5 fdbe 0be6 31bd
00000120: 40b1 cdbe 925c e5be fee8 f6be 0781 4e3e
00000130: 6ce6 64be a93a 04be ac79 433f bdcc e5bd
00000140: 471f aebe f16d bb3d a867 93be 7b32 da3e
00000150: bc88 7cbe 8d7f 3f3f 63a4 05be c3f7 963e
00000160: b3cc 063e f044 09bf 9e61 0a3f c507 0dbf
00000170: 5c46 113f 9564 ad3e c9a6 033f 5849 b6be
00000180: 4be4 98be 8600 d43e c8c4 e43e 7abb 2b3d
00000190: 8d86 11be e5fa 013f bc37 d83d b3a8 c53e
000001a0: 6372 963e c441 acbe 52ae 0fbf 6dcf fe3e
000001b0: 8d73 fbbe d0e3 e9be 7ce9 f3be ebbc a03e
000001c0: e63e 2d3f ef29 ab3d f94d cf3e f1fa cebe
000001d0: a433 333f a3c2 0d3f 3fbe 84be 8df6 b23e
000001e0: f910 e83e cee4 af3e 9c99 09bf d06b 963e
000001f0: 9b55 3c3e d20e 30be 6bf9 afbe a73a b5be
00000200: 8956 46bd b746 4cbe aa19 e5be d90c f5be
00000210: 3b06 f7be 99d4 5b3d e22f c73e 7018 e93c
00000220: dd31 6cbe d7af 0b3f 2c93 03bf 56c9 d73d
00000230: 85cd 70be bcfc f33e a0e1 633d b0c7 76bc
00000240: d815 4abc 5610 2c3e e861 063f 41d1 0dbd
00000250: 600d efbe 1f62 09be 17e8 c9bd ee0e 203f
00000260: 8adb 1b3e fcb4 05bf 21c1 2b3f 94c4 a23e
00000270: 33cd 3cbe 2b52 bcbe 9fca efbe 01f2 a1be
00000280: 374e 52bd 6b82 e5be eacc cf3e a348 2dbe
00000290: 5e6c 52be 4e86 863d 3351 df3e a46c 243f
000002a0: 5971 10bc 7785 3bbe b17d e1be 9ff8 88be
000002b0: b9f4 a53d e847 58be 817a 3a3e fa38 333f
000002c0: 525d f53e 1fee fe3e b7d8 273e 15f1 2b3e
000002d0: 2864 4a3e 0f5d bc3e fa04 253e b086 963e
000002e0: ea21 b43d 2611 993d 5b6c b9be da59 03bf
000002f0: 4af7 e03d 1f44 513e 598e 8fbe 6766 c13e

network.layer2.weight f4 [256, 192]
-0.04964286 -0.019967368 -0.025111383 0.022023546 -0.0286282 0.047573447 0.061435904 -0.0591087
0.03207855 -0.06624893 -0.04029504 0.02622653 0.027615245 0.040703345 -0.032435626 -0.029506605
-0.016970156 0.0017087281 -0.02059673 0.073772185 -0.028703371 -0.011696675 0.04586545 -0.009333386
0.021697054 0.090363786 -0.011041841 -0.015251463 0.09823746 0.010390372 0.04017091 -0.063287176
-0.046906583 0.08381745 -0.004749468 0.07208815 0.017691808 -0.09181935 0.03739113 0.060460486
0.023828724 -0.005450821 0.03924182 0.14478491 0.03514312 0.05112498 -0.031919084 0.068135224
0.10129854 -0.014555963 0.029404383 0.048285853 -0.04633655 0.06399968 0.0864475 0.018799921
-0.020030892 -0.06623136 -0.027995434 0.08291468 -0.055207897 0.051181216 0.011037861 -0.028391425
0.102373 0.17589074 -0.02225979 0.061678924 0.029706242 -0.03882325 0.086371884 -0.0058042197
0.01882909 0.036416005 0.025488403 0.043180794 -0.17059053 0.038680196 0.12713327 -0.005371656
0.07123807 0.097652 -0.026855586 0.00949824 -0.04676199 0.15328136 0.05111754 -0.056332655
-0.012229299 0.002475473 0.050382175 -0.056545597 0.0984646 0.036556832 0.06274228 0.052502822
0.0011926609 0.16636646 0.0465617 0.08872249 -0.043483227 -0.02753608 0.058011517 0.121567994
0.09181072 0.000565021 -0.06405733 0.04908048 0.011361836 0.06486475 0.013359884 -0.038199436
0.11924637 0.069262244 0.09240271 -0.006661542 0.14759175 0.01308458 -0.027010024 0.09845674
0.08711499 -0.012534966 0.013682848 0.08190707 0.042600434 0.050891705 -0.004169266 -0.056254786
0.14518294 0.032295983 0.03184345 0.026139561 0.10032968 0.013157234 0.019846383 0.08057552
0.06407854 0.06826197 -0.045993004 -0.03133117 0.04662559 0.07171259 0.07943573 0.023761
0.12172777 0.050926294 0.0074010217 0.0068803043 0.0433589 -0.055687282 -0.0021580416 0.01957143
0.05605063 -0.014818752 0.12674642 0.066936195 0.061622944 -0.0061937566 0.043021202 0.048371356
-0.20247225 -0.06784224 0.009171061 0.057737447 -0.05425386 0.017265152 0.11919949 0.06444349
0.04494923 0.01804972 -0.08963789 0.06224243 -0.024193052 0.06859746 0.038130693 0.0023713186
0.07674649 0.085233636 -0.027965646 0.112386584 -0.047126163 0.036082417 0.058537003 -0.08248886
0.068243824 -0.037089873 -0.060508773 -0.0005722519 -0.022309186 -0.03842848 -0.09508188 0.032656014
-0.06203748 0.02466193 -0.066199034 -0.07381418 0.04092471 0.05444216 0.007898949 0.057390466
-0.008463462 -0.031580243 -0.05921872 -0.021078 -0.05466228 0.030767348 -0.034170404 -0.038304355
0.0049786596 -0.053311404 0.04069193 0.0015527072 -0.026144387 0.018732566 -0.016683793 -0.061154354
-0.026079236 -0.013610891 -0.03407702 -0.051784076 -0.061357215 -0.02066449 -0.054888632 -0.06684234
0.021557897 0.011698483 -0.06538084 -0.060099337 -0.058554925 -0.025859809 -0.03931206 -0.044577546
-0.067172155 -0.020240359 0.06003634 0.04497042 0.037980806 0.050925154 -0.0013684749 0.016457494
0.059984904 -0.059339587 0.06532898 0.03288972 0.05142018 -0.07063562 -0.053818688 -0.010440478
-0.07171048 0.037430167 0.020094136 0.027296655 -0.04654208 0.023212437 -0.05178477 -0.02439479
00000000: 5056 4bbd 9b92 a3bc 63b6 cdbc b96a b43c
00000010: b085 eabc 60dc 423d 37a4 7b3d f71b 72bd
00000020: cc64 033d 85ad 87bd 690c 25bd 05d9 d63c
00000030: 5e39 e23c 8db8 263d 38db 04bd d6b7 f1bc
00000040: ff04 8bbc 67f7 df3a 79ba a8bc df15 973d
00000050: 5523 ebbc 69a3 3fbc 69dd 3b3d 0feb 18bc
00000060: 05be b13c a610 b93d d6e8 34bc 46e1 79bc
00000070: b930 c93d 613c 2a3c 418a 243d b59c 81bd
00000080: 1e21 40bd 7ca8 ab3d 6da1 9bbb f4a2 933d
00000090: 69ee 903c c90b bcbd 7127 193d 6aa5 773d
000000a0: 7534 c33c cd9c b2bb 08bc 203d 7f42 143e
000000b0: 3bf2 0f3d 6d68 513d 96bd 02bd 7b8a 8b3d
000000c0: 9c75 cf3d 227c 6ebc 76e1 f03c 63c7 453d
000000d0: 65cb 3dbd 4412 833d 630b b13d 4b02 9a3c
000000e0: d317 a4bc 4fa4 87bd ae56 e5bc 2ccf a93d
000000f0: ad21 62bd 65a3 513d 25d8 343c 2295 e8bc
00000100: efa8 d13d b41c 343e 2a5a b6bc 0aa3 7c3d
00000110: 815a f33c 2105 1fbd bee3 b03d 5331 bebb
00000120: 773f 9a3c f328 153d 0ecd d03c 58de 303d
00000130: 49af 2ebe 206f 1e3d 392f 023e b704 b0bb
00000140: 44e5 913d c6fd c73d 3f00 dcbc 829e 1b3c
00000150: 8089 3fbd caf5 1c3e a060 513d 12bd 66bd
00000160: 665d 48bc 8c3b 223b 8a5d 4e3d 5b9c 67bd
00000170: cfa7 c93d 9ebc 153d 067f 803d 330d 573d
00000180: 0f53 9c3a f85b 2a3e 7bb7 3e3d 23b4 b53d
00000190: 781b 32bd 5893 e1bc 7c9d 6d3d a4f8 f83d
000001a0: 4207 bc3d eb1d 143a 7d30 83bd 9d08 493d
000001b0: ff26 3a3c cfd7 843d 6ae3 5a3c 0377 1cbd
000001c0: 7137 f43d 5dd9 8d3d a23d bd3d 1149 dabb
000001d0: 4b22 173e b560 563c 2044 ddbc b0a3 c93d
000001e0: 5869 b23d 755f 4dbc 062e 603c e5be a73d
000001f0: cb7d 2e3d d273 503d 579e 88bb 6b6b 66bd
00000200: d6aa 143e cb48 043d 476e 023d a222 d63c
00000210: a679 cd3d 7091 573c e294 a23c c704 a53d
00000220: 9c3b 833d efcc 8b3d 2963 3cbd 1d55 00bd
00000230: 7afa 3e3d 0dde 923d 33af a23d 6ea6 c23c
00000240: 694c f93d 1798 503d 4584 f23b 2d74 e13b
00000250: 1a99 313d 5918 64bd ee6d 0dbb 4354 a03c
00000260: 5895 653d 5aca 72bc d0c9 013e d815 893d
00000270: 5768 7c3d fff4 cabb 0037 303d 0b21 463d
00000280: e354 4fbe dff0 8abd 3842 163c 1a7e 6c3d
00000290: 4c39 5ebd a66f 8d3c dd1e f43d f3fa 833d
000002a0: af1c 383d 02dd 933c 1294 b7bd ebf1 7e3d
000002b0: 8230 c6bc d37c 8c3d ee2e 1c3d 2068 1b3b
000002c0: 442d 9d3d f98e ae3d 3618 e5bc f02a e63d
000002d0: 5d07 41bd 28cb 133d 7fc4 6f3d ebef a8bd
000002e0: 6bc3 8b3d 8deb 17bd 0cd8 77bd 2d03 16ba
000002f0: c1c1 b6bc 2f67 1dbd 4aba c2bd 50c2 053d
00000300: 031b 7ebd d107 ca3c 5c93 87bd e42b 97bd
00000310: aba0 273d befe 5e3d 986a 013c 4412 6b3d
00000320: 55aa 0abc 495a 01bd 548f 72bd c5ab acbc
00000330: 8ee5 5fbd ce0b fc3c 44f6 0bbd 07e5 1cbd
00000340: 0624 a33b 0f5d 5abd 95ac 263d 3584 cb3a
00000350: c12c d6bc 0a75 993c 73ac 88bc fd7c 7abd
00000360: 1fa4 d5bc 3700 5fbc 5894 0bbd 8a1b 54bd
00000370: b451 7bbd 9448 a9bc e7d2 60bd a3e4 88bd
00000380: 309a b03c feaa 3f3c 64e6 85bd b92a 76bd
00000390: 4ad7 6fbd f3d7 d3bc af05 21bd f296 36bd
000003a0: 8e91 89bd 1ccf a5bc aae8 753d e732 383d
000003b0: c391 1b3d e596 503d 665e b3ba ded1 863c
000003c0: bbb2 753d 110e 73bd 33cb 853d 5fb7 063d
000003d0: f79d 523d 68a9 90bd fc70 5cbd 8a0e 2bbc
000003e0: f2dc 92bd 6050 193d 759c a43c 3c9d df3c
000003f0: e8a2 3ebd 0228 be3c 441c 54bd 95d7 c7bc

network.layer2.bias f4 [256]
0.014335372 -0.031865485 0.025601799 -0.018042466 0.09976261 0.10169851 -0.04023955 0.045957316
-0.033270627 0.031275876 0.121797934 0.04446913 -0.005692969 0.09752166 -0.02939789 0.11050189
0.09879581 -0.009334265 -0.03173787 0.039857127 -0.04744024 0.04955055 -0.048738953 0.041110337
0.035762083 0.088577144 0.050976 0.019883092 0.0017132816 0.11767348 0.056970853 0.094222635
0.118400946 0.050890427 -0.03398288 0.10935759 0.01662652 0.063894466 -0.065563664 -0.056382317
-0.029802773 0.06121492 0.06599317 0.12074485 -0.0045663295 0.12542285 0.032758877 0.093068495
0.105086796 0.08971297 0.075217456 -0.016305229 0.12703882 0.09871155 0.015347176 0.033082783
0.007458594 0.024233576 0.03588268 -0.015770044 0.05483544 0.10485709 0.047066387 0.0669422
0.04356838 0.02946972 0.12372577 0.08442999 0.00530836 -0.0669585 -0.03167013 0.0053285914
-0.06295932 0.026658215 -0.07371356 0.04606223 -0.010735367 0.11316086 -0.052263524 0.08346873
0.033930387 0.0683651 0.07764926 -0.006267226 -0.047502257 -0.042324644 -0.0726567 -0.041081443
-0.012013845 -0.020242434 0.014539215 0.060438767 0.07074089 -0.04758531 0.047858108 -0.055689566
0.08356232 -0.02761932 0.005981022 0.10954348 -0.061605614 0.08940838 -0.029612685 0.02842139
0.12078065 -0.037862327 0.0674307 0.0020781858 0.08877608 0.09209225 -0.022726748 0.026791625
0.05925291 0.09383324 0.04958039 0.0913583 0.10610444 0.012159609 -0.064872846 0.06394576
0.027006138 0.08444805 0.018067854 0.041093417 -0.0068414905 0.10599225 0.039211843 0.13317876
0.081651784 0.053906277 0.051024664 0.13706009 0.11150259 0.04145716 0.084323265 0.07011766
-0.0098293545 0.045720164 0.057377946 0.06507142 0.11228589 -0.0017512357 0.13922553 0.071548864
0.12209465 0.04195883 0.0015809428 0.13482523 0.10680037 0.044438656 0.07016199 0.05810343
0.075548254 -0.034869853 0.022955323 -0.06458427 -0.02644493 -0.027865533 0.039018225 0.09202232
-0.013005061 -0.031609308 0.10700364 0.09116604 -0.0025312046 0.09450481 0.038316093 0.08954671
0.0485243 -0.018902808 -0.059993092 0.07938119 0.12304316 0.11788247 0.10143844 0.105659716
0.10504884 0.10014397 0.11929749 0.12745187 0.045394696 0.052710563 0.014231217 -0.03933737
-0.044657595 -0.025371846 -0.013738709 0.04310739 0.025933122 0.03922713 0.11834411 -0.04503934
0.08340694 0.10684802 0.08624733 0.01015743 0.024695888 0.07459439 0.12647386 0.09481208
-0.010989724 -0.041113246 0.111161545 0.10358598 0.020435356 0.025986725 0.06013177 0.0741641
0.069408745 -0.0774961 0.11924259 0.0039138244 -0.057392742 0.1130332 0.07424902 -0.019418163
0.0682924 -0.067349434 0.09216458 0.08110384 -0.014853846 -0.058612503 0.07995209 0.084455654
0.11893964 0.061840862 0.050106302 0.06847497 0.06589551 0.06093244 0.044611692 0.029493207
0.041851535 0.04168002 -0.018330099 -0.022667585 0.11231634 0.047735635 0.05131104 0.055734802
-0.040149055 0.10844566 0.033389457 0.09065857 0.07865422 0.05895447 0.06678571 0.11452953
0.045444697 0.020902788 0.032793075 0.10238234 0.07470546 0.12777579 0.0016482908 -0.039612964
00000000: e8de 6a3c 6285 02bd ddba d13c cbcd 93bc
00000010: 5750 cc3d 4f47 d03d 3ad2 24bd bd3d 3c3d
00000020: c846 08bd 221b 003d 3271 f93d 4325 363d
00000030: 168c babb 70b9 c73d d8d3 f0bc d14e e23d
00000040: 7555 ca3d bfee 18bc 92ff 01bd 3a41 233d
00000050: b250 42bd 84f5 4a3d 7fa2 47bd 5063 283d
00000060: 437b 123d ef67 b53d 36cc 503d dee1 a23c
00000070: 3190 e03a cbfe f03d 455a 693d ccf7 c03d
00000080: 327c f23d 7b72 503d a231 0bbd dff6 df3d
00000090: 5734 883c 1adb 823d 3e46 86bd 25f1 66bd
000000a0: f224 f4bc 7fbc 7a3d 6d27 873d 1349 f73d
000000b0: 26a1 95bb d96e 003e 2c2e 063d b29a be3d
000000c0: bf37 d73d 6fbb b73d 9c0b 9a3d 8b92 85bc
000000d0: 7716 023e 4829 ca3d b972 7b3c d081 073d
000000e0: 3967 f43b 7e85 c63c b8f9 123d 2e30 81bc
000000f0: 209b 603d 50bf d63d afc8 403d fe18 893d
00000100: c274 323d 7b6a f13c f063 fd3d a1e9 ac3d
00000110: c0f1 ad3b 8a21 89bd 8ab8 01bd 779b ae3b
00000120: d1f0 80bd 5462 da3c 23f7 96bd c0ab 3c3d
00000130: 65e3 2fbc e2c0 e73d 4712 56bd a7f1 aa3d
00000140: 97fa 0a3d 0003 8c3d 9306 9f3d 4d5d cdbb
00000150: ba91 42bd 9b5c 2dbd 09cd 94bd 0445 28bd
00000160: b8d5 44bc 76d3 a5bc e335 6e3c a48e 773d
00000170: 9ae0 903d d0e8 42bd dd06 443d be1a 64bd
00000180: b922 ab3d ea41 e2bc 73fc c33b 5558 e03d
00000190: 2b56 7cbd be1b b73d 4d96 f2bc fad3 e83c
000001a0: d85b f73d 8715 1bbd 1b19 8a3d 2c32 083b
000001b0: 3cd0 b53d dd9a bc3d 722d babc 1c7a db3c
000001c0: 2eb3 723d a42b c03d cf14 4b3d 0f1a bb3d
000001d0: 494d d93d 1939 473c 0edc 84bd fff5 823d
000001e0: fa3b dd3c 19f3 ac3d 0903 943c 9251 283d
000001f0: 952e e0bb 7712 d93d 999c 203d 0360 083e
00000200: 0d39 a73d d4cc 5c3d 3dff 503d 7b59 0c3e
00000210: 785b e43d fcce 293d adb1 ac3d d999 8f3d
00000220: 4d0b 21bc 1145 3b3d 2305 6b3d 2a44 853d
00000230: 25f6 e53d b889 e5ba 2391 0e3e 3688 923d
00000240: c30c fa3d 06dd 2b3d a337 cf3a a00f 0a3e
00000250: 27ba da3d 4f05 363d 17b1 8f3d ddfd 6d3d
00000260: 0bb9 9a3d b1d3 0ebd cd0c bc3c c244 84bd
00000270: 0aa3 d8bc 4246 e4bc 93d1 1f3d 3376 bc3d
00000280: 2e13 55bc c378 01bd b924 db3d 43b5 ba3d
00000290: 91e2 25bb bd8b c13d 56f1 1c3d 4464 b73d
000002a0: 6bc1 463d 10da 9abc 51bb 75bd 9b92 a23d
000002b0: 0dfe fb3d 5d6c f13d f5be cf3d 1f64 d83d
000002c0: d923 d73d 4818 cd3d 3e52 f43d be82 023e
000002d0: caef 393d 08e7 573d 0d2a 693c 3920 21bd
000002e0: e2ea 36bd 9ed8 cfbc 5218 61bc 6091 303d
000002f0: b371 d43c a1ac 203d 665e f23d 2c7b 38bd
00000300: 42d1 aa3d 22d3 da3d 71a2 b03d 596b 263c
00000310: 084f ca3c f2c4 983d 5d82 013e d62c c23d
00000320: 3e0e 34bc 5d66 28bd aaa8 e33d e324 d43d
00000330: 0c68 a73c 1de2 d43c bb4c 763d 59e3 973d
00000340: 2c26 8e3d 46b6 9ebd 7635 f43d 8a3f 803b
00000350: a714 6bbd f37d e73d df0f 983d d712 9fbc
00000360: e3dc 8b3d 80ee 89bd c9c0 bc3d c519 a63d
00000370: 8c5d 73bc aa13 70bd ecbd a33d 16f7 ac3d
00000380: a096 f33d d84c 7d3d 443c 4d3d 9b3c 8c3d
00000390: 3af4 863d 4b94 793d c0ba 363d bd9b f13c
000003a0: 846c 2b3d abb8 2a3d 0129 96bc 5fb1 b9bc
000003b0: 1c06 e63d 7186 433d 862b 523d 2d4a 643d
000003c0: 5673 24bd c218 de3d 62c3 083d 33ab b93d
000003d0: 7715 a13d 3e7a 713d f2c6 883d 758e ea3d
000003e0: 3824 3a3d 533c ab3c 0852 063d d5ad d13d
000003f0: 2dff 983d a8d7 023e 760b d83a 3441 22bd

network.layer3.weight f4 [64, 256]
0.0070738997 0.00037888438 0.0030701633 -0.033499196 0.045064636 0.048695173 0.0042527765 -0.007835865
-0.010845879 -0.049292076 0.012521649 0.00524032 0.059130844 0.02593176 0.022231594 -0.037927475
-0.004978196 -0.010955763 0.052574538 0.009901248 -0.0061632767 -0.02386416 -0.060435154 0.049236774
0.017857807 -0.042542394 -0.036274824 0.022443429 -0.049888276 -0.044496335 -0.023553535 0.010606288
-0.045459636 -0.009928203 0.030501403 -0.007707508 0.00533555 -0.043567076 0.038515404 0.043304794
0.05933836 -0.046563976 -0.017454581 0.012441798 0.082542285 -0.03656739 0.028124714 -0.0030352003
-0.0507868 0.043977782 -0.043963395 -0.054737445 0.0009176259 0.018390842 0.012054393 -0.064400926
-0.05845763 -0.062233593 0.01195579 0.04267145 -0.047451526 -0.021565326 0.03700289 0.03290253
0.008347166 0.022765988 -0.003669568 -0.025612159 0.0054881796 -0.04655865 -0.022756495 0.015315933
0.0461111 0.03464786 0.008409859 -0.058687024 0.0066530006 -0.06001001 0.055905353 -0.012804984
-0.015213938 -0.036734916 0.034113094 0.05595909 0.07540318 0.017125688 -0.012495817 -0.010732338
-0.00020044277 -0.020663679 -0.04872537 -0.003487569 0.05661539 -0.022164583 0.04395931 -0.030470653
-0.050566617 -0.07370956 -0.020135464 0.021704167 0.06031666 -0.0039664484 -0.02493538 0.035398237
0.05597886 -0.04345628 0.018198363 -0.065646164 0.033124447 0.0024535684 0.031583432 -0.05804912
0.020237172 -0.062442087 -0.014028435 -0.01536489 -0.020572264 0.036763422 -0.037864875 -0.050103933
-0.02403471 -0.036189057 0.054230727 0.05704116 -0.05024475 0.040656496 -0.0049436376 -0.057842243
-0.046026234 -0.0028362945 0.02200988 -0.014842992 0.012309488 0.02165659 -0.029755712 -0.019830924
-0.043781787 -0.063184544 0.028409429 -0.038774453 -0.019232644 -0.021970192 -0.045300957 0.035253532
-0.049742907 0.01397676 -0.026328128 0.012981182 -0.023205146 -0.07233514 0.02267579 0.054704987
0.00040263668 0.058104202 -0.008510535 -0.013654269 -0.03819918 0.0608418 0.0550877 -0.041361026
0.051617518 -0.006749629 0.019587707 -0.03352574 0.051085964 -0.0066894763 0.017189175 -0.005008378
0.016593253 -0.060457505 0.003833823 0.05069392 0.048092835 0.008344849 0.03282819 0.03765575
0.015703002 0.02914813 -0.031413518 -0.009089233 0.017134368 0.027305592 -0.022872422 0.036465198
-0.038704235 0.03771302 0.018722624 -0.029018857 0.014646746 0.057984382 -0.06504378 0.052482016
0.004517985 -0.00025160328 -0.023808295 0.036650307 0.018833082 -0.025793437 0.012178447 0.03876048
-0.0153447725 -0.0479139 -0.013978121 0.029284218 0.014252501 -0.0504779 -0.051419932 -0.031528886
0.06096368 -0.035499077 -2.8972487e-05 -0.035879683 -0.024282686 0.041610003 0.02781276 -0.0048620626
-0.044470105 0.03482402 0.039509222 -0.02504391 -0.040473588 -0.045425992 0.049474325 0.035581026
-0.027651012 0.024202928 0.009129499 0.0230798 -0.0034000822 0.055290133 -0.020847034 -0.028003799
0.014398916 0.049097568 -0.06226349 0.045644555 -0.053167455 -0.045411117 0.04119445 0.031065265
0.021739945 0.010699993 0.036170322 -0.049677964 -0.027493438 -0.0060224477 -0.059161782 -0.01785251
0.01657708 -0.0636998 -0.023186026 -0.0097705675 -0.002041009 0.005211009 7.2493276e-05 -0.05995035
00000000: 2ccc e73b 00a5 c639 cb34 493b 7436 09bd
00000010: b295 383d 9774 473d e05a 8b3b 0062 00bc
00000020: eab2 31bc 7de6 49bd 9a27 4d3c feb6 ab3b
00000030: 2f33 723d d86e d43c 081f b63c d759 1bbd
00000040: 2320 a3bb cd7f 33bc 6658 573d d838 223c
00000050: 50f5 c9bb c57e c3bc da8a 77bd 80ac 493d
00000060: 894a 923c ef40 2ebd e994 14bd 48db b73c
00000070: a657 4cbd ca41 36bd 58f3 c0bc ffc5 2d3c
00000080: e233 3abd e7a9 22bc 14de f93c 438f fcbb
00000090: d6d5 ae3b 6473 32bd 54c2 1d3d 5e60 313d
000000a0: c80c 733d deb9 3ebd e9fc 8ebc afd8 4b3c
000000b0: ee0b a93d b0c7 15bd cd65 e63c 36ea 46bb
000000c0: d205 50bd 0c22 343d f612 34bd 5f34 60bd
000000d0: d58c 703a 64a8 963c ca7f 453c a2e4 83bd
000000e0: 4571 6fbd a7e8 7ebd 38e2 433c 42c8 2e3d
000000f0: 885c 42bd c4a9 b0bc 5890 173d cec4 063d
00000100: 8dc2 083c bd7f ba3c 237d 70bb 97d0 d1bc
00000110: 30d6 b33b 48b4 3ebd d46b babc aeef 7a3c
00000120: fede 3c3d eaea 0d3d 81c9 093c ce61 70bd
00000130: 6a01 da3b 0ecd 75bd 03fd 643d ffcb 51bc
00000140: e243 79bc 5a77 16bd 2cba 0b3d 5c35 653d
00000150: fc6c 9a3d 2c4b 8c3c 41bb 4cbc b0d6 2fbc
00000160: f22d 52b9 e046 a9bc 4194 47bd b38f 64bb
00000170: 8ae5 673d 8092 b5bc ad0e 343d 979d f9bc
00000180: f11e 4fbd 0af5 96bd 21f3 a4bc f0cc b13c
00000190: 9a0e 773d fbf8 81bb 4845 ccbc befd 103d
000001a0: 174a 653d 36ff 31bd bc14 953c 7f71 86bd
000001b0: 80ad 073d 0ccc 203b a15d 013d eac4 6dbd
000001c0: 6dc8 a53c 46c3 7fbd 85d7 65bc 05bd 7bbc
000001d0: 2a87 a8bc 3e95 163d 3318 1bbd c839 4dbd
000001e0: 71e4 c4bc fa3a 14bd 0a21 5e3d fea3 693d
000001f0: 70cd 4dbd 6d87 263d 3dfe a1bb fdeb 6cbd
00000200: 0186 3cbd 20e1 39bb 104e b43c 0530 73bc
00000210: bcad 493c 2969 b13c 40c2 f3bc 7674 a2bc
00000220: 8854 33bd e666 81bd e4ba e83c f6d1 1ebd
00000230: c78d 9dbc d5fa b3bc 7f8d 39bd 0266 103d
00000240: 38bf 4bbd c8fe 643c 16ae d7bc 06af 543c
00000250: b818 bebc 7224 94bd 94c2 b93c 5612 603d
00000260: fb18 d339 acfe 6d3d c56f 0bbc 28b6 5fbc
00000270: be76 1cbd 4035 793d a4a3 613d 2e6a 29bd
00000280: e46c 533d fe2b ddbb 6676 a03c 4952 09bd
00000290: 843f 513d 6533 dbbb 50d0 8c3c 521d a4bb
000002a0: 93ee 873c 4aa2 77bd e040 7b3b 6ea4 4f3d
000002b0: fefc 443d d5b8 083c da76 063d ea3c 1a3d
000002c0: 95a3 803c 0fc8 ee3c 76ab 00bd 02eb 14bc
000002d0: 605d 8c3c faaf df3c f25e bbbc 885c 153d
000002e0: 5588 1ebd f878 1a3d 3060 993c f4b8 edbc
000002f0: e8f8 6f3c 0881 6d3d ac35 85bd 62f7 563d
00000300: 9b0b 943b 9fe9 83b9 9d09 c3bc a21e 163d
00000310: d647 9a3c c24c d3bc 1c88 473c 4fc3 1e3d
00000320: a468 7bbc 5e41 44bd 7d04 65bc 75e5 ef3c
00000330: 5283 693c eac1 4ebd b59d 52bd 6f24 01bd
00000340: 0db5 793d 7b67 11bd f109 f3b7 93f6 12bd
00000350: 7cec c6bc 406f 2a3d 96d7 e33c f051 9fbb
00000360: 4926 36bd a2a3 0e3d 6cd4 213d e328 cdbc
00000370: a2c7 25bd 9b10 3abd 97a5 4a3d 69bd 113d
00000380: 6084 e2bc 3845 c63c e593 153c d911 bd3c
00000390: ead3 5ebb e877 623d 66c7 aabc 3968 e5bc
000003a0: 6ee9 6b3c 881a 493d 0008 7fbd c9f5 3a3d
000003b0: 1ec6 59bd 0201 3abd 83bb 283d 957c fe3c
000003c0: f817 b23c 064f 2f3c 5527 143d 1f7b 4bbd
000003d0: eb39 e1bc f457 c5bb a053 72bd 6d3f 92bc
000003e0: a8cc 873c 0a75 82bd 9ff0 bdbc bb14 20bc
000003f0: 73c2 05bb 1dc1 aa3b 8807 9838 808e 75bd

network.layer3.bias f4 [64]
-0.038601615 0.006388493 0.053108264 -0.032505423 0.08088559 0.0344421 0.016889878 -0.017779706
0.0526611 0.02742539 -0.033770975 0.0059534987 -0.0031826496 -0.0152924005 -0.03582211 0.03667092
0.059003096 -0.007467032 0.04262733 0.000101675185 0.03850985 0.1121787 -0.021795645 -0.0016694735
0.09591517 -0.05263357 0.06329917 -0.046122827 0.03975652 0.10436534 0.033232495 0.14560471
0.06222505 0.029305201 0.056767397 -0.030829163 0.040459294 -0.0674894 0.032220263 -0.015488675
0.052385252 -0.027327402 0.034195583 0.08919416 0.015209812 -0.0068806005 -0.05964631 0.088003635
-0.04907871 0.08274983 -0.05485683 -0.0025109483 -0.0021073553 0.04169817 -0.03234463 0.06431474
0.041601736 0.0060278755 0.091008306 0.052488457 -0.013114779 0.088227846 -0.045692205 -0.0045366213
00000000: ba1c 1ebd 9056 d13b 0d88 593d 6824 05bd
00000010: 58a7 a53d 2913 0d3d a45c 8a3c bfa6 91bc
00000020: 2ab3 573d 36ab e03c 6f53 0abd 9115 c33b
00000030: 0094 50bb fa8c 7abc 34ba 12bd 3f34 163d
00000040: 3bad 713d 01ae f4bb ff99 2e3d 733a d538
00000050: 81bc 1d3d f2bd e53d c88c b2bc 3cd2 daba
00000060: 2c6f c43d 4c96 57bd ffa2 813d 4aeb 3cbd
00000070: bcd7 223d 7fbd d53d cc1e 083d 6719 153e
00000080: b2df 7e3d 7611 f03c ee84 683d 718d fcbc
00000090: a5b8 253d e237 8abd 65f9 033d 36c4 7dbc
000000a0: eb91 563d b7dd dfbc ab10 0c3d 6eab b63d
000000b0: 9332 793c a976 e1bb b04f 74bd 403b b43d
000000c0: c206 49bd be78 a93d 8eb1 60bd b98e 24bb
000000d0: 8e1b 0abb b3cb 2a3d ce7b 04bd 72b7 833d
000000e0: 9566 2a3d 7c85 c53b 9062 ba3d 23fe 563d
000000f0: 5fdf 56bc cdb0 b43d c027 3bbd f0a7 94bb

network.layer4.weight f4 [26, 64]
0.09186292 -0.00852713 -0.07221187 0.080623075 0.080739275 0.1484027 0.034646608 -0.0067028105
0.10030924 -0.09206978 0.07607241 -0.10912663 -0.000234732 -0.09385751 0.095045164 -0.045606777
0.16554594 -0.061616465 -0.039675176 -0.029997166 0.13294347 0.1491681 0.04376912 0.043215442
-0.06704407 -0.11707859 0.07962298 -0.11756997 -0.03482135 -0.01592296 -0.031270146 0.071729064
0.11161623 0.1336944 0.007132836 -0.01408051 -0.073665135 0.0063756923 0.1207593 0.031525157
0.048993178 0.06748454 -0.08865708 0.08218682 0.008365831 -0.060892556 0.07504742 0.14240426
0.02929157 -0.03125565 -0.0566774 0.12649202 0.077127814 0.12269161 0.05906789 0.11988814
-0.006749733 -0.00662093 0.0070657814 -0.09145677 0.11988625 -0.015407189 -0.007352948 0.017145947
-0.11525465 -0.064584136 -0.010891115 0.026954737 0.030643726 -0.011281256 -0.07727732 0.08497237
-0.043587342 0.105679244 -0.09535028 -0.087695226 -0.03416217 0.09972875 -0.05351065 -0.03924632
-0.068359256 0.040993977 0.09868357 0.13162003 0.08676525 -0.046859875 0.029873682 -0.030965332
0.11576614 0.014691308 0.041284326 0.07400897 0.089269094 0.08902022 -0.057279885 -0.073550254
0.08513087 0.037658826 -0.04738726 0.06507933 0.10753273 0.16585279 0.09778382 0.15053612
0.09285775 -0.12182671 0.05169739 0.1433209 0.0083747255 -0.04517815 -0.045536697 0.095805146
-0.08377208 0.018746182 0.092816085 0.070657626 0.0669862 -0.11959766 0.0076411813 0.035754077
0.093341924 0.12410158 0.023626547 -0.034018025 0.15199895 0.016271217 0.023163483 0.04788518
-0.023426864 0.008012921 0.016642394 0.1270466 0.0649274 0.020277003 0.107771724 8.697808e-05
0.09294595 0.09183085 0.09466778 0.08259207 -0.15579805 0.009101216 0.039125085 -0.017166272
0.08224689 -0.098363675 -0.13253236 0.08427983 -0.027253458 0.08218785 0.052350905 0.059739478
0.027425412 0.030749187 -0.035142243 -0.027305916 0.081715845 0.18364573 0.0049479306 0.098198
0.013646157 0.07070239 0.10878612 -0.026219679 0.1475447 -0.035915248 0.07397402 -0.041221157
-0.054134835 -0.07647529 0.051876813 0.20464157 -0.06874487 -0.006023049 0.06785078 0.08311579
-0.120281205 -0.02051645 -0.045594677 0.07459011 0.038190097 -0.02759638 0.04631315 -0.02783387
-0.06442156 0.15020782 0.13871486 0.049843937 -0.032058343 0.03652135 0.001958713 0.0622935
0.04652808 -0.10078496 0.09300162 -0.06285166 0.119539775 0.11812746 -0.01794819 0.09244725
-0.097341776 0.080818176 -0.08777191 0.05036208 -0.10176733 0.10941649 -0.09089783 0.039723158
0.11549809 -0.09588059 0.058233112 -0.10418788 0.029338935 0.06540258 0.04165586 0.00083800056
0.12452351 0.065766886 -0.04614792 0.08518802 0.124683745 0.007011824 -0.024403423 0.03276948
-0.007968904 0.03454832 -0.08875202 0.043571383 -0.061050247 0.006514624 0.093401 0.018398507
0.01979446 -0.11986065 0.018502558 0.16381745 0.105128996 0.07152817 -0.0023351312 0.001048047
0.119756415 0.06447453 -0.007400498 0.094574206 0.029097633 -0.08046815 -0.09170565 0.14951763
-0.057091065 -0.043012053 -0.056531187 -0.05547233 0.08482236 0.0378732 -0.062614635 0.09355059
00000000: a022 bc3d 60b5 0bbc d1e3 93bd b61d a53d
00000010: a25a a53d e1f6 173e 9ae9 0d3d 40a3 dbbb
00000020: ee6e cd3d 158f bcbd dacb 9b3d c87d dfbd
00000030: 6422 76b9 5e38 c0bd 0aa7 c23d 2cce 3abd
00000040: e084 293e 8c61 7cbd 7082 22bd 9ebc f5bc
00000050: 5522 083e 86bf 183e 4047 333d ad02 313d
00000060: 674e 89bd e6c6 efbd 5f11 a33d 86c8 f0bd
00000070: d5a0 0ebd de70 82bc 2015 00bd b0e6 923d
00000080: 0d97 e43d 2fe7 083e 91ba e93b f0b1 66bc
00000090: bfdd 96bd 2feb d03b a750 f73d 8620 013d
000000a0: 12ad 483d 5635 8a3d d891 b5bd 9051 a83d
000000b0: d710 093c 796a 79bd 76b2 993d 6cd2 113e
000000c0: e0f4 ef3c ed05 00bd 9026 68bd 2087 013e
000000d0: 30f5 9d3d bd45 fb3d 2cf1 713d ea87 f53d
000000e0: dd2c ddbb 63f4 d8bb 1288 e73b b04d bbbd
000000f0: ec86 f53d 6f6e 7cbc 00f1 f0bb a875 8c3c
00000100: a10a ecbd b044 84bd a670 32bc 2ed0 dc3c
00000110: 8d08 fb3c 04d5 38bc 9243 9ebd fe05 ae3d
00000120: a488 32bd 5c6e d83d 0247 c3bd 8e99 b3bd
00000130: a2ed 0bbd 963e cc3d fc2d 5bbd c0c0 20bd
00000140: f0ff 8bbd 4de9 273d 9d1a ca3d 67c7 063e
00000150: fbb1 b13d 24f0 3fbd a7b9 f43c 02ab fdbc
00000160: cc16 ed3d d0b3 703c c119 293d 0492 973d
00000170: b7d2 b63d 3c50 b63d 509e 6abd 84a1 96bd
00000180: 1859 ae3d 2440 1a3d 2519 42bd 5048 853d
00000190: 1f3a dc3d 50d5 293e e242 c83d 2426 1a3e
000001a0: 342c be3d 4880 f9bd a4c0 533d b7c2 123e
000001b0: 2536 093c b90c 39bd b084 3abd 7d35 c43d
000001c0: b290 abbd 9891 993c 5c16 be3d f2b4 903d
000001d0: 1030 893d 9eef f4bd e062 fa3b de72 123d
000001e0: 0d2a bf3d f828 fe3d 768c c13c 7c56 0bbd
000001f0: 9da5 1b3e 374b 853c 58c1 bd3c 4023 443d
00000200: b2e9 bfbc a048 033c a155 883c 8118 023e
00000210: a8f8 843d f51b a63c 6cb7 dc3d 0068 b638
00000220: 725a be3d d011 bc3d 2ee1 c13d 0826 a93d
00000230: 8689 1fbe 441d 153c a041 203d 48a0 8cbc
00000240: 0f71 a83d e572 c9bd 90b6 07be e79a ac3d
00000250: a542 dfbc 1a52 a83d e76d 563d 62b1 743d
00000260: 42ab e03c b8e5 fb3c 50f1 0fbd a8b0 dfbc
00000270: a35a a73d a00d 3c3e 4022 a23b 081c c93d
00000280: 2294 5f3c 6acc 903d 42cb de3d a7ca d6bc
00000290: f515 173e de1b 13bd b17f 973d 84d7 28bd
000002a0: 7dbc 5dbd 149f 9cbd c87c 543d 8f8d 513e
000002b0: 1cca 8cbd ff5c c5bb 5af5 8a3d 9c38 aa3d
000002c0: fe55 f6bd 1d12 a8bc 7cc1 3abd b3c2 983d
000002d0: 386d 1c3d ce11 e2bc dcb2 3d3d db03 e4bc
000002e0: 73ef 83bd 14d0 193e 450b 0e3e 2829 4c3d
000002f0: 9c4f 03bd 6997 153d c05d 003b 7827 7f3d
00000300: 3a94 3e3d 5868 cebd a277 be3d 5fb8 80bd
00000310: 45d1 f43d cfec f13d 1508 93bc fc54 bd3d
00000320: 205b c7bd 0084 a53d c2c1 b3bd 7848 4e3d
00000330: 646b d0bd c115 e03d a428 babd c0b4 223d
00000340: 438a ec3d 0b5d c4bd d885 6e3d 7560 d5bd
00000350: 3558 f03c caf1 853d 569f 2a3d 44ad 5b3a
00000360: 2f06 ff3d cab0 863d 9a05 3dbd 0e77 ae3d
00000370: 315a ff3d 71c3 e53b b0e9 c7bc 4a39 063d
00000380: 0290 02bc 8a82 0d3d 9ec3 b5bd e877 323d
00000390: d30f 7abd a178 d53b 0649 bf3d 77b8 963c
000003a0: fe27 a23c 8079 f5bd ad92 973c c3bf 273e
000003b0: df4d d73d 5c7d 923d 0009 19bb 9f5e 893a
000003c0: da42 f53d 390b 843d e07f f2bb 1fb0 c13d
000003d0: 295e ee3c 7ccc a4bd 2cd0 bbbd 261b 193e
000003e0: 52d8 69bd 682d 30bd 3f8d 67bd f436 63bd
000003f0: 58b7 ad3d ee20 1b3d 1a3c 80bd 7497 bf3d

network.layer4.bias f4 [26]
-0.068653286 0.15052034 -0.009294103 0.0809772 0.1022306 -0.06616084 0.024224333 0.08255505
-0.014667597 0.13353342 0.19304334 0.046095733 -0.1033371 0.009758112 -0.13066213 -0.075961396
-0.07564001 0.07090648 0.15160061 0.09054958 -0.005575916 -0.0362957 -0.01200686 0.0189468
0.0054553743 -0.01772359
00000000: 189a 8cbd 0122 1a3e 4b46 18bc 60d7 a53d
00000010: 475e d13d 567f 87bd 1c72 c63c 9f12 a93d
00000020: 5c50 70bc fcbc 083e 27ad 453e e1ce 3c3d
00000030: 67a2 d3bd 7de0 1f3c 4bcc 05be a691 9bbd
00000040: 26e9 9abd 6b37 913d 313d 1b3e 0f72 b93d
00000050: 2cb6 b6bb cdaa 14bd 6cb8 44bc 5236 9b3c
00000060: ffc2 b23b 1031 91bc
