DDQN_panda/runs/results_1/last-model.pt (torch, 162903 bytes, 6 tensors)

network.layer1.weight f4 [128, 3]
00000000: f26d 2fbf 9997 6bbe 7a8c fc3e 8b71 4cbf
00000010: c492 40bf 39bb 7c3e 2b83 ccbe 6b82 923e
00000020: 8afc 383f 4715 14bf 873e 2abf dc30 393b
00000030: f1c3 a13e 296c 50be 487f 553e fe37 01bf
00000040: ce5e fcbe 5a93 a7bd bcc6 703e 8919 15bf
00000050: 5a7c 373f 9d7a 64be 99fe 96be 69e4 043f
00000060: 76cb d73e 5ad6 d0be a916 183e a877 023e
00000070: 2f25 85be 2fbe a8be b281 37bf d787 f9be
00000080: d4d1 843e f881 c13e 911f 0e3f 4d4d 87be
00000090: 9dae 96be 055d d9be c350 d43e 90e1 c9be
000000a0: 0060 0a3f e0ba 03bf fb77 433e 507f 83be
000000b0: 9be5 083f 1d74 b03e 8108 e23e 5471 8b3d
000000c0: 7083 f9be bb94 383e 7653 ab3e ee05 b8bd
000000d0: 3776 fcbe 5f67 223f 9a8d e23e fd3d 83be
000000e0: 3b7e 75be e0c1 08bb dc7f 1bbf cbb9 963e
000000f0: 48ca 2dbf 85f4 a8be d48e 0cbd daf4 c6be
00000100: 1b67 35bf 84e9 a7be a96e 74be ab42 64bd
00000110: bd9b 213f c0e5 4c3f d690 52be bbc9 cabe
00000120: a4d9 42bf 20e4 cebe e814 80be d9b8 32be
00000130: 5192 d9be b314 d9be 9b08 2abf 423f 23bd
00000140: 908f 193f aa37 febe 9fc7 3abf ff59 283f
00000150: 14d1 01bf bfcd 773e 7448 543e 2173 7c3e
00000160: bd20 dcbe 780a f03e 2856 9d3e b0e3 9c3e
00000170: bbf8 e6be f87e 4f3d 999f ce3d 1f8c 1dbf
00000180: 365d 873e 5c00 133e 41c1 05be 27df 22bd
00000190: 90e9 223e 7fb0 00bf 7485 cbbe bea7 1dbf
000001a0: b8b2 27bd f021 febe f40a d9be a782 183f
000001b0: 4242 a83e 50a4 6a3e 5d88 1e3f 9dff 21bf
000001c0: 5c87 37bf b64b 013e c39f 14bf dd64 ae3e
000001d0: 4769 073f de45 dcbd c574 a5bd 74b7 ccbd
000001e0: 958d 3f3d 20d0 13bd 8a8a 673e 567f f63d
000001f0: 4d91 093f c189 82be 27ae 2c3e 2ac9 18be
00000200: 5118 d4be 3937 8e3e 16b5 7b3e a40b 363f
00000210: 728c 6cbd 9a2a b7be 8aa7 b4be 2dfa 2d3e
00000220: b57e 18bf c79b 59be a691 fc3e d49d 09be
00000230: 91b3 c43e cae7 01be e3c2 c4be e325 593e
00000240: de00 a73e 0d12 09bd dcc3 c0bd e23b cabe
00000250: 32fe 43bf 6844 903e 5d5b c4be 2118 25bf
00000260: f58c 193f 3dce 073d f5f0 41be 834a d1bd
00000270: a7f7 b7bd e1af b83e eb95 20be 4e74 a33e
00000280: 3053 eabd cfb8 183f 75fc 49bf d93e 81bd
00000290: 7208 c2be 9edb fe3e 19b5 c73d b29c 193f
000002a0: b2b0 a03d 8805 c53e 5932 373f a41a 0dbe
000002b0: 26ce 8e3e 3705 913e 676b 1cbf d613 c13d
000002c0: 4b79 8c3e 1118 a33e 8098 073e 5398 0f3d
000002d0: a53b adbe af06 553e 671c 1cbe 65b3 163e
000002e0: 7185 d23e dea7 223f e8e3 f3bd cd22 7abe
000002f0: 979d 25bd 25a1 0d3f cae9 a93d 2424 3f3e
00000300: e56c da3e 8404 0dbd 1b7e 373f e27e 10bf
00000310: 5aca 7ebe 7e56 343f adf2 fd3e b513 20be
00000320: 6a61 ee3d 982d 88be 82a7 86bc c798 393e
00000330: 11a8 0abf 49ee e03d 9994 073f 57b5 bd3e
00000340: bd06 58be 74b1 efbe fd48 f0bd 171e 443c
00000350: 7c85 25be 8d3b 963e 86dc e0be e342 4b3e
00000360: 9aa8 24bf be44 56be f4cb 62bd 614a e2be
00000370: ac2e 7d3e 4cb7 b53e 6dc3 26bf a8f6 3abf
00000380: 907a 013f 9e5d fcbc a440 e6bd facb d43e
00000390: 6c05 96bd 3079 5d3e 6118 a53e 6a32 ef3d
000003a0: bb8a 22bf 96c9 a8be b11a 01bf 52fb 3f3e
000003b0: 7d54 2e3e f4fe 263f fa93 b33e d4c3 533e
000003c0: 73c7 e63d 5f55 a43e 837b 173e 3942 b83e
000003d0: 5f71 923d 5fe2 29bf c6f1 873e e1e4 c63e
000003e0: b6a5 0ebe 0711 9d3d 8940 cbbe 8dd7 c83e
000003f0: d5d2 3dbf 126a b5bd 3974 c13c a58b 9f3e
-0.6852714 -0.23007049 0.49325925 -0.7986075 -0.75223947 0.24680795 -0.39943823 0.28615126
0.72260344 -0.57844967 -0.6650166 0.0028257882 0.31594804 -0.2035376 0.20849335 -0.5047606
-0.4929108 -0.08182402 0.23513311 -0.5824209 0.7167412 -0.22312398 -0.29491118 0.51911026
0.42147416 -0.40788537 0.14852394 0.12740958 -0.2600493 -0.329576 -0.71682274 -0.4873645
0.25941336 0.3779447 0.55516917 -0.26426163 -0.29430094 -0.4245378 0.41467866 -0.39429903
0.54052734 -0.51457024 0.19088738 -0.2568307 0.5347535 0.34463587 0.44147113 0.06808725
-0.4873309 0.18025486 0.33462113 -0.08985506 -0.4930894 0.6343898 0.44248658 -0.2563323
-0.23973934 -0.0020867512 -0.6074197 0.29438624 -0.6788678 -0.32999054 -0.0343159 -0.38858682
-0.7086045 -0.32795346 -0.23870338 -0.055727642 0.6312826 0.8003807 -0.20563063 -0.39607033
-0.76113343 -0.4040842 -0.2501595 -0.17453326 -0.42494443 -0.42398605 -0.6641938 -0.03985525
0.59984684 -0.49651843 -0.7296085 0.65762323 -0.5070965 0.2419958 0.20730764 0.24653293
-0.42993727 0.46882987 0.30729795 0.30642462 -0.4511164 0.050658196 0.100890346 -0.6154193
0.26438302 0.14355606 -0.13062002 -0.039763596 0.1590941 -0.5026931 -0.39750254 -0.6158408
-0.040941924 -0.49635267 -0.4239117 0.5957436 0.3286305 0.22914243 0.61926824 -0.6328066
-0.71690917 0.12626538 -0.5805628 0.34061328 0.52895015 -0.107555136 -0.08078913 -0.099959284
0.046765883 -0.036087155 0.22611442 0.12036006 0.53737336 -0.25495723 0.16863309 -0.14920488
-0.41424802 0.27776507 0.24580798 0.7111151 -0.057751127 -0.3577469 -0.35284072 0.16989966
-0.5956834 -0.2125083 0.4932987 -0.13439113 0.38418248 -0.12686077 -0.38429937 0.21205859
0.3261785 -0.03346448 -0.09412357 -0.39498812 -0.76559746 0.2817719 -0.38350955 -0.6448994
0.5998071 0.03315567 -0.18939574 -0.1021929 -0.08982783 0.36071685 -0.15682189 0.3192467
-0.11441648 0.59656996 -0.78900844 -0.06310815 -0.37897068 0.4977693 0.097513385 0.60004723
0.07846202 0.38480783 0.715612 -0.13779694 0.27891654 0.2832429 -0.6110138 0.094276115
0.2743629 0.318543 0.13241768 0.035057377 -0.33834568 0.20803331 -0.1524521 0.14716871
0.41117433 0.63537395 -0.11908704 -0.24427338 -0.040433493 0.5532401 0.08296545 0.1866613
0.42661205 -0.034428135 0.71676797 -0.5644361 -0.24881878 0.70444477 0.4959921 -0.15632518
0.11639674 -0.26597285 -0.016437296 0.18124686 -0.541627 0.10982949 0.5296112 0.37052414
-0.2109632 -0.46815073 -0.117326714 0.011970065 -0.16164201 0.2934231 -0.43918246 0.19849734
-0.64319766 -0.2092466 -0.055370286 -0.44197372 0.24724835 0.35491407 -0.65141946 -0.7303262
0.5057764 -0.030806359 -0.11242798 0.41561872 -0.07325253 0.2162826 0.32245162 0.116795376
-0.63492936 -0.32966298 -0.5043135 0.18748215 0.17024417 0.6523278 0.35073835 0.20680171
0.11268511 0.32096383 0.1479321 0.35988024 0.0715053 -0.6636104 0.26551646 0.38846496
-0.13930401 0.07669263 -0.39697674 0.39226952 -0.7414983 -0.08858122 0.02361499 0.31161228

network.layer1.bias f4 [128]
00000000: 1041 3a3f a9c7 8abd d8cd c43e abda 043e
00000010: 2d14 093f 6818 1e3f 06ee 253e 993f fb3e
00000020: 524c 1a3e da59 4d3e 0db4 8e3e 9fe7 92be
00000030: 2cdb fa3e df34 11bf 0eed 633e 1f40 303f
00000040: 00f6 d1bd 6dc4 fa3e d227 373d b7c5 393e
00000050: b000 553e af1c ba3e 78a9 12be 9c60 123f
00000060: bd4f 2c3f 733f 3fbe 4e5b 0b3f db84 da3e
00000070: 30c1 ccbe def0 313e 0808 a8be 7efa fd3e
00000080: 75fe 06bf 5e8d d6be e8a3 74bd e91d 33be
00000090: 3265 d83e 4cae c13d 4e37 433f d6a6 373f
000000a0: 3501 9fbe 33da e2be 61c8 ef3e bbe7 cdbd
000000b0: 254d d8bd f7e8 153e b513 d0be c263 af3e
000000c0: c250 07bf 2463 493f ebf6 2c3f 94e2 473f
000000d0: ebf9 78be 28c2 e3be 384d 833e a4fb 6d3e
000000e0: 94d2 333f 547c 3cbe fac9 143e 3fe6 a6be
000000f0: 8039 12bf f0ae f13e e7d7 093f fc2f a33e
00000100: 4ea8 043f a1af 113f d60b 103f 7479 e4be
00000110: f01d 82be 0ceb 123f 1da2 0bbf ed6a 2d3e
00000120: 93fd 683e 91b8 aebe 29b4 943e 560f 4a3f
00000130: aaa8 2a3f 7a5d 873e 507d 243f f57b 6cbe
00000140: 92f4 a4bd d204 6e3c 8a12 81be 82b6 353f
00000150: 991f 8ebc 6094 aabe 2c4b 083f 4e08 093f
00000160: d056 a53e 4e94 d5be 796f e03d de99 0b3f
00000170: db1a c53d ee33 0d3e 704d 14bf b1b8 0a3f
00000180: d637 1d3e bbf5 233f d220 203f 2f87 213f
00000190: 5e99 bcbe 2caf af3e 5b86 a4bd 6cd0 993e
000001a0: 27e8 373e 00ac 413d e265 d73e 0ea4 fd3e
000001b0: 941a 7f3e d90c 103c bdc6 f03e 50e4 b73e
000001c0: 94b8 f23e cbce a63e bd7a 103f c09b b83e
000001d0: 39bc 0a3f 9453 73be 2a75 29be 838f 0dbe
000001e0: c610 c83c a6d1 ee3e f4fc 2e3f b2c5 b23d
000001f0: ca97 e13e 7d0f a03e 9fa3 c3bd 8d4c 083e
0.7275553 -0.067763634 0.38438296 0.1297404 0.5354641 0.6175599 0.1620408 0.4907196
0.15068176 0.20053807 0.27871743 -0.28692338 0.4899534 -0.567213 0.22258398 0.6884784
-0.10251999 0.48977986 0.04471571 0.18141828 0.20801044 0.3635001 -0.1432246 0.57178664
0.6730917 -0.18676548 0.54436195 0.42679486 -0.3999114 0.1737704 -0.32818627 0.49605173
-0.5273202 -0.4190473 -0.059726626 -0.17491879 0.42264706 0.094570726 0.76256263 0.71738946
-0.31055608 -0.44307098 0.46832564 -0.10053965 -0.10561589 0.1463965 -0.40640035 0.34255797
-0.528576 0.786669 0.67564267 0.78080106 -0.24314086 -0.44484067 0.2564485 0.23240525
0.7024319 -0.18406802 0.14530173 -0.3259754 -0.5711899 0.4720378 0.53845066 0.31872547
0.5181931 0.56908613 0.5626806 -0.4462391 -0.25413465 0.57389903 -0.5454424 0.1693532
0.22752981 -0.34125188 0.290437 0.7892965 0.6666361 0.26438504 0.6425371 -0.23094161
-0.080544606 0.014527516 -0.25209457 0.7098161 -0.017349051 -0.33316326 0.53239703 0.53528297
0.32292795 -0.4171471 0.10958762 0.5453166 0.09624263 0.13789341 -0.5793066 0.54188067
0.15353331 0.6404683 0.6255008 0.630969 -0.3683576 0.34313333 -0.08033439 0.30041826
0.17959653 0.047283173 0.42069918 0.49539226 0.24912483 0.008792126 0.47026625 0.35916376
0.47406447 0.32579646 0.56437284 0.36056328 0.54193455 -0.23762351 -0.16548601 -0.13824277
0.02442206 0.46644324 0.68354726 0.08729114 0.44061118 0.31261817 -0.095526926 0.13310452

network.layer2.weight f4 [256, 128]
00000000: 7dc4 013e ed6c 533e bc06 323d 20a1 473e
00000010: 320e f83d 0465 7d3e aba2 5f3d 295c 503e
00000020: d06f a23d 9eba d73d b547 203e c7fb 9cbd
00000030: 634d 0f3e 8282 943d e2c7 053e a48c 463e
00000040: b7ef e43b 2012 613d 8f05 48be 3189 e33d
00000050: dc44 703e d14a 293e a2f6 923d c24b 52be
00000060: 3ca9 283e 5d1f c63d f7cb c33d c58a 183e
00000070: 32ce e03c 8137 c93d 8ddb 1bbd 7654 043d
00000080: 10ad aa3d 2fdb 87bd 4d70 323e 0735 c33d
00000090: d68c 8b3c 818b eb3d 2390 c43d 3fbd 903e
000000a0: 0189 d33c b19c ca3c 2dc2 6a3d 2ab8 0b3e
000000b0: 46b6 1a3e fe90 543e c1f2 ab3c 6b3b 3b3e
000000c0: 6c49 693d 1122 5c3e 33bd 993d ae95 713e
000000d0: c8f8 91bd 0ded ce3d 5dcf 373e ff67 643d
000000e0: 9957 993d 7982 993d 584c a63d c63c 03bd
000000f0: 51dd 8cbc 5000 173e cf74 863e 0c3b 5d3c
00000100: 182f 143e 0d57 2e3e 6eb1 233e 4fbd d63d
00000110: 3179 493d 16bd 013c 40bd 1e3d c5c7 283e
00000120: 8cbe 233e fa43 9e3c 97e0 e73d b421 4a3e
00000130: d280 203e 4a6c f13d bd45 0d3e bb8d c2bd
00000140: b914 a53d d8b7 5a3d 7dbe a43d 7bb5 833d
00000150: b169 8f3e 790b 9bbc 70de 753e 1861 3b3e
00000160: b6aa 623e 41a8 f83d 0501 a6be 934e f93d
00000170: 5d0c 7a3e e594 643e 05e8 983d de0d c03d
00000180: 152e 393e b6c7 603d 2c84 0e3e 6100 323e
00000190: 5428 433d 0efe 213d 487e 6c3e 3888 2a3e
000001a0: 5f25 603e 7bdf d43c ea8e 5e3e 29fb e13d
000001b0: ff70 fe3d e2e6 45bd 4e82 5f3d 80e7 983d
000001c0: 34b3 273d 9d0e 803e b8f1 6a3e 9ff8 013e
000001d0: fcd5 e83d 509f 5f3e c5cf d63d cd62 2b3e
000001e0: d71f 3cbd 351b 773e 0999 363d c9eb 183e
000001f0: 6b2a 8d3d bc40 d43d b1c5 a53d 2951 833e
00000200: b909 9f3d 91ae 933d a42a 8bbd 6349 84bd
00000210: 67ef 673d 24e7 b1bd 8ce7 993b 25d1 62bd
00000220: 3927 4abd 93bb 503c 0f77 4a3c d1ef 3c3d
00000230: 13f3 81bd 37bf 14bd 40fe 723d 17e7 a43c
00000240: e978 a5bc 1267 5dbd c266 293d ec0f 173d
00000250: 7a33 fa3c a53f 38bc 1d4f a53d 9451 8d3d
00000260: 654e 64bd dfd7 1f3d c44e 8c3d f2e0 07bd
00000270: d27b b0bd 7eae 96bd a4b1 953d 212c f838
00000280: 58f7 4ebd e29d 483d fb5e abbc a9d9 9bbd
00000290: 99e1 1cbd fbac 0a3d db62 9dbb 0d96 0bbd
000002a0: 5192 80bb 3e84 76bd b83f 02bd 2cf3 87bd
000002b0: 0275 acbb 793d adbc 16e7 383d 1f64 4e3d
000002c0: b368 883d 33ca 8d3d ca7d 723c d8e0 233d
000002d0: eb09 94bb eb39 503d 6c82 5cbd a71b 853b
000002e0: 8bd5 81bd b474 9a3b 50c4 d2bb d889 56bd
000002f0: 6ede 91bd 7f2c 7e3b 8db3 953c ec14 4bbc
00000300: 4fc3 34bd 082a 45bd 3bb8 0e3d e6b8 373d
00000310: 45da 95bd 292c 0fbd 8a1c 7a3d 9081 a73c
00000320: 9d4a 6fbd fb43 8f3d a097 51bd a479 953d
00000330: 7fc4 70bd 63c8 0dbd d55b ecbb 6669 71bd
00000340: 37c2 08bd 9bd6 c23c e36f 9ebc 2741 5d3c
00000350: d1f1 833d 6209 a5bd 0970 043d f3a3 953c
00000360: 6b83 b4bd e6f4 87bc 90ed 073d 48d1 223d
00000370: c56a 443d 1d90 103c 8006 9a3d cdc9 1ebd
00000380: 6e0f ef3c bf7d 323d ec6f 9f3d 2ef2 10bd
00000390: 3259 8d3c 64ed 82bc 033f 63bd be55 a33c
000003a0: 06b4 5bbd 1dea 3a3d bb80 2c3d 8e46 073c
000003b0: 59b1 983d 54a9 89bd fbad ee3b 1562 97bd
000003c0: a277 72bd 9f62 3f3d 2652 b2bc 35be e0bc
000003d0: 5064 43bd c20a a9bc 442c 1fbc 4cbb 743d
000003e0: c009 64bd 2b03 b23d cbc8 3cbd 4a16 97bd
000003f0: dcc5 da3b cede 63bc b503 103d 7029 663b
0.1267261 0.2064702 0.043463454 0.19495058 0.121120825 0.24745566 0.05459849 0.20347656
0.07931483 0.10533641 0.15652354 -0.0766521 0.13994364 0.07251455 0.1306453 0.19389588
0.006986584 0.054948926 -0.1953337 0.111101516 0.23463768 0.16532446 0.07175948 -0.20536712
0.16470808 0.09673951 0.095603876 0.14896686 0.027442072 0.0982504 -0.038051177 0.03230711
0.0833379 -0.06633603 0.17425652 0.095315985 0.01703493 0.11501218 0.095978044 0.28269383
0.025822164 0.02473292 0.057314087 0.13644472 0.15108594 0.20758435 0.020989778 0.18284385
0.056954786 0.2149737 0.0750679 0.23592255 -0.071275294 0.101038076 0.17950197 0.05576324
0.07487411 0.07495589 0.0812003 -0.03204038 -0.017195376 0.14746213 0.26260993 0.013502847
0.1447109 0.17025395 0.15985653 0.104853265 0.049187843 0.007918617 0.0387547 0.16482456
0.15990657 0.019319523 0.11322134 0.19739419 0.15674141 0.117882326 0.13796134 -0.09499689
0.08060593 0.053397983 0.08044145 0.06431099 0.28010324 -0.018926369 0.24010634 0.18298757
0.22135434 0.12141467 -0.32422653 0.1217319 0.24418779 0.22322424 0.07466129 0.09377645
0.18083985 0.05487796 0.13917607 0.17382957 0.04764588 0.039548926 0.23095047 0.16653526
0.21889256 0.02598547 0.21734205 0.11034233 0.12423896 -0.04831589 0.054567628 0.0746603
0.040942386 0.2501115 0.22943771 0.12692498 0.11368939 0.21838117 0.10488848 0.16736908
-0.045928802 0.24131472 0.04457954 0.14933695 0.06892856 0.103639096 0.08094347 0.25647858
0.07765526 0.0721103 -0.067952424 -0.0645931 0.056624796 -0.08686665 0.004696792 -0.055375237
-0.049353812 0.012740034 0.012357487 0.046127144 -0.06345191 -0.03631517 0.059324503 0.020129723
-0.020199256 -0.054053374 0.041357763 0.03688042 0.030542124 -0.011245643 0.0807173 0.069003254
-0.055738825 0.03902423 0.06850961 -0.03317351 -0.08617367 -0.073575005 0.07309273 0.00011833781
-0.050528854 0.048978694 -0.020919314 -0.07609875 -0.038301084 0.033856373 -0.0048030443 -0.034078646
-0.0039236923 -0.06018471 -0.03179905 -0.06638178 -0.005262972 -0.021147477 0.045142256 0.05038845
0.06660595 0.06923332 0.014800498 0.04000935 -0.004517784 0.050836485 -0.053835317 0.0040621343
-0.06339558 0.004713619 -0.0064320937 -0.05237755 -0.07122503 0.0038783846 0.018274093 -0.012395125
-0.044131573 -0.048135787 0.034843665 0.044854067 -0.07317022 -0.034954224 0.061062373 0.020447522
-0.058420766 0.06995388 -0.05116999 0.07298592 -0.058781143 -0.03461493 -0.0072130957 -0.058938406
-0.033388343 0.023783972 -0.019340461 0.013504303 0.06442607 -0.0805843 0.032333408 0.018266654
-0.088141285 -0.016596269 0.03318554 0.039750367 0.047953386 0.008823422 0.07520771 -0.03876667
0.029182162 0.043576952 0.07785019 -0.03538721 0.017254446 -0.015982337 -0.055480015 0.019938346
-0.05363848 0.045633424 0.042114954 0.008256568 0.074557014 -0.0672175 0.0072839237 -0.073917545
-0.059196122 0.04672491 -0.021767687 -0.027434448 -0.047703087 -0.020635013 -0.009715144 0.059748933
-0.05567336 0.086920105 -0.04608993 -0.07377298 0.0066764187 -0.013908101 0.035159785 0.0035119914

network.layer2.bias f4 [256]
00000000: fd7e 3b3e a7e4 e9bb 2ab4 873e c4ed 41bd
00000010: 6484 613e 6916 afbd 9634 1b3e 4611 273e
00000020: 332e 643e bd0c 683e e122 7f3e 42a1 fe3c
00000030: affe 053e 288a 80bd 74d8 403e a21e 263e
00000040: 38ef ff3d 7f8b 683b 8303 68bc df3d 553e
00000050: 11ff 8a3e 18df 243e 847c 863e 8dd3 483e
00000060: 2f0f e33d ce0c e53d 1d18 cf3d abd6 a33d
00000070: e3d0 993d d6fc 1c3e 135e 7fbd e521 2d3c
00000080: 364f 023e 932a da3d 594d 393e 0d74 813e
00000090: 93b4 b53c 8b9d 483e 240b 173e 53c7 3d3e
000000a0: 9b27 8f3e e0c4 93bd 9249 54bd 5420 173e
000000b0: a0d6 3a3e fa60 95bb ab9d 7c3e d7f8 7c3e
000000c0: 6e95 073d b76b 3c3e 30e4 6c3e 5cde 103e
000000d0: 7dd1 e23d c8dd 753e 345e 043e 4038 023e
000000e0: c742 8c3e 16d7 0a3e 616d 313e 829f bc3d
000000f0: eb0b c83a c08d 183e 5c66 0c3e 8f26 043d
00000100: ed59 8b3e 7094 063d b5b5 4e3e 5c41 c43d
00000110: 8ce4 6e3e 1968 8f3c 4611 a23d 70a7 4f3d
00000120: 89ed 4c3e 78fc 453c 37b1 6f3e 12ae 5d3e
00000130: 38fb f73c 4252 0ebd 18d6 0e3e 3161 313e
00000140: 14c2 3f3e 8abb 0a3e 211f 213c 920b e43d
00000150: c977 5c3e 5149 373e b1bd 233e f1cf 833d
00000160: 50f7 8d3d 8d3f 8c3d cc50 6cbd 9e71 9cbd
00000170: 136b 3a3e a2c2 403d b052 58bc c247 02bc
00000180: 1830 813e b87a 113d 8d27 3abc 337c e93c
00000190: 8247 463e 9d1e 343e a0a0 ebbb 5c98 bc3d
000001a0: a2a1 3c3e a09b 2bbd b756 5a3d 39e8 87bd
000001b0: 07e5 4d3e 652c 2ebd 6f2f d23c d39a 363d
000001c0: 44d5 e93d 4461 f33d ab95 3b3e 3e5d a33d
000001d0: c7f9 193e a390 c83c 4b6a 653e cae1 fa3d
000001e0: a4d7 893d 095b 1a3e b85e 353c 157b 1c3e
000001f0: 8d5f 82bc bf00 583e 2548 393e c256 8f3e
00000200: c913 d63d 08c8 a83d debf 53bd d72c a63d
00000210: a1c0 0e3e 8bd1 4bbd 570f 0f3e a4e9 233e
00000220: 3332 cf3b 8113 8c3b 2169 9c3d 79a6 923d
00000230: 9657 6d3d 03b0 953d 1f10 4d3c 360c 413e
00000240: 6842 583c 4fae 133e 44ff f43d 4b93 44bd
00000250: ea0c 0b3e 9590 163d 14ac ff3d e4fa 463e
00000260: a602 d73d c8e9 323e 1a70 b4bd bbab af3d
00000270: 64b2 5b3e 96e6 8bbd f096 6a3d 31bb fc3d
00000280: b094 da3d 076c 7c3e 5ee3 803e 938d b1bd
00000290: 2f0d 253e 520f 5a3e 496c ba3d 0af8 d53d
000002a0: 0dd5 053e 0db3 74bd a838 3d3d cd54 0f3e
000002b0: 214c c83d f540 073e 7228 133e d611 73bc
000002c0: 12c5 473e c983 e83d 7a21 a33d b51e 3f3e
000002d0: eece 6f3e b7b8 553e a588 433e 2b4d c9bc
000002e0: 7543 41bd e8ca 823e c2c5 383e 4de2 9d3d
000002f0: 2648 043e 8052 b33c ce56 fa3d e715 353e
00000300: d5a9 eeba f3fa 91bd 3ba3 4dbb 8e6e ee3c
00000310: eb2d 81bc 5565 073e 6dd3 d73d ccfd 543e
00000320: 0be4 2d3e be09 3e3c 6eef 393e 56a3 4b3e
00000330: f126 4f3e a72e ed3d d0c2 87bd f071 a53d
00000340: a8c1 cf3d ef8b 113d 1bd3 443e 98cb 7b3c
00000350: 2153 813e b4a5 653e 5b15 053e a76e 6a3e
00000360: dfa9 353d 9043 74bc 5295 873b a6a9 313e
00000370: a459 1c3e 3d43 743d 6d5e b93d 8cad f33d
00000380: a86f 803e 22c7 a03d 0159 89bd 5820 323b
00000390: 98bd bf3d 53c0 ea3d a0f9 4e3e f102 e53d
000003a0: 5586 3e3e 2eb3 7e3e 0b55 003d b2e0 1a3e
000003b0: 8dcb 1f3e b6bb b33c 308f 0e3e 8b78 b5bd
000003c0: 8bd8 273d dd87 903e 4346 56bd 197a 883d
000003d0: 63d0 8dbd 695b 753c af84 eb3d 9427 1b3e
000003e0: 3cf5 1a3e e0e8 0abd b9d1 5b3c 8153 693d
000003f0: 3432 05bd 937e 93bd 9b76 cb3d 427d e93d
0.18310161 -0.007137853 0.26504642 -0.04734589 0.2202316 -0.08549196 0.15156779 0.16315183
0.22283249 0.2266111 0.24915649 0.031082753 0.13085435 -0.06276351 0.1883257 0.16222623
0.12496799 0.0035483537 -0.0141609935 0.20824383 0.27147725 0.16100729 0.26266873 0.1961195
0.110868804 0.11184083 0.10112021 0.07999929 0.07510545 0.15330824 -0.062345576 0.010567163
0.12725529 0.10652652 0.18095912 0.25283852 0.022180831 0.19591348 0.14750344 0.18533067
0.27959904 -0.07215285 -0.051827975 0.14758426 0.18245935 -0.0045586796 0.2466952 0.247043
0.03310149 0.18400465 0.23133922 0.14147323 0.11075113 0.24010384 0.1292656 0.1271677
0.27394697 0.13558611 0.17326881 0.09210111 0.0015262341 0.14897823 0.13710922 0.032263335
0.27217045 0.032856405 0.20186503 0.09582779 0.23329371 0.017505692 0.07913451 0.05069679
0.20012487 0.012084119 0.23407446 0.21648434 0.030271158 -0.034746416 0.13948858 0.17322232
0.18726379 0.13548103 0.009834082 0.11135019 0.2153007 0.17899062 0.1599033 0.06436146
0.06931937 0.06848059 -0.05769424 -0.07638858 0.18204908 0.047060616 -0.013203308 -0.007951679
0.25232005 0.035517424 -0.011361969 0.028501606 0.19363216 0.17589803 -0.007190779 0.09208748
0.18421033 -0.041896462 0.053305354 -0.0663609 0.20106898 -0.042522807 0.025657384 0.044581246
0.1141763 0.11883786 0.18318813 0.07976769 0.15036689 0.02448303 0.22403829 0.12250097
0.06730583 0.1507379 0.011069946 0.15281327 -0.015914703 0.21094035 0.18093927 0.27995878
0.104529925 0.08241278 -0.05169665 0.08114021 0.1394067 -0.049760383 0.13970695 0.16007096
0.006323123 0.004274786 0.07637239 0.071606584 0.057944857 0.07308962 0.012516051 0.18852314
0.013199426 0.14421962 0.119627506 -0.047992032 0.13579145 0.036758978 0.12483993 0.19431645
0.10498552 0.17471993 -0.08810444 0.08577677 0.2145477 -0.0683109 0.05727285 0.123403914
0.10672891 0.24650584 0.25173467 -0.08669581 0.1611831 0.21294907 0.09102685 0.104477
0.13069554 -0.05974107 0.04619661 0.13997193 0.097801454 0.13208373 0.14370897 -0.014835795
0.1950877 0.11353261 0.079653695 0.18664058 0.23418781 0.20871244 0.19095095 -0.02457293
-0.047183473 0.2554543 0.18044189 0.07709179 0.12918147 0.021889925 0.12223588 0.17684136
-0.0018208573 -0.07127943 -0.003137781 0.029105451 -0.015768966 0.13222249 0.10538373 0.20799941
0.16981523 0.011599002 0.18157741 0.19886526 0.20229699 0.11581164 -0.066289544 0.080783725
0.10144359 0.03553384 0.19221155 0.015368365 0.25258735 0.22426492 0.12996428 0.22893773
0.044351455 -0.014908686 0.0041376734 0.17349872 0.1526857 0.059634436 0.090512134 0.11898336
0.25085187 0.078504816 -0.06706429 0.0027179923 0.09362334 0.11462464 0.20212412 0.11182202
0.18605931 0.24873039 0.031331103 0.15124777 0.15604992 0.021940093 0.13921809 -0.08860882
0.040977996 0.28228655 -0.0523131 0.06663913 -0.06924512 0.014975407 0.11499917 0.15151817
0.15132612 -0.033913493 0.013416701 0.0569644 -0.03251858 -0.072018765 0.099347316 0.11400844

network.layer4.weight f4 [26, 256]
00000000: f3f8 a73d 703d f0bb ffa0 3f3e 42a6 be3d
00000010: 6436 023e b84a f43c e065 243e facd a23d
00000020: a477 593d 3184 c43d 0e9b 293d 956d f03d
00000030: 27ed 093e 30aa 173c c32c 0f3e bead 9d3d
00000040: 755d 0d3e 606d 293d 0c3e 773d 08c2 0f3e
00000050: f413 963d 7bd0 063e c86a 4f3d 8c5c 913d
00000060: 50ed 0c3e cf42 d53d a628 c03d 16a0 793d
00000070: ec1e de3c 1f51 b83d 047f 943c 10e7 d7bb
00000080: 1a81 eb3c 7bc6 433d 68bb ce3d e914 813d
00000090: 8c11 e73d cf05 133e ef4b 043e ed1e 063e
000000a0: b139 513d 0a84 463d 8ecd 023e ae85 1c3e
000000b0: ff5d 8a3d 659c 013e 5603 a93d 8373 fc3d
000000c0: db94 4b3d 3f96 583d 3531 a23d 47fc 563d
000000d0: bd41 bc3d ed1d b63d a98b 933d d49a 9e3d
000000e0: def5 6b3d 78c7 133e 1061 5f3d f734 393d
000000f0: c49c 163e a048 ee3d 5182 ab3d 5f0b 893d
00000100: 0b50 d53d 64f1 263d ee37 fc3d f273 2c3d
00000110: af56 fc3d d81d 0abc a511 143e f017 773c
00000120: dc15 333d 11da 733d 6ba1 033d 0cdc a33d
00000130: 996a 9a3d 1d6a 383e e4a0 c13d 6218 0b3e
00000140: 1570 0c3e 9f5c 1a3e 388d 4a3d 6831 f93d
00000150: bb8e 173d 5918 183e ff0d 0b3e d4bc b13d
00000160: 00cd 393d 038a e13d 08d9 fa3c dc1a 213d
00000170: 4948 813d a507 bd3d 186a 7f3d bcbe 173d
00000180: 152a b43d 88dc 63bc d0cc dbbb 6e23 163e
00000190: 6a80 e83d 0c15 193e 8818 35bd a73c 1d3d
000001a0: e22c 413e b4d2 64bd 40e8 9fba 7ee0 073e
000001b0: b05e 133e 4c1b f93d 317a b13d 915c fb3d
000001c0: eb8b 063e 3e9e 383e e382 443d 9184 fc3d
000001d0: 53ab 033e b495 213e feb8 123e 7f71 d53d
000001e0: abda 753d fa6e aa3d 0ba6 113e 22fe 9d3d
000001f0: 3c8b 7dbd 27fe f13d 8d91 f93d 787d 153d
00000200: 2029 653d 9ae2 373d d8c8 623e 694d e73d
00000210: e979 4f3d 1015 febb 8a98 413d b1f2 b43d
00000220: 0c3c 87bc 28c1 c23c 7f4f 073d 92db e83d
00000230: 489b b03c 8bdf 153e ff94 ed3d 6400 823d
00000240: 95f9 273e efe1 923d f95c 163e 86ef 433e
00000250: ccf0 463e 184f 7bbd 4e4b 6c3d 7232 083e
00000260: a6e0 9a3d 96c8 c83d 9c27 313d be44 193e
00000270: 82eb 133e 3755 2c3e 48ab 1a3e 258a 223e
00000280: fb5c 573d 21e3 863d e58b 093e 0480 64bd
00000290: 3684 fb3d 814f fb3d 95d7 843d 79d4 003e
000002a0: bffc 033e 74b0 a9bc 7011 553d 24c4 bc3d
000002b0: 4861 873d f0b0 e23d f3bd 353d a4db fb3c
000002c0: ffd8 273e 9334 a03d a088 6a3d 67f7 013e
000002d0: 44cc 4f3d 1c5b 093d 6e70 6b3d aca4 1dbd
000002e0: 20c5 353d e835 1b3e a18d 883d 9073 65bd
000002f0: 5491 083d e0e9 ffbb 7909 1e3e b51b 033e
00000300: c06b 8d3c 499a 0b3e bd8d 593d cc8d 1fbd
00000310: cfb1 d03d 0696 ee3d a968 0a3e b67c e03d
00000320: 27f4 d13d 604a 99bc 5903 5a3d 483f 733d
00000330: 648d 383e 1141 ef3d 429e 783d c0a5 173e
00000340: cc1e 2a3e e6f3 1d3d 03a0 b63d f52b 123e
00000350: 689c 8e3d af99 093e f89f f33d 0f6b 223d
00000360: bc7e 1ebd 8c7d b03d 000c aab8 1adf e23d
00000370: cb2c 2a3e fd43 6a3d 2900 de3d 7694 0a3e
00000380: a8a7 f63d c88b fd3d 43bc 093e 0055 b3bb
00000390: 97af a23c 33cd 033e 98b4 3b3d 76a7 be3d
000003a0: 33f1 fe3d 952c 853d 9162 e53d 6048 2c3d
000003b0: e3e8 b33d 1e26 163e 1ca8 143e 9c94 893c
000003c0: 8670 1c3e 8898 033e a5b1 383d 6085 453b
000003d0: a09f 883b a6d7 1b3d 7a81 193e 4a26 b63d
000003e0: 84b3 c73d c26a 273d 12f7 0dbd e8df 133e
000003f0: ea50 4e3d 3462 cc3c 1df4 dc3d e5ab b83d
0.0820178 -0.0073315427 0.18713759 0.09309055 0.12716061 0.029820785 0.16054487 0.07949443
0.053092614 0.09595526 0.041407637 0.11739651 0.13469373 0.009256884 0.13981919 0.07699154
0.13805182 0.041364074 0.060361907 0.14038861 0.073280245 0.13165466 0.050638944 0.0709773
0.13762403 0.10413133 0.09382753 0.060943685 0.027114354 0.089998476 0.018126972 -0.006588824
0.028748084 0.047796708 0.10094339 0.063028164 0.11282644 0.14357685 0.12919591 0.13097735
0.05108041 0.048465766 0.12773725 0.1528537 0.067562096 0.12657316 0.082525894 0.123267196
0.049702507 0.05287766 0.07919542 0.052486684 0.09192226 0.08892427 0.072043724 0.07744375
0.057607524 0.1443156 0.054535925 0.045216527 0.14708239 0.11634946 0.08374465 0.06691622
0.104156576 0.04075755 0.12315355 0.04210276 0.12321221 -0.008429967 0.14459856 0.015081391
0.04372202 0.059534136 0.032136362 0.08000955 0.07539863 0.18009229 0.094545156 0.1358352
0.13714631 0.15074395 0.049451083 0.121676266 0.037001353 0.14853038 0.13579558 0.08678594
0.04536152 0.11012652 0.030621067 0.039332256 0.063126154 0.09229974 0.06235704 0.037047133
0.08797089 -0.013907559 -0.006707765 0.14661953 0.11352618 0.14949435 -0.044212848 0.03838792
0.18864778 -0.055865005 -0.0012199953 0.1326923 0.14391589 0.121634096 0.08665884 0.12273515
0.13139312 0.18029115 0.047976386 0.123299725 0.12858324 0.15779763 0.14328381 0.10422038
0.06002299 0.08321948 0.14223497 0.077144876 -0.061900362 0.11816054 0.12185965 0.03649661
0.055947423 0.04489384 0.22146928 0.11294062 0.050653372 -0.0077539757 0.047264613 0.08835352
-0.016508125 0.023773745 0.033034798 0.11370005 0.021558419 0.14636056 0.116006844 0.06347731
0.16403802 0.07172 0.14683904 0.1913434 0.19427794 -0.061354727 0.057689004 0.13300493
0.075623795 0.09803884 0.043250665 0.1496763 0.14445308 0.16829382 0.15104401 0.1587301
0.052578907 0.0658629 0.13432272 -0.055786148 0.122810766 0.122710235 0.064864315 0.12581052
0.12889384 -0.020714022 0.052018583 0.09217098 0.06610352 0.110689044 0.044370603 0.030744381
0.16391371 0.07822528 0.057259202 0.12692033 0.050731912 0.033534154 0.05748027 -0.03848712
0.044377446 0.15157282 0.066676386 -0.056018412 0.03334172 -0.0078098625 0.15433301 0.12803538
0.017263293 0.13633074 0.053113688 -0.038953587 0.10190164 0.116497084 0.13516487 0.10961287
0.102516465 -0.018712223 0.05322585 0.05938652 0.18022686 0.11682332 0.0606978 0.14809322
0.1661331 0.038562678 0.089172386 0.14274581 0.06963426 0.13437532 0.11895746 0.03965288
-0.038695082 0.08617696 -8.108467e-05 0.110777095 0.1661865 0.057193745 0.10839874 0.13533196
0.12043697 0.12380177 0.13450722 -0.0054727793 0.019859118 0.12871246 0.045826524 0.093092844
0.12448349 0.06502644 0.11200441 0.04206121 0.08784654 0.14662978 0.14517254 0.016794495
0.152773 0.12851155 0.04509129 0.0030139312 0.0041694194 0.038047455 0.14990798 0.08894022
0.09751037 0.040873297 -0.034659453 0.14440882 0.050370134 0.02494917 0.107887484 0.09017161

network.layer4.bias f4 [26]
00000000: 3978 a73d 9fbc b13d bb9a a73d fa13 af3d
00000010: 25f2 0d3d 3b5c 043e 0148 ee3d 7d1d 0c3d
00000020: 0b50 ad3d 468f 213e f275 bd3d d45c 453d
00000030: 5c8d a93d 1824 983c d635 2d3c 0c85 7e3d
00000040: b082 793d c270 033e 621f a53d 6313 ef3d
00000050: df06 a03c d687 633d 4aa5 e23d 960f 31bb
00000060: 2cf2 ab3d cc9c 1f3d
0.081772275 0.08678555 0.08183809 0.08548732 0.034654755 0.12925808 0.116348274 0.03420781
0.084625326 0.1577731 0.09251012 0.04818423 0.08278915 0.018571898 0.0105719175 0.062138602
0.06091565 0.12835982 0.080626264 0.116736196 0.019534526 0.055549465 0.11066683 -0.0027017347
0.083958 0.038967893
