runs/results_1/best-model-rw.pt (torch, 162903 bytes, 6 tensors)

network.layer1.weight f4 [128, 3]
00000000: f55d 46bf 628f 2bbf 6a15 4d3d 8e88 66bf
00000010: fb00 43bf 4e16 de3e b216 613e 8b72 083f
00000020: d085 aabe d40a 133f d456 d53e 6295 a7be
00000030: 3816 99bf 3f99 38bf cf19 883e d20a 3ebf
00000040: 7db3 5bbf 50b5 113e 16bf 82be bfea dfbe
00000050: 8382 e43e 9238 cbbe 30f9 b0be 3933 fa3e
00000060: 5aeb 0ebf 917a 53bf 2ffc 84bc fa90 60bf
00000070: 6499 59bf bb70 b73c 83fa b9bf b043 db3b
00000080: d278 f53d b718 9abe f1a3 5e3e c623 1d3f
00000090: fa1f b5be 618b 51bf 0e18 b43e 9689 21bf
000000a0: 8597 ecbe cd62 aa3e 567d 15bf 28bb 9c3d
000000b0: 5785 af3e 440f 7ebf 63e3 26be 6769 0b3f
000000c0: b82f 57bf 199a aebd d41e 063f 74f3 513f
000000d0: 13cd 8abe b262 053f 15ab 0fbf 18df 14bf
000000e0: 32c9 0c3f ac7c 76bf 08ef 7c3e fb52 1f3e
000000f0: 803e 05bf 8d85 3dbf 5b71 adbd b283 68bf
00000100: 6d32 cabe a80f 283e ffbc 3fbf 278e a7be
00000110: 16d3 6bbe b12e e33d 083c 073e aade a0be
00000120: 11fe 02bf 3c5e 2dbf 5661 ef3e c62a 6fbf
00000130: 6e8c 3ebf e23d c33e 5443 85bf d15a 223e
00000140: cdad e93e 5d57 81bf 5920 4fbf c115 b33e
00000150: c64f d53d 066d f53d 5918 09be 98a2 133f
00000160: a522 de3e 444f 0dbf cd6e 7cbf d555 913e
00000170: 297d 823e de15 88bf 6ce6 ebbe 88e0 d03d
00000180: 2d1a 75bf 11d5 77bf 8c28 96be 09fb 64bf
00000190: f2c7 a03e 3e44 71be 49ac 32bc f27a 52bd
000001a0: 9fc9 c9bd b91d e0be ed41 18bf b75d 133e
000001b0: dfb0 5fbf a4e5 ecbe 953a 65bd a16a 1bbf
000001c0: 4bb0 7bbf dd71 6fbe 224c 4ebf b139 22bf
000001d0: ef1e bebd 3e4a adbf 4b73 00bf ef86 e83d
000001e0: a91f 47bf 3743 0cbf 3042 c5be 4610 57bf
000001f0: d035 f43d 0086 723d 2424 b23d 81c7 f13e
00000200: 7f1b e2be d6e4 76bf 6bff 3cbf d046 d9bd
00000210: f417 1ebe 8507 51bf 73a8 afbe 22a5 d3be
00000220: a9fb 533d 50b7 8e3e 3769 1e3f a520 e3be
00000230: 4105 e13d 7aa2 b6be 1612 323e f8b3 e5be
00000240: 2a8b 11bf 2310 4dbf e1f7 043e 6646 37bf
00000250: 2fd3 49be 501e 733e 6962 78be 1039 3cbf
00000260: e7f3 8cbe 4226 67bf 8117 eebe 789e f83e
00000270: a906 1b3f 3c10 61be c18b eb3e 719d 3a3e
00000280: b9da ae3d c428 26be 228f a1bf afba 32bf
00000290: 08d8 773e 13fa 083f 9b67 d53e 8152 13bf
000002a0: 0261 79bf fbaf 9ebe 1a2a e63e 1749 6ebf
000002b0: 05fb cb3c 8d46 9dbc 506d 90bf 8ac8 52bd
000002c0: 2cce d03e 9f9f 3dbf bc58 8a3e 567d ef3e
000002d0: 0082 7ebf 0241 52be 973d fd3e 6ef4 cebe
000002e0: a9b9 063e b362 ba3e c2e6 d6be aa99 47bf
000002f0: a7b0 be3e 766b 96bf b3dc 2abf 0225 253f
00000300: 3617 0abf 8073 90be 843e b6bd 0ca1 b4be
00000310: 4898 023f 6bf2 c6be fff7 393f 6e5c 31bd
00000320: 028d 0c3f 1a0c 8ebf a770 493e f49e 873c
00000330: 2a36 abbf 1c1d 7f3e 44c6 b53c c646 b53e
00000340: c68a c23d 6ea7 08bf defc 243f c6f4 99be
00000350: ab0f f93e ba3a 71bf 74b1 25be 0e70 0e3f
00000360: ad5e a43e 5976 4cbf e01c 5abe 0cc9 1bbc
00000370: 0632 063f 2aaa 23bd 69df 8bbf 982f 4fbf
00000380: 0259 093e 779a a0bd 81b8 47bf 2a78 f33e
00000390: 9a6a 533f 7d64 54bd d842 243f 3e93 89bf
000003a0: def6 e7be 7d7a a73e f8cc 1a3f b1a5 6bbe
000003b0: 0dc9 e73e c74b 50bf 20da 6e3e 13ef 993e
000003c0: 97bf 8abf b61e 43bf 75b4 f3bd bcc3 0e3f
000003d0: 80b7 193c 9a1a af3e 9b28 7dbf 22cb babd
000003e0: d548 58be a10f 1abf 3619 fdbe 6b72 45bd
000003f0: 68fb 44bf 6991 1e3d 990f c33d 96aa 72bf
-0.7748712 -0.6701566 0.05006925 -0.90052116 -0.7617337 0.43376392 0.21981314 0.5329978
-0.33305216 0.574384 0.41667807 -0.32731158 -1.1959906 -0.72108835 0.2658219 -0.7423526
-0.8582075 0.14229321 -0.25536412 -0.43733785 0.44630823 -0.39691597 -0.34565115 0.48867205
-0.5582787 -0.82608896 -0.016233532 -0.87721217 -0.8499968 0.022392621 -1.4529575 0.0066914186
0.11985935 -0.3009698 0.21742226 0.6138271 -0.3537596 -0.818533 0.35174602 -0.63100564
-0.4620935 0.33278504 -0.5839437 0.07652885 0.34281418 -0.99242043 -0.16297679 0.54457706
-0.8405719 -0.085254855 0.5239079 0.82012105 -0.27109584 0.5210372 -0.56120425 -0.58152914
0.549945 -0.96283984 0.24700558 0.15558998 -0.5204849 -0.7403191 -0.084688865 -0.9082595
-0.39491597 0.16412222 -0.7489776 -0.3272564 -0.23029742 0.1109289 0.13206494 -0.3141988
-0.51168925 -0.67721915 0.4675395 -0.9342464 -0.7443303 0.3813315 -1.0411172 0.15854956
0.45640412 -1.0104786 -0.80908734 0.34977534 0.10415606 0.11983685 -0.13388194 0.57669973
0.43385807 -0.55199075 -0.9860657 0.28385797 0.25486115 -1.0631673 -0.46074235 0.10199076
-0.95743066 -0.9680949 -0.2932781 -0.8944555 0.31402546 -0.23561189 -0.010905334 -0.05138678
-0.09852909 -0.43772677 -0.59475595 0.14391218 -0.8737926 -0.46268952 -0.05596407 -0.6070958
-0.98315877 -0.23383279 -0.8058492 -0.6336928 -0.09283244 -1.3538282 -0.50175923 0.113538615
-0.77782685 -0.5479006 -0.3852706 -0.84009206 0.119243264 0.059209824 0.086982995 0.47222522
-0.44161603 -0.96442926 -0.73827237 -0.106092095 -0.15438825 -0.816521 -0.34308204 -0.41336924
0.051753674 0.2787423 0.61879295 -0.44360843 0.1098733 -0.35670835 0.17389712 -0.44863868
-0.5685297 -0.8010275 0.12985183 -0.71591794 -0.19709466 0.23742032 -0.2425629 -0.7352457
-0.27529833 -0.9029275 -0.46502307 0.48558402 0.6055704 -0.21978849 0.4600506 0.18224122
0.08537812 -0.16226488 -1.2621806 -0.69816107 0.24203503 0.5350658 0.41680607 -0.57547766
-0.9741365 -0.30993637 0.44953996 -0.93080276 0.024899969 -0.01919868 -1.128336 -0.05146078
0.40782297 -0.7407169 0.27020824 0.4677531 -0.99417114 -0.20532611 0.49461052 -0.4042086
0.13156761 0.36403427 -0.4197293 -0.7796885 0.3724415 -1.1751544 -0.6674301 0.64509594
-0.5394167 -0.2821312 -0.08898643 -0.3527912 0.5101361 -0.38856825 0.72644037 -0.04330104
0.5490266 -1.1097443 0.1967188 0.016555287 -1.3375905 0.24913448 0.022189267 0.35405558
0.09499125 -0.5338048 0.64448345 -0.3006956 0.48644766 -0.94230235 -0.16180974 0.5563973
0.32103482 -0.79868084 -0.21300077 -0.0095083825 0.5242008 -0.039957203 -1.0927554 -0.80932
0.1341286 -0.07841962 -0.78015906 0.47552615 0.82584536 -0.051853646 0.64164495 -1.074806
-0.45305532 0.3271064 0.6046901 -0.23012425 0.45270577 -0.8136563 0.23325396 0.30065212
-1.0839719 -0.76218736 -0.11899654 0.55767417 0.009382129 0.34199983 -0.98890084 -0.09120776
-0.21121533 -0.601801 -0.49433297 -0.04820482 -0.76946115 0.038712893 0.095244594 -0.94791543

network.layer1.bias f4 [128]
00000000: 88e5 053f d026 56be 4b2c 64be 597d 8abc
00000010: 1130 60be aceb 193f aa39 773c aaba 163f
00000020: 332c 313f ee58 3f3f 8507 6cbe 46e7 15be
00000030: 4d23 eb3e 8f62 ee3e abc3 86bc 9b62 1d3e
00000040: 60bd 9f3d 1770 8f3e 1835 94bd ee2f ef3e
00000050: 7bcf 2c3e b952 1a3f da54 5a3f 8d4e 78bd
00000060: 8522 c13e 5c10 6cbe 8b12 9bbe afef c33e
00000070: 1ef9 71be 6dca 73be 9a62 b9be b0ae 503f
00000080: 14f0 8e3e 8be8 603f fef3 bebe 4f51 ca3e
00000090: c2c5 283e 3f61 49bd f983 583f b0cf f53e
000000a0: 275e 8c3d a29d 0dbe 1413 a5bd 5df1 443f
000000b0: 4ef7 57bd df70 463e 1411 023f 6e87 cbbe
000000c0: 7ee9 8bbe 40fc 913d e2a0 e43e b1c8 103d
000000d0: e855 273e 19c7 1bbe fec9 833e 5013 07bf
000000e0: 3206 543e c84c 533f 816b fb3e 9026 03bf
000000f0: 5980 5c3e 141c 423e 7e7b 0d3f 6297 8a3e
00000100: f54f 433f fc72 02bf 4d99 be3e c1ef 213d
00000110: 2c38 283f c42c f5be 0043 843d b9cd 6b3d
00000120: 60b4 a9be 0162 d6be 8e69 a8bd a342 443d
00000130: 3b66 083e e220 773e e1b0 253e e090 a93e
00000140: acc4 383d c5cb 993e 6883 613f 05af 603e
00000150: 0102 423f 5723 67be a02b 8e3d 4f92 843e
00000160: 00e6 553f 63f3 153f ae19 6abe 7b6a ae3b
00000170: 4574 92be 94b7 133f f5ac f8bd fd5d 6cbd
00000180: 387e 293f d06f 423e 0f23 a03e c7ac 9ebe
00000190: 9610 963c 703c 963f f7ff 193f 7924 d33e
000001a0: 8c74 07be 7fcf 44be 3502 c0bd 6b94 1d3f
000001b0: 5382 dfbe 45da 2e3f 3a18 ea3e ade8 003e
000001c0: feb6 123e 965d 86be f70b 4abe b811 033f
000001d0: 3d8a 1a3e d693 60be e97d 83be 362f 513f
000001e0: 3e91 80be 495f 573f db65 fe3d 6408 bb3d
000001f0: 88a8 f23c 6806 aabe 0847 e3be 49e4 97bd
0.5230336 -0.20913243 -0.22282521 -0.016905474 -0.21893336 0.6012523 0.015089432 0.58878577
0.6920807 0.7474507 -0.23049743 -0.14639005 0.4592537 0.4655957 -0.016450724 0.15369646
0.07799792 0.28015205 -0.07236689 0.46716255 0.16876023 0.60282475 0.85285723 -0.060621787
0.3772165 -0.23053116 -0.30287585 0.38268802 -0.23630187 -0.23807688 -0.3620804 0.8151655
0.2791754 0.8785483 -0.37295526 0.3951516 0.16481689 -0.049165007 0.84576374 0.48010015
0.06853896 -0.13829663 -0.080602795 0.7693079 -0.052726083 0.19378994 0.5080731 -0.39751762
-0.27326578 0.07128191 0.44653994 0.035347644 0.16341364 -0.15212668 0.25740045 -0.52763844
0.20705488 0.82539034 0.49105456 -0.51230717 0.21533336 0.18956023 0.5526656 0.2706862
0.7629388 -0.509567 0.37226334 0.039535288 0.6571071 -0.47885716 0.06458092 0.05756924
-0.33145428 -0.41871646 -0.08223258 0.047915112 0.13320248 0.24133638 0.16180755 0.33118343
0.045109436 0.30038276 0.88091135 0.21941765 0.7578431 -0.22572075 0.069419146 0.25892875
0.8355408 0.58574504 -0.22861359 0.005322752 -0.28604332 0.57701993 -0.12142364 -0.05770682
0.6620822 0.18987966 0.31276748 -0.30991194 0.018318456 1.1737194 0.60156196 0.41238764
-0.13228053 -0.19219778 -0.09375421 0.6155459 -0.43654117 0.683018 0.45721608 0.12588759
0.14327618 -0.26243275 -0.19731127 0.5119891 0.15091796 -0.21931395 -0.25682 0.81712663
-0.2511081 0.8412977 0.12421771 0.0913246 0.029621378 -0.33208013 -0.4439013 -0.07416589

network.layer2.weight f4 [256, 128]
00000000: ec66 833d 90b9 a93d 9c2d 74bd 6733 753d
00000010: 0e98 0fbd b2c8 d93c 21ba 663e 12e7 9e3d
00000020: 57c8 823d 4f27 023e 0563 33be 9bb5 393e
00000030: 121c f63d 0381 353e 1827 023e 2b62 043e
00000040: 4f3a 343d e1a7 9f3e 65ca 4f3e cf0e c03d
00000050: 8f25 723d 8b68 233e 138d 973d d9f2 673d
00000060: b524 8f3d 8471 863d df18 ca3d 0fe7 063d
00000070: 9487 813d d0f9 0ebd 9ec8 3fbc b767 8a3d
00000080: c495 6cbd fdd7 a5bd 9df8 46bc a53d 523d
00000090: d3cd 7d3d 0cd6 e3bd 8837 bd3d 89ef 363d
000000a0: 01a0 29be 5b45 8ebe 4f53 94bd 5641 c9bc
000000b0: 5a22 3abe 6ec4 163e 7add a53e 0298 61bd
000000c0: 1650 ef3d 74a1 1b3e d77e e63a 31c4 7a3d
000000d0: a787 833e 586d d93c 0872 543d 6770 363a
000000e0: a9c7 e33c 01af cf3c 6972 983d ee98 df3d
000000f0: 08d5 003e 9138 383e b330 533e ba79 c73d
00000100: 316b cd3d de90 573d 6a69 793e 71fe 95be
00000110: 8683 3a3c d068 7b3c b88a 943e 6d74 383e
00000120: b9c2 50be 599a 8f3d 0225 3abc d3d6 363e
00000130: f85e 863e 64fc 9c3b 017e a13e 6c9b cf3d
00000140: 68e0 0bbe 863d 753e c95a 1b3d 5a50 923d
00000150: 8d04 c03d 01c7 433c cf50 ea3d 0d0e 06bd
00000160: 5651 2e3d 5bbd 59bd 7e30 453e 462d b83d
00000170: bcbc 17bd 5b44 003e 7b23 57be 003f 8fbc
00000180: 0762 933d fad8 56bc 974d 3a3d 936f 66bc
00000190: 4c60 853e de5f 8c3e db57 3d3e 8d35 a1bc
000001a0: 67ca 563e ba47 bfbd 6d6e 863d 01b8 0c3e
000001b0: 09ff 2abd 5bcc 963e 2886 b2bd 481f 553d
000001c0: d236 22be 3f80 cc3d 6cc6 053d a6d0 593d
000001d0: f752 cd3c 122b 44be b49e 26bd d62c db3d
000001e0: 295f a53d 0106 1abd 616c 973d 9ef4 f93c
000001f0: fab7 3c3e d6eb debe bf8a 7db8 cd10 143e
00000200: ba34 0a3d 6b27 3f3d 73ba 4bbd 2c7e 64bc
00000210: f418 c9bb 41d9 ae3c 60df a7bd 7026 183c
00000220: a9ec 383d 8d6e 1e3c b777 2e3d 699c 393c
00000230: 9d89 a2bd ded3 a3bd 8079 9fbd 781b 74bc
00000240: ae9c a6bb 7b75 96bd 52fb e43c 7ae5 a33d
00000250: 5300 43bd b5b7 a1bd d805 613d 1f6e 153b
00000260: 1d54 2ebd d89b a33c f06f 5bbd 4d11 3ebd
00000270: 5c51 b23d fbc4 debc 5198 fd3c 563b 533d
00000280: cf71 9d3d 26bd 68bd 2593 0d3d 3640 843c
00000290: 1fa2 a5bc 989b 053c 35e8 39bb c5fa 893d
000002a0: 65ea 883d ed44 1fbd 33d1 51bc 7ded 81bd
000002b0: 2daa 833d cdb3 663d 6711 2a3c 659c 1bbd
000002c0: 42e7 80bd 47de 193d c4ef aa3d 8fcd 9cbd
000002d0: 7ee8 5dbd fb72 6c3d 5095 2d3d fece 983d
000002e0: 90d5 c43c 0381 a0bd 086b 693d f9a5 e93b
000002f0: 190c 5d3d d7f9 f73c 9fd0 14bd 3501 063c
00000300: b29d 92bd 187e 59bd 26e9 45bd 171b 373d
00000310: 17a7 36bc 8473 823d 2b5c 0b3d 3c5e 8a3c
00000320: 21bf bbbc ea77 8cbc 99fb 38bc ccfb a53c
00000330: 0be1 21bd 6301 a0bd 1e8b 083c e619 b2bc
00000340: c662 a4bc 3458 113d bea3 abbd 135c 75bc
00000350: 76f5 743b 0bf7 5fbd cd13 603c c159 03bc
00000360: 5e92 253d 76a7 b3bd bad8 fdbc b1ec ea3b
00000370: 3773 8fbd a20a b03d b142 fcbc bb02 a73d
00000380: 0980 553c e016 a3bc 845f 8abd df20 86bd
00000390: 9b50 10bd 94e4 6f3d bafb 2cbc b6be 873d
000003a0: 5e18 93bd 52a8 2d3d 642c 2a3a c143 afbd
000003b0: 7e00 a0bd 0a1e afbd 34e9 4e3d ac18 1dbc
000003c0: 73e7 8abd cca6 05bd 663b a13d 1e32 84bd
000003d0: b807 a73d 90e5 17bd be46 1c3d 75e9 80bd
000003e0: 9e17 b4bd 5773 70bd 7b86 af3d 6dff fa3c
000003f0: cb75 4d3d 6059 1d3d f833 2dbc 0805 88bc
0.06416115 0.08287346 -0.05961381 0.059863474 -0.03505712 0.026584957 0.2253194 0.07758917
0.06385868 0.12710308 -0.17518242 0.18135683 0.12017073 0.17724995 0.12710226 0.12928073
0.04400092 0.3118277 0.20292051 0.093778245 0.05911785 0.15957849 0.07399955 0.056628082
0.06989423 0.0656462 0.09868025 0.0329352 0.063246876 -0.03490621 -0.011705546 0.06758063
-0.057760015 -0.08097837 -0.012144235 0.05132832 0.061963867 -0.111248106 0.09239107 0.044662032
-0.16564943 -0.2778729 -0.07242452 -0.024567287 -0.18177167 0.1472337 0.32395536 -0.055076607
0.11685197 0.15198308 0.0017585409 0.06122226 0.25689432 0.026541397 0.05186656 0.0006959498
0.027805166 0.025352003 0.07443697 0.10917841 0.12581265 0.17990328 0.20624046 0.097400144
0.10030211 0.05262839 0.24356619 -0.29295686 0.011383897 0.0153448135 0.29012084 0.18013163
-0.20386781 0.07011861 -0.011361362 0.17855386 0.2624433 0.0047908295 0.31541446 0.10137066
-0.13659823 0.2394925 0.037928376 0.07144232 0.09375868 0.011949302 0.11441194 -0.032728244
0.042558037 -0.0531591 0.1925678 0.0899301 -0.037045226 0.12526076 -0.21009628 -0.017486095
0.071964316 -0.013113255 0.04548415 -0.014064687 0.2605003 0.2741689 0.18490545 -0.019678855
0.20975648 -0.09339853 0.06564031 0.13742067 -0.041747127 0.29452786 -0.087169945 0.052031785
-0.15841225 0.099853985 0.032659933 0.0531775 0.025063975 -0.19157055 -0.040678695 0.10701911
0.08074791 -0.037603382 0.073937185 0.03051215 0.18429556 -0.43539304 -6.0449118e-05 0.14459534
0.03374169 0.04666845 -0.04973836 -0.013946097 -0.006137008 0.02134383 -0.08196902 0.009286508
0.04514757 0.009669912 0.042594638 0.011328795 -0.07936404 -0.07999395 -0.07786846 -0.014899127
-0.0050845956 -0.07346626 0.02795187 0.080027536 -0.04760773 -0.078963675 0.054937214 0.0022801233
-0.042560685 0.019971773 -0.05357355 -0.046403218 0.08706924 -0.027193537 0.03095642 0.05157026
0.07687723 -0.05682101 0.034564156 0.0161439 -0.020218907 0.008154772 -0.0028367166 0.067372836
0.06685332 -0.038884092 -0.012806225 -0.063441254 0.06428943 0.056323815 0.010380126 -0.037990946
-0.06294109 0.037565496 0.08346513 -0.07656395 -0.0541768 0.05772684 0.042378724 0.074613556
0.024027616 -0.07837107 0.05698684 0.007130381 0.053966615 0.0302705 -0.03633177 0.008178999
-0.07158984 -0.053098768 -0.04831805 0.04470357 -0.011148236 0.06369689 0.034023445 0.016890638
-0.022918286 -0.017147023 -0.011290454 0.020261668 -0.03952126 -0.078127645 0.008333949 -0.021740865
-0.02006663 0.035484508 -0.08380841 -0.0149755655 0.0037377751 -0.054678958 0.013676596 -0.0080170045
0.04042279 -0.08772175 -0.030987132 0.007169329 -0.07004397 0.08595778 -0.03079352 0.08154818
0.013031014 -0.019908369 -0.067564994 -0.065492384 -0.03523312 0.0585676 -0.010558063 0.06628172
-0.07182382 0.04239685 0.00064916 -0.08557845 -0.07812594 -0.08550651 0.05051537 -0.009588402
-0.06782427 -0.032629773 0.078726575 -0.064548716 0.08155769 -0.037084162 0.038153403 -0.062945284
-0.08793567 -0.058703747 0.08570572 0.030639375 0.050161164 0.038415313 -0.010571472 -0.016603962

network.layer2.bias f4 [256]
00000000: be39 293e b375 b8bd 0675 6d3e 419d a0bd
00000010: 2aab 5a3e 7290 6fbb 1396 433e 6d88 6d3c
00000020: 1759 8fbd 3b90 2f3e 3c02 723e 14aa 4a3e
00000030: bdc1 643d 0e76 cbbc 3e78 e23d e05e a1bd
00000040: 66f6 463e bc0f 333e 602a 273d e457 703e
00000050: fdc4 dd3e b823 8a3d 0020 1bbd 1b16 133d
00000060: eb98 f03d fcc8 963d 5364 2f3e 9987 71bd
00000070: 37f1 b0bb 0edd 113e 733d 83bd a83d 5dbd
00000080: 1ce4 203e 8daa 19bc c145 28bd 746b 393e
00000090: ab9d 5cbd 7687 173d cd77 61bd de60 abbb
000000a0: 9fa7 9a3d 7b1d 4b3e c01d 77bc 7370 a5bc
000000b0: 6387 433e 991a 203d 87b4 35bc 7b82 64bd
000000c0: ae09 37bd df61 a7bd 653d 223b 8fa0 753e
000000d0: 8f0b b9bc 5da4 9abd d5f0 0abc bd6f 82bd
000000e0: 7a43 e53c 874d 75bd 5e02 4d3e e034 af3d
000000f0: d8e7 93bc edcb 353e 95ad a9bb d2ae e63c
00000100: 64d2 c5bc 0e4e e73c e81b 36bd e44a 713e
00000110: 9c3a 2cbc fcdf 743e b2ce 523e 62c7 1a3e
00000120: 6168 903d 2789 16bd 65d2 7e3e 9296 3d3e
00000130: b5de 8dba c8ca eb3c 545f cabb 1577 85bd
00000140: c41a eb3d 6e6e 0f3e 033c f43d 6f51 b63d
00000150: a2b2 293e af69 433e 4066 053e 8fdc d43d
00000160: aee6 0fbd 66a1 4abd 897d b4bd 66b3 103e
00000170: 0c0d af3d 4ec8 2f3d 635b 433e a95d 18be
00000180: 5c8a d43d 05b6 983e f917 e33d e62e 1b3e
00000190: 13b5 f73d 015c 6e3d 21a8 93bd d7bb aebc
000001a0: 8353 003e 29a3 853b e80f d13d bcc5 1cbb
000001b0: 8672 503e c1c1 f536 dde9 c13d 87a1 053e
000001c0: 764b a53d 10ea 8bbd f7f2 053d eee8 463d
000001d0: b671 143e 3884 26bd 0f63 ae3e 8f89 683e
000001e0: 87b7 debc 55b7 253d 2d7e 983d 062d 3f3e
000001f0: 40ca 23bd 8842 41bd c709 fc3d 8d44 27ba
00000200: 28a5 1f3e 14ef 373d e01b 8f3d 2d5e 713d
00000210: 3e8e 82bd 4b33 5ebd 88d5 92bd 6dad 043e
00000220: b8fd 8c3d b81c 393e c139 63bd 54fa 0d3e
00000230: 2556 5d3d 8fdc 96bc ec6e 9ebd 65bf 7cbd
00000240: 96ee 59bd 06ce 283d 6a89 403e 70a2 8e3e
00000250: 0803 9b3c 17b4 7b3e 0991 903e e879 d93c
00000260: 726f 593e 7d8d acbd fa94 033e d5d0 b63e
00000270: 3f4b 9a3e 89a3 de3c fbb3 493d 9edd a7bd
00000280: ff2c 483e a430 003e e45c 903d d2fb 863e
00000290: b8a3 aa3d 3a99 853d 0836 7c3e 9e42 6b3c
000002a0: 7f4b 523d 415f 53bc 970f 993d 80d2 1dbd
000002b0: 6a45 033e 732a bf3d 2170 583e d10c 223e
000002c0: b842 acbc fdce ac3c 7542 873e e6be 963d
000002d0: 7a4b 9abd f898 a23d 44df f53c 1182 863d
000002e0: 812a 813e f847 fa3c 4673 9c3d 867a ed3d
000002f0: 2ada 83bd 1611 7b3e d628 b13c 17dd 633d
00000300: fae4 633e d2e3 723a 8669 a9bb 4be4 d03c
00000310: 47e3 093d 3e79 523d 64c2 473e 2e34 fbbb
00000320: 08cc 24bc c1ae 803e a51a 573e 8b6c a5bd
00000330: 6aef 79bc 55ac 2c3e 775f 033e 4025 203d
00000340: 550e 17bd 7177 82bd c1ed 8e3d 2293 0abd
00000350: e9b1 e8bc 2e2b 223e 6654 e1bc c31a 93bd
00000360: 2177 0abe 0030 07bd 7e7d c63c af70 a53e
00000370: 443e 323e 3be1 babd 4e70 85bc db30 333e
00000380: 8966 bd3d a5d6 66bd 842e 823e d593 0cbd
00000390: 6d3e a5bd f5bb 6c3e c565 c73e 78a6 c2bd
000003a0: 751d b1bd 28e6 e9bb fc15 363e dee3 c83d
000003b0: e0cc c23d efba 1e3e ebba 813d 7dbd bd3e
000003c0: ada6 f93d d9b4 593d 5df0 d23c 65c5 2e3e
000003d0: fe68 7bbd bc42 043d 8b6c 463e d14a 80bb
000003e0: b6e3 7f3e 3b49 183e 2dd8 c33c d86f 6d3e
000003f0: c624 88bd c76f f9bd 9041 9a3c a106 743e
0.16525933 -0.09006824 0.23189172 -0.07842494 0.21354356 -0.0036554602 0.19100218 0.0144978585
-0.069994144 0.17144863 0.23633665 0.19791442 0.055848826 -0.024836566 0.110580906 -0.07879424
0.19429931 0.17486471 0.040811896 0.23471028 0.43314353 0.06745094 -0.037872314 0.035909753
0.11747917 0.073625535 0.17128114 -0.058967207 -0.005399849 0.14244482 -0.06408205 -0.054013878
0.15712017 -0.009379041 -0.041082148 0.18107396 -0.0538613 0.03699442 -0.05504589 -0.0052300533
0.075515024 0.19835465 -0.015082777 -0.020195222 0.19094615 0.039087866 -0.011090404 -0.0557885
-0.044686966 -0.08172964 0.0024755832 0.2398703 -0.02258852 -0.07550881 -0.00848027 -0.06368969
0.027986277 -0.05988839 0.20020434 0.08555007 -0.018054888 0.17753573 -0.0051781633 0.028159533
-0.024148174 0.028235462 -0.044460207 0.23563725 -0.01051202 0.23913568 0.2058666 0.15115121
0.07051159 -0.036751892 0.24884947 0.1851447 -0.0010823818 0.028783217 -0.006175915 -0.06516854
0.114797145 0.1400697 0.11925509 0.08902251 0.1657205 0.19083284 0.13027287 0.10393631
-0.035132103 -0.049470328 -0.088130064 0.14130935 0.0854741 0.042915635 0.1907783 -0.14879479
0.103779525 0.2982637 0.11088557 0.15154609 0.12095084 0.05819321 -0.072098024 -0.021329803
0.12531857 0.004078288 0.10208112 -0.002392157 0.20356187 7.324125e-06 0.09468434 0.13049899
0.08071034 -0.06831753 0.032702412 0.048561983 0.14496502 -0.040653437 0.3405995 0.22708724
-0.027187122 0.040458042 0.07445941 0.18669519 -0.039987803 -0.04718259 0.123065524 -0.00063807593
0.15590346 0.044905737 0.069877386 0.058927704 -0.06374787 -0.054248136 -0.07169634 0.12956782
0.068843305 0.18077362 -0.055475 0.13865024 0.054037232 -0.018415717 -0.077360004 -0.061705966
-0.05320605 0.041212104 0.1880242 0.27858305 0.018922344 0.24580418 0.28235653 0.026547387
0.2123392 -0.08425424 0.12849799 0.357062 0.30135533 0.027177589 0.04924391 -0.08196567
0.19548415 0.12518555 0.070489675 0.26364 0.08332008 0.06523366 0.24629986 0.0143591445
0.05134153 -0.012901128 0.07473677 -0.038530827 0.12819448 0.093342684 0.21136524 0.15825202
-0.021027908 0.021094793 0.2641789 0.0736063 -0.07533927 0.07939333 0.030013688 0.06567777
0.2522774 0.030551895 0.07639174 0.11595635 -0.06438096 0.24518237 0.021625917 0.05563077
0.22255316 0.0009265515 -0.00517005 0.025499484 0.033664014 0.051385157 0.19507748 -0.0076661324
-0.0100584105 0.25133327 0.21006258 -0.080773436 -0.015254835 0.16862614 0.12829386 0.039098024
-0.036878902 -0.06370438 0.06978942 -0.033831723 -0.028405147 0.15836784 -0.027506065 -0.07182839
-0.13522007 -0.03300476 0.024229761 0.32312533 0.17406565 -0.091249906 -0.016288903 0.17499106
0.09248073 -0.056357045 0.25426114 -0.03432067 -0.080685474 0.23118575 0.38944831 -0.09504408
-0.086481966 -0.0071380325 0.17781824 0.09809087 0.09511733 0.15500997 0.0633448 0.3705863
0.12189994 0.053150985 0.02574938 0.17067488 -0.061379425 0.032290205 0.19377343 -0.003915169
0.24989209 0.14871685 0.023906792 0.23187196 -0.06647639 -0.12179523 0.01883009 0.23830654

network.layer4.weight f4 [26, 256]
00000000: 33dd 07bb 30de d73b 0c08 0f3e c772 4f3e
00000010: bb1e 2b3e 3922 243e ce9f fc3d 2305 553e
00000020: 186d 303e d4f0 123e 5c1c 653e d1ee 943d
00000030: e1e9 e93d 9abe 72bd 95f2 c93d c86f 173e
00000040: 7bb2 643e 0a79 073e 806b 293c cc84 033e
00000050: 100c 133e 48f6 2d3d ca28 2c3d 6875 233e
00000060: b0bc 213e 2a2b 01bd 2d28 063e a1c6 163e
00000070: 7c1d 863d 8cf9 203e 7f47 6e3e 86e4 53bd
00000080: 1712 3f3e aa09 223d 24a2 cd3c 51e2 383e
00000090: 5645 3cbd b512 553e 1557 45bc 3725 293e
000000a0: 1db6 ff3d cebd 153e 0480 253e b8ee 313e
000000b0: 1252 223e 22d2 243e 40ae dd3d b82c 47bd
000000c0: 7859 50bc 40f4 93bc a093 b33c 6bfe 1c3e
000000d0: eab7 783d baec 5d3e 2638 203e d07f 093c
000000e0: 3032 52bc 7270 27bd 06b8 2c3e 3460 813c
000000f0: 9005 963c 4402 1c3e 1e38 513e a2a5 5d3e
00000100: 2c2c 183e 287a 633e c59e 173e 938f 05bc
00000110: 8074 c03a 040f d63d 3c9a 9c3d bbd8 023e
00000120: 588c 753e c04e 5b3e 5846 7c3e 4ab5 053e
00000130: 24c3 353e 39e2 233e ca27 423d 325a cd3d
00000140: f48f 383e 6f5d 3b3e 0d18 563e 2a19 bd3d
00000150: d789 533e 6ba0 cf3d 9f7d 453e 52ca d33d
00000160: 8ffe 2a3e 6037 8fbb e43e 603e b8d6 383e
00000170: ca89 343e 6d15 0b3e 28e3 393e fc0f 2d3e
00000180: f446 b0bc 6160 193e e2c2 213e 725f 0c3c
00000190: cc3f 4f3e 4822 0e3e 2cf4 08bd 38d7 93bc
000001a0: ae12 f93d 16de 553e 02e1 6f3e eedf 573e
000001b0: fdeb 173e 2055 203e c289 1d3e e321 3a3e
000001c0: 787c 6cbd 2c25 34bd 9809 d43c 7c7c 8bbc
000001d0: 2dc3 053e 14cb 2fbd f542 273e b857 783d
000001e0: e5d4 0e3e 3709 133e af98 013e f784 253e
000001f0: 304c c6bc 1859 143e bf4a 163e 2f4d 033d
00000200: d8e3 8e3e aa94 7abd 922f 713e fa47 6b3d
00000210: 00ee 713a ae71 103e 80e6 fa3a 5fe3 fc3d
00000220: 8437 5ebd 9b16 333d 7bc6 34bd 2e3b 303e
00000230: 6a96 5f3d a076 6e3c 80b6 163a 0f6e 2e3e
00000240: f8e6 47bd 2625 2d3e 16d7 3a3e 10f8 103e
00000250: e0bd a5bc afc2 613e ad2c 0c3e 926f d8bd
00000260: 0383 563e e899 fc3c 658a 1c3e 2a67 123e
00000270: ad14 2f3e 255b 213e 7d27 58bd 8288 75bd
00000280: 1159 3f3e 7081 993e ea47 da3d 26d5 073e
00000290: 2846 813c d629 b63d 2d87 1b3e c224 713e
000002a0: 7032 183e 4bc1 673e 1ed7 683e be5f 0cbd
000002b0: 598e 1e3e c491 013e 6e17 b93d 7b69 f73d
000002c0: 0065 a73a 0a41 563d cc5c 323e 8aaf e53d
000002d0: 78da 2dbc 50b5 50bd b88f 023c 007f 3f3e
000002e0: 243b 103e 7c56 e83d 04a0 2f3e 641c 713d
000002f0: 7aff 2b3d fc18 463e 509c 5d3c 6029 2e3e
00000300: 91f0 2b3e c42f bd3d 14e4 263e d2bd fa3d
00000310: ab1b 303e 32b0 5e3e 230b 0d3e 54c0 c8bc
00000320: d226 77bd 7fb5 033e 9c03 2e3e 2015 4c3c
00000330: c27b 76bd afa5 223e d0e5 133e d451 6c3e
00000340: 9041 2b3c e895 d43c f0e8 2e3e 8c7f 2d3d
00000350: d0fc cdbb 780f ec3d 50e0 5d3d 10a6 efbb
00000360: 1928 6e3d 4c02 313d cc94 2e3e 02f1 223e
00000370: 86cb f73d 94be 4fbd 98f7 b93c 858d 413e
00000380: e208 0d3e 4334 473e 2634 e13d 841b 2b3e
00000390: 0215 3b3d a5e9 523e 6caf 083e c623 263e
000003a0: b423 8b3c 3091 693d 0d4d 133e 8840 e53d
000003b0: 95e1 4b3e d4bb 0c3e eaa7 553e d219 873d
000003c0: 854e 283e f55b 363e a853 5ebd 941a 433e
000003d0: 2a50 3c3d 10d8 883c 0095 403e 2501 fc3d
000003e0: 2717 533e b9c3 493e e6f0 2e3d 022a 4a3e
000003f0: 5804 4dbd 175c 093e a4b7 403e 5a6d f03d
-0.002073121 0.006587766 0.13967913 0.20258628 0.16710941 0.1602868 0.12335168 0.20802741
0.17229116 0.14349681 0.223741 0.07272113 0.11421562 -0.059263803 0.09860722 0.14788735
0.2233371 0.13229766 0.010340571 0.12843627 0.1436007 0.0424712 0.042031087 0.15962756
0.15794635 -0.031535305 0.13101263 0.14724208 0.065485924 0.15720195 0.23269461 -0.05173161
0.18659244 0.039559998 0.025101729 0.18055083 -0.04596456 0.20807917 -0.012044688 0.16518103
0.12485907 0.14623186 0.16162115 0.1737622 0.1585162 0.16095784 0.10824251 -0.04862663
-0.0127166435 -0.018060803 0.021920979 0.15331428 0.06072227 0.21672335 0.15646419 0.008392289
-0.012829348 -0.04087872 0.16867074 0.015792944 0.0183132 0.1523524 0.20431563 0.21645215
0.148606 0.22214568 0.1480666 -0.008151907 0.0014683157 0.10452083 0.07646605 0.12777989
0.23979318 0.2141676 0.24636209 0.13057438 0.17750221 0.16004266 0.047401227 0.10026969
0.18023664 0.18297361 0.20907612 0.09233315 0.2065805 0.10138019 0.19286202 0.10341324
0.16698669 -0.004370615 0.21898991 0.18050659 0.17630687 0.13582392 0.1815306 0.16900629
-0.021518208 0.14978172 0.15796998 0.008567678 0.2023918 0.13880265 -0.033435985 -0.01804696
0.12161766 0.208855 0.23425677 0.21081516 0.14836116 0.15657473 0.15384582 0.1817699
-0.05773589 -0.043980762 0.02588348 -0.017027132 0.13062735 -0.04291828 0.16334136 0.06063053
0.139484 0.14358984 0.126559 0.16164003 -0.02420625 0.14487112 0.14676951 0.03205603
0.27908206 -0.061176933 0.23553303 0.05744169 0.0009228885 0.14105865 0.0019142181 0.12348055
-0.054252163 0.04372273 -0.0441346 0.17210075 0.054586805 0.01455465 0.00057492405 0.17034172
-0.048804253 0.16908702 0.18246111 0.14157128 -0.020232141 0.22046922 0.13688917 -0.10568155
0.20948415 0.030835107 0.15287168 0.14297166 0.17097731 0.15757425 -0.052772034 -0.059944637
0.1868632 0.29981565 0.10658248 0.13264903 0.015780523 0.08894698 0.15188284 0.23549178
0.1486299 0.22632329 0.2273831 -0.034270994 0.15483989 0.12653261 0.09037672 0.12080666
0.0012771189 0.05230812 0.17418212 0.11215122 -0.010611169 -0.050954163 0.0079688355 0.1870079
0.1408506 0.113446206 0.17150885 0.058864966 0.04199169 0.19345468 0.013526037 0.17007971
0.16790988 0.09237626 0.16297942 0.122432366 0.17198054 0.217469 0.1377378 -0.024505772
-0.060339756 0.12862204 0.16993564 0.0124562085 -0.06017662 0.15883516 0.14443135 0.2307809
0.010452643 0.025950387 0.17081046 0.042357966 -0.006286241 0.11526388 0.054169 -0.0073134974
0.05814371 0.04321508 0.17048949 0.1591225 0.12099366 -0.05071886 0.02270107 0.18901642
0.1377292 0.1945353 0.10996275 0.16709715 0.04567433 0.20596941 0.13348168 0.16224584
0.016984798 0.057023227 0.14384861 0.11193949 0.19910271 0.13743526 0.20864835 0.06596722
0.16436203 0.17808516 -0.054279 0.19053108 0.045974888 0.01670459 0.18806839 0.12304906
0.206143 0.19703569 0.042710207 0.19742587 -0.05005297 0.13414036 0.18820053 0.11739607

network.layer4.bias f4 [26]
00000000: de67 31be 02c5 fe3d dfee 963e c347 45be
00000010: e336 013e b20e 993e 3c8d a8be 9a5d 83be
00000020: 2293 a33e e064 7ebe 468c 4ebd 1cb5 9f3e
00000030: 806d 8abe 1b99 de3e 9c86 b7be a0cf 953d
00000040: 05fa 5c3e baf0 8bbe 67ac 043e e37d 463d
00000050: 9299 24be 01fd 3b3d 56fd b13e 9329 93be
00000060: 5c30 693e 9b30 cd3d
-0.17324778 0.1243992 0.2947912 -0.19265656 0.12618594 0.29894024 -0.32920253 -0.2565735
0.3194819 -0.24843168 -0.050426744 0.31192863 -0.27036667 0.43476185 -0.35844886 0.07314992
0.2157975 -0.27332097 0.12956391 0.0484599 -0.16074207 0.04589558 0.34763592 -0.28742656
0.22772354 0.100190364
