DDQN_panda_env1/runs/results_8/best-model.pt (torch, 162903 bytes, 6 tensors)

network.layer1.weight f4 [128, 3]
-0.98107666 -0.13860643 0.46937904 -1.2520976 -0.7216207 0.32997972 -0.36316225 0.5283813
0.7123283 -0.9655589 -0.61668557 0.1421878 0.32228222 -0.0148778185 0.15302302 -0.7910904
-0.41955176 -0.073000155 0.3451281 -0.5055644 1.0581206 -0.43527663 -0.1820083 0.50323206
1.050966 -0.5049717 0.22700687 -0.06822466 -0.24688229 -0.5370779 -1.1002563 -0.40617886
0.2286327 0.47114182 0.29278892 0.5295666 -0.58095866 -0.3498841 0.39353994 -0.52192837
0.55842173 -0.61730427 0.57219774 -0.20447767 0.8669139 0.43374288 0.5181952 -0.06113449
-0.38031414 0.23065075 0.5055931 -0.41485626 -0.43241704 0.6242209 1.2596579 -0.70849437
-0.3444015 -0.52797246 -0.4828424 0.30608588 -0.8847994 -0.33776686 0.07287644 -0.5841964
-0.19357163 -1.0573714 -0.36284763 0.9161631 0.15455778 1.456366 -0.6065814 -0.48458707
-0.59659135 -0.42914405 -0.21480763 0.29220378 -0.21042013 -0.76347613 -0.93416125 0.057001166
0.57949454 -0.9076287 -0.6706087 0.649222 -1.324392 0.68444675 0.0486939 0.77775645
-0.26039338 0.569701 0.30729795 0.30642462 -0.4511164 -0.14715867 0.07950686 -0.25529426
0.26438302 0.14355606 -0.13062002 -0.14296848 0.2039307 -0.58282703 -0.35853446 -0.7437826
-0.095062986 -0.9531305 -0.31289646 0.6215204 0.11077475 0.54527044 0.6420353 -1.3909185
-0.4560254 -0.13228683 -0.8186636 0.41412306 0.4780196 -0.41005597 0.019025713 -0.16916381
-0.32910103 -0.17863098 0.3776798 0.29219034 0.70927364 -0.08303076 -0.38708767 -0.20528914
-0.2910596 -0.24782555 0.31610337 0.6367813 1.2981529 -0.74549544 -0.3600927 -0.4898713
-0.5061118 -0.5161536 0.42357332 -0.2693636 0.86505544 -0.44510806 -0.31995836 0.21207233
0.3261785 -0.03346448 -0.09412357 -0.6833039 -0.68918985 0.25120553 -0.7374027 -0.57910055
0.6001707 -0.2602544 -0.10510699 -0.25710508 -0.22819799 0.3943204 -0.2445435 -0.043455362
0.30003878 0.37920848 -0.62525433 -0.4324209 -0.18417414 0.3541211 0.31746662 0.6655492
0.048009768 0.7482905 0.72645074 0.6138455 0.7674028 0.6481983 -0.7779609 0.03990986
0.3869851 1.1052634 0.22276172 -0.27728558 -0.5533359 0.13716869 -0.18730983 0.07529849
0.68470085 0.7360466 -0.42271018 -0.1381221 -0.13519944 0.29494873 0.18811664 0.31799775
0.5838265 0.23325191 0.6313594 -0.7981167 -0.15208799 0.6799826 0.595233 0.5265047
-0.04533654 -0.91392726 0.33215794 0.07969907 -0.36483845 0.16301434 0.6851538 -0.41414168
-0.24474417 -0.33125564 -0.117326714 0.011970065 -0.16164201 0.5072902 -0.49515018 0.39070717
-0.6413185 -0.3020675 -0.05033028 -0.6981194 0.09462313 0.7140547 -1.1739657 -0.6427687
0.49691218 -0.21170877 -0.015866429 0.37559542 -0.17049888 0.352957 0.27578217 -0.17702062
-0.46357813 -0.76248926 -0.8897303 1.5196058 -0.49850017 -0.43143848 1.3060857 0.2737833
0.32522953 0.21941793 0.4113483 0.45521882 0.102738 -0.69707716 0.9808166 0.8167426
0.31234738 -0.10820763 -0.33620536 0.36289015 -1.5302181 -0.6032988 0.24342139 0.47090906
00000000: d727 7bbf d8ee 0dbe 7352 f03e bc44 a0bf
00000010: 22bc 38bf 1af3 a83e 67f0 b9be ff43 073f
00000020: 265b 363f de2e 77bf 1bdf 1dbf ae99 113e
00000030: 2d02 a53e 18c2 73bc 11b2 1c3e e784 4abf
00000040: 7dcf d6be 1b81 95bd a1b4 b03e ab6c 01bf
00000050: 7f70 873f 94dc debe 6260 3abe d1d3 003f
00000060: 0e86 863f d345 01bf 7d74 683e 5fb9 8bbd
00000070: b6ce 7cbe f07d 09bf 33d5 8cbf adf6 cfbe
00000080: b11e 6a3e 8039 f13e 6ee8 953e ad91 073f
00000090: b5b9 14bf 0224 b3be 117e c93e 199d 05bf
000000a0: baf4 0e3f a707 1ebf 8d7b 123f 9862 51be
000000b0: 12ee 5d3f 8c13 de3e 71a8 043f 2968 7abd
000000c0: 89b8 c2be b62f 6c3e 8d6e 013f 0a68 d4be
000000d0: c465 ddbe f1cc 1f3f 783c a13f e35f 35bf
000000e0: 6555 b0be 3429 07bf 1e37 f7be 4ab7 9c3e
000000f0: 3782 62bf c7ef acbe 3e40 953d e58d 15bf
00000100: a437 46be f257 87bf 2ac7 b9be aa89 6a3f
00000110: 6544 1e3e 336a ba3f eb48 1bbf cc1b f8be
00000120: 36ba 18bf c5b8 dbbe 88f6 5bbe bc9b 953e
00000130: 6078 57be 2c73 43bf 3125 6fbf 0e7a 693d
00000140: c159 143f 5b5a 68bf 03ad 2bbf 6a33 263f
00000150: ad85 a9bf e737 2f3f 4173 473d 0c1b 473f
00000160: 4852 85be edd7 113f 2856 9d3e b0e3 9c3e
00000170: bbf8 e6be c3b0 16be 7ed4 a23d eeb5 82be
00000180: 365d 873e 5c00 133e 41c1 05be 5466 12be
00000190: 36d3 503e 2734 15bf d491 b7be 8968 3ebf
000001a0: 62b0 c2bd 5c00 74bf f733 a0be f61b 1f3f
000001b0: dfdd e23d d896 0b3f 6d5c 243f 9e09 b2bf
000001c0: 297c e9be 3376 07be f093 51bf f007 d43e
000001d0: fcbe f43e dbf2 d1be d0db 9b3c 4739 2dbe
000001e0: ee7f a8be 0aeb 36be 3f5f c13e f999 953e
000001f0: f592 353f 080c aabd 5b30 c6be 5137 52be
00000200: c405 95be fbc5 7dbe 4dd8 a13e 1904 233f
00000210: e029 a63f cad8 3ebf 125e b8be 69d0 fabe
00000220: 8b90 01bf a422 04bf 9ade d83e 07ea 89be
00000230: 4674 5d3f 34e5 e3be 95d1 a3be 7d29 593e
00000240: de00 a73e 0d12 09bd dcc3 c0bd 01ed 2ebf
00000250: bf6e 30bf 039e 803e 6cc6 3cbf ef3f 14bf
00000260: c9a4 193f 1140 85be 5542 d7bd 47a3 83be
00000270: bcac 69be 5de4 c93e 9c69 7abe 40fe 31bd
00000280: af9e 993e 9d27 c23e ab10 20bf 4666 ddbe
00000290: 2598 3cbe 5c4f b53e fc8a a23e 6f61 2a3f
000002a0: e4a5 443d f78f 3f3f adf8 393f fb24 1d3f
000002b0: 8374 443f 53f0 253f 7228 47bf 8578 233d
000002c0: e922 c63e 4579 8d3f a61b 643e 60f8 8dbe
000002d0: 6ca7 0dbf f375 0c3e 26ce 3fbe 1836 9a3d
000002e0: 8e48 2f3f 8d6d 3c3f 786d d8be e16f 0dbe
000002f0: b971 0abe 8503 973e a6a1 403e 9ad0 a23e
00000300: a775 153f 97d9 6e3e c5a0 213f 6051 4cbf
00000310: f4bc 1bbe 5713 2e3f 3161 183f 03c9 063f
00000320: cfb2 39bd 23f7 69bf 9b10 aa3e 4439 a33d
00000330: 1bcc babe 3bed 263e 3d66 2f3f 610a d4be
00000340: 379e 7abe 579a a9be fd48 f0bd 171e 443c
00000350: 7c85 25be c5dd 013f 5384 fdbe c50a c83e
00000360: 732d 24bf 97a8 9abe 2027 4ebd f4b7 32bf
00000370: c6c9 c13d 4acc 363f 8244 96bf 7d8c 24bf
00000380: 466b fe3e 2fca 58be 50fa 81bc 0b4e c03e
00000390: 4297 2ebe c8b6 b43e 5233 8d3e e544 35be
000003a0: 1d5a edbe 7f32 43bf 5dc5 63bf 7182 c23f
000003b0: 6a3b ffbe 81e5 dcbe d12d a73f 532d 8c3e
000003c0: 7c84 a63e 18af 603e 3f9c d23e 7112 e93e
000003d0: 4d68 d23d a673 32bf cc16 7b3f 0b16 513f
000003e0: ffeb 9f3e f69b ddbd 1c23 acbe bdcc b93e
000003f0: 30de c3bf ca71 1abf 7543 793e fe1a f13e

network.layer1.bias f4 [128]
0.9111354 0.016835893 0.44011006 0.35355043 0.73668236 0.8375695 0.27284086 0.64169693
-0.15715235 0.44705576 0.4198817 0.6041992 0.63996947 -0.45207804 0.30826893 1.1560013
0.21428679 0.6429373 -0.12707904 0.28707007 0.5347873 0.030664543 -0.83303386 0.3305302
1.1019778 -0.42333534 0.72938675 0.59127945 -0.38541418 0.13355975 -0.32818627 1.140296
-0.5273202 -0.3290705 0.23805329 -0.16987263 0.57862735 -0.15711866 0.8948878 0.948776
-0.32127562 -0.2712422 0.9939276 0.090324804 -0.21673562 0.31465212 -0.46267954 0.50015897
-0.528576 0.94608384 0.8349462 0.98651105 -0.11740637 -1.1297929 1.0126673 0.38759264
0.8176496 -0.120267175 0.40220514 -0.4669593 -0.36779556 0.6987677 0.73270327 0.5936259
0.6045607 0.73744375 0.7401228 -0.61607265 -0.12823048 1.0784744 -0.5454424 0.015424481
0.65818155 -0.10225557 0.39720756 0.9615197 0.8608451 0.32642576 -0.1175227 -0.4860578
0.4848633 -0.11917207 0.34465563 0.86828583 0.3430574 0.603561 0.7199295 0.97985184
-0.07934497 -0.5736931 -0.2564809 0.67948675 0.55807614 0.49204627 -0.4776884 0.7414794
0.60877204 0.84535676 0.7462243 0.990793 -0.51214314 1.2062494 -0.3314945 0.40494072
0.31985602 -0.172133 0.542775 0.67749774 0.10857464 0.585542 0.6239948 0.119922794
0.6426552 0.700764 0.7476184 0.46222878 0.7265192 -0.24652474 -0.17270276 0.54429215
-0.14992073 0.6432522 0.87737185 0.51266307 0.5466611 0.5139869 0.055832017 0.23481695
00000000: 2b40 693f 6deb 893c 1b56 e13e 9004 b53e
00000010: 3797 3c3f f46a 563f ccb1 8b3e 4046 243f
00000020: 8cec 20be 7ee4 e43e bcfa d63e ccac 1a3f
00000030: 0ad5 233f c676 e7be 6dd5 9d3e daf7 933f
00000040: ff6d 5b3e 8a97 243f 0221 02be d9fa 923e
00000050: d2e7 083f 3534 fb3c b541 55bf 413b a93e
00000060: 9c0d 8d3f 69bf d8be 17b9 3a3f 175e 173f
00000070: 0255 c5be e3c3 083e 0808 a8be 38f5 913f
00000080: 75fe 06bf ee7b a8be 3ec4 733e 17f3 2dbe
00000090: ec20 143f b7e3 20be 5e17 653f fce2 723f
000000a0: 3d7e a4be 42e0 8abe 0a72 7e3f 36fc b83d
000000b0: f1ef 5dbe 151a a13e 55e4 ecbe 6b0a 003f
000000c0: c250 07bf 8d32 723f 09bf 553f fd8b 7c3f
000000d0: c072 f0bd 0e9d 90bf 159f 813f 8b72 c63e
000000e0: 7c51 513f a34e f6bd d5ed cd3e 4a15 efbe
000000f0: b34f bcbe 71e2 323f 7192 3b3f def7 173f
00000100: 7dc4 1a3f 1dc9 3c3f b078 3d3f f0b6 1dbf
00000110: da4e 03be 730b 8a3f 1da2 0bbf f6b6 7c3c
00000120: 967e 283f 5e6b d1bd ca5e cb3e 2826 763f
00000130: 5860 5c3f 4721 a73e beaf f0bd 91dc f8be
00000140: 0140 f83e 7c10 f4bd b476 b03e fb47 5e3f
00000150: 38a5 af3e f982 1a3f 4d4d 383f 92d7 7a3f
00000160: 9e7f a2bd 8ddd 12bf 7751 83be d8f2 2d3f
00000170: 14de 0e3f 7ded fb3e 9393 f4be 98d1 3d3f
00000180: 7cd8 1b3f 4d69 583f 8e08 3f3f 9ca4 7d3f
00000190: d01b 03bf 6166 9a3f a6b9 a9be 6454 cf3e
000001a0: 2bc4 a33e a243 30be 4df3 0a3f 7e70 2d3f
000001b0: 615c de3d 15e6 153f 20be 1f3f 159a f53d
000001c0: 0d85 243f 4565 333f eb63 3f3f 40a9 ec3e
000001d0: 2afd 393f fb70 7cbe fed8 30be bb56 0b3f
000001e0: d284 19be 2dac 243f 719b 603f e33d 033f
000001f0: fbf1 0b3f a594 033f 1db0 643d db73 703e

network.layer2.weight f4 [256, 128]
0.12511799 0.16765524 0.34764042 0.14506765 0.20811205 0.3279364 -0.07139531 0.15300138
-0.19676226 0.91601604 0.13689269 0.11065225 0.07885091 -0.030800413 0.03768976 0.40803468
0.21526816 -0.014085004 -1.0096278 -0.02814973 0.31556565 0.6542541 1.7207285 -0.64721555
0.5292359 -0.60962504 0.108314835 0.055315234 -1.448939 -0.027125005 -0.038051177 1.5545318
0.0833379 -0.15029067 0.44772604 0.029276816 0.7061438 0.10881194 0.29636118 0.628311
0.37054306 -0.15237556 1.1929752 0.5566493 -0.8426055 1.0567038 -0.27683374 0.122577175
0.056954786 0.17628835 0.009809725 0.52542615 -0.17593934 1.119787 0.65281683 0.250191
0.9466531 -0.88252693 0.2284903 -0.9320153 -0.20193006 1.242499 0.43147781 0.2727165
0.23228924 0.12963961 1.4773335 -1.1110146 0.4138242 0.9857142 0.0387547 -0.023834392
0.4097742 -0.03869093 0.014310639 0.22104478 0.3974737 1.0996448 1.7359322 2.37609
0.13982649 -0.0021786143 1.8838453 0.04237421 0.23799337 -0.010587495 0.33517614 0.75454855
0.672037 -0.21054451 -1.0912153 0.124800056 1.1300788 0.65795714 0.36012712 0.33533946
0.48344976 0.12958196 0.18245642 0.65091 -0.20725043 1.3786364 0.162093 0.12024072
1.2609712 -0.7017974 0.52840227 0.157623 -0.17958176 1.5973225 0.09970344 -0.4714432
0.87886345 0.7080323 0.27953172 0.22313264 0.890353 -0.7779284 0.075020984 0.7794336
-0.85937566 0.36938462 0.038580317 0.4703586 0.4418814 0.5505351 -0.097760275 0.3003351
0.07203706 0.066736676 -0.07167601 -0.07007647 0.05179756 -0.092388965 -0.00081678375 -0.0609629
-0.05405409 0.014191798 0.006847699 0.042952176 -0.069028676 -0.03631517 0.05390009 0.016953941
-0.023971342 -0.05961828 0.042950798 0.03138435 0.027580367 -0.016270733 0.07701951 0.07070786
-0.05857555 0.04461438 0.06296115 -0.038767435 -0.08617367 -0.079009384 0.07309273 -0.0030546472
-0.050528854 0.048978694 -0.02362394 -0.08154623 -0.038435366 0.028349712 -0.009277611 -0.03940054
-0.007578804 -0.06018471 -0.030159337 -0.06962471 -0.0039359108 -0.022540433 0.039744552 0.044858433
0.06660595 0.063697204 0.009220399 0.034910604 -0.004517784 0.048009902 -0.05768143 -0.00026883534
-0.06871608 0.004713619 -0.010167731 -0.05555258 -0.07122503 0.0014111534 0.012862377 -0.0113534015
-0.049444124 -0.053767104 0.03212661 0.041126296 -0.07687589 -0.033353657 0.061062373 0.015242069
-0.062150117 0.06587656 -0.05675563 0.067471094 -0.06430747 -0.036435675 -0.010605262 -0.056915496
-0.03656254 0.023783972 -0.022508569 0.008033654 0.060669903 -0.08375845 0.026842 0.012666396
-0.09134013 -0.022323536 0.03466014 0.034301154 0.044734742 0.00440044 0.07192176 -0.04417334
0.025470624 0.038008057 0.072454326 -0.039720763 0.011742461 -0.019155469 -0.060572956 0.014436705
-0.057045013 0.046915628 0.037358213 0.0027449436 0.074557014 -0.0672175 0.0016624369 -0.07443157
-0.06124582 0.043470692 -0.027335482 -0.032566965 -0.046563253 -0.020635013 -0.014842466 0.057460926
-0.053973358 0.08182795 -0.051462635 -0.07712736 0.0013322325 -0.012983933 0.035159785 -0.0019270408
00000000: ee1e 003e d1ad 2b3e edfd b13e 9d8c 143e
00000010: 531b 553e 48e7 a73e b437 92bd 65ac 1c3e
00000020: 0c7c 49be 0780 6a3f 992d 0c3e a69d e23d
00000030: 967c a13d 2651 fcbc 9460 1a3d ece9 d03e
00000040: 426f 5c3e cac4 66bc 7c3b 81bf 439a e6bc
00000050: d291 a13e 327d 273f d540 dc3f ebaf 25bf
00000060: 017c 073f 6310 1cbf 2bd4 dd3d 3a92 623d
00000070: d576 b9bf 4235 debc 8ddb 1bbd e6fa c63f
00000080: 10ad aa3d cce5 19be 593c e53e efd5 ef3c
00000090: d7c5 343f cbd8 de3d a7bc 973e fdd8 203f
000000a0: d2b7 bd3e 5708 1cbe 69b3 983f 9280 0e3f
000000b0: feb4 57bf 1242 873f 27bd 8dbe be09 fb3d
000000c0: 6c49 693d ef84 343e f8b8 203c 5482 063f
000000d0: 7129 34be 2e55 8f3f 011f 273f 0919 803e
000000e0: dc57 723f 49ed 61bf 5cf9 693e 8e98 6ebf
000000f0: c1c6 4ebe 350a 9f3f a9ea dc3e 7fa1 8b3e
00000100: 3bdd 6d3e 3fc0 043e 4419 bd3f ba35 8ebf
00000110: c4e0 d33e c457 7c3f 40bd 1e3d 5840 c3bc
00000120: edcd d13e 617a 1ebd 2c77 6a3c 9059 623e
00000130: ac81 cb3e 29c1 8c3f 0733 de3f dc11 1840
00000140: ad2e 0f3e 15c7 0ebb d821 f13f 9490 2d3d
00000150: 89b4 733e 2c77 2dbc 359c ab3e 182a 413f
00000160: 9e0a 2c3f fb98 57be f1ac 8bbf 2c97 ff3d
00000170: 6ca6 903f e16f 283f 9562 b83e 9db1 ab3e
00000180: ba86 f73e 22b1 043e dbd5 3a3e 0aa2 263f
00000190: 7539 54be 2877 b03f b5fb 253e c440 f63d
000001a0: 8167 a13f ffa8 33bf 5f45 073f ec67 213e
000001b0: 48e4 37be 1075 cc3f 5131 cc3d 0161 f1be
000001c0: 32fd 603f 9b41 353f c81e 8f3e e27c 643e
000001d0: 2dee 633f 5126 47bf 9aa4 993d f688 473f
000001e0: 0b00 5cbf fb1f bd3e 6506 1e3d d8d2 f03e
000001f0: 473e e23e deef 0c3f 8a36 c8bd 86c5 993e
00000200: 2b88 933d 3dad 883d dfca 92bd 4184 8fbd
00000210: ae29 543d 6d36 bdbd 6e1d 56ba 3cb4 79bd
00000220: d267 5dbd b784 683c aa62 e03b 9fee 2f3d
00000230: e85e 8dbd 37bf 14bd 57c6 5c3d fee2 8a3c
00000240: 8c5f c4bc 4c32 74bd 2ded 2f3d e08c 003d
00000250: 39f0 e13c 334a 85bc 68bc 9d3d 48cf 903d
00000260: eaec 6fbd 91bd 363d c7f1 803d 9aca 1ebd
00000270: d27b b0bd accf a1bd a4b1 953d 7a30 48bb
00000280: 58f7 4ebd e29d 483d fe86 c1bc b601 a7bd
00000290: 676e 1dbd a83d e83c 1f01 18bc 7662 21bd
000002a0: 9e57 f8bb 3e84 76bd b710 f7bc 6697 8ebd
000002b0: d0f8 80bb b7a6 b8bc 2fcb 223d 7abd 373d
000002c0: b368 883d ae73 823d 2811 173c 6cfe 0e3d
000002d0: eb09 94bb 08a6 443d 5d43 6cbd 78f2 8cb9
000002e0: 04bb 8cbd b474 9a3b 8e96 26bc 1a8b 63bd
000002f0: 6ede 91bd 73f6 b83a b8bc 523c 9e03 3abc
00000300: ec85 4abd e53a 5cbd 3197 033d 0c74 283d
00000310: 1b71 9dbd d89d 08bd 8a1c 7a3d dfb9 793c
00000320: 1f91 7ebd 4aea 863d 9778 68bd 492e 8a3d
00000330: a3b3 83bd 933d 15bd b1c1 2dbc 3920 69bd
00000340: 9ac2 15bd 9bd6 c23c e463 b8bc 969f 033c
00000350: 0181 783d 8d89 abbd c1e3 db3c b786 4f3c
00000360: 8910 bbbd d9df b6bc caf7 0d3d 5e7f 0c3d
00000370: c73b 373d 9131 903b b74b 933d 1bef 34bd
00000380: c5a7 d03c 56ae 1b3d ef62 943d 3db2 22bd
00000390: 7363 403c eeeb 9cbc 591b 78bd ee87 6c3c
000003a0: 08a8 69bd 9a2a 403d ed04 193d 83e4 333b
000003b0: 59b1 983d 54a9 89bd 20e6 d93a 946f 98bd
000003c0: e6dc 7abd 530e 323d a9ee dfbc f064 05bd
000003d0: 1cb9 3ebd c20a a9bc d12d 73bc 265c 6b3d
000003e0: 2b13 5dbd 6a95 a73d 7cca 52bd f3f4 9dbd
000003f0: 4e9e ae3a 90ba 54bc b503 103d c294 fcba

network.layer2.bias f4 [256]
0.35870856 -0.0123435985 0.44578874 0.1396868 0.31444284 -0.08549196 0.21677074 0.4575394
0.20218898 0.25289854 0.49289253 0.071063444 0.21589036 -0.06276351 0.23486467 0.22700185
0.18162394 0.0035483537 -0.017044313 0.30787197 0.2789913 0.30403966 0.3582757 0.07365808
0.30285668 0.060304064 0.13082144 0.07920908 0.07510545 0.0091963895 -0.062345576 0.010567163
0.3584399 0.1865413 0.360721 0.36007985 0.13108175 0.33522296 0.14329295 0.35871798
0.41426283 -0.07849752 0.28450853 0.35295534 0.026671747 0.009173537 0.36845812 0.35514268
0.033654753 0.33408144 0.041821185 0.0068752375 0.27389 0.4178133 0.21259199 0.24346575
0.46963552 0.36889595 0.15826526 0.1869724 -0.0611511 0.20563336 0.19775622 0.18393233
0.4171627 0.031681325 0.0676347 0.2579902 0.3135892 0.014334363 0.25483447 0.052505378
0.011244112 0.053487375 0.40494683 0.21944618 -0.15295601 0.020944325 0.26431966 0.054507695
0.25121465 0.0941179 0.009834082 0.3272425 0.40586996 0.30320588 0.24516249 -0.19503133
0.28962243 0.14338201 -0.05769424 -0.081138834 0.3311265 0.23245214 0.008301568 -0.22661538
0.43268415 0.035517424 0.071385205 0.15964678 -0.011298525 0.29739693 -0.010329637 0.25633946
0.17484455 0.058298826 0.052731242 0.097081326 0.1153206 0.19551022 0.042662986 0.2000092
0.14778034 -0.06338542 0.1309931 0.12059333 0.19721968 0.029314676 0.38003385 0.2837738
0.06849044 0.07544339 0.17579818 0.052184176 -0.015914703 0.37520978 0.009607488 0.3831702
0.4761457 0.08241278 0.11361709 0.096221596 0.34331757 -0.052936208 0.17849137 0.25998324
0.006323123 0.004274786 0.19632336 0.12970735 0.057944857 0.16840278 0.15363157 0.354484
0.08878925 0.29090616 0.38968766 0.21170709 0.30254063 0.03675994 0.15819027 0.3056861
0.22306062 0.26057154 -0.0874246 0.17398232 0.30304444 0.18233818 0.005972009 0.21258001
0.27759644 0.345493 0.43496993 -0.08669581 -0.030717567 0.3310317 0.31295845 0.31090093
0.051448688 -0.06295082 0.043120082 0.098257646 0.2864681 0.17981039 0.09516775 -0.014835795
0.24559541 0.32330295 0.07647721 0.0015613129 0.19555946 0.37163115 0.36806184 -0.02457293
-0.046563163 0.55891997 0.35038605 0.07709179 0.112874575 0.021889925 0.37246016 0.29401502
-0.0018035492 0.039910663 -0.07537636 0.43613553 0.045476716 0.26181838 0.091484375 0.32845458
0.22544822 0.009291012 0.287693 0.4163819 0.12777916 0.28884488 -0.06680919 0.16960642
0.14211038 0.035609625 0.24478489 0.22733125 0.38603777 0.3366357 0.30915692 0.5027746
0.044351455 0.22141771 0.191831 0.4549954 0.21650763 0.23725264 0.21801129 0.12768325
0.35620177 0.09651267 0.16517043 0.001018378 0.22045404 0.15395099 0.25459698 0.29483002
0.34817383 0.35731247 0.053005878 0.34010088 0.26728496 -0.17350602 0.11567538 0.42767528
0.2063484 0.49749056 -0.067263864 0.203797 -0.06924512 0.014975407 0.2017061 0.32522213
0.2815921 0.13350189 0.14952952 -0.04378334 0.2306262 -0.072018765 0.18477425 -0.080972955
00000000: a6a8 b73e ce3c 4abc 6c3e e43e 0e0a 0f3e
00000010: a7fe a03e 6916 afbd 26f9 5d3e 9b42 ea3e
00000020: a10a 4f3e eb7b 813e 695c fc3e b689 913d
00000030: 5d12 5d3e 288a 80bd 5d80 703e 2c73 683e
00000040: a0fb 393e 7f8b 683b 84a0 8bbc 65a1 9d3e
00000050: f3d7 8e3e 16ab 9b3e ea6f b73e 0cda 963d
00000060: 0810 9b3e 6501 773d 0ef6 053e 5f38 a23d
00000070: e3d0 993d 74ac 163c 135e 7fbd e521 2d3c
00000080: 6f85 b73e af04 3f3e 6cb0 b83e 635c b83e
00000090: 4b3a 063e 58a2 ab3e 63bb 123e e2a9 b73e
000000a0: 421a d43e 4fc3 a0bd 1aab 913e 90b6 b43e
000000b0: b57e da3c 9a4c 163c 8ba6 bc3e 43d5 b53e
000000c0: 91d9 093d b90c ab3e b14c 2b3d ac49 e13b
000000d0: 4f3b 8c3e a0eb d53e b7b1 593e 164f 793e
000000e0: 1174 f03e eedf bc3e 4a10 223e b175 3f3e
000000f0: 9379 7abd 8d91 523e 9b80 4a3e c258 3c3e
00000100: 5996 d53e 47c4 013d 1084 8a3d 4b17 843e
00000110: c38e a03e adda 6a3c aa79 823e e10f 573d
00000120: 3939 383c 9415 5b3d 3155 cf3e 80b6 603e
00000130: 80a0 1cbe 6f93 ab3c e854 873e 7643 5f3d
00000140: 359f 803e e3c0 c03d 211f 213c 548c a73e
00000150: 30ce cf3e cd3d 9b3e e00b 7b3e 4bb6 47be
00000160: 6449 943e bcd2 123e cc50 6cbd 1e2c a6bd
00000170: 6a89 a93e ef07 6e3e 4d03 083c dd0d 68be
00000180: c788 dd3e b87a 113d 6832 923d 727a 233e
00000190: 731d 39bc 6944 983e a33d 29bc ed3e 833e
000001a0: 730a 333e c0ca 6e3d b7fc 573d 93d2 c63d
000001b0: 352d ec3d d533 483e 62bf 2e3d 36cf 4c3e
000001c0: bb53 173e 37d0 81bd 0e23 063e a3f9 f63d
000001d0: f5f3 493e 5525 f03c cc93 c23e cd4a 913e
000001e0: b744 8c3d 1082 9a3d 7004 343e 13bf 553d
000001f0: 8d5f 82bc 7f1b c03e ba68 1d3c e22e c43e
00000200: 5fc9 f33e 08c8 a83d 14b0 e83d d40f c53d
00000210: 52c7 af3e a3d3 58bd 71c6 363e 861c 853e
00000220: 3332 cf3b 8113 8c3b fe08 493e 01d2 043e
00000230: 9657 6d3d c771 2c3e 9851 1d3e ed7e b53e
00000240: 23d7 b53d a7f1 943e 2485 c73e bec9 583e
00000250: 9be6 9a3e 9791 163d a1fc 213e e382 9c3e
00000260: 016a 643e a269 853e ab0b b3bd 6c28 323e
00000270: a428 9b3e dcb6 3a3e d8b0 c33b 93ae 593e
00000280: 1f21 8e3e 75e4 b03e 61b4 de3e 938d b1bd
00000290: 68a3 fbbc fd7c a93e 173c a03e 682e 9f3e
000002a0: dcbb 523d 5cec 80bd af9e 303d 4e3b c93d
000002b0: f2ab 923e 3720 383e 4fe7 c23d d611 73bc
000002c0: 5d7d 7b3e f787 a53e 15a0 9c3d f8a4 cc3a
000002d0: bd40 483e 7046 be3e 9a72 bc3e 2b4d c9bc
000002e0: 04b9 3ebd 6115 0f3f cd65 b33e 4de2 9d3d
000002f0: c92a e73d 8052 b33c 19b3 be3e 2389 963e
00000300: 1265 ecba 5d79 233d ec5e 9abd 284d df3e
00000310: cb45 3a3d 0f0d 863e 295c bb3d 332b a83e
00000320: e6db 663e 5439 183c 7f4c 933e 0230 d53e
00000330: 8ad8 023e 7ae3 933e 42d3 88bd 4ead 2d3e
00000340: 6285 113e 66db 113d e4a8 7a3e 86c9 683e
00000350: bea6 c53e 845b ac3e d149 9e3e d6b5 003f
00000360: dfa9 353d 53bb 623e 586f 443e 28f5 e83e
00000370: 2db4 5d3e 5bf2 723e 5a3e 5f3e 66bf 023e
00000380: 1460 b63e 6fa8 c53d 7022 293e 187b 853a
00000390: b4be 613e 54a5 1d3e 895a 823e f6f3 963e
000003a0: d743 b23e a9f1 b63e b11c 593d b421 ae3e
000003b0: 93d9 883e 90ab 31be 37e7 ec3d 41f8 da3e
000003c0: ff4c 533e 15b7 fe3e a3c1 89bd 29b0 503e
000003d0: 63d0 8dbd 695b 753c 0b8c 4e3e 8483 a63e
000003e0: d72c 903e b8b4 083e 441e 193e 2956 33bd
000003f0: 4629 6c3e 937e 93bd 7635 3d3e 26d5 a5bd

network.layer4.weight f4 [26, 256]
0.22890328 -0.0073315427 0.2989926 0.2795911 0.32314137 0.029820785 0.34059912 0.22843336
0.20399219 0.2465292 0.15636815 0.36127976 0.32504934 0.009256884 0.24229291 0.18718168
0.31671053 0.041364074 0.060361907 0.30313033 0.21214704 0.27818784 0.20987837 -0.6820232
0.33854783 0.25912485 0.24468581 0.060943685 0.027114354 -0.05664227 0.018126972 -0.006588824
0.12835258 0.20828164 0.16410668 0.17740865 0.4079305 0.21765716 0.24924329 0.23216128
0.16911267 0.048465766 0.26785088 0.2204926 -0.011950262 0.2789167 0.20461182 0.23873788
0.051261917 0.14061832 -0.006695226 0.16278036 0.1748802 0.19487043 0.18879434 0.21845056
0.17247598 0.20802675 0.17836417 0.18270645 0.37637824 0.29802835 0.24373588 0.078589916
0.22480729 0.047038883 0.37789246 0.14035442 0.27914137 -0.008429967 0.2466468 0.015081391
0.2568541 0.21376644 0.12309376 0.2897664 0.00017464625 0.46220356 0.18378827 0.36108997
0.30229214 0.35174254 0.049451083 0.25345242 0.13135776 0.19464672 0.26433936 0.08566272
0.14646998 0.35393828 0.030621067 0.039332256 0.1782592 0.3136196 0.47282654 -0.14030933
0.17462826 -0.013907559 -0.17123277 0.32321057 0.0074036047 0.28225538 -0.044212848 0.14837389
0.29451346 0.09413899 -0.0012199953 0.3666091 0.971023 0.42358664 0.25859925 0.2441728
0.2808265 0.047632463 0.23103833 0.1645049 0.22537231 0.29878396 0.25991443 0.18001784
0.24426971 0.2915165 0.384292 -0.052554175 -0.061900362 0.23542537 -0.020055622 0.14027141
0.09289883 0.04489384 0.40807799 0.29357186 0.1899512 -0.0045787883 0.19365135 0.2554273
-0.016508125 0.023773745 0.2810027 0.22266443 0.021558419 0.29289237 1.4717945 0.19850942
0.48601502 0.18129554 0.081513636 0.24173597 0.24347019 -0.061354727 0.21241154 0.27754384
0.19507363 0.20599917 0.043250665 0.06402379 0.24796681 0.28511494 0.27063322 0.48490784
0.1727646 0.24056076 0.22928984 -0.055786148 -0.00016424902 0.2744323 0.15806863 0.2414308
0.33058536 -0.020714022 0.052018583 0.2477411 0.1578162 0.24679847 0.27573955 0.030744381
0.3034763 0.18749464 0.057259202 0.018662699 0.28610682 0.17832893 0.17321268 -0.03848712
0.044377446 0.4479882 0.21169646 -0.056018412 0.178407 -0.0078098625 0.23667814 0.25783217
0.017263293 0.1759113 0.24030593 0.2144058 0.21885483 0.1886368 0.14923571 0.2323738
0.2518477 -0.018712223 0.1595965 0.18680903 0.40253913 0.24681896 0.0606978 0.25492844
0.20186569 0.04002387 0.24907446 0.29719853 0.21578538 0.24990995 0.27748656 0.117405616
-0.038695082 0.17094216 0.42481282 0.30261198 0.2954572 0.14871955 0.24328078 0.28194386
0.233367 0.2912659 0.27401882 -0.0054727793 0.13662276 0.2760367 0.15736794 0.16744414
0.25094846 0.19896549 0.33938605 0.12647375 0.14966206 0.0050777853 0.3020271 0.2595102
0.2643255 0.20119554 0.12915432 0.2974692 0.0041694194 0.038047455 0.23343164 0.2566448
0.1623734 0.31060362 -0.07890612 0.03267981 0.49871543 0.02494917 0.23789236 -0.050635025
00000000: 9f65 6a3e 703d f0bb 8f15 993e 9126 8f3e
00000010: c972 a53e b84a f43c 0263 ae3e 6fea 693e
00000020: 54e3 503e 2772 7c3e f91e 203e a9f9 b83e
00000030: de6c a63e 30aa 173c a21b 783e 8eac 3f3e
00000040: e227 a23e 606d 293d 0c3e 773d e633 9b3e
00000050: 133d 593e a36e 8e3e 5bea 563e 1399 2ebf
00000060: 2456 ad3e 03ac 843e eb8e 7a3e 16a0 793d
00000070: ec1e de3c ba01 68bd 047f 943c 10e7 d7bb
00000080: dc6e 033e c847 553e 950b 283e 9daa 353e
00000090: 44dc d03e 85e1 5e3e a239 7f3e b0bb 6d3e
000000a0: df2b 2d3e 0a84 463d c023 893e d0c8 613e
000000b0: 08cb 43bc 2bce 8e3e c385 513e b477 743e
000000c0: 04f8 513d 40fe 0f3e a063 dbbb e5af 263e
000000d0: cc13 333e 1d8c 473e 4e53 413e 81b1 5f3e
000000e0: 8b9d 303e f704 553e 19a5 363e 6617 3b3e
000000f0: a6b4 c03e 2c97 983e e695 793e c0f3 a03d
00000100: e233 663e d8ab 403d 1f7b c13e 12b9 0f3e
00000110: 9eeb 8e3e d81d 0abc fb90 7c3e f017 773c
00000120: 6182 833e 97e5 5a3e 9518 fc3d 435c 943e
00000130: 3f21 3739 f2a5 ec3e fe32 3c3e c9e0 b83e
00000140: 09c6 9a3e 9917 b43e 388d 4a3d 84c4 813e
00000150: a682 063e 7851 473e 7d57 873e f06f af3d
00000160: 3afc 153e 6637 b53e 08d9 fa3c dc1a 213d
00000170: 9489 363e c092 a03e 5216 f23e 40ad 0fbe
00000180: c0d1 323e 88dc 63bc a557 2fbe db7b a53e
00000190: f099 f23b c783 903e 8818 35bd 53ef 173e
000001a0: 78ca 963e f1cb c03d 40e8 9fba 30b4 bb3e
000001b0: f794 783f 59e0 d83e 1f67 843e 6f08 7a3e
000001c0: 7ec8 8f3e 421a 433d 5095 6c3e f973 283e
000001d0: 00c8 663e 36fa 983e 8113 853e 9956 383e
000001e0: d721 7a3e a741 953e ecc1 c43e 0c43 57bd
000001f0: 3c8b 7dbd 5913 713e b04b a4bc 4fa3 0f3e
00000200: be41 be3d 9ae2 373d 99ef d03e 0d4f 963e
00000210: 9182 423e a909 96bb 8a4c 463e 5ec7 823e
00000220: 0c3c 87bc 28c1 c23c 96df 8f3e 2502 643e
00000230: 489b b03c fdf5 953e c363 bc3f 0e46 4b3e
00000240: f6d6 f83e 8aa5 393e 9ff0 a63d a289 773e
00000250: 4050 793e 184f 7bbd 6982 593e 3a1a 8e3e
00000260: 62c1 473e 72f1 523e 9c27 313d e81e 833d
00000270: 03eb 7d3e 96fa 913e 7090 8a3e d745 f83e
00000280: 34e9 303e 8f55 763e f5ca 6a3e 0480 64bd
00000290: 433a 2cb9 6482 8c3e bedc 213e a339 773e
000002a0: 7c42 a93e 74b0 a9bc 7011 553d d8af 7d3e
000002b0: 929a 213e bdb8 7c3e bc2d 8d3e a4db fb3c
000002c0: 3f61 9b3e 98fe 3f3e a088 6a3d 84e2 983c
000002d0: 987c 923e dc9b 363e aa5e 313e aca4 1dbd
000002e0: 20c5 353d b65e e53e f5c6 583e 9073 65bd
000002f0: 53b0 363e e0e9 ffbb c15b 723e 9402 843e
00000300: c06b 8d3c 1822 343e c212 763e 328d 5b3e
00000310: 7b1b 603e 012a 413e 3fd1 183e 66f3 6d3e
00000320: 2ff2 803e 604a 99bc 446d 233e de4a 3f3e
00000330: 9c19 ce3e 1cbe 7c3e 429e 783d fb85 823e
00000340: e1b5 4e3e 12f0 233d 600d 7f3e 682a 983e
00000350: d8f6 5c3e 65e8 7f3e b812 8e3e 5b72 f03d
00000360: bc7e 1ebd 760b 2f3e 1181 d93e f5ef 9a3e
00000370: 2b46 973e f049 183e 991e 793e f25a 903e
00000380: c2f7 6e3e ce20 953e 324c 8c3e 0055 b3bb
00000390: d6e6 0b3e af54 8d3e 1025 213e 7a76 2b3e
000003a0: 517c 803e 9cbd 4b3e 02c4 ad3e 5682 013e
000003b0: 0341 193e 8d63 a63b 4ca3 9a3e 85de 843e
000003c0: ac55 873e 3406 4e3e 0841 043e e24d 983e
000003d0: a09f 883b a6d7 1b3d b408 6f3e f266 833e
000003e0: 3645 263e 7007 9f3e 8899 a1bd 44db 053d
000003f0: a157 ff3e 3462 cc3c 0e9a 733e ac66 4fbd

network.layer4.bias f4 [26]
-0.19899203 -0.17708915 -0.054289352 -0.37411407 -0.4454477 -0.22849715 -0.33901465 -0.28078246
-0.18924737 0.1325571 0.42658994 -0.037080597 0.3201266 -0.35782006 -0.08050037 -0.23618779
-0.25207874 0.1992421 0.071625 0.4060455 0.012785742 0.2534668 0.07431189 0.21893066
0.2902405 0.20568326
00000000: 91c4 4bbe dc56 35be 835e 5ebd e18b bfbe
00000010: b911 e4be 28fb 69be 5493 adbe b8c2 8fbe
00000020: 10ca 41be 0cbd 073e ff69 da3e d3e1 17bd
00000030: a2e7 a33e 3134 b7be 61dd a4bd 36db 71be
00000040: 7710 81be 1f06 4c3e 21b0 923d 32e5 cf3e
00000050: 4a7b 513c 67c6 813e d530 983d 5c2f 603e
00000060: 679a 943e a29e 523e
