gym_examples/DQN/dqn_pt_agent.pth (torch, 21847 bytes, 6 tensors)

fc1.weight f4 [64, 8]
00000000: 24f1 de3e f120 373e daf1 033f 9c13 b23d
00000010: b309 213f 48df d93f 5024 ba3e 1e6e a03d
00000020: ae5d 84bf 7404 1f3f 9761 31bf b955 e33f
00000030: 3586 40bf 17be efbc 182d 58bf 9b05 8ebc
00000040: e303 673e 827d d13f 927f 6a3e 1cdc a6be
00000050: 6663 94bd b05c f13e 80ab edbd 6f32 d3bd
00000060: 6b4f 863f 44b6 43be c9cb 633f 206b 5ebe
00000070: cfe8 eabe 446d 22bf 9573 93be 3960 a63e
00000080: 766c eabe 80b4 b63c 5d32 a2bf bf37 993e
00000090: 6799 153f 315b 13be f108 06bd 64d0 0e3f
000000a0: 47e5 1dbf 3502 aabf 54f8 0bbf a0b0 d1bf
000000b0: 193e dcbe fa3c 3f3e 613a 383e 039a 48bf
000000c0: 30c7 31be 6657 023e f199 e4be 4dbe 463f
000000d0: f3a1 e03e 8de0 fe3e 9670 a93e f38d a2be
000000e0: 5c48 b03e 8bb8 a13e c3ec cb3d d184 133f
000000f0: 8989 61bf 7358 0cbe b393 93be 8d08 ce3b
00000100: bfc9 fabd 4bc9 c9bc da0d 953f dcb1 65bf
00000110: aee0 253e 1c85 b0be 0796 fc3e 0f76 d53e
00000120: 32d4 5cbf b96e c63e 010d 55bf 7df0 233e
00000130: 6868 a53e b47b 2a3f 68b2 273d 3ee9 883e
00000140: cbd7 873e 169f f43c 8df5 ecbf 97b7 bcbf
00000150: 81e6 b9bf ad70 d13e cd6c 403d 8d09 393d
00000160: 09e7 2dbf 2757 dfbe ad48 703f 4c8f 213f
00000170: 1b46 3ebe 3514 283f c629 753e 84d1 a4be
00000180: bf23 abbe 9604 d5bd 39c3 0b3e 5b27 e13d
00000190: bf33 e63e 7da5 bd3f 9186 4b3e adf0 7ebd
000001a0: 3dd5 873e 69f9 97be e8c9 1abe 4bf0 76bf
000001b0: 2fae 1e3f 212b a13f d85d 3c3f a2c0 44bf
000001c0: e0a7 3ebf d311 07be 642a 01bf 60b6 b23b
000001d0: f577 823f 8ac3 883f 0e4b 183f 50ff a93e
000001e0: 3eb1 883e 3b7c b63e 7b83 06bf f56e 7a3e
000001f0: 09ec a93f 1a9b ae3e 0c86 30bf 8b7a 2abf
00000200: f714 c93e 3f8f c53e 92b8 843d e478 253e
00000210: a0be de3e 4829 7b3f 6333 3d3f db1f 633e
00000220: 74a0 6dbf 40a8 573f f7bc 49bf d164 1f3e
00000230: 4770 103f 1a76 2f3f 6ad2 5b3e fdaf 36be
00000240: 8058 bcbe b6ed 62be 5423 0cbe 23cc 45bf
00000250: ecb1 1d3f 3632 ca3f 1381 07be eab4 fdbc
00000260: 5638 18be 96a1 323f 21dd 76bf a380 0e3f
00000270: 98c0 7b3f 64b1 993f 81a7 86be 2b5d 3b3f
00000280: 45fa b7be 16d8 febe a5e4 b3be eba6 293d
00000290: 7b50 0c3f b016 dc3d 225a f8be 3029 17bf
000002a0: 8608 cebe badd 673f 3698 153d 0788 adbe
000002b0: f970 94be 652a 913f 1abd 8bbe b849 aabd
000002c0: 81d8 99bf b535 9d3d 4da2 91bf 334f 81be
000002d0: b0b8 a8bc c2d1 4dbe da4c 6b3c dfd4 c5be
000002e0: dcd0 86bf 61ac 1e3f 6a28 bd3d 21a8 903c
000002f0: b459 f53e 7013 083a f77d acbc 919f 60be
00000300: 3556 fd3e 2143 4d3f 3e11 b23c 639e bbbe
00000310: 4714 f13f a7c6 413f 01f9 463f 0644 403e
00000320: d55b 203e b182 023f 64bf 37bd 2a78 cd3e
00000330: c361 123e 108c 34bc ae7a fdbe 7d26 f8be
00000340: d2b4 63bf ae6b 453f 0858 59bf a3ed 7a3e
00000350: 6fa3 b93e 94da 503f 852b 963e 22b4 93be
00000360: b0a7 e33f db6e 693e d3f4 7d3f c397 48bf
00000370: 3eea 18be e09c 203c dfb3 a1bf 91d6 fabe
00000380: 996d 74bf 459b 473f 2799 4bbf 2735 d03e
00000390: 4bc9 8b3e 3b62 d83e 6004 073c 316a 2f3f
000003a0: ab7e 2fbf 24d0 6f3f a67d dd3d 8b62 1dbf
000003b0: f3c9 403e 4e10 9dbe b147 893e c624 62bd
000003c0: c051 893f 1171 62bf 11f5 1ebf ebd0 6bbf
000003d0: 8fdb 9b3f 96b0 1d3f cab6 bb3e db7a c93e
000003e0: 0dcb 003e df39 363f 7966 823f 95a6 d43e
000003f0: b093 be3c e581 293f 3db3 81bf 11ad 203d
0.4354335 0.1788366 0.5154091 0.086951464 0.62905425 1.7021265 0.3635583 0.07833503
-1.0341089 0.6211617 -0.69289535 1.7760535 -0.75204784 -0.029265447 -0.8444381 -0.017336657
0.22560076 1.6366427 0.22900227 -0.32589805 -0.07245521 0.47141027 -0.11604977 -0.10312354
1.0492986 -0.19112498 0.88982826 -0.21720552 -0.45880744 -0.63447976 -0.2879912 0.32495287
-0.45785874 0.022302866 -1.267162 0.29925343 0.584372 -0.14390256 -0.03272337 0.5578673
-0.61677974 -1.3281924 -0.54675794 -1.6382027 -0.43016127 0.18675604 0.1799102 -0.78360003
-0.1736114 0.12728652 -0.44648698 0.77634126 0.43873557 0.49780694 0.3309371 -0.31748924
0.34430206 0.31586108 0.09957268 0.57624537 -0.88100487 -0.13705616 -0.28823623 0.0062876404
-0.12245511 -0.024632117 1.1644852 -0.89724517 0.1619899 -0.34476554 0.49333212 0.41691634
-0.86261284 0.3875635 -0.8322297 0.16009708 0.32306218 0.66595006 0.040941626 0.2674045
0.26531824 0.029861014 -1.8512436 -1.4743527 -1.4523469 0.40906277 0.04697876 0.045175124
-0.67930657 -0.4362118 0.93860894 0.6310928 -0.1858143 0.65655833 0.23941717 -0.32191098
-0.3342571 -0.10401265 0.1364869 0.109938346 0.44961354 1.4816128 0.19875552 -0.062241245
0.26529875 -0.29682472 -0.15116084 -0.9646041 0.61984533 1.2591287 0.73580694 -0.76856434
-0.74474907 -0.13190393 -0.5045531 0.0054538697 1.0192858 1.0684674 0.59489524 0.332026
0.26697725 0.35641655 -0.52544373 0.24456389 1.3275157 0.34102708 -0.6895454 -0.66593236
0.39273807 0.3858585 0.064805165 0.16159397 0.4350481 0.98109865 0.73906535 0.2218012
-0.9282296 0.84241104 -0.7880396 0.15565802 0.5642132 0.68539584 0.21466985 -0.17840572
-0.3678627 -0.22160992 -0.13685352 -0.7726461 0.6159961 1.5796573 -0.13232832 -0.030970056
-0.1486524 0.6977781 -0.96431166 0.55665034 0.9834075 1.200726 -0.2629967 0.7318904
-0.35933128 -0.49774235 -0.3513538 0.04141895 0.54810303 0.10746515 -0.48506266 -0.5904722
-0.40240878 0.905727 0.036522113 -0.33892843 -0.2899244 1.1341063 -0.2729271 -0.08314842
-1.2019197 0.076762594 -1.1377655 -0.25255737 -0.020595878 -0.20099548 0.014361585 -0.3863897
-1.0532489 0.6198178 0.09236224 0.017658295 0.4792 0.00051908847 -0.021056158 -0.2193587
0.49479833 0.80180556 0.021736737 -0.36644277 1.8834313 0.75693744 0.777237 0.18775949
0.15660031 0.5098067 -0.04486026 0.4013074 0.14295106 -0.011019722 -0.4950766 -0.48466864
-0.88947785 0.7711743 -0.8489995 0.24504714 0.36257502 0.81583524 0.29330078 -0.28848368
1.7785549 0.22796194 0.992017 -0.7835657 -0.14933106 0.009803027 -1.2633017 -0.48991826
-0.9547973 0.779713 -0.79530567 0.40665552 0.27302012 0.42262444 0.008240789 0.6852141
-0.68552655 0.9367697 0.10814981 -0.6147849 0.18827038 -0.30676502 0.2681251 -0.05521085
1.0728073 -0.88453776 -0.6209269 -0.9211566 1.2176379 0.61597574 0.36662894 0.39351544
0.12577458 0.71182054 1.0187522 0.41533342 0.023263782 0.6621383 -1.0132824 0.03922755

fc1.bias f4 [64]
00000000: c44a 353e a996 7e3f 7af4 4a3c 90c3 b3bf
00000010: 6953 88bf 8cdb 12bf 95d9 ef3e cb3f 143f
00000020: dafa ffbe 4d37 723f d282 283e de0d 633e
00000030: 1217 8c3d 6664 88be efb1 f13e 82ed df3d
00000040: d5bd a63e 68e6 583f 70a7 0ebf 8a7c 123f
00000050: bb12 643f b4fa 893e 7a5e 5e3f af2b df3e
00000060: 7dbd fcbe f5cf 203f 5aa6 523f 45f5 e2bd
00000070: c7a2 7d3f 5d8c d33e ae8f b5be 707f 503d
00000080: c87f ea3d 1268 6abf 5c81 0abf 2ebd 483f
00000090: cb3f 91bf 204f 063f 5b8e 3cbf e992 36be
000000a0: f802 143e da60 65bf c203 9ebf 997c ed3d
000000b0: 0bbf aa3e 0ed1 b9be ba4b 1dbf 4a74 86bf
000000c0: 1c03 01bf f164 303f b18c 873d 460a 803d
000000d0: 6789 2d3e 533f 01be 4a1c 483f 76eb 1bbf
000000e0: 73fa 62bf 24a9 96be 002f 29bf f860 263f
000000f0: f5e9 0abf 395d 193f 5af6 843f 7817 093f
0.17704302 0.9944864 0.012387389 -1.4044056 -1.0650455 -0.5736625 0.4684569 0.5790984
-0.49996072 0.9461563 0.16456154 0.22173259 0.06840338 -0.26639098 0.47206065 0.10933973
0.32566705 0.8472657 -0.5572424 0.5722128 0.8909108 0.26949084 0.8686291 0.43588015
-0.49363318 0.6281732 0.8228508 -0.11081938 0.99076504 0.41318026 -0.3546118 0.050902784
0.114501536 -0.9156505 -0.54103637 0.78413665 -1.1347593 0.52464485 -0.7365472 -0.1782948
0.14454257 -0.8960091 -1.2344897 0.11596031 0.3334888 -0.3629231 -0.61443675 -1.0504239
-0.5039537 0.68904024 0.06618632 0.062519595 0.16946946 -0.12621813 0.78168166 -0.6090616
-0.88663405 -0.2942592 -0.6608734 0.6499171 -0.5426324 0.5990787 1.038768 0.53551435

fc2.weight f4 [64, 64]
00000000: 1a25 6d3f cbec 413f 86ad 073f 9028 e93f
00000010: cffd ee3f ea07 9e3f bd78 dd3e 7801 c53e
00000020: 3d3c a63e 548d 523e bd67 f3be 1fad c6bf
00000030: f94f 303f 07a4 893f 903c 1b3f f77b a5be
00000040: 7de9 6d3e 6d76 0b3e 33a4 363f dc5e 943d
00000050: 6cd1 97bf c4b7 e53e 1f7c 663f c620 de3e
00000060: f7ab c7be 9e0b 393f 36fb d23d 3206 053f
00000070: b23d b13d 87db df3e c7ab 2a3f 97aa c13e
00000080: ddfd 213f 19ee 7c3f bcf4 4f3f 7efb 84bd
00000090: b2af ba3f 2f9e ff3e 9f8a 8d3f 487c 23be
000000a0: 32be 0d3f b335 8e3f 2512 dfbf d820 223f
000000b0: faa6 c63e 32c4 e23c 3f08 d93e 9a7b 303f
000000c0: 51f4 833f 79d0 a8be 69a5 eabe bc17 f23e
000000d0: 0909 02bf 65f8 573f 3713 383e 5de3 fb3e
000000e0: 598f 853f 0fb4 333d c026 56bf 1bc2 ce3e
000000f0: 5ba9 b23e 6257 4d3f cbbd 433e 687c 723f
00000100: 4dea 5cbd 1f85 af3d e924 8bbb 473d 0dbe
00000110: 262f b5bd ea9e b83d 3ba9 25bd bb3e b7ba
00000120: 891c ae3c 5c72 7cbd 151d ffbb 7519 a03d
00000130: 6dcd 03be f63d f03d 1db5 97bd 0b15 923d
00000140: b571 1d3d dd34 0fbe 20d8 d7bb fa80 97bd
00000150: a4ec 41bd 2c01 a73a 5ea0 a6bd ab7a 19bd
00000160: 623e 98bd 599f 9f3d 3aa5 e4bd a388 07be
00000170: 2aec 3e3d 87bd cd3c 3487 aabd 6ed4 89bd
00000180: 54b0 99bd ab9f 673b 384f abbc 019b 643d
00000190: 0899 b9bd c942 ae3d 86c9 7e38 c894 acbd
000001a0: ba5f e43d bf90 ceba c02c f6bb 85b8 01be
000001b0: dacc ca3d 205f d13b f30c f7bd 0ab0 c83d
000001c0: 0d79 70bd 5d2c d1bd 79ed 203d bdce 153a
000001d0: fb07 16be b2e7 78bd 8cfb 7cbc 38f5 eabd
000001e0: dad6 cfbd fbff 27bb 3de9 acbd 2c64 d8bd
000001f0: 76cf de3c b70e a6bd b464 9dbd 6ade e4bc
00000200: 0e0f 453f 7a95 6e3f a21b bb3e a76d e53f
00000210: 525c e93f b8c7 6c3f 6af8 7b3e 7c1d b53e
00000220: cd88 6f3e 5636 393e 3721 9abe 7914 89bf
00000230: 60d3 1b3f 17eb 553f 9a76 0b3f 92af 97be
00000240: 3c12 ba3e d955 a23e 1b1e 513f 63e8 0e3e
00000250: f057 96bf 0e04 4c3e 748d 3d3f 72ca ee3e
00000260: b309 64be 5dcd 383f ee8f 7c3e 69fc e33e
00000270: 833f 873e fbcd 003f a0f4 203f 7be7 0e3f
00000280: 0ea2 043f 3477 873f df25 2e3f ec0b 253e
00000290: c44c cc3f 80dd a03e 859f 7f3f a6b9 70be
000002a0: 419e 113f 48e8 503f fee7 dbbf 35d0 573f
000002b0: 7555 1a3f 4891 9f3c bd6d e73e c84b 003f
000002c0: 235a 603f 459b c3be 4811 ffbe a881 f73e
000002d0: 06f3 39bf 4ff5 1f3f 8552 4e3e 4c7e fb3e
000002e0: 987a 9f3f 1345 0dbe e0b8 7abf d936 c23e
000002f0: 523f 963e 058a 823f c1af 293e 5bfb 473f
00000300: 17d8 b23e 86ca 093e 1d6d a1bf 06b4 10be
00000310: e3b2 b63e 40cb a13e 03a1 903e 8d4e 243e
00000320: e751 323e b53e 623e 0037 813e db21 c8be
00000330: 7583 e33e 2ac9 e3be a007 193e 6029 823f
00000340: 2265 3bbe 61e6 3bbd 36fa 003d ee81 a03e
00000350: f27d e63f 9269 43bf 74c2 d03e 8a63 ffbd
00000360: c80a a9bf ff46 433f e7b3 fdbc 0471 0f3f
00000370: d040 46bd 2f03 91be 8f53 b8bf cd4c 01c0
00000380: 3e9a 6bbf 0a36 bdbe 61d9 083e f503 923e
00000390: 096d 0dbf 0f82 c93d 3b4d ad3c 7197 cfbf
000003a0: 6f32 b1bf 7cbf 1e3d 309e bdbe f563 0ac0
000003b0: 0a0d f7be 34cc 853d 073b 6e3c d5de 143c
000003c0: b2cc 653f 706f 53be cda6 8bbf 5b80 4fbf
000003d0: bc1a 75bf 1ca1 a53e 974f a2bc dfa2 83bf
000003e0: 4a5a 87bf a865 07bf 2f05 633f c6e5 0e3e
000003f0: 4d08 e1bf d7c9 413f 4554 3d3e 86c0 ef3d
0.9263474 0.7575194 0.5299915 1.8215504 1.8671206 1.2346165 0.43256178 0.38477683
0.32467833 0.20561725 -0.47540084 -1.5521582 0.6887203 1.0753182 0.60639286 -0.3232114
0.232336 0.13619395 0.713443 0.072446555 -1.1860785 0.44866765 0.90033144 0.4338438
-0.38998386 0.7228335 0.10301821 0.5196258 0.086543456 0.43722174 0.6666836 0.37825462
0.6327799 0.9880081 0.8123281 -0.06493281 1.4584868 0.49925372 1.1057929 -0.15965378
0.5536834 1.1110138 -1.7427412 0.63331366 0.38799268 0.027681444 0.42389104 0.689386
1.0308934 -0.32971552 -0.45829323 0.47283733 -0.50795037 0.84363395 0.1797608 0.49196902
1.0434371 0.04387289 -0.8365288 0.40382466 0.34894833 0.8021146 0.19115369 0.9472108
-0.053934384 0.08570313 -0.0042463434 -0.13792907 -0.088468835 0.090146855 -0.040444594 -0.0013980487
0.021253841 -0.0616325 -0.0077854493 0.078173555 -0.12871332 0.11730568 -0.074075915 0.0713292
0.038438518 -0.1398501 -0.0065870434 -0.07397647 -0.04734482 0.0012741438 -0.08136056 -0.0374705
-0.074337736 0.07794065 -0.11164327 -0.13235717 0.046611942 0.025114788 -0.08326569 -0.06729971
-0.07504335 0.0035342972 -0.020911798 0.055811886 -0.090623915 0.08508832 6.0746002e-05 -0.08426815
0.11151071 -0.001575969 -0.007512659 -0.12668045 0.099023536 0.0063895136 -0.12063017 0.09799202
-0.058709193 -0.1021354 0.03928897 0.00057147053 -0.14651482 -0.060767837 -0.015440833 -0.11472553
-0.101484016 -0.0025634754 -0.08442924 -0.10565981 0.027198534 -0.081082754 -0.07685223 -0.027938087
0.76976097 0.93196833 0.3654452 1.7924088 1.8231299 0.92492247 0.24606481 0.35374057
0.23392029 0.18087134 -0.30103466 -1.0709373 0.6086941 0.83561844 0.54477847 -0.29626137
0.36342037 0.31706122 0.8168656 0.13955836 -1.1745586 0.19923422 0.74043965 0.4663883
-0.22269325 0.7218836 0.2466428 0.4452851 0.26415643 0.503143 0.6287327 0.5582196
0.51809776 1.0583253 0.68026537 0.16117829 1.5960927 0.3141899 0.9985278 -0.2350832
0.568821 0.81604433 -1.7180173 0.84302074 0.6028665 0.019478455 0.4520091 0.50115633
0.8763754 -0.382044 -0.49817872 0.48341107 -0.7263645 0.62483686 0.20148666 0.49119794
1.2459288 -0.13795881 -0.97938347 0.3793247 0.29345185 1.019837 0.16570951 0.78117913
0.34930488 0.13456163 -1.2611424 -0.14131173 0.35683355 0.3160038 0.28247842 0.1604559
0.17414056 0.22094233 0.25237274 -0.3908833 0.4443623 -0.44489413 0.14944315 1.0168877
-0.18300298 -0.045874003 0.03148862 0.31349128 1.8007185 -0.7633296 0.40773356 -0.124701574
-1.3206415 0.76280206 -0.030969573 0.56031823 -0.048401654 -0.2832274 -1.44005 -2.0203125
-0.9203223 -0.3695529 0.13364173 0.28518644 -0.552445 0.0983926 0.02115499 -1.6218091
-1.3843516 0.038756832 -0.3703475 -2.162351 -0.48252136 0.06533089 0.01454044 0.00908633
0.89765465 -0.20647979 -1.0910279 -0.8105523 -0.9574392 0.3234948 -0.019813342 -1.0284079
-1.0574429 -0.5288949 0.88679785 0.13954839 -1.7580658 0.7569861 0.18489178 0.11706643

fc2.bias f4 [64]
00000000: 3f60 bd3e 9b3a b8bd 343a fd3d c895 4b3f
00000010: aef5 763e 3d79 353e 7151 663e 1c47 c33e
00000020: f99c 913e 4fed 0c3e c7be a83e 5969 ca3c
00000030: 64cc 2e3f c3a6 fc3e 7796 323e 3655 153e
00000040: f289 813f 813f 903e 57d3 963e db91 f53d
00000050: 53b2 3d3e 53ae 153f fdcb 0dbe 82d2 6bbd
00000060: 8d41 af3e c768 903f bbde c43e 2911 173e
00000070: 6644 80bd f070 133e 2ef2 b43e 1a3c 1abe
00000080: 32aa 873f 1a9f 953e cdd9 b73e 08e4 953e
00000090: 3eb8 0cbe 8b8e 793e 6ae0 d03d 632c fe3d
000000a0: 984a bc3e 8d49 963e dc67 253f 712a 12bc
000000b0: bbac 413e 88cc c63e 33bb 7b3f 6feb 913e
000000c0: 2acc dd3e 3ad4 bf3e 281b 153f 6706 bcbe
000000d0: 3907 2a3e d601 8c3f 1933 9fbd 3050 a83e
000000e0: a185 023f 7c9f 313c 29dc c43e f3d7 75bd
000000f0: c1f0 2cbe a8f8 8c3e 8523 433d 65ad 7d3e
0.36987492 -0.08995553 0.12364617 0.79525423 0.24117157 0.1772203 0.22492005 0.3814019
0.28440073 0.13762401 0.32958052 0.024708437 0.68280625 0.4934598 0.1744021 0.14583287
1.0120223 0.2817345 0.29458115 0.1199071 0.18525057 0.5846912 -0.13847347 -0.057573803
0.342297 1.1281976 0.3845118 0.1475264 -0.06263046 0.14398551 0.35341018 -0.1506199
1.0598814 0.29222947 0.35908356 0.29275537 -0.13742158 0.24370782 0.101990536 0.1241081
0.3677566 0.2935299 0.646116 -0.008921252 0.18913548 0.3882792 0.9833252 0.28499934
0.43319827 0.37466604 0.5824456 -0.36723635 0.16604318 1.093806 -0.07773418 0.32873678
0.5098515 0.010841247 0.3844922 -0.0600204 -0.16888715 0.2753346 0.047641296 0.24773176

fc3.weight f4 [4, 64]
00000000: 4426 21bf 3d06 32bc 0aaa 34bf 3a57 0240
00000010: 6912 06bf f362 62bf 10a4 5cbf 507a 64bf
00000020: dadb 28bf 7c8c 84bf cd41 3abf 613d 53bf
00000030: d74d 84bf 84d6 483f d58f a1be 2975 3cbf
00000040: f991 c63f 1804 13bf 17af 06bf 2709 03bf
00000050: c3d9 e3be 2ada 5c3f fee4 b63f c0c8 d03c
00000060: 12ec 873f a13d cb3f 2460 04bf b29e 27bf
00000070: 6998 fdbe 232b 9cbf 1781 48bf 2cb2 dbbd
00000080: 880c c13f e775 3dbf f1b1 e7be 06c7 39bf
00000090: 37c8 853d cb93 0dbf 2efa 17bf 996f 9cbf
000000a0: de88 20bf e366 60bf 35cd 853f f86c 4abf
000000b0: 3a2d c43e e734 5bbf f5a2 ac3f a42d 1fbf
000000c0: 5794 88bf be77 27bf 4856 833f f89b ac3f
000000d0: 15d4 3cbf b434 dc3f 3ccf 61bd 9a8f 0cbf
000000e0: c53d 833f f48a e13d 084e 24bf ac4b af3d
000000f0: b8ae 04be dc8d 4fbf bc16 26bd 0605 29bf
00000100: b5c9 3cbf 5028 c83d 2bd2 30bf 5002 0940
00000110: 261c 3abf 83f0 54bf 8ba7 44bf 0715 2cbf
00000120: c406 1fbf 51af 3ebf 4f24 20bf 7767 55bf
00000130: 0e29 9ebe 731d 6a3f 3b0d dbbf 94d0 2abf
00000140: c088 ee3f 2631 4cbf e5fb f7be 0f32 d5be
00000150: 2704 18bf 4375 673f dd7c 093e 07ce 4e3c
00000160: 2813 1140 e661 d83f e6c3 fdbe 5d6f 41bf
00000170: 0928 0bbf b600 82bf 4438 1ebf d6d7 2dba
00000180: 0c89 d13f a824 28bf 7151 10bf fc00 22bf
00000190: ed48 babc 6b86 3fbf 0100 fbbe 583c 43bf
000001a0: f115 2dbf bb3b 42bf 8abe 6b3f 4520 95bf
000001b0: 5f52 023e e253 49bf a1c4 873f 6ec1 3fbf
000001c0: 00a3 acbf 32fc 3ebf 0169 653f 471f a33f
000001d0: 5d53 0abf d978 e13f 42a2 883d 2210 a1bf
000001e0: 4398 523f f6d2 b63d af8e 09bf 1e7f 573f
000001f0: af70 a23d eb33 2fbf ec87 4abb ce96 74bf
00000200: 0a56 13bf 6f6a dfba 2740 49bf 3cd9 1840
00000210: e3e8 2fbf efce 2fbf 1731 33bf e05e 01bf
00000220: 5ad7 1abf 2cd5 27bf fc9c 2abf 1033 7cbf
00000230: 59ff 8cbf 506e b53f 1dd0 3d3f 8bde 30bf
00000240: e10a 233f 2bd3 5dbf 3464 c7be 7ace 23bf
00000250: 8704 03bf 9135 c43f af68 553f f05b f0bc
00000260: 9145 95bf 3c21 4f3f fa70 723e 027a 77bf
00000270: ed1f 43bf 6f6f dabf 5c8b 16bf 197d 1e3d
00000280: c6f0 b03f ecc8 24bf 65e2 32be 95b8 2abf
00000290: 389b c43d 7912 4abf d2c2 47bf d1c4 ddbf
000002a0: 5540 b6be faf7 4fbf dcc4 ba3f 4da0 30bf
000002b0: df59 1c40 217b 05bf 6596 ca3f 265c 67bf
000002c0: be15 42bf 8bbf 19bf 9df1 bd3f a151 213f
000002d0: 3237 1dbf 4550 a33f 9c17 513d 4352 8cbf
000002e0: 9a20 c33f 6b78 91bb 6f9d 38bf 062a 31be
000002f0: ed9b a33d c4b5 60bf b0f9 363d ca9c 6ebf
00000300: da11 51bf 9122 183b 3271 1ebf dc60 ec3f
00000310: 41e2 20bf b79f 22bf c74c 13bf dcb6 35bf
00000320: b310 45bf be70 27bf 02d7 46bf c655 d4be
00000330: 3e6b e3bf a1b6 6a3f 8845 e73e a85a 11bf
00000340: 92d6 d63f 99c6 0fbf d31a 61bf a8eb 41bf
00000350: ecf9 64bf 3de7 1b3f 110c e43f 3edf 273b
00000360: 6b08 b13e 2048 c93f 069e 3ebf a482 d6be
00000370: 64db 31bf 1027 14c0 6ab4 40bf 31c7 d83d
00000380: 4a3b ba3f 9717 3dbf 725b 35bf e41d 3fbf
00000390: 2509 0f3d 04a0 46bf 1883 05bf 5552 d0bf
000003a0: bbad 4abf d023 31bf 6623 a13f d6c3 99bc
000003b0: 0a34 073f d69b 2abf 533c 943f 0dcf 1fbf
000003c0: bb83 83bf 7a75 36bf 7686 6e3f cc58 0040
000003d0: d369 4bbf 8536 cb3f 98f3 203d 2ebd e8be
000003e0: fc1b 843f 2ce0 123d 6d4f 43bf fb5c b7be
000003f0: cc56 64bb f870 f7be 3c3a e33c 198c 01bf
-0.62949014 -0.010865745 -0.7057196 2.036574 -0.5237184 -0.88432235 -0.8618784 -0.89249134
-0.65960467 -1.0355372 -0.72756654 -0.8251553 -1.0336255 0.78452325 -0.31555048 -0.7361627
1.5513297 -0.5742812 -0.52610916 -0.5118584 -0.44502077 0.8627039 1.4288633 0.02548635
1.0618918 1.5878183 -0.517092 -0.65476525 -0.49530342 -1.2200664 -0.78321975 -0.10727343
1.5081949 -0.7400803 -0.45252946 -0.7256931 0.065323286 -0.5530364 -0.5936612 -1.2221557
-0.6270884 -0.8765699 1.0453249 -0.79072523 0.38315755 -0.856276 1.348723 -0.6217902
-1.067027 -0.6541709 1.0260706 1.3485098 -0.7376111 1.7203584 -0.055129275 -0.5490662
1.0253226 0.11012831 -0.64181566 0.08559355 -0.12957275 -0.81075835 -0.040549025 -0.6602329
-0.7374528 0.09773314 -0.6907069 2.1407661 -0.726992 -0.8317949 -0.7681815 -0.67219585
-0.621197 -0.7448626 -0.625554 -0.83361 -0.30890697 0.91451186 -1.7113413 -0.66724515
1.8635483 -0.79762495 -0.48434368 -0.41639754 -0.59381336 0.904133 0.13426538 0.012622363
2.2667942 1.6904876 -0.4956352 -0.7556055 -0.54357964 -1.0156467 -0.61804605 -0.00066315883
1.6369948 -0.65680933 -0.5637427 -0.6328275 -0.022739852 -0.7481448 -0.4902344 -0.7626395
-0.67611605 -0.7587239 0.92087615 -1.1650473 0.12726735 -0.7864362 1.0606881 -0.74904525
-1.3487244 -0.7460357 0.8961335 1.274392 -0.5403345 1.7615005 0.06671573 -1.2583048
0.8226358 0.08926956 -0.5373334 0.8417834 0.07931649 -0.68438596 -0.003090377 -0.9554261
-0.5755316 -0.001704527 -0.78613514 2.388259 -0.6871473 -0.6867513 -0.6999678 -0.5053539
-0.6048485 -0.6555965 -0.6664579 -0.98515415 -1.1015426 1.417429 0.7414568 -0.69089574
0.63688475 -0.8665034 -0.38943636 -0.63986933 -0.51178783 1.5328847 0.8336286 -0.029340714
-1.1661855 0.80910087 0.2367591 -0.96670544 -0.7622059 -1.7065257 -0.58806396 0.03869352
1.3823478 -0.6436908 -0.17469175 -0.666879 0.09599918 -0.7893444 -0.7803165 -1.7325689
-0.35595956 -0.8123776 1.4591327 -0.689946 2.4429853 -0.52141005 1.5827147 -0.9037498
-0.75814426 -0.60057896 1.483936 0.6301518 -0.61412346 1.2758871 0.051047906 -1.0962604
1.5244324 -0.004439404 -0.72115225 -0.17301187 0.07988725 -0.8777735 0.044671714 -0.9320799
-0.81667864 0.0023213963 -0.6189147 1.8467059 -0.62845236 -0.63524956 -0.5753903 -0.70982146
-0.76978606 -0.65406406 -0.77671826 -0.4147169 -1.7767103 0.9168492 0.45170236 -0.56778955
1.6784232 -0.5616241 -0.87931556 -0.7575021 -0.8944385 0.60899717 1.7816182 0.002561524
0.34576735 1.5725136 -0.74459875 -0.41896546 -0.6947539 -2.3148842 -0.7527529 0.10584868
1.4549344 -0.7386412 -0.7084266 -0.74654984 0.03492083 -0.77587914 -0.5215316 -1.6275126
-0.7917134 -0.6919527 1.2588928 -0.01877014 0.5281378 -0.66644037 1.158091 -0.6242531
-1.0274576 -0.71273005 0.9317392 2.0054197 -0.7945835 1.5876013 0.03929481 -0.45456833
1.032104 0.03585832 -0.7629307 -0.35813126 -0.0034841774 -0.48328376 0.02773773 -0.506044

fc3.bias f4 [4]
00000000: db15 093f 2c42 223f 2663 aa3e cba0 53be
0.53548974 0.6338222 0.3327877 -0.20666806
