DDQN_panda/runs/results_4/best-model.pt (torch, 162903 bytes, 6 tensors)

network.layer1.weight f4 [128, 3]
0	0xbf9fbd86	-1.2479713
1	0x3ea4e7c0	0.3220806
2	0x3f14710e	0.5798501
3	0xbf2ec6e6	-0.68272245
4	0xbeaf21a0	-0.3420534
5	0x3eb65fc9	0.35619953
6	0x3fca13f5	1.578734
7	0xbe8c8592	-0.27445656
8	0xbe31f6d6	-0.17379317
9	0xbe8b0f7f	-0.2716026
10	0xbf426f24	-0.7595084
11	0x3e0b0969	0.13577808
12	0xbeba585f	-0.36395547
13	0x3f01f5c2	0.5076562
14	0xbf0f9485	-0.56086
15	0xbf6633e7	-0.89922947
16	0xbf1e63b8	-0.6187091
17	0x3e25e040	0.16198826
18	0xbef0cef1	-0.47032884
19	0x3efdfab0	0.49605322
20	0xbf211deb	-0.62936276
21	0xbe6359f0	-0.22202277
22	0xbf362e3b	-0.7116429
23	0xbec13a82	-0.3773995
24	0x3e2c71fd	0.16840358
25	0x3f5c372a	0.86021674
26	0xbd9bb16b	-0.07602199
27	0xbe8f8248	-0.28029084
28	0xbec76fc8	-0.3895247
29	0x3e3f935c	0.18708557
30	0xbf692064	-0.9106505
31	0xbf01819c	-0.50588393
32	0x3d36a1ac	0.044587776
33	0xbf4d3b5f	-0.8016872
34	0xbf19c3ea	-0.60064566
35	0xbf2b476f	-0.66905874
36	0x3f981346	1.1880882
37	0xbd11026d	-0.035402704
38	0xbe8758d0	-0.26434946
39	0xbe4e90cc	-0.20172423
40	0x3f21eef3	0.6325523
41	0x3f32bfcd	0.69823915
42	0xbe3af6fc	-0.1825828
43	0x3e2816d4	0.16414958
44	0xbf1a8897	-0.6036467
45	0xbecbd716	-0.39812535
46	0x3eb28df9	0.34873942
47	0x3e71b6bb	0.23604862
48	0xbfa27b05	-1.2693793
49	0xbf1237b5	-0.5711625
50	0xbec4c595	-0.38431993
51	0x3e7af563	0.2450767
52	0x3e8da35d	0.276637
53	0x3ea424cf	0.32059333
54	0xbf66a530	-0.90095806
55	0xbf165136	-0.5871767
56	0x3d5a2bda	0.053264476
57	0xbf59477d	-0.8487471
58	0xbf23b915	-0.6395429
59	0x3e148ff4	0.14508039
60	0xbf3915dc	-0.7229898
61	0x3d950f4d	0.07278309
62	0xbeea764f	-0.45793387
63	0x3e2001ac	0.15625638
64	0x3f2c6b38	0.673511
65	0xbcc91b0a	-0.024549026
66	0xbf5870f8	-0.84547377
67	0xbdf01fb1	-0.11724795
68	0x3ee5d3f8	0.44888282
69	0xbd860910	-0.06544697
70	0x3ea27cd6	0.31735867
71	0x3e6d1dd4	0.2315591
72	0x3d39c0ba	0.045349814
73	0x3ed7fcc3	0.4218503
74	0xbf21ca10	-0.6319895
75	0x3fa490c5	1.285668
76	0xbbe7e504	-0.0070768613
77	0xbea5c0c6	-0.32373637
78	0xbf5d5d38	-0.86470366
79	0x3d88016c	0.06640896
80	0x3ed5923b	0.41713127
81	0xbf77ebe1	-0.968443
82	0xbf3b6307	-0.7319798
83	0x3e3c689f	0.18399285
84	0xbf35aaa3	-0.70963496
85	0xbf3885fc	-0.72079444
86	0xbd7da718	-0.06192693
87	0xbe9a5bff	-0.30148312
88	0x3f322f39	0.69603306
89	0xbf00970d	-0.50230485
90	0x3e040a79	0.1289462
91	0x3f8e5986	1.112107
92	0x3e0ae252	0.13562897
93	0xbeb76106	-0.3581621
94	0xbdf7e128	-0.12103492
95	0x3ecc6bce	0.39925998
96	0xbefe332c	-0.49648416
97	0xbe3aeab5	-0.18253596
98	0x3ebade1c	0.3649758
99	0xbf524ad5	-0.82145435
100	0xbed0716b	-0.4071153
101	0x3e9ef20c	0.31044042
102	0xbf4309ca	-0.7618681
103	0xbf0eec44	-0.5582926
104	0xbed9e71d	-0.42559138
105	0xbf4fc736	-0.81163347
106	0xbdf15844	-0.117844135
107	0x3edcab79	0.43099573
108	0xbf99daca	-1.2019894
109	0x3e4bb388	0.19892704
110	0x3f135aff	0.57560724
111	0xbe75e61e	-0.24013564
112	0xbd696fa1	-0.056991223
113	0x3f1c0db0	0.60958385
114	0x3a1a64a3	0.000588963
115	0x3f0c3573	0.5476906
116	0xbe39d53d	-0.1814775
117	0x3ecac0cb	0.39600214
118	0x3f615cf9	0.8803249
119	0x3f176692	0.59140885
120	0xbf3fbac1	-0.7489434
121	0xbeaf52a3	-0.34242734
122	0x3e8ac9be	0.27107042
123	0xbb48f6a1	-0.003066458
124	0x3f3fb7a6	0.748896
125	0xbe218e0e	-0.15776846
126	0xbf9e9602	-1.2389529
127	0xbc9e2db7	-0.019308908
128	0x3e768793	0.24075155
129	0xbf4168a4	-0.75550294
130	0xbe577c03	-0.210434
131	0x3ed843cf	0.42239234
132	0x3fc12c72	1.5091689
133	0xbe07ae6d	-0.13250132
134	0xbe96f715	-0.29485384
135	0xbf57355f	-0.8406581
136	0xbe4692dd	-0.19391961
137	0x3f034776	0.51280916
138	0xbf0c2546	-0.54744375
139	0xbeb490fb	-0.3526686
140	0x3e7eb26b	0.24872749
141	0xbf25042a	-0.6445948
142	0xbd8caf84	-0.068694144
143	0x3f2bcd8b	0.6711051
144	0xbeb9b05d	-0.36267367
145	0x3eb7c99e	0.3589601
146	0xbf7ddb1f	-0.9916248
147	0xbe6c03fd	-0.23048396
148	0xbf0cc957	-0.5499472
149	0x3efce673	0.4939457
150	0x3d34546b	0.04402582
151	0x3ea39c3c	0.31955135
152	0x3eef931b	0.4679192
153	0x3fc759fe	1.5574338
154	0xbf104d1d	-0.56367666
155	0xbf13e9f6	-0.5777887
156	0xbf199a54	-0.6000111
157	0xbf018a4e	-0.5060166
158	0x3e671562	0.2256675
159	0x3e819b86	0.25313967
160	0x3ed7ff35	0.42186895
161	0x3e956824	0.29181015
162	0xbf1c9326	-0.6116203
163	0xbea3de4c	-0.32005537
164	0xbe9f5f0b	-0.311272
165	0xbf55bd3d	-0.8349188
166	0xbe0bd972	-0.13657168
167	0x3e7885c7	0.24269782
168	0xbf3dcefa	-0.74143946
169	0xbf3a8d04	-0.7287142
170	0x3e9baa78	0.30403495
171	0xbf4af6d8	-0.79282904
172	0x3bf3d7c0	0.007441491
173	0xbef6332c	-0.48085916
174	0xbf4da74b	-0.80333394
175	0xbe801277	-0.25014088
176	0x3f007122	0.50172627
177	0xbf8f8165	-1.1211363
178	0xbe8e04cc	-0.27738035
179	0xbeced9e7	-0.4040062
180	0x3d920f81	0.071318634
181	0x3f316db6	0.6930803
182	0xbd4d3855	-0.05010255
183	0xbf1c1354	-0.6096699
184	0xbe64bdb2	-0.22337988
185	0xbde01255	-0.109409966
186	0xbb81fb24	-0.003966706
187	0x3f1ba635	0.60800487
188	0xbc633c93	-0.0138694225
189	0x3e2af02d	0.16693182
190	0x3f5ff178	0.8747783
191	0xbbb96bef	-0.0056586186
192	0xbf6a5032	-0.9152862
193	0xbf2b877a	-0.67003596
194	0x3ee5ab03	0.44857034
195	0xbe133fef	-0.14379857
196	0xbf007741	-0.5018197
197	0x3f22cb83	0.63591784
198	0xbd3ad94d	-0.04561739
199	0x3f05420b	0.520539
200	0xbe229549	-0.1587726
201	0xbf48c014	-0.7841809
202	0xbd9eaccf	-0.077478044
203	0x3f0a0458	0.5391288
204	0x3de1bbf9	0.11022181
205	0x3f3a7afd	0.72843915
206	0x3ecf1638	0.4044664
207	0xbe030b22	-0.12797216
208	0x3eb0e860	0.34552288
209	0x3f378a25	0.71695167
210	0xbede5afd	-0.43428794
211	0xbedad1fa	-0.42738324
212	0x3eed46f6	0.463432
213	0xbf70861b	-0.9395463
214	0xbe951c19	-0.29123
215	0xbedb47f4	-0.42828333
216	0xbf8965df	-1.0734214
217	0xbf2a4ec4	-0.66526437
218	0x3edca966	0.4309799
219	0xbf946911	-1.1594564
220	0xbc70a740	-0.014688313
221	0x3f433c91	0.7626429
222	0xbf1e3307	-0.6179661
223	0xbf2be96d	-0.67153054
224	0x3f08bd27	0.53413624
225	0xbd63ea79	-0.055643532
226	0x3ebd149b	0.36929783
227	0xbed8a492	-0.42313057
228	0x3e89eac9	0.2693694
229	0xbe63a5f2	-0.22231272
230	0xbebbdc13	-0.3669134
231	0xbee7af84	-0.45251095
232	0x3ec2c4be	0.38040727
233	0x3f03cec7	0.5148739
234	0xbec6323b	-0.38710198
235	0x3ec92d51	0.39292386
236	0xbe686b70	-0.22697234
237	0xbf0c2f61	-0.54759794
238	0xbc16b938	-0.009199433
239	0x3f037b22	0.5135976
240	0xbdad1fa8	-0.084533036
241	0xbf1f0eea	-0.6213213
242	0x3eaa99ed	0.3332056
243	0x3d50ae53	0.0509475
244	0xbe9bcb82	-0.30428702
245	0x3f27ffc0	0.6562462
246	0xbcd8ef1e	-0.026481207
247	0xbf111aac	-0.56681323
248	0x3f485cdd	0.782667
249	0xbf842848	-1.0324793
250	0xbf0a0504	-0.53913903
251	0x3dd98c8e	0.10622512
252	0x3ec2f115	0.38074556
253	0x3e9b4cd1	0.30332044
254	0x3efa2f71	0.4886432
255	0x3e88ae6a	0.26695567

network.layer1.bias f4 [128]
0	0x3f614057	0.879888
1	0x3df32690	0.118725896
2	0x3f1b89b4	0.60756993
3	0x3e291229	0.16510834
4	0xbeed6e41	-0.4637318
5	0x3f3f7261	0.74783903
6	0xbcaccb6f	-0.021093098
7	0x3f537a96	0.82608926
8	0x3eebb51c	0.46036613
9	0x3f484d93	0.7824337
10	0x3f73c9bd	0.95229703
11	0x3f2a887a	0.66614497
12	0x3f05e2b0	0.5229902
13	0x3f31f110	0.6950846
14	0xbe427002	-0.1898804
15	0x3f2fff53	0.6874897
16	0xbf4a5fb7	-0.790523
17	0x3e5fec0e	0.21867391
18	0x3f4e914d	0.8069046
19	0x3f344c3b	0.7042882
20	0x3f0d23a1	0.5513249
21	0x3f8a58b4	1.080832
22	0x3e87a534	0.26493227
23	0x3f274451	0.6533862
24	0xbd527ba8	-0.05138746
25	0x3f333a96	0.7001127
26	0x3ea1d7e6	0.3161003
27	0x3f385dec	0.72018313
28	0x3edcfdc6	0.43162364
29	0xbedb3f4c	-0.4282173
30	0xbe63b1b3	-0.22235756
31	0xbefbaa18	-0.4915321
32	0xbb8481e9	-0.004043807
33	0x3e238b92	0.1597121
34	0xbeeaa3ee	-0.45828193
35	0x3dd231dd	0.10263417
36	0x3f357425	0.7088035
37	0x3db27d27	0.08715277
38	0x3ec51000	0.3848877
39	0x3caea0ce	0.021316912
40	0x3eb12a8d	0.34602776
41	0x3f7bb924	0.9832938
42	0x3f51f4a2	0.82013905
43	0xbd304deb	-0.04304306
44	0x3f2d11fc	0.67605567
45	0x3c7e8920	0.015535623
46	0x3f459ae1	0.7718945
47	0xbe8aff7e	-0.2714805
48	0x3ebb2b89	0.36556652
49	0xbe2455d7	-0.1604837
50	0x3e5fbbf2	0.21849039
51	0xbb54c4e5	-0.003246599
52	0xbf228aa7	-0.63492817
53	0x3ea6228e	0.32448238
54	0x3f954233	1.1660827
55	0x3ed5dd04	0.41770184
56	0x3f05352c	0.5203426
57	0x3eb7ea79	0.35921076
58	0xbe10eef9	-0.14153661
59	0xbe6b135c	-0.22956604
60	0x3f603d72	0.8759376
61	0x3f69cddc	0.9132974
62	0x3f4f15bc	0.8089254
63	0x3f7cf55c	0.9881189
64	0x3f398541	0.72468954
65	0x3bcea9b9	0.0063068536
66	0x3f5bc864	0.85852647
67	0xbdf05d8e	-0.11736594
68	0x3f7a495e	0.977682
69	0x3d3e7e29	0.046507034
70	0x3f2b6c30	0.66961956
71	0xbf08246c	-0.53180575
72	0x3eef9e58	0.46800494
73	0x3cb9f996	0.02270202
74	0xbd8d31f1	-0.06894291
75	0x3f3bc868	0.7335267
76	0xbe3b8fae	-0.18316528
77	0x3e4b942a	0.19880739
78	0xbe1fd9ca	-0.15610424
79	0x3cbaeda6	0.022818398
80	0xbedb0efc	-0.4278487
81	0x3f16a60c	0.5884712
82	0x3f1e770c	0.619004
83	0x3f773975	0.9657205
84	0x3e0fb16d	0.14032526
85	0x3ef213bf	0.4728069
86	0x3e4cf8d9	0.20016803
87	0x3efc710a	0.49304992
88	0xbe82d7f5	-0.25555387
89	0x3f26568f	0.6497583
90	0x3f6fba66	0.93643796
91	0xbcb63497	-0.022241874
92	0x3f2a424e	0.6650742
93	0xbd081295	-0.033220846
94	0xbec78faa	-0.38976794
95	0x3e91381b	0.28363118
96	0x3f493dcf	0.7860994
97	0x3f6171d8	0.88064337
98	0x3d92f156	0.071749374
99	0x3f4d8ff0	0.80297756
100	0xbe2c7592	-0.16841725
101	0x3f4a3787	0.7899098
102	0xbd490dc3	-0.04908539
103	0x3f6f4d2b	0.93477124
104	0x3ecf07e4	0.40435708
105	0x3f231002	0.636963
106	0x3f29366b	0.6609866
107	0x3d41ef2c	0.047347233
108	0x3f04c006	0.51855505
109	0x3dadfa8a	0.08495052
110	0xbe5ed961	-0.21762611
111	0xbcc2070f	-0.023685006
112	0x3f7be777	0.9840006
113	0xbe73dd78	-0.23814952
114	0x3e2bd24d	0.16779442
115	0x3d3c615c	0.045991287
116	0x3e8527ee	0.26007026
117	0xbe9a323b	-0.30116448
118	0x3f17fc04	0.5936892
119	0x3f5f8dca	0.8732573
120	0x3f478883	0.77942675
121	0x3f5dff3d	0.8671759
122	0x3f302795	0.688104
123	0x3e8b4d12	0.27207237
124	0x3e1c5503	0.15266804
125	0xbeb68064	-0.3564483
126	0x3f01df60	0.5073147
127	0xbe907f20	-0.2822199

network.layer2.weight f4 [256, 128]
0	0x3ebcd6fe	0.36882776
1	0x3eb61461	0.35562423
2	0xbf17448d	-0.59088975
3	0x3e169f33	0.14709167
4	0xbdf36b6a	-0.11885722
5	0x3e053cf0	0.13011527
6	0x3d8483f6	0.06470482
7	0x3de31a83	0.11089041
8	0x3f41f787	0.7576832
9	0x3d779be1	0.060451392
10	0x3e6fb7b0	0.23409915
11	0x3ebdb519	0.3705223
12	0xbf29fd96	-0.66402566
13	0x3ebbdf1e	0.36693662
14	0xbd8443c4	-0.06458238
15	0x3eefe1a5	0.4685184
16	0x3f553a50	0.832921
17	0x3f04f1e6	0.5193161
18	0x3e6c1400	0.23054504
19	0x3e801c13	0.2502142
20	0x3f8e9d20	1.1141701
21	0x3fb25831	1.3933164
22	0x3dd0e49b	0.10199853
23	0x3ef32070	0.47485685
24	0xbdc52376	-0.09625904
25	0xbf13dfbd	-0.5776327
26	0x3e920f63	0.28527364
27	0x3e850776	0.25982255
28	0x3e93b231	0.28846887
29	0xbdd513af	-0.10404145
30	0x3f112299	0.56693417
31	0x3da5d577	0.08097356
32	0xbd16919e	-0.036759965
33	0x3eb3ae2c	0.3509382
34	0x3ee12d2c	0.43979776
35	0x3e872e83	0.26402673
36	0x3e4d326f	0.2003877
37	0x3d5633da	0.052295543
38	0x3f80d31e	1.0064428
39	0x3e872931	0.26398614
40	0x3e5a01c3	0.21289735
41	0x3f964bbf	1.1741866
42	0x3ed282e3	0.41115484
43	0x3e15ea00	0.14640045
44	0xbf1d1b4f	-0.61369795
45	0x3da54d10	0.08071339
46	0x3d34ec37	0.044170585
47	0x3e17588f	0.14779876
48	0x3cc89add	0.024487907
49	0x3dcd0040	0.10009813
50	0x3eed3261	0.463275
51	0xbf5fc5bd	-0.874111
52	0xbcb07146	-0.021538388
53	0x3eb2189b	0.34784397
54	0x3e83a1ca	0.25709373
55	0x3ea4000f	0.32031295
56	0x3cc880d1	0.024475487
57	0x3ef2d0a1	0.47424796
58	0x3e847f5a	0.25878412
59	0x3f3a98be	0.72889316
60	0x3f851cf8	1.0399466
61	0x3ece36dc	0.4027623
62	0x3fa07f87	1.2538918
63	0x3f635d73	0.8881447
64	0x3e41a279	0.18909635
65	0xbd3157d2	-0.043296643
66	0x3fbf77c7	1.4958428
67	0x3e98a861	0.29815963
68	0x3ef993c8	0.4874556
69	0x3eacc0d1	0.33740857
70	0x3e058690	0.13039613
71	0x3f4d3626	0.8016075
72	0x3e0c5bc8	0.13706887
73	0x3eb506cd	0.3535675
74	0x3d851044	0.06497243
75	0x3f22ec32	0.63641655
76	0xbec2d7d0	-0.38055277
77	0x3e9277e5	0.28607097
78	0x385142ad	4.989158e-05
79	0x3e0d5ecd	0.13805695
80	0x3d8a5e3c	0.06756255
81	0x3d7ed59c	0.062215433
82	0xbc560f6e	-0.013065202
83	0x3e9bec22	0.30453593
84	0x3e6ad09f	0.22931145
85	0x3ee8d262	0.4547301
86	0xbd056cde	-0.032574527
87	0x3e6c63b5	0.2308491
88	0x3e59b444	0.21260172
89	0x3cdafa89	0.026730793
90	0x3d90a7f0	0.070632815
91	0x3ecf17cc	0.40447843
92	0x3e781265	0.24225767
93	0x3dc4630e	0.09589206
94	0x3f2d1254	0.6760609
95	0x3dade6ed	0.08491311
96	0x3e14524d	0.1448452
97	0x3f8bf0a3	1.0932811
98	0xbd9d87fd	-0.07691953
99	0x3e9b185e	0.30292028
100	0x3eb60665	0.35551754
101	0x3f124107	0.57130474
102	0xbc5d6692	-0.013513224
103	0x3f7670f3	0.96266097
104	0x3e298b64	0.1655708
105	0x3edb22f5	0.42800108
106	0x3f0f8f99	0.5607849
107	0x3d96fc7a	0.07372375
108	0x3f07fe84	0.53122735
109	0xbda452b6	-0.08023588
110	0x3e93ff74	0.28905833
111	0x3e5ec432	0.2175453
112	0x3f67df6b	0.90575284
113	0xbf6d8813	-0.9278576
114	0x3caab2c3	0.020837193
115	0x3dbb85e9	0.09156401
116	0x3d9a9c50	0.075493455
117	0xbcc7a662	-0.02437133
118	0x3e9a1783	0.30096063
119	0x3f85aeb0	1.0443935
120	0x3f80e202	1.0068972
121	0x3fff5ccd	1.9950196
122	0x3ed08075	0.40723005
123	0x3e0517de	0.12997386
124	0x3e6b03ac	0.2295062
125	0x3f29ad68	0.6628022
126	0x3ea2eca8	0.3182118
127	0x3e06f4be	0.13179299
128	0x3eb6d079	0.35705927
129	0x3ebb696a	0.36603862
130	0xbf25209c	-0.6450288
131	0x3e03f6fb	0.12887184
132	0x3db62729	0.08894188
133	0x3e8fc629	0.28080872
134	0xbdb63df9	-0.08898539
135	0x3eab57d8	0.33465457
136	0x3f2dce5b	0.67893
137	0x3d612004	0.054962173
138	0x3e865e06	0.2624361
139	0x3ed579c7	0.4169447
140	0xbf317194	-0.6931393
141	0x3ec07fb1	0.3759742
142	0x3cbcc9c8	0.023045436
143	0x3f103aa5	0.56339484
144	0x3f34bf91	0.7060481
145	0x3eacb0dd	0.33728686
146	0x3e6e8812	0.23294094
147	0x3ea3ca25	0.31990162
148	0x3f91df6c	1.1396308
149	0x3f812261	1.0088617
150	0x3e2029e2	0.15640977
151	0x3eb891a4	0.36048615
152	0x3d0b8fc3	0.03407265
153	0xbf2ed925	-0.68300086
154	0x3eedb9b6	0.4643075
155	0x3e82a522	0.2551661
156	0x3e477fd1	0.19482352
157	0x3daca3b7	0.08429664
158	0x3e94f056	0.29089612
159	0x3dd64fcf	0.10464441
160	0x3d93c354	0.0721499
161	0x3e519751	0.20467879
162	0x3ee3395d	0.44379702
163	0x3e9c464a	0.30522376
164	0x3ed29186	0.4112665
165	0x3d5b2c51	0.05350906
166	0x3f38bec7	0.72166103
167	0x3eaae1ac	0.333753
168	0x3e8418fb	0.2580031
169	0x3f8b95ce	1.0905092
170	0x3ed2ab9f	0.41146562
171	0x3ef18501	0.47171786
172	0xbf4ae672	-0.7925788
173	0x3e1d3bb1	0.15354802
174	0x3e11edf9	0.14250936
175	0x3d283e33	0.041074943
176	0x3ca2818a	0.01983716
177	0x3ccaabbc	0.024740092
178	0x3ee768ce	0.45197147
179	0xbf87ee15	-1.0619532
180	0x3c045cdb	0.008078779
181	0x3e94765a	0.28996545
182	0x3e931344	0.28725636
183	0x3e98e9c4	0.2986585
184	0x3e214b37	0.15751348
185	0x3f068eb2	0.52561486
186	0x3e6abb14	0.22922927
187	0x3f27503f	0.6535682
188	0x3f4b6114	0.79445004
189	0x3eb553b0	0.3541541
190	0x3f5bdd93	0.8588497
191	0x3f48bf69	0.7841707
192	0x3d3ffee1	0.04687393
193	0xbd5a1946	-0.05324676
194	0x3fab23f2	1.3370345
195	0x3eb48095	0.3525435
196	0x3ece74f6	0.4032361
197	0x3e9a2a8d	0.3011059
198	0x3dda122d	0.10647998
199	0x3f295087	0.661385
200	0x3e88bca9	0.26706436
201	0x3ed46e35	0.4149033
202	0x3dca6d3c	0.09884116
203	0x3f42f98e	0.7616204
204	0xbee3b971	-0.44477418
205	0x3ecb6e52	0.39732605
206	0xbdbc02c8	-0.09180218
207	0x3d8e3b43	0.06944897
208	0xbd2ef226	-0.0427114
209	0xbd2794e6	-0.040913485
210	0xbd80a986	-0.06282334
211	0x3ea9a54a	0.33133918
212	0x3e2648c9	0.16238703
213	0x3ed412a2	0.41420466
214	0xbc94f2e9	-0.018182235
215	0x3e62f18a	0.22162452
216	0x3ea075fa	0.3134001
217	0x3e2790da	0.1636385
218	0x3e2c3db3	0.16820411
219	0x3e9a767a	0.30168515
220	0x3eaad95b	0.33368954
221	0x3e2a6076	0.1663836
222	0x3eefabba	0.46810704
223	0x3e10f80f	0.14157127
224	0x3e8a0836	0.2695939
225	0x3f9915ed	1.1959816
226	0x3db43ac0	0.08800268
227	0x3e98d684	0.29851162
228	0x3e75e582	0.24013332
229	0x3f133e20	0.5751667
230	0x3d46f038	0.048568934
231	0x3f71b015	0.94409305
232	0x3e48f747	0.19625579
233	0x3e74c662	0.23903802
234	0x3ea24f74	0.31701243
235	0x3eece69f	0.462697
236	0x3ee207b2	0.44146496
237	0x3e34f6ed	0.1767232
238	0x3e6355eb	0.22200744
239	0x3e64a69c	0.22329181
240	0x3f844770	1.0334301
241	0xbf78f530	-0.97249126
242	0xbc0151fd	-0.007893083
243	0xbd864c18	-0.065574825
244	0x3e30bdb4	0.17259866
245	0xbd74a0e4	-0.05972375
246	0x3e7d1107	0.24713527
247	0x3f7581a3	0.95900935
248	0x3f499424	0.7874167
249	0x3fec2d9b	1.8451418
250	0x3f10e9e6	0.566069
251	0x3dfa6984	0.12227157
252	0x3e4c5c9a	0.199572
253	0x3ed7989b	0.42108616
254	0x3ea68799	0.32525328
255	0x3b6f1248	0.0036479402

network.layer2.bias f4 [256]
0	0x3d1191cf	0.035539445
1	0x3dfb2c38	0.122642934
2	0x3e19c190	0.15015244
3	0x3e38b675	0.18038352
4	0x3e98600e	0.29760784
5	0xbd9b5f5d	-0.075865485
6	0x3dc9e9cf	0.098590486
7	0x3d06cb65	0.032908816
8	0x3d0e7f59	0.034789417
9	0x3df29caf	0.11846291
10	0xbc68ddeb	-0.014213066
11	0x3e0b0980	0.13577843
12	0x3c0cc334	0.008591462
13	0x3e02b27e	0.12763402
14	0x3e3458b0	0.17611957
15	0x3e481a1e	0.19541213
16	0x3e8c7997	0.27436516
17	0x3e1dc2a4	0.15406281
18	0xbd4bbe23	-0.049741875
19	0x3d9ecbf3	0.07753744
20	0x3dec794c	0.11546573
21	0x3e8d64df	0.2761602
22	0x3e27b6c0	0.16378307
23	0x3e049f32	0.12951353
24	0x3e45fe70	0.19335341
25	0xbc4b3969	-0.012403824
26	0x3e111435	0.14167865
27	0x3daf713f	0.08566522
28	0x3e924f33	0.2857605
29	0x3d83c468	0.06433946
30	0xbce383e2	-0.027772848
31	0x3e429da4	0.19005448
32	0x3e4a6947	0.19766723
33	0xbd1ef20f	-0.038805064
34	0xbce65b90	-0.028119832
35	0x3d988e9c	0.074490756
36	0x3e09c1f4	0.13452893
37	0xbdafbdfa	-0.08581157
38	0x3dec2e94	0.115323216
39	0x3d0c58b4	0.03426428
40	0x3e0f2bac	0.13981503
41	0x3e8a5c58	0.27023578
42	0x3c3d5b26	0.011557376
43	0x3e142283	0.1446629
44	0x3e2df846	0.1698924
45	0x3e3266b9	0.17421998
46	0xbdb4e391	-0.08832467
47	0x3e1dcd31	0.15410306
48	0x3e59e6a8	0.21279395
49	0x3dd6f005	0.10494999
50	0x3d922c87	0.07137399
51	0x3ddef113	0.10885825
52	0x3e36d852	0.17855957
53	0x3dd070b3	0.10177746
54	0xbd81c657	-0.063366584
55	0x3d83d725	0.0643752
56	0x3e81aa26	0.25325125
57	0xbda62bbb	-0.0811381
58	0x3e909944	0.28241932
59	0x3daa36ba	0.083112195
60	0x3d07c2aa	0.03314463
61	0x3e226520	0.15858889
62	0x3e3031fd	0.17206569
63	0x3de76068	0.11297685
64	0x3d427dc3	0.047483217
65	0x3d991eb8	0.07476562
66	0x3e26f5fd	0.16304775
67	0x3d403f8e	0.04693561
68	0x3e83a642	0.25712782
69	0x3e898683	0.26860437
70	0xbe262870	-0.16226363
71	0x3e021bbb	0.12705891
72	0x3d2d325b	0.04228435
73	0x3dba6c9b	0.09102746
74	0xbc822566	-0.015886974
75	0x3e45dce3	0.19322543
76	0x3ddd624b	0.108097635
77	0xbdb836d1	-0.089948304
78	0x3e501582	0.20320705
79	0x3d837b05	0.064199485
80	0xbd2a799a	-0.041619875
81	0x3c2291a1	0.009922416
82	0x3dca13ad	0.09867034
83	0xbd98ca70	-0.07460487
84	0x3d3f4965	0.046700854
85	0x3dbc21ed	0.09186158
86	0x3d5a33f3	0.0532722
87	0x3dc11202	0.09427263
88	0xbc79182d	-0.015203518
89	0xbd949a74	-0.07256022
90	0xbd873a95	-0.066029705
91	0x3da92046	0.08258109
92	0x3e481e97	0.19542919
93	0xbd4577ba	-0.048209883
94	0xbd0387f5	-0.03211208
95	0xbe107474	-0.14106923
96	0x3e3f2a29	0.18668427
97	0x3ec378fb	0.38178238
98	0x3db2fa9d	0.08739207
99	0xbd09505b	-0.0335239
100	0x3e46cedf	0.19414853
101	0xbd260923	-0.040536057
102	0x3dd6eeca	0.10494764
103	0x3e18ac99	0.14909591
104	0x3c2d3370	0.010571346
105	0x3d49f826	0.04930892
106	0x3d8160ad	0.063172676
107	0x3cbf310e	0.02333882
108	0x3da39907	0.07988172
109	0x3d8054bb	0.06266161
110	0x3f1a45b0	0.60262585
111	0x3e545958	0.20737207
112	0x3e150f64	0.14556652
113	0x3c3bde4a	0.011466572
114	0x3e4ef41d	0.2021031
115	0x3e213df8	0.15746295
116	0xbca387d1	-0.019962223
117	0x3e30f2a8	0.17280066
118	0x3d9e014b	0.0771509
119	0x3e2150c8	0.15753472
120	0x3d8cd019	0.06875629
121	0x3e0e627d	0.13904758
122	0x3d490e63	0.049085986
123	0x3ead9923	0.33905897
124	0x3e0e2c9b	0.13884203
125	0x3e11e9db	0.14249365
126	0x3e84a45f	0.25906655
127	0x3e6ca798	0.23110807
128	0x3dbe4027	0.0928958
129	0x3dbad557	0.091227226
130	0x3d0e62a2	0.034762032
131	0x3e392ae7	0.18082772
132	0x3e2000a4	0.15625244
133	0x3d961843	0.07328846
134	0x3e4f7233	0.20258407
135	0xbdafe1dd	-0.08588002
136	0x3cde5470	0.027139872
137	0x3e014545	0.1262408
138	0x3dac67ae	0.08418213
139	0x3eac9d82	0.3371392
140	0x3dd4c1f5	0.10388557
141	0x3d87703a	0.066132024
142	0x3e76bb5b	0.24094908
143	0x3e3b5400	0.18293762
144	0x3d7cf7df	0.061759826
145	0x3e88035d	0.26565066
146	0x3e205efa	0.1566123
147	0xbd663b42	-0.056208856
148	0x3e8b14df	0.2716436
149	0x3daf84a9	0.08570225
150	0x3d36a25a	0.044588424
151	0x3e85d204	0.26136792
152	0x3d2105ce	0.039312176
153	0xbc6b75b5	-0.014371325
154	0x3d13cf64	0.036086455
155	0x3def8316	0.116949245
156	0x3df911e8	0.121616185
157	0x3d1d3a16	0.038385473
158	0x3dfc2587	0.12311845
159	0x3cdffbc8	0.027341738
160	0x3db23317	0.08701151
161	0x3e4352d5	0.19074567
162	0x3d41a646	0.04727771
163	0x3dcf0f49	0.10110337
164	0x3dbd66cd	0.09248123
165	0x3d850036	0.06494181
166	0xbb9b03a7	-0.00473066
167	0xbcbe97c9	-0.023265736
168	0x3e6730ba	0.22577181
169	0x3c2b038f	0.01043786
170	0x3e729d45	0.23692806
171	0x3ddf4312	0.109014645
172	0xbcfca1d5	-0.030838886
173	0x3d1ff0a1	0.03904784
174	0x3eb15749	0.34636906
175	0xbd5aa739	-0.053382132
176	0x3da08588	0.07837969
177	0x3d98b938	0.07457203
178	0x3c476a78	0.01217138
179	0x3cb94a5e	0.022618469
180	0x3ce40b74	0.027837493
181	0x3de0e765	0.10981635
182	0x3e94ce53	0.29063663
183	0x3e249543	0.16072564
184	0x3dac6ea5	0.08419541
185	0xbb8c3c5c	-0.0042796563
186	0x3e10e4e4	0.14149815
187	0x3da4974f	0.08036672
188	0x3e26dad3	0.16294412
189	0x3e1a2db6	0.150565
190	0x3e70975b	0.23495238
191	0x3d832d0d	0.06405077
192	0x3ecbc731	0.39800408
193	0x3e5d58d5	0.21615918
194	0x3db8c053	0.09021058
195	0x3dbc8f2d	0.09206996
196	0x3c045bf8	0.008078568
197	0x3dffac10	0.1248399
198	0x3e9c4c58	0.30526996
199	0x3e9aba0e	0.30220073
200	0x3e35f155	0.17767842
201	0x3e064bed	0.13114901
202	0x3e5ecb10	0.2175715
203	0x3c918bfa	0.017766941
204	0x3dd91e35	0.10601465
205	0x3dff5661	0.12467647
206	0x3ec147e0	0.3775015
207	0x3e308dcf	0.17241596
208	0x3dd8b171	0.10580719
209	0x3e1a2d56	0.15056357
210	0x3e4136de	0.18868586
211	0x3d084fdf	0.033279296
212	0xbd885fa5	-0.06658868
213	0x3dc1e0e6	0.09466724
214	0xbc6d2652	-0.014474468
215	0x3e92fcbf	0.28708455
216	0xbd81f40b	-0.063453756
217	0x3da0096b	0.07814296
218	0x3d8bfd32	0.068354025
219	0x3ea2eca2	0.31821162
220	0x3da89a75	0.08232585
221	0x3da4f7a7	0.080550484
222	0x3e41ef2f	0.18938898
223	0x3df4c498	0.1195156
224	0x3e393e6d	0.1809022
225	0x3ea400c8	0.32031846
226	0x3e113c2a	0.14183107
227	0x3dbd3093	0.092377804
228	0xbd41b755	-0.04729398
229	0x3dc4e619	0.096142
230	0xbc6ef17f	-0.014583944
231	0x3de2a18e	0.1106597
232	0x3d57f4da	0.052723743
233	0x3e09773c	0.1342439
234	0x3d00c208	0.031435043
235	0x3e17f491	0.14839388
236	0x3d576802	0.052589424
237	0x3d82bf96	0.06384198
238	0x3e13c8cb	0.14432065
239	0x3e504829	0.20340027
240	0x3efee04c	0.497805
241	0x3da1a796	0.078932926
242	0x3d63da49	0.055628095
243	0x3d8e203e	0.069397435
244	0x3e6c2c94	0.2306388
245	0x3bef4d2d	0.0073029012
246	0x3d827044	0.06369069
247	0x3e552a85	0.20817001
248	0x3deac09d	0.11462519
249	0x3e19b454	0.15010196
250	0x3dba0a72	0.090840235
251	0x3e867647	0.26262113
252	0xbd439dfe	-0.047758095
253	0x3e4b9206	0.19879922
254	0x3e92307e	0.28552622
255	0x3dd40018	0.103515804

network.layer4.weight f4 [26, 256]
0	0x3e40bcf1	0.18822075
1	0x3dfb02bf	0.12256383
2	0x3e9ad011	0.30236867
3	0x3e200cb4	0.15629846
4	0x3e8b007c	0.27148807
5	0xbc9817ee	-0.018566098
6	0x3dc75360	0.097326994
7	0x3cad5232	0.021157358
8	0xbd5d8232	-0.054079242
9	0xba340dde	-0.00068685215
10	0x3d66fcf4	0.05639358
11	0x3e0cc5ef	0.1374738
12	0xbd6c0dba	-0.05763028
13	0x3eb4e4cd	0.3533081
14	0x3dbb72e8	0.09152776
15	0x3eb55469	0.35415962
16	0x3e101a21	0.14072467
17	0x3e3e0dd8	0.18559968
18	0x3d1605c7	0.036626603
19	0x3e386730	0.18008113
20	0x3d9f5c3a	0.07781263
21	0x3d5a4748	0.053290635
22	0x3e2b92ba	0.1675519
23	0x3e3e8abf	0.18607615
24	0x3e021308	0.12702572
25	0x3d2d933e	0.04237675
26	0xbcb1648f	-0.021654395
27	0x3e5fb3ce	0.21845934
28	0x3e357e2e	0.17723915
29	0x3e1ae1e2	0.1512523
30	0x3dcd9f41	0.10040141
31	0x3e80efd4	0.25182974
32	0x3e7b5684	0.24544722
33	0x3bbed113	0.0058232634
34	0x3e2e9d98	0.17052305
35	0x3e19966c	0.14998788
36	0x3d869ccf	0.065728776
37	0xbd146a18	-0.03623399
38	0x3d7b14af	0.061299022
39	0x3ea1da0f	0.31611678
40	0x3e99c784	0.3003503
41	0x3dfc6580	0.12324047
42	0x3deeb53b	0.11655661
43	0x3e851508	0.25992608
44	0x3e88187a	0.26581174
45	0x3ded1074	0.11575404
46	0xbc80ecc4	-0.015737899
47	0x3e990b91	0.29891637
48	0x3ddf3b8c	0.109000295
49	0x3de13155	0.109957375
50	0x3e018df9	0.12651815
51	0x3da42829	0.080154724
52	0x3db314be	0.08744191
53	0x3d32a73a	0.04361651
54	0xbce1ba5c	-0.027554683
55	0x3e94249c	0.2893418
56	0x3e77e5ea	0.24208799
57	0x3d8634c0	0.0655303
58	0x3e6db9b1	0.23215367
59	0x3d56a8b8	0.052406996
60	0x3e491867	0.19638215
61	0x3e726db5	0.23674662
62	0x3e02d1dc	0.12775367
63	0x3db137b7	0.08653205
64	0x3b8cf020	0.004301086
65	0x3e2d2372	0.16908053
66	0x3dac2c62	0.08406903
67	0xbd7f7cd4	-0.062374905
68	0x3d6a8ee0	0.057265162
69	0x3eb2cfce	0.34924167
70	0x3e3716b4	0.17879754
71	0x3df45b0f	0.119314305
72	0x3d6dc13b	0.058045607
73	0x3e8e09d6	0.2774188
74	0x3d8cea77	0.06880658
75	0x3dcbd1ae	0.099521026
76	0x3d80dd19	0.06292171
77	0x3e4d8678	0.20070827
78	0x3dcc29cc	0.099689096
79	0x3e49a8e0	0.19693327
80	0x3da62d4e	0.0811411
81	0x3dd5b125	0.10434178
82	0x3e546fb7	0.20745741
83	0x3d70474a	0.058661737
84	0x3debfb87	0.115225844
85	0x3e058833	0.13040237
86	0x3ead2c19	0.33822706
87	0x3ca95cbb	0.0206741
88	0x3d593c51	0.053036038
89	0xbcf276c4	-0.029597647
90	0x3e08ba87	0.13352405
91	0x3daf457c	0.08558175
92	0x3e8b5cea	0.27219325
93	0xbcb17d14	-0.021666087
94	0x3b59019a	0.0033112527
95	0x3eb14152	0.34620148
96	0x3e0b1867	0.13583528
97	0x3e1d199c	0.153418
98	0xbd1987ed	-0.037483145
99	0xbc53e8a8	-0.012933888
100	0x3dffc460	0.124886274
101	0xbd04f634	-0.03246136
102	0x3e808777	0.2510335
103	0x3e6b40cf	0.22973941
104	0xbc62f618	-0.013852619
105	0x3e8105dc	0.25199783
106	0x3d60d883	0.05489398
107	0x3dc5c1c3	0.09656098
108	0x3e49c2c1	0.19703199
109	0x3d8084ea	0.06275351
110	0x3cc6bd9a	0.024260331
111	0x3e013c3a	0.12620631
112	0x3e5f2f35	0.21795352
113	0x3da5a056	0.08087222
114	0x3e23b04e	0.15985224
115	0x3e774201	0.24146272
116	0xbbd697a0	-0.006548837
117	0x3dc46e85	0.095913924
118	0x3ddc673b	0.10761877
119	0x3ea51025	0.3223888
120	0x3dead7fa	0.114669755
121	0x3e4fdbec	0.20298737
122	0x3d408444	0.04700114
123	0x3e1502c7	0.1455184
124	0x3d9f5f37	0.07781833
125	0x3e54d457	0.20784126
126	0x3e86dec4	0.26341832
127	0x3e82a7f7	0.25518772
128	0x3bf86347	0.007580194
129	0x3e2c9176	0.16852364
130	0x3d2154e9	0.039387617
131	0x3e5dd420	0.2166295
132	0x3e2be7b6	0.1678761
133	0x3e02741b	0.12739603
134	0x3dca2c9b	0.09871789
135	0xbc2852b0	-0.0102736205
136	0x3d1cbe24	0.03826727
137	0x3e829345	0.25502983
138	0x3e09cf18	0.13457906
139	0x3e626cce	0.22111818
140	0x3e2c542f	0.16828988
141	0x3e523d77	0.2053126
142	0x3dc98d8b	0.0984145
143	0x3e03b8f2	0.1286352
144	0x3e81c008	0.2534182
145	0x3db8597c	0.09001443
146	0x3d2d98d8	0.04238209
147	0xbd6fe2f8	-0.058566064
148	0x3ea59aea	0.32344753
149	0x3d769b08	0.060206443
150	0x3dc67429	0.096901245
151	0x3e3d03ed	0.18458529
152	0x3b4dac5a	0.0031383247
153	0x3db23749	0.08701951
154	0x3d773924	0.060357228
155	0x3e83280b	0.25616488
156	0x3d3f490d	0.046700526
157	0x3c22581d	0.009908703
158	0x3e13a5cb	0.14418714
159	0x3e402011	0.18762232
160	0xbdba284d	-0.09089718
161	0x3e0aa001	0.13537599
162	0x3d34ce8c	0.04414229
163	0x3de403ac	0.11133513
164	0x3e455143	0.1926928
165	0x3d9ba860	0.07600474
166	0x3e39bade	0.1813769
167	0xbc03f590	-0.008054152
168	0x3e9b2898	0.30304408
169	0x3e32bc0d	0.17454548
170	0x3db9e9ef	0.090778224
171	0x3e6fd40e	0.23420736
172	0xba050bc5	-0.0005075301
173	0x3d5a9fc8	0.053375036
174	0x3eb2c709	0.34917477
175	0x3d2b0a34	0.041757777
176	0x3e0589a3	0.13040785
177	0x3d02fad6	0.031977497
178	0x3d17743a	0.036976077
179	0x3e7cb594	0.24678642
180	0x3df21be9	0.1182173
181	0x3e933cb5	0.28757253
182	0x3e30c14a	0.17261234
183	0x3deeddb2	0.11663379
184	0x3c56aaa4	0.013102207
185	0x3e741fec	0.23840302
186	0x3dea9907	0.11454969
187	0x3ec82b35	0.39095464
188	0x3e55873a	0.20852366
189	0x3e26de26	0.1629568
190	0x3e1021dc	0.14075416
191	0x3e344907	0.17605983
192	0x3d8e0f56	0.06936519
193	0x3ec93898	0.3930099
194	0x3e028781	0.12747003
195	0x3e3da99c	0.18521732
196	0x3d6b64cc	0.057469174
197	0x3e951cc6	0.29123515
198	0xbd3de631	-0.046362106
199	0x3e02d0fd	0.12775035
200	0x3e341734	0.17586976
201	0x3ddafac6	0.106923625
202	0x3ea31091	0.31848577
203	0x3e1bef41	0.15227987
204	0x3dec1ca9	0.11528904
205	0x3df43319	0.119238086
206	0x3ef42a25	0.47688404
207	0x3da91833	0.08256569
208	0x3e2c5d6e	0.16832516
209	0x3e112251	0.14173247
210	0x3daf3044	0.08554128
211	0x3e4ff8bb	0.20309727
212	0x3d6e4e90	0.05818039
213	0x3ed0e9f3	0.4080349
214	0x3e9014a5	0.2814075
215	0x3e943629	0.2894757
216	0x3db6f749	0.08933885
217	0x3ca8f606	0.020625126
218	0x3e9d564a	0.30729896
219	0x3dfc1737	0.123091154
220	0x3de1663f	0.1100583
221	0x3e66f519	0.22554435
222	0x3e718176	0.23584542
223	0x3e6c0fea	0.23052946
224	0x3e3c3519	0.1837963
225	0x3ebaafe3	0.36462316
226	0x3ec2ab24	0.38021195
227	0x3e96b98d	0.2943844
228	0x3c8eda44	0.017438062
229	0x3e9f59bb	0.31123146
230	0x3e3a5f26	0.18200359
231	0x3de9602a	0.11395295
232	0xbdd6a52c	-0.10480723
233	0x3e23429c	0.15943378
234	0x3d5adc8d	0.05343299
235	0x3e5cb48f	0.21553253
236	0x3e36be16	0.1784595
237	0x3c90c99d	0.017674262
238	0x3ddeaaa3	0.1087239
239	0x3dff4c69	0.12465746
240	0x3e888c03	0.2666932
241	0x3d9d4aa8	0.07680255
242	0x3de6355e	0.11240648
243	0xbc330280	-0.010925889
244	0x3e5566c3	0.20839982
245	0x3e7126ee	0.23550007
246	0x3e50933f	0.2036867
247	0x3e6eac0e	0.23307821
248	0x3e538b94	0.20658714
249	0x3e427026	0.18988094
250	0x3eca901a	0.39563066
251	0x3dea65fe	0.11445235
252	0xbca6d07c	-0.020363085
253	0x3e2f14bc	0.17097753
254	0x3e2f4f3a	0.17120066
255	0x3e25b9d2	0.16184166

network.layer4.bias f4 [26]
0	0xbdb3d34a	-0.087805346
1	0xbea78d0e	-0.32724804
2	0xbe23e81c	-0.16006511
3	0xbefc7f4e	-0.49315876
4	0xbeed6de8	-0.46372914
5	0xbe6afabd	-0.22947212
6	0xbedb4d23	-0.42832288
7	0xbf0495d0	-0.51791096
8	0xbecbe3f6	-0.39822358
9	0x3d96e466	0.07367782
10	0x3e6767d9	0.22598208
11	0x3eb12cd0	0.34604502
12	0x3dbb1a94	0.09135929
13	0xbf0982c0	-0.53715134
14	0xbe98aac6	-0.2981779
15	0xbf23c2f2	-0.6396934
16	0xbee00688	-0.43754983
17	0xbd51b982	-0.051202305
18	0x3dc51d28	0.09624702
19	0x3c067669	0.008206942
20	0xbdd174b4	-0.102273375
21	0xbe64b11a	-0.22333184
22	0x3ed5ef66	0.4178421
23	0x3e0c4d72	0.13701418
24	0xbd00dfcd	-0.031463433
25	0x3c81fd1e	0.015867766
