DDQN_panda/runs/results_3/best-model.pt (torch, 162903 bytes, 6 tensors)

network.layer1.weight f4 [128, 3]
00000000: 0c52 f1be 8f0b c3bc 9999 b73e 0056 0fbf
00000010: 2e47 0fbf 28eb f43d 7390 9ebe 9ac7 d63e
00000020: 0aa1 0f3f 33d6 b2be 9387 f6be 0a8a b0bd
00000030: 3246 f53e 762a bebc 0087 243d 2c4b 88be
00000040: a204 92be 785d 3ebe 2a0a c73e 9668 dbbe
00000050: c3bd 0a3f 0dc9 6ebd 9f3c e5bd 6b53 bd3e
00000060: f0a6 0d3f 8798 4bbe 8e81 dabd a992 863e
00000070: be7f 69bd daa2 9dbe d3a8 07bf 5c43 97be
00000080: 929c fe3d f881 c13e 911f 0e3f 4d4d 87be
00000090: 389e d5bd 0430 6cbe 3604 8a3e 90e1 c9be
000000a0: 0060 0a3f e0ba 03bf 73ce a63e 72d0 d1bd
000000b0: be30 9c3e a189 c13e 17f1 043f 8e1a 2bbe
000000c0: f2ab c4be bfb7 d13e 8f20 3f3e 1bc3 c43d
000000d0: 2cf2 9bbe b5bb fa3e 650a 683e 5375 f73c
000000e0: 8ae6 9ebe 97c3 293e af6d debe 2c31 093e
000000f0: 7ff7 f3be e65f 03be db8d 09be 5c1a 17be
00000100: 4a43 04bf 7d1e 0bbf a362 18be 5155 c13d
00000110: 9a02 cf3e 5b3b 093f dc24 163e 6406 03bf
00000120: 05e4 12bf 6c7f 6dbe 8faa a1be 1c08 703d
00000130: fd28 47be 69fd bbbe 1b9e f0be 719e 0e3e
00000140: 6f06 f33e 747f 9bbe 95bd 09bf 24d5 053f
00000150: 345e cfbe 50fa 9b3e e3da ca3d e77c d23e
00000160: f8fe 87be aab0 823e 2856 9d3e b0e3 9c3e
00000170: bbf8 e6be fb3a 1a3e 96dc 9a3e 6ca9 f6be
00000180: 365d 873e 5c00 133e 41c1 05be 27df 22bd
00000190: 90e9 223e 7fb0 00bf bcf0 2bbe 1def d7be
000001a0: 1399 4fbe c55c adbe 0094 81be 70eb df3e
000001b0: a8af d63e 4a3f c63e df49 d33e c455 ccbe
000001c0: 51aa 03bf d4a4 8ebb ee69 e8be 6f15 023f
000001d0: 326a c93e 10bb fc3d 972e 1f3e 63a6 8fbe
000001e0: 250d 26bb 3b17 0a3d cdbf 0e3e 567f f63d
000001f0: 4d91 093f c189 82be 90c5 9a3e 32d5 893d
00000200: 0f2f f4be efeb 903e b404 de3e 8c11 103f
00000210: 35a5 f53d cdd1 efbd 211b 83be 9918 d53e
00000220: f052 d2be 8b69 b8be 1aa5 033f 40ed f4bc
00000230: 0c90 963e b9f6 8f3d 5b4b 42be acf3 8e3d
00000240: de00 a73e 0d12 09bd dcc3 c0bd 8973 25be
00000250: 88e1 11bf 43bf 133e cb29 3abe c2e5 eebe
00000260: ea0e f13e 2160 8d3e 5b0a 7c3c 0594 9bbe
00000270: a7f7 b7bd e1af b83e eb95 20be cc9a 903e
00000280: 8467 70bc fb60 003f 4226 0bbf 16f7 303e
00000290: 51e1 0fbf 57e2 073f 73c7 723e 81ae e33e
000002a0: 32e8 0b3e 4c39 123f 99e9 0f3f 2a90 6fbd
000002b0: 49ca ed3e 4b3c 103e 9a7b e8be cfcd 8b3e
000002c0: b319 0a3e 1118 a33e 8098 073e 5398 0f3d
000002d0: a53b adbe af06 553e 671c 1cbe 4413 473e
000002e0: 707f 0e3f 4975 053f e3b4 db3d f2a9 51bd
000002f0: 25b5 cabd 4924 e93e 95fb 8d3e b83f c4bc
00000300: 9ddf 093f 57a5 7e3d 05b6 083f 204b c9be
00000310: 2377 9dbd 79f2 0e3f 7167 0c3f 5cdc 0b3e
00000320: 7db1 23be ce14 80be 162d 7b3d 27e3 e33d
00000330: 486d eebe 455d 893e d94f b63e 2261 013f
00000340: 8b7a 16bc 0335 0abf fd48 f0bd 171e 443c
00000350: 7c85 25be 989c ee3e f4d5 72be 7b37 17bd
00000360: 89fe dfbe e8f1 ab3c 8032 66be 6020 babe
00000370: 9bc3 d93e 9186 713e 304a ecbe 46bf 0abf
00000380: 87b6 b73e 3129 013e f39d 6f3d 7fb7 873e
00000390: 0af8 443d 4b31 b43e 0140 3b3e 53af bb3e
000003a0: 89ff dcbe 78cf 03bf b983 a1be df4f c93e
000003b0: a7cd 393d f1d2 0d3f bea6 d43e 3718 e73d
000003c0: b5d8 1d3e 48b8 ad3e 78a0 313d e6aa b33e
000003d0: fe1a 343e 8e1e 0bbf c6f1 873e e1e4 c63e
000003e0: b6a5 0ebe a112 713e 682e 66be 1f0e 733e
000003f0: 160d 08bf ae85 053e 4cbc d8bd a58b 9f3e
-0.4713291 -0.023809223 0.35859373 -0.559906 -0.55967987 0.11958915 -0.3096958 0.4194916
0.561051 -0.34929046 -0.4815031 -0.08620079 0.47905117 -0.023213606 0.04016781 -0.26619852
-0.2851916 -0.18590343 0.38874942 -0.4285323 0.54195803 -0.058297206 -0.11193203 0.36977705
0.5533285 -0.19882403 -0.10669242 0.26283768 -0.05700659 -0.30788308 -0.5299198 -0.2954358
0.12432207 0.3779447 0.55516917 -0.26426163 -0.104305685 -0.23065192 0.26956338 -0.39429903
0.54052734 -0.51457024 0.32579383 -0.10244836 0.30505937 0.37800315 0.51930374 -0.16709349
-0.38412434 0.409605 0.18664764 0.09607526 -0.304582 0.48971334 0.22660215 0.030207312
-0.31035262 0.16578518 -0.43443057 0.13397664 -0.47649762 -0.12829551 -0.1343302 -0.14756149
-0.51665175 -0.54343396 -0.14881377 0.09440101 0.40431672 0.53606194 0.14662498 -0.51181626
-0.5737918 -0.23193139 -0.31575438 0.058601484 -0.1944923 -0.36716774 -0.46995625 0.13927628
0.47465846 -0.30370677 -0.53804904 0.5227835 -0.4050156 0.3046441 0.099050306 0.41110918
-0.26561713 0.2552541 0.30729795 0.30642462 -0.4511164 0.15061562 0.3024642 -0.48176134
0.26438302 0.14355606 -0.13062002 -0.039763596 0.1590941 -0.5026931 -0.16791052 -0.42174616
-0.20273237 -0.3385984 -0.25308228 0.43734312 0.4193089 0.3872016 0.41267297 -0.39909184
-0.5143176 -0.004353145 -0.45393318 0.50813955 0.39338833 0.12340367 0.15545116 -0.2805663
-0.0025337425 0.03371356 0.13940354 0.12036006 0.53737336 -0.25495723 0.30228853 0.06730117
-0.47692153 0.28305003 0.43362963 0.56276774 0.11994401 -0.11709938 -0.25606635 0.4162033
-0.410789 -0.36018023 0.514238 -0.029898286 0.29406774 0.070294805 -0.18974058 0.069800705
0.3261785 -0.03346448 -0.09412357 -0.16157354 -0.5698476 0.1442843 -0.18180005 -0.46659666
0.4708169 0.27612403 0.015383328 -0.30386367 -0.08982783 0.36071685 -0.15682189 0.282431
-0.014673118 0.5014798 -0.5435525 0.17281756 -0.5620318 0.5307974 0.23708896 0.44469073
0.13662794 0.5711868 0.56215817 -0.058487095 0.46443394 0.140855 -0.454068 0.27305457
0.13486366 0.318543 0.13241768 0.035057377 -0.33834568 0.20803331 -0.1524521 0.19440943
0.55663204 0.5213209 0.10727861 -0.051187463 -0.09897832 0.45535496 0.27731004 -0.023956165
0.5385683 0.0621694 0.5340274 -0.39315128 -0.07688739 0.55838734 0.5484534 0.13658279
-0.15985675 -0.25015873 0.061322294 0.1112731 -0.4656775 0.26828972 0.35607794 0.5053884
-0.00918449 -0.5398714 -0.117326714 0.011970065 -0.16164201 0.46603847 -0.23714429 -0.036918145
-0.43748882 0.020989373 -0.22480202 -0.36352825 0.42532048 0.2358649 -0.4615035 -0.5419811
0.35881445 0.1261337 0.05850024 0.26507184 0.04808811 0.35193858 0.18286134 0.366572
-0.43163708 -0.5148845 -0.3154581 0.3931875 0.04536214 0.55399996 0.41533464 0.112839155
0.15414698 0.33929658 0.043365926 0.35091323 0.17588422 -0.543435 0.26551646 0.38846496
-0.13930401 0.23542263 -0.2247864 0.23735856 -0.5314497 0.13039276 -0.1058279 0.31161228

network.layer1.bias f4 [128]
00000000: 774c 003f 7d1e 96be d329 503e d308 cdbd
00000010: ffc9 9e3e 1286 bc3e 080c 13bd ce67 8b3e
00000020: f2d8 a2bd 5602 a13c 682a 393d 9fe7 92be
00000030: 860f 873e df34 11bf 5941 fc3c cd7c e63e
00000040: e368 94be 3132 8a3e 2e6a 7ebe d8ad 06bd
00000050: d017 2bbd 74b4 f83d b449 a6be b7d1 833e
00000060: 2741 e73e 5e42 d7be b757 a93e 36ae 5c3e
00000070: 178e 04bf 9df0 01bd 0808 a8be 3489 a53e
00000080: 75fe 06bf 5e8d d6be d715 9abe 2210 c4be
00000090: 69a2 8e3e fd49 14be 78b0 0d3f ede0 e73e
000000a0: 055c c2be 33da e2be 5af6 833e ed7f 56be
000000b0: 6e79 aabe 5e43 92bd 394b eabe 74a4 e03d
000000c0: c250 07bf 01b0 0e3f 2d87 eb3e aef0 083f
000000d0: ebf9 78be b4c8 f4be 6327 1b3c e2f1 0e3e
000000e0: 07e9 0f3f b989 abbe 85be abbd 3fe6 a6be
000000f0: 8039 12bf b13d b73e 6c36 a23e 255e e53d
00000100: a3b2 be3e 2548 b63e 1383 7b3e e440 f4be
00000110: 366e e5be 8ab4 bb3e 1da2 0bbf e30a 6ebd
00000120: 91d8 55bd d226 f4be c3bb 913d 2b25 133f
00000130: ce9b f33e d64e 0c3d c979 d73e 77eb b9be
00000140: 1865 35be 27de 60bd 8a12 81be b62e fb3e
00000150: 662b 88be 6094 aabe 83fe 953e 5436 843e
00000160: f570 8f3d d655 f1be 8742 6a39 f6af a93e
00000170: ea48 1fbe c188 dbbd 95b5 13bf f131 a73e
00000180: 3952 ecbd 6da4 e03e f01a e33e 3443 ae3e
00000190: a91b 11bf 4eb8 8f3e 719b a2be e8eb 383d
000001a0: 6486 75bd 4c0b cebd 2246 363e a4ab 863e
000001b0: 14ed 693c b624 91bd a576 8c3e cfbb 0b3e
000001c0: b7bb a83e eb6c 793d ca03 a53e 5d52 4d3e
000001d0: 8d50 573e acf9 dbbe 25f0 c1be b028 b7be
000001e0: b4de 8bbe eb59 773e 451a ef3e 9ce6 12be
000001f0: 1d62 8d3e 9d13 1b3e 9fa3 c3bd a942 dcbd
0.50116676 -0.29320136 0.20328455 -0.10011449 0.31013486 0.36821038 -0.035900146 0.27227634
-0.07951535 0.019654434 0.045206457 -0.28692338 0.2637903 -0.567213 0.030792879 0.4501709
-0.28986272 0.26991418 -0.24845192 -0.032880634 -0.041770756 0.12143794 -0.32478106 0.25745937
0.45166895 -0.42042822 0.33074734 0.21550831 -0.5177931 -0.031723607 -0.32818627 0.3233124
-0.5273202 -0.4190473 -0.30094787 -0.38293558 0.27858284 -0.1448135 0.55347395 0.45288792
-0.3796083 -0.44307098 0.2577389 -0.20947237 -0.33295768 -0.071417555 -0.45760515 0.10968867
-0.528576 0.5573731 0.46001568 0.5349225 -0.24314086 -0.47809374 0.00946984 0.13959458
0.56214947 -0.33503512 -0.08385948 -0.3259754 -0.5711899 0.35789254 0.31682146 0.11199597
0.37245664 0.35601917 0.2456172 -0.47705758 -0.44810647 0.36661178 -0.5454424 -0.05811585
-0.052208487 -0.47685868 0.07115891 0.5747859 0.47579807 0.03425487 0.42085102 -0.36312458
-0.17714345 -0.05489936 -0.25209457 0.49059075 -0.2659561 -0.33316326 0.2929574 0.258227
0.07003967 -0.471358 0.00022340762 0.3314206 -0.15555158 -0.10719443 -0.5769895 0.3265529
-0.1153912 0.43875447 0.4435649 0.34035647 -0.5668283 0.280703 -0.31759217 0.045146853
-0.059942618 -0.100607485 0.17800191 0.26302826 0.014277715 -0.0708708 0.2743427 0.13645862
0.32955715 0.060894888 0.32229453 0.2005095 0.21026821 -0.42963922 -0.37878528 -0.3577323
-0.27318347 0.24155395 0.4669973 -0.14345783 0.27613917 0.151442 -0.095526926 -0.10754902

network.layer2.weight f4 [256, 128]
00000000: 6731 71bc d2b7 233d ba2c 19bd 58f9 a43c
00000010: 455c 1d3c 1180 783d aec2 5ebd 8a71 9f3d
00000020: 7f7a 613d 3cb1 4b3d 140a 30bc c7fb 9cbd
00000030: c141 08bb 8282 943d 34a6 153d 6c88 0a3d
00000040: 5505 abbd d8a8 8ebd d8b0 b9bc ee48 eabc
00000050: 2ce8 203d 13b2 8cbb 1641 8dba 9b8e 3fbc
00000060: c006 e1bc 33b0 9abd a394 c8bc 175f 273c
00000070: d531 94bd 4381 25bc 8ddb 1bbd 5b58 803c
00000080: 10ad aa3d 2fdb 87bd 814b 073b 6a75 ddbc
00000090: c8e3 47bd 6970 69bd e559 efbb 5f94 b13d
000000a0: cf71 013c b19c ca3c ff91 5b3c 3cd3 ad3d
000000b0: 016e e23c c008 8f3d 9f65 9cbc 355e ea3c
000000c0: 6c49 693d 0abb 6e3d 0486 83bd 64e3 613d
000000d0: c8f8 91bd 319e 7f3d 1341 8fbc 0586 5bba
000000e0: 5888 063a d48a fabb d1b9 3dbd c63c 03bd
000000f0: 51dd 8cbc b1e6 9f3d cfbd 8c3d a85e 85bd
00000100: b895 913d 06de 3b3d dcfd ad3d 398d 933d
00000110: 3b6a a2bc 9789 edbb 40bd 1e3d 2aea a53d
00000120: 0212 39bd e5df 66bd e2b1 11bd 9ea8 9e3d
00000130: ecf7 7e3d ed6b d2bc 752b 95bc 22f9 5d3c
00000140: a3b8 c73c 02c8 a73d 7dbe a43d c7ab 8fbd
00000150: 7a19 ac3d 790b 9bbc 2bf0 103d 5f3a 69bc
00000160: 38ca 093d 1fb3 9a3d d912 adbd ad2e 4d3c
00000170: 1f22 5e3d 97cb 593d ab80 9d3d d4bb 8abd
00000180: e6a4 44bd d5af 60bd 82d7 6f3d 79af 37bd
00000190: 3530 82bd fde8 a53b 197e 953d d790 603b
000001a0: e060 863d 6bd4 683d 9c52 373d 7d6a 7cbd
000001b0: 7fa0 dabc 794c cb3b e502 3dbd 2d1e b03d
000001c0: 34e1 c8bc 7e8d 363d b91b 563d 7b0a 6a3d
000001d0: 4caf 523d 4995 6c3c 85a9 76bb c1c4 d2bb
000001e0: 10ab a23d c36f 813d f3f1 b3bd 270b 08bd
000001f0: e45f cc3a 7c99 163d b1c5 a53d 03ef ab3d
00000200: b909 9f3d 91ae 933d a42a 8bbd 6349 84bd
00000210: 67ef 673d 24e7 b1bd 8ce7 993b 25d1 62bd
00000220: 3927 4abd 93bb 503c 0f77 4a3c d1ef 3c3d
00000230: 13f3 81bd 37bf 14bd 40fe 723d 17e7 a43c
00000240: e978 a5bc 1267 5dbd c266 293d ec0f 173d
00000250: 7a33 fa3c a53f 38bc 1d4f a53d 9451 8d3d
00000260: 654e 64bd dfd7 1f3d c44e 8c3d f2e0 07bd
00000270: d27b b0bd 7eae 96bd a4b1 953d 212c f838
00000280: 58f7 4ebd e29d 483d fb5e abbc a9d9 9bbd
00000290: 99e1 1cbd fbac 0a3d db62 9dbb 0d96 0bbd
000002a0: 5192 80bb 3e84 76bd b83f 02bd 2cf3 87bd
000002b0: 0275 acbb 793d adbc 16e7 383d 1f64 4e3d
000002c0: b368 883d 33ca 8d3d ca7d 723c d8e0 233d
000002d0: eb09 94bb eb39 503d 6c82 5cbd a71b 853b
000002e0: 8bd5 81bd b474 9a3b 50c4 d2bb d889 56bd
000002f0: 6ede 91bd 7f2c 7e3b 8db3 953c ec14 4bbc
00000300: 4fc3 34bd 082a 45bd 3bb8 0e3d e6b8 373d
00000310: 45da 95bd 292c 0fbd 8a1c 7a3d 9081 a73c
00000320: 9d4a 6fbd fb43 8f3d a097 51bd a479 953d
00000330: 7fc4 70bd 63c8 0dbd d55b ecbb 6669 71bd
00000340: 37c2 08bd 9bd6 c23c e36f 9ebc 2741 5d3c
00000350: d1f1 833d 6209 a5bd 0970 043d f3a3 953c
00000360: 6b83 b4bd e6f4 87bc 90ed 073d 48d1 223d
00000370: c56a 443d 1d90 103c 8006 9a3d cdc9 1ebd
00000380: 6e0f ef3c bf7d 323d ec6f 9f3d 2ef2 10bd
00000390: 3259 8d3c 64ed 82bc 033f 63bd be55 a33c
000003a0: 06b4 5bbd 1dea 3a3d bb80 2c3d 8e46 073c
000003b0: 59b1 983d 54a9 89bd fbad ee3b 1562 97bd
000003c0: a277 72bd 9f62 3f3d 2652 b2bc 35be e0bc
000003d0: 5064 43bd c20a a9bc 442c 1fbc 4cbb 743d
000003e0: c009 64bd 2b03 b23d cbc8 3cbd 4a16 97bd
000003f0: dcc5 da3b cede 63bc b503 103d 7029 663b
-0.014721251 0.039970227 -0.03739617 0.020138428 0.009604518 0.06066901 -0.05438488 0.07785328
0.055048462 0.04972957 -0.01074459 -0.0766521 -0.0020791146 0.07251455 0.036535457 0.03382151
-0.083506264 -0.06965798 -0.022667333 -0.028599229 0.039283916 -0.004293689 -0.0010776843 -0.011691715
-0.027469039 -0.075531386 -0.024484938 0.010215542 -0.07236067 -0.010101619 -0.038051177 0.015667131
0.0833379 -0.06633603 0.002064437 -0.027033526 -0.048801214 -0.05699197 -0.0073044174 0.08670878
0.007900669 0.02473292 0.013401507 0.084875554 0.027640345 0.06984091 -0.019091425 0.028609375
0.056954786 0.058283843 -0.06422046 0.055148497 -0.071275294 0.062406722 -0.017487084 -0.00083741575
0.0005132011 -0.007645944 -0.046319786 -0.03204038 -0.017195376 0.07807673 0.068721406 -0.06512195
0.07108635 0.045866035 0.084956855 0.072046705 -0.019826045 -0.007249068 0.0387547 0.08101304
-0.04518319 -0.056365866 -0.035570033 0.07747005 0.062248155 -0.025686229 -0.018209198 0.013548167
0.024380034 0.08192445 0.08044145 -0.07015186 0.08403297 -0.018926369 0.035385292 -0.014235108
0.033640116 0.07553696 -0.084508605 0.012523335 0.05423176 0.053172674 0.07690557 -0.067741066
-0.048008822 -0.054855186 0.058555134 -0.04484508 -0.06356851 0.0050631748 0.07299442 0.0034266019
0.06561446 0.056843203 0.044756517 -0.061624993 -0.026687859 0.0062041846 -0.04614534 0.085995056
-0.024521448 0.04456853 0.052272532 0.0571389 0.051436707 0.014439889 -0.0037637663 -0.0064321463
0.07942784 0.06320145 -0.087863825 -0.03321376 0.0015592542 0.036767468 0.08094347 0.08395197
0.07765526 0.0721103 -0.067952424 -0.0645931 0.056624796 -0.08686665 0.004696792 -0.055375237
-0.049353812 0.012740034 0.012357487 0.046127144 -0.06345191 -0.03631517 0.059324503 0.020129723
-0.020199256 -0.054053374 0.041357763 0.03688042 0.030542124 -0.011245643 0.0807173 0.069003254
-0.055738825 0.03902423 0.06850961 -0.03317351 -0.08617367 -0.073575005 0.07309273 0.00011833781
-0.050528854 0.048978694 -0.020919314 -0.07609875 -0.038301084 0.033856373 -0.0048030443 -0.034078646
-0.0039236923 -0.06018471 -0.03179905 -0.06638178 -0.005262972 -0.021147477 0.045142256 0.05038845
0.06660595 0.06923332 0.014800498 0.04000935 -0.004517784 0.050836485 -0.053835317 0.0040621343
-0.06339558 0.004713619 -0.0064320937 -0.05237755 -0.07122503 0.0038783846 0.018274093 -0.012395125
-0.044131573 -0.048135787 0.034843665 0.044854067 -0.07317022 -0.034954224 0.061062373 0.020447522
-0.058420766 0.06995388 -0.05116999 0.07298592 -0.058781143 -0.03461493 -0.0072130957 -0.058938406
-0.033388343 0.023783972 -0.019340461 0.013504303 0.06442607 -0.0805843 0.032333408 0.018266654
-0.088141285 -0.016596269 0.03318554 0.039750367 0.047953386 0.008823422 0.07520771 -0.03876667
0.029182162 0.043576952 0.07785019 -0.03538721 0.017254446 -0.015982337 -0.055480015 0.019938346
-0.05363848 0.045633424 0.042114954 0.008256568 0.074557014 -0.0672175 0.0072839237 -0.073917545
-0.059196122 0.04672491 -0.021767687 -0.027434448 -0.047703087 -0.020635013 -0.009715144 0.059748933
-0.05567336 0.086920105 -0.04608993 -0.07377298 0.0066764187 -0.013908101 0.035159785 0.0035119914

network.layer2.bias f4 [256]
00000000: 59fe d93c a7e4 e9bb 82bd 713d d92a 98bd
00000010: b306 5a3d 6916 afbd a3a5 4fbb b82b a6bc
00000020: ffe4 ac3d f974 8f3d 28bb 8f3d c3ad e53c
00000030: 8181 c73c 288a 80bd b419 0e3d 0de6 8bbc
00000040: 3189 e5bc 7f8b 683b 8303 68bc 2b95 4c3d
00000050: 7aa8 aa3d 95c8 5e3c 9805 b33d 74cb 453d
00000060: eab2 a23d 7aaa ae3d 83df b9bb 9935 a83d
00000070: e3d0 993d 74ac 163c 135e 7fbd e521 2d3c
00000080: d7cb f9bc 5a8e 3dbd bc76 a13d 019e b03d
00000090: c10e 103c 2665 eebc bb6e acbc ea17 303c
000000a0: f2fc 933d e0c4 93bd 06b1 71bd 4855 663c
000000b0: 5aca ee3c 28e5 5fbd 664c a93d b1cb 8b3d
000000c0: 1d9b 1d3d 24e7 b4bc 24f6 503d 29a1 123c
000000d0: 87cd 2c3d 5ae1 8a3c 76b0 c7bc a898 7fbb
000000e0: 35a5 b43d 589e af3d bb74 ed3c cbbf aabd
000000f0: 1f4f 9dbd 246f fe3b 19d2 18ba e0ca f83b
00000100: b3e5 9d3d 64d3 113d a9b0 ba3c 6872 b1bd
00000110: 7129 1c3d 1968 8f3c 159e 9abd e421 603d
00000120: 5e88 803d 654c 5cbd f1d2 973d fefd 313d
00000130: 8e47 23bc 0786 fbbc 0ff2 12bd 5429 403c
00000140: 6b48 ef3c 49d5 23bd 211f 213c 56f5 2abd
00000150: 00d6 0d3d 7598 eabc aebc 9dbc 6d12 a9bc
00000160: 0880 823c 9e76 703d cc50 6cbd 9e71 9cbd
00000170: d7eb d73c ba74 203d 9b0c 33bc 5a2b 3abb
00000180: 2f78 a73d b87a 113d 7d30 c0ba bb7a b03c
00000190: e701 30bc 9012 203d a0a0 ebbb 6b26 a6bd
000001a0: d763 a7bc 087f 29bd ad45 673d 2af7 95bd
000001b0: 8660 473d 3518 1cbd 5aeb 4fbd 9c20 a5ba
000001c0: a806 6bbd 6b5d 6fbd c096 193d 26d8 893d
000001d0: 87d1 c5bc 86a8 52bd 2911 263d 96d9 3abd
000001e0: 81cd 76bd 1704 023c d367 7a3c 3407 613d
000001f0: 8d5f 82bc c744 523d e99e 913c 6d5c b33d
00000200: bebd 71bd 08c8 a83d a18c 7cbd c110 8abd
00000210: 7553 07bc 8bd1 4bbd c47e 383d 1741 fe3b
00000220: 3332 cf3b 8113 8c3b 816e 573d f486 a0bd
00000230: 9657 6d3d 7d2d 743d 98cf 843c 10ff 7b3d
00000240: 92b2 9fbd f350 afbc d562 ae3c b519 4fbd
00000250: 8476 d9bc 87ef 1f3d dce1 273c 07f1 523d
00000260: 769f c0bc d495 7fbc 150f aabd 4f40 40bc
00000270: 78e8 aa3d 4e67 98bd 80c3 68bd 74c0 183d
00000280: 3845 2fbd 55b2 aa3d cdc3 333d 938d b1bd
00000290: 3e61 e0bc 9048 793d 3469 5fbd ddff a8bd
000002a0: 1076 d73c 134f 6ebd cda1 5e3d acda 8bbb
000002b0: 19cd 89bd 2806 5a3d ee88 4d3d d611 73bc
000002c0: 7c8a 453d 6669 a7bd 7a21 a33d 1098 543b
000002d0: 7a9c 573d 94e3 a23d 879b e63c 2b4d c9bc
000002e0: 6e29 18bd c54e a13d ac03 30b9 4de2 9d3d
000002f0: 7fee 32bd 8052 b33c 07fc 1a3c bc6d 28bc
00000300: 6e8b d73a be13 b0bd fb42 5abd 5ca1 0e3d
00000310: 7994 95bd 280d eebc 2e54 003d 52e0 373c
00000320: 0d30 d03c 0ded a13c c94f 493d 581a eb3c
00000330: 0bf8 3f3d 79a3 44bd 1037 7dbd 4679 8ebd
00000340: 52ad ab3d eb5c 263d 116a 8b3d a055 cabc
00000350: 3ee5 7b3d 9de3 303d fa24 b3bc ee03 963d
00000360: dfa9 353d 67f6 99bd 4a4c f23b 11f8 b83c
00000370: 1f8c de3c 5b09 b3bd ed1c 8ebd 19c5 08bc
00000380: 9468 e93c 0bb3 82bd cdb6 9cbd 4fb6 f73b
00000390: 69ff a0bd c5ad 42bb 2f11 dc3c ff74 1dbd
000003a0: fa90 b1bc 294b 773d 6e7e b73c 85f4 a1bc
000003b0: ead7 acb9 c92a 9f3c c1cb b1ba c7e4 aabd
000003c0: 6633 8b3c 16db 8f3d a501 b2bd 197a 883d
000003d0: 63d0 8dbd 695b 753c 54b8 49bd 99ce 7eba
000003e0: edf6 193c 121e cfbc b9d1 5b3c 8a60 07bd
000003f0: 554a a9bc 937e 93bd 21d3 e9bc 8cad 95bd
0.02661054 -0.007137853 0.05901862 -0.074300475 0.053229045 -0.08549196 -0.003168442 -0.020284519
0.08442115 0.07004733 0.07018119 0.028036958 0.024353744 -0.06276351 0.03469248 -0.01707747
-0.02801952 0.0035483537 -0.0141609935 0.049946945 0.083329156 0.013597627 0.08741301 0.04828973
0.079442814 0.085286096 -0.0056723966 0.08213348 0.07510545 0.0091963895 -0.062345576 0.010567163
-0.030492706 -0.046278335 0.07883975 0.08623887 0.00879258 -0.029100966 -0.021048894 0.010747889
0.0722598 -0.07215285 -0.059006713 0.014058419 0.029149223 -0.0546619 0.08266525 0.068259604
0.038478006 -0.022082873 0.051015988 0.008949556 0.042188194 0.01695316 -0.024376135 -0.0039000902
0.08820573 0.085751235 0.028986325 -0.08337363 -0.07681107 0.007764714 -0.0005829647 0.007592544
0.07709827 0.03560199 0.022789316 -0.086643994 0.03812546 0.017505692 -0.07549683 0.05471982
0.0627601 -0.053783793 0.07413281 0.043455116 -0.00996579 -0.030703558 -0.035875376 0.011728603
0.029209336 -0.039998326 0.009834082 -0.041737877 0.034627914 -0.02863715 -0.019255009 -0.020638669
0.01593019 0.058706872 -0.05769424 -0.07638858 0.026357574 0.03917382 -0.010928298 -0.0028407187
0.0817722 0.035517424 -0.0014662888 0.021542897 -0.010742641 0.039080203 -0.007190779 -0.081127964
-0.02043335 -0.041380912 0.056462932 -0.073225334 0.048676036 -0.038109023 -0.050761558 -0.0012598219
-0.057379395 -0.0584387 0.037497282 0.0673068 -0.024147762 -0.051430248 0.04054371 -0.045617662
-0.060254578 0.007935545 0.015283543 0.05493851 -0.015914703 0.051335122 0.01777597 0.08757863
-0.059018843 0.08241278 -0.06165755 -0.06741477 -0.008259644 -0.049760383 0.045042768 0.007759224
0.006323123 0.004274786 0.05259562 -0.0783824 0.057944857 0.059613694 0.01621227 0.061522543
-0.077977315 -0.021400904 0.021287361 -0.050561626 -0.02654577 0.03904679 0.01024672 0.051499393
-0.023513537 -0.015599687 -0.08303658 -0.011734082 0.08345121 -0.07441579 -0.05682707 0.037292913
-0.04279062 0.083347954 0.043887902 -0.08669581 -0.027390119 0.060860217 -0.05454369 -0.08251927
0.026301414 -0.05818088 0.054353524 -0.004268011 -0.067285724 0.053228527 0.050179414 -0.014835795
0.048227772 -0.081744 0.079653695 0.003243927 0.052639462 0.07953563 0.028150333 -0.02457293
-0.037148885 0.07876352 -0.00016786036 0.07709179 -0.04368448 0.021889925 0.009459502 -0.010280069
0.0016444752 -0.085975155 -0.053286534 0.034821853 -0.073037095 -0.029059008 0.03133028 0.011222916
0.025413537 0.019766355 0.049148355 0.028699085 0.04686741 -0.048007462 -0.06182009 -0.06956725
0.083826676 0.040615957 0.0680734 -0.024699032 0.06149792 0.04318582 -0.021868218 0.07324968
0.044351455 -0.07517701 0.0073943483 0.022579225 0.027166424 -0.08742019 -0.06939111 -0.008347773
0.02849225 -0.06381806 -0.07652054 0.0075595747 -0.078612156 -0.0029705625 0.026863663 -0.038441654
-0.021675576 0.060374413 0.022399154 -0.019769916 -0.00032967265 0.019429581 -0.0013564752 -0.08344417
0.016992282 0.07024209 -0.0869172 0.06663913 -0.06924512 0.014975407 -0.049248055 -0.00097201165
0.009397251 -0.025282893 0.013416701 -0.03305105 -0.020665327 -0.072018765 -0.028543057 -0.07308492

network.layer4.weight f4 [26, 256]
00000000: 58e4 00bc 703d f0bb 7462 533d 0086 3539
00000010: 38cd af3c b84a f43c f88a 173d c081 08bb
00000020: ce94 19bd e088 10bc da00 1bbd c05a 833a
00000030: 449a f43c 30aa 173c 1aaa 393d f006 0abd
00000040: 0e8d 183d 606d 293d 0c3e 773d 0046 9a3a
00000050: 9cc4 dabc a279 173d 0036 2abd 7cc9 75bd
00000060: 60d7 513c c043 0e3b 0042 05bc 16a0 793d
00000070: ec1e de3c ba01 68bd 047f 943c 10e7 d7bb
00000080: 8054 44bd 0423 37bd 400e 13bc 6efd 25bd
00000090: 4a54 07bd d255 3c3d 8015 413d b463 443d
000000a0: aa37 0ebd 0a84 463d 804f a6bb c8e8 453d
000000b0: 08cb 43bc 9ec4 0d3d e82f 0ebd 1a15 1a3d
000000c0: 04f8 513d 3635 7ebd a063 dbbb 3ec8 29bd
000000d0: f0ef 80bc 488b 01bc 4458 14bd 3cb5 adbc
000000e0: a87f d2bc 4268 373d a06b 2ebd d43c 28bd
000000f0: 9eac 403d 303a 943c c8ec 5bbc 92d7 46bd
00000100: 2c1c ac3c 3aab 333d eccb d23c 6e52 23bd
00000110: 862e 123d d81d 0abc 5a7d 723d f017 773c
00000120: 7244 58bd b2f0 37bd c652 38bd a8b6 42bc
00000130: 688d d8bc 5a1c 0d3d d87a 523c 86f5 373d
00000140: 20dc 7abb 0ebd 683d 388d 4a3d a089 cd3b
00000150: 5a4c 38bd 3053 8e3c 1891 493d 885a 05bd
00000160: 5405 45bd 7868 15bd 08d9 fa3c dc1a 213d
00000170: 1c7a b3bc 1a30 34bd 186a 7f3d bcbe 173d
00000180: 105a 8cbb 88dc 63bc d0cc dbbb f8be 45bc
00000190: f099 f23b b091 603d 8818 35bd e40b 2bbd
000001a0: a02d 663d b4d2 64bd 40e8 9fba 766b 13bd
000001b0: d808 013c 3888 adbc c00d 71bc 68ab cb3c
000001c0: 64ea fa3c 421a 433d 5a15 3cbd 3808 a5bc
000001d0: 5044 3d3d 887e 543d be0a 273d a04f c93c
000001e0: be5a 12bd 40e9 6dbc c01e f43a 0c43 57bd
000001f0: 3c8b 7dbd 8829 fa3c b04b a4bc f083 3abd
00000200: 6863 a5bc 9ae2 373d 6c75 623d c0ea dd3b
00000210: 1e55 5cbd 1015 febb c4c9 4ebd c040 8dbb
00000220: 0c3c 87bc 28c1 c23c 62b0 52bd 20a0 843b
00000230: 489b b03c 40b3 803b 2445 9fbc acbc d4bc
00000240: 5ce9 7d3d f059 41bc 5843 e1bc 3aa7 1e3d
00000250: 308f 603d 184f 7bbd 229c 34bd 200f a33c
00000260: 1aa4 2ebd d4c4 83bc 9c27 313d 6cb3 db3c
00000270: 8ecd 1e3d 40f4 d83c 023f 3a3d 9206 603d
00000280: 0645 4cbd 40ed d5bc 24e3 f23c 0480 64bd
00000290: 809f 3d3b 4ad8 003d 2c31 89bc 0461 153d
000002a0: 8437 ed3c 74b0 a9bc 7011 553d e0cc 18bb
000002b0: 0089 79bc 6831 053c 20f7 5ebd a4db fb3c
000002c0: 405b 7b3d 684e 93bc a088 6a3d 84e2 983c
000002d0: 284a 20bd e86a 68bd 48ab d0bc aca4 1dbd
000002e0: 20c5 353d 383f 493c 5a72 00bd 9073 65bd
000002f0: 520a 6bbd e0e9 ffbb 709d 4d3d 8218 2f3d
00000300: c06b 8d3c fc27 383d e257 13bd f603 05bd
00000310: 0002 a5ba 7453 c2bc e81a 663c 10fd 763c
00000320: b086 4f3c 604a 99bc 76cc 33bd 6c53 c4bc
00000330: 9e68 6c3d 00ba 6a3c 429e 783d 5cad 393d
00000340: 726b 133d 12f0 233d e0fa 5bbc 5add 11bd
00000350: f04c 67bc 8c01 0f3d ac77 fc3c d0cd 18bd
00000360: bc7e 1ebd 84db 8cbc 000c aab8 a004 eb3c
00000370: b6c2 5e3d ccff debc 00d8 953a 9862 ff3c
00000380: 0052 683b 2462 e23c 3825 cfbc 0055 b3bb
00000390: cc05 72bd 9417 b33c 6e65 6abd 68f7 4d3c
000003a0: 3c93 be3c d0c3 7dbc a48d f1bc e0b6 19bd
000003b0: 34eb f1bc 009f 8339 f4ec 423d 9c94 893c
000003c0: d088 793d 4880 333c 1caf 863c 6085 453b
000003d0: a09f 883b a6d7 1b3d 5c90 a33c 8423 80bc
000003e0: d0a1 e1bb 3ace 483d 12f7 0dbd 44db 053d
000003f0: ea50 4e3d 3462 cc3c a00b ac3b ac66 4fbd
-0.007866941 -0.0073315427 0.051607564 0.00017311424 0.02146016 0.029820785 0.036997765 -0.002082929
-0.037495427 -0.008821696 -0.03784261 0.0010021552 0.029858716 0.009256884 0.045328237 -0.033698022
0.037243895 0.041364074 0.060361907 0.0011770129 -0.026705079 0.036981232 -0.041555405 -0.060006604
0.012807697 0.0021707863 -0.008133411 0.060943685 0.027114354 -0.05664227 0.018126972 -0.006588824
-0.047932148 -0.044711128 -0.008975565 -0.040524893 -0.03303937 0.045980282 0.047139645 0.047946647
-0.034721054 0.048465766 -0.005075395 0.0483177 -0.011950262 0.034611337 -0.034713656 0.03761778
0.051261917 -0.062062465 -0.006695226 -0.04145073 -0.015739411 -0.007906742 -0.03621699 -0.021204583
-0.025695637 0.044777162 -0.042583108 -0.041073635 0.04703962 0.018094152 -0.013423152 -0.048545428
0.021009527 0.043864466 0.025732003 -0.039873533 0.0356889 -0.008429967 0.059201576 0.015081391
-0.05279965 -0.04490728 -0.045000814 -0.011884369 -0.026434615 0.034450866 0.012846671 0.044911884
-0.0038278177 0.05682092 0.049451083 0.0062725097 -0.04499469 0.017373651 0.049210638 -0.03255704
-0.048100784 -0.036476582 0.030621067 0.039332256 -0.021908812 -0.043991186 0.06235704 0.037047133
-0.004283197 -0.013907559 -0.006707765 -0.012069456 0.0074036047 0.05482644 -0.044212848 -0.041759387
0.056195855 -0.055865005 -0.0012199953 -0.035991155 0.007875644 -0.021183118 -0.014712751 0.024862006
0.030629344 0.047632463 -0.0459188 -0.02014552 0.046207726 0.051878482 0.04078173 0.024574101
-0.03573107 -0.014520943 0.0018624887 -0.052554175 -0.061900362 0.030537382 -0.020055622 -0.04553598
-0.020189002 0.04489384 0.055287763 0.006772369 -0.05379211 -0.0077539757 -0.050485387 -0.0043106973
-0.016508125 0.023773745 -0.051437743 0.0040474087 0.021558419 0.0039276183 -0.019442149 -0.025968872
0.061990127 -0.011801228 -0.027497932 0.0387337 0.054824054 -0.061354727 -0.044094212 0.019904673
-0.04263697 -0.016085066 0.043250665 0.026818953 0.03877025 0.026483655 0.045470245 0.054693766
-0.049870513 -0.026114106 0.029649325 -0.055786148 0.002893418 0.03145627 -0.01674708 0.036469474
0.028957136 -0.020714022 0.052018583 -0.0023315474 -0.015230417 0.008129455 -0.054434896 0.030744381
0.06136632 -0.017981723 0.057259202 0.018662699 -0.03913322 -0.05674258 -0.025472298 -0.03848712
0.044377446 0.012283139 -0.031359054 -0.056018412 -0.05738289 -0.0078098625 0.050198972 0.04274798
0.017263293 0.044960007 -0.035972483 -0.03247448 -0.0012589097 -0.023721434 0.014044501 0.015074983
0.012666389 -0.018712223 -0.04389616 -0.02396556 0.05771696 0.014326572 0.0606978 0.045331344
0.03599114 0.04002387 -0.0134265125 -0.035611488 -0.014117464 0.034913585 0.030818783 -0.037305653
-0.038695082 -0.017194517 -8.108467e-05 0.028688729 0.05438491 -0.027221583 0.0011432171 0.031174943
0.0035449266 0.027634688 -0.025286302 -0.0054727793 -0.05908756 0.021861829 -0.057225637 0.012571193
0.023263566 -0.01548858 -0.029486485 -0.03752792 -0.029531099 0.0002510473 0.047589257 0.016794495
0.06092149 0.010955878 0.01644092 0.0030139312 0.0041694194 0.038047455 0.019966297 -0.015641935
-0.0068857446 0.049024798 -0.034659453 0.03267981 0.050370134 0.02494917 0.0052504092 -0.050635025

network.layer4.bias f4 [26]
00000000: c078 4bbb a0ce 323c 00c2 18b9 a054 833b
00000010: 4e2e 1ebd 48ee 783d 802a 2c3d a21d 18bd
00000020: 5c2e 103d 268b 7a3d 98e1 3cbc e46d f0bc
00000030: 2013 0cbb 821d 65bd 06ed 6cbd 88ef 553c
00000040: 20b3 d6bb e666 5b3d 1035 a63b 7849 2c3c
00000050: b0df 0cbd b467 aebc 6a36 673d 5424 4cbd
00000060: 50f3 f53b d4dc 16bd
-0.0031047314 0.010913521 -0.0001456812 0.004007891 -0.03861838 0.060774118 0.04203272 -0.037137635
0.03520046 0.06116786 -0.011528395 -0.029349275 -0.0021373704 -0.055936344 -0.05784323 0.013057597
-0.006552115 0.05356493 0.0050722435 0.010515563 -0.034393013 -0.021289684 0.056448378 -0.049839333
0.0075058118 -0.03683169
