DDQN_panda_env2/runs/results_2/best-model.pt (torch, 162903 bytes, 6 tensors)

network.layer1.weight f4 [128, 3]
0	0x3e4335c4	0.19063479
1	0xbf2d2fed	-0.67651254
2	0xbe8cff2a	-0.27538425
3	0xbe88a8d0	-0.26691294
4	0x3eb8e6ae	0.36113495
5	0x3e0d1bd7	0.13780151
6	0xbf6c2a0a	-0.92251647
7	0x3ee32572	0.44364506
8	0xbc1b5eb6	-0.00948303
9	0xbf62f8d2	-0.8866092
10	0x3f0ef7ad	0.55846673
11	0xbebc94ee	-0.36832374
12	0xbf93e53d	-1.1554333
13	0xbe44a055	-0.19201787
14	0x3ed3f972	0.4140125
15	0xbf6f0f4b	-0.9338271
16	0xbed7dea9	-0.42162064
17	0x3f0f1bb6	0.5590166
18	0xbe8c08ff	-0.27350613
19	0xbdaa654c	-0.08320102
20	0x3f277d28	0.6542535
21	0xbf0a74c1	-0.540844
22	0xbe42afb7	-0.19012342
23	0x3f34ebfd	0.7067259
24	0xbd81d14b	-0.063387476
25	0xbdd86b81	-0.1056738
26	0xbec5e6d6	-0.38652676
27	0xbf200604	-0.6250918
28	0x3e7109ce	0.23538896
29	0x3f37bf68	0.7177644
30	0xbe005974	-0.12534124
31	0x3ec2499a	0.3794678
32	0x3db110fb	0.08645817
33	0x3eae3833	0.34027252
34	0xbf7ca82e	-0.9869412
35	0x3ed9eadb	0.42561993
36	0xbf53c5da	-0.8272377
37	0x3eaa2683	0.33232507
38	0x3eefacac	0.46811426
39	0xbf30a833	-0.6900665
40	0x3d8a0732	0.06739654
41	0x3f2167b8	0.6304889
42	0x3e7d7bb3	0.24754219
43	0x3e99b37c	0.30019748
44	0xbee4c2a4	-0.4467975
45	0xbea87756	-0.32903546
46	0x3f21f19c	0.6325929
47	0x3f0aa1a8	0.5415292
48	0xbece8d8e	-0.40342373
49	0xbeeaa5e9	-0.45829704
50	0x3ef62e57	0.4808223
51	0xbeb72038	-0.35766768
52	0x3e841d28	0.25803494
53	0xbee2fd2b	-0.44333777
54	0xbf7ab9ba	-0.97939646
55	0xbf5b3135	-0.8562196
56	0x3eeb9077	0.46008655
57	0x3eaebbc4	0.3412763
58	0xbf5360d6	-0.82569635
59	0x3ee8a612	0.45439202
60	0xbf431ccb	-0.7621581
61	0xbe8234fa	-0.25431043
62	0x3e82fabc	0.2558192
63	0x3edf8eeb	0.43663725
64	0x3ea3ded9	0.32005957
65	0xbdf04c2a	-0.11733277
66	0xbf2c05ef	-0.67196554
67	0xbe679eed	-0.22619219
68	0x3e8a419c	0.2700318
69	0xbf94a8d7	-1.1614026
70	0x3eafe190	0.34351778
71	0x3a82f919	0.000999245
72	0x3d59d425	0.053180832
73	0x3f1216bd	0.57065946
74	0x3f05f48c	0.52326274
75	0x3f730726	0.9493278
76	0x3e85d493	0.26138744
77	0x3ecc2a43	0.39875993
78	0xbf9e3424	-1.2359662
79	0x3ee53b8a	0.44771987
80	0x3d503429	0.050830994
81	0xbf57d0ee	-0.84303176
82	0x3d87c84f	0.06630003
83	0x3f2df3a2	0.6794988
84	0x3f1333b4	0.5750077
85	0xbf391486	-0.7229694
86	0xbeadb1f0	-0.33924818
87	0xbd3a7499	-0.045521352
88	0xbe810981	-0.25202563
89	0x3e5834d8	0.21113908
90	0xbda82888	-0.08210856
91	0x3f0bd3ae	0.5461987
92	0x3f3ae28a	0.7300192
93	0xbf96259d	-1.1730229
94	0xbe0db2be	-0.13837716
95	0x3e8349f5	0.25642362
96	0x3da28157	0.07934826
97	0xbf295483	-0.6614458
98	0xbe9330a4	-0.28748047
99	0xbf513724	-0.8172476
100	0xbc5b188e	-0.0133725535
101	0x3f0b81d6	0.5449499
102	0xbe22e615	-0.15908082
103	0x3eafd96d	0.3434557
104	0xbf09d49d	-0.5384005
105	0xbd9a82dd	-0.075444914
106	0x3ad4422a	0.0016194035
107	0xbf348c05	-0.7052615
108	0xbf34531d	-0.7043932
109	0xbdb74e80	-0.089505196
110	0x3f1995be	0.59994113
111	0xbe84dd61	-0.2595015
112	0xbdfd80dc	-0.123780936
113	0x3f29932c	0.6624019
114	0xbed392b0	-0.4132285
115	0x3f446b22	0.7672597
116	0x3e6fe14d	0.23425789
117	0x39dc2fdc	0.00041997328
118	0x3d5ccb9a	0.053905107
119	0xbeec7ed3	-0.4619051
120	0x3bfb05e8	0.007660616
121	0x3eb3a65f	0.3508787
122	0x3f0a20a5	0.5395606
123	0xbe7c08e5	-0.24612768
124	0xbddf7ca7	-0.109124474
125	0xbc009003	-0.007846835
126	0xbecfe615	-0.40605226
127	0xbe524762	-0.20535043
128	0x3f0417fd	0.51599103
129	0xbdfc8604	-0.12330249
130	0x3c81da24	0.015851088
131	0xbe42c5e4	-0.19020802
132	0xbf888cc9	-1.0667964
133	0xbba7b4d5	-0.0051179924
134	0x3f245597	0.641931
135	0xbea930e9	-0.33045128
136	0xbec2921b	-0.38002095
137	0x3e44c25c	0.19214767
138	0x3ee66993	0.45002422
139	0xbef4b47b	-0.47793946
140	0x3eed964b	0.46403727
141	0xbec36cc8	-0.3816893
142	0x3e889e19	0.2668312
143	0xbef883a5	-0.48537937
144	0xbe92f71b	-0.28704152
145	0xbc04c7f5	-0.008104314
146	0x3ebc011e	0.36719602
147	0xbe2465a9	-0.16054405
148	0x3f0c5e08	0.5483098
149	0x3d5fdee3	0.05465592
150	0x3ec5479a	0.3853119
151	0x3e64b1c0	0.22333431
152	0x3ed138f5	0.40863767
153	0xbdc6d416	-0.09708421
154	0xbf0ea03c	-0.5571325
155	0xbe80d9ea	-0.25166255
156	0x3f145bba	0.57952464
157	0xbf53e22a	-0.82766974
158	0x3ee48c7e	0.44638437
159	0xbf34f1a2	-0.706812
160	0x3ef7f18d	0.48426476
161	0xbd4e0f08	-0.050307304
162	0xbf88a21a	-1.067447
163	0xbe32539c	-0.17414707
164	0x3eeb090b	0.45905337
165	0xbf2cb85a	-0.674688
166	0x3de8513f	0.113436215
167	0xbe4c4e50	-0.19951749
168	0xbf5f31f5	-0.87185603
169	0x3ee2405b	0.44189724
170	0x3e134b73	0.1438425
171	0xbf321d4d	-0.6957596
172	0x3c97ab34	0.018514253
173	0x3e8b3405	0.27188125
174	0xbf9153a6	-1.1353652
175	0x3f3e537f	0.74346155
176	0x3eaedb89	0.34151867
177	0xbe91d6a9	-0.28484085
178	0xbe049d65	-0.12950666
179	0x3f0137ea	0.50475943
180	0xbf45a647	-0.77206844
181	0x3d8c25d0	0.0684315
182	0x3ef79e39	0.48362902
183	0x3c38deb7	0.011283568
184	0xbf199301	-0.59989935
185	0xbe81bf12	-0.25341088
186	0xbf244a22	-0.6417562
187	0x3da6465b	0.08118888
188	0x3ec99671	0.3937259
189	0x3c57af2e	0.013164325
190	0x3e479cfc	0.19493479
191	0xbe2ffa51	-0.17185332
192	0xbf496565	-0.7867034
193	0x3e935b20	0.2878046
194	0xbe703eae	-0.2346141
195	0xbe39516d	-0.18097468
196	0x3f073d90	0.5282831
197	0xbf0559ce	-0.52090156
198	0x3da24930	0.07924116
199	0x3ef7d80d	0.4840702
200	0xbeead564	-0.4586593
201	0xbe861127	-0.2618496
202	0xbf6dba9c	-0.9286287
203	0x3ebc4633	0.36772308
204	0xbd2fa4df	-0.042881843
205	0x3c81e7d0	0.015857607
206	0x3f1cc15f	0.6123256
207	0xbed0acca	-0.40756828
208	0xbe7176b7	-0.23580442
209	0x3f4b9f06	0.79539526
210	0xbf1feac5	-0.62467605
211	0x3b76739e	0.0037605534
212	0x3ed826d4	0.42217124
213	0xbf5c376e	-0.8602208
214	0xbef63ebd	-0.4809474
215	0x3daf377f	0.08555507
216	0xbe01d6ad	-0.12679549
217	0x3af7fd0e	0.0018920021
218	0xbeaad653	-0.3336664
219	0xbf8bc7d8	-1.0920362
220	0xbc36d555	-0.011159261
221	0x3f031515	0.51204044
222	0xbed66f0f	-0.41881606
223	0xbdb7188f	-0.08940231
224	0x3f192b12	0.59831345
225	0x3e7fbfd4	0.2497552
226	0xbf40e866	-0.7535461
227	0x3efa0045	0.4882833
228	0x3e29e3d2	0.16590813
229	0xbf2e4dfc	-0.68087745
230	0x3f028b58	0.5099387
231	0x3ed07522	0.40714365
232	0xbc94a64f	-0.018145708
233	0xbedb8db7	-0.42881557
234	0xbf0b8962	-0.54506505
235	0xbeb5ec03	-0.35531625
236	0xbe381989	-0.17978491
237	0xbede6bf4	-0.43441737
238	0x3eafa75a	0.34307367
239	0x3def93b5	0.11698095
240	0xbe934739	-0.28765276
241	0xbea5feb1	-0.32420877
242	0x3f25207e	0.64502704
243	0xbeb497e4	-0.35272133
244	0x3eb51e6c	0.35374773
245	0x3e177eb9	0.14794435
246	0xbf3fa182	-0.74855816
247	0x3f0988db	0.5372445
248	0x3e92bdc4	0.28660405
249	0x3ef99cf7	0.48752567
250	0x3ecaaada	0.39583474
251	0xbe809eb1	-0.25121072
252	0x3f1f46f4	0.6221764
253	0x3ed3ed15	0.41391817
254	0x3ebbbf07	0.3666918
255	0xbd884663	-0.0665405

network.layer1.bias f4 [128]
0	0x3f402670	0.7505865
1	0xbc8d61de	-0.01725858
2	0x3e4d37d7	0.20040832
3	0xbe7e0707	-0.24807368
4	0x3f08d9c8	0.5345731
5	0xbe3fdba0	-0.18736124
6	0xbecf3435	-0.40469518
7	0x3e397f73	0.18115024
8	0xbef6eafc	-0.48226154
9	0x3f42db1e	0.76115596
10	0x3f3999f8	0.7250056
11	0x3f1495d0	0.58041096
12	0x3f509509	0.8147741
13	0xbc362062	-0.011116119
14	0xbf04e913	-0.51918143
15	0xbe06a085	-0.13147171
16	0x3b73052b	0.0037081938
17	0xbf0442d3	-0.51664466
18	0x3f0dbfdb	0.55370873
19	0x3e09cd5a	0.13457242
20	0x3ed3c09b	0.41357884
21	0xbf012bfa	-0.5045773
22	0x3f4f260a	0.8091742
23	0x3c8e5a77	0.017377121
24	0x3f26e9fc	0.6520078
25	0x3e485e4c	0.19567221
26	0xbd88b02a	-0.06674226
27	0x3f08df32	0.5346557
28	0x3e671158	0.2256521
29	0x3dc57feb	0.09643539
30	0x3f0f3d1a	0.5595261
31	0x3dac1835	0.084030546
32	0x3f9a3315	1.2046839
33	0x3dfa9562	0.12235524
34	0xbf139249	-0.5764509
35	0xbdf43fbd	-0.119262196
36	0x3c7e6cc5	0.015528862
37	0xbe409062	-0.18805078
38	0x3ead07a4	0.33794892
39	0xbf0650ba	-0.5246693
40	0x3f54a3e9	0.8306261
41	0x3f36df81	0.7143479
42	0xbeaa5e9d	-0.3327531
43	0x3f96bd63	1.1776546
44	0x3d306849	0.043068204
45	0x3ecf94e6	0.40543288
46	0x3f190dd5	0.5978673
47	0xbf0e62e2	-0.55619633
48	0x3db8b8f8	0.09019655
49	0x3f262ab9	0.6490894
50	0xbf1ee5b7	-0.6206927
51	0x3f6a40b5	0.91504985
52	0x3f70dd38	0.94087553
53	0x3f32e588	0.69881487
54	0xbe6487b5	-0.22317393
55	0x3f875ff7	1.0576161
56	0xbdec472e	-0.11537014
57	0x3e8a3d3e	0.2699985
58	0xbe7a52b8	-0.24445617
59	0x3db11419	0.086464114
60	0x3e74798c	0.23874491
61	0x3f6619a9	0.89882904
62	0x3f2bed25	0.6715873
63	0xbdf0fdcf	-0.1176716
64	0x3f5b3aa0	0.8563633
65	0xbeaed810	-0.34149218
66	0xbee51666	-0.4474365
67	0x3f3e7dee	0.74410903
68	0x3f41016f	0.7539281
69	0x3f2bbb48	0.67082644
70	0x3ef11680	0.4708748
71	0x3f2b34ca	0.66877425
72	0xbe929bcf	-0.28634498
73	0xbe40e495	-0.18837197
74	0x3ed8c7d3	0.42339954
75	0x3fa0fbf9	1.2576896
76	0x3f88a578	1.0675497
77	0xbeb44988	-0.3521235
78	0x3f6dd1f9	0.9289852
79	0x3f454c23	0.770693
80	0x3ef576ce	0.47942203
81	0x3f2eade6	0.682341
82	0xbebd39d3	-0.3695818
83	0xbf097258	-0.536901
84	0xbe44c316	-0.19215044
85	0x3f994b5c	1.1976123
86	0x3ac311bb	0.0014882603
87	0x3edc3109	0.4300616
88	0x3eaa417e	0.33253092
89	0xbe837a52	-0.2567926
90	0xbe62f01f	-0.22161911
91	0xbea507d9	-0.3223255
92	0x3f371827	0.7152123
93	0x3f1f1a29	0.6214929
94	0x3f6bfd22	0.92183125
95	0x3f145b27	0.5795159
96	0x3eb4055a	0.35160333
97	0x3e46c06d	0.19409342
98	0xbe99e89e	-0.30060285
99	0x3e576a5f	0.21036671
100	0x3e9628f7	0.2932813
101	0x3f51cbe5	0.81951743
102	0xbf151e22	-0.58249104
103	0x3f67e67a	0.90586054
104	0x3da1ccd3	0.07900395
105	0x3f1d0d34	0.6134827
106	0x3f0eae5a	0.5573479
107	0x3eaa0d08	0.33213067
108	0x3dd593ab	0.10428556
109	0xbe885e10	-0.26634264
110	0x3e8d8add	0.27645007
111	0x3f4f437a	0.80962336
112	0x3f16fffd	0.5898436
113	0x3f01b45a	0.5066582
114	0xbeaf10ae	-0.34192413
115	0x3f086bfe	0.53289783
116	0x3f1020b7	0.5629992
117	0xbeb542b9	-0.35402468
118	0x3ec58d94	0.38584578
119	0x3f16c9d8	0.5890174
120	0x3f53dad7	0.827558
121	0x3e333a09	0.17502607
122	0x3e8e484a	0.27789527
123	0xbbbb837e	-0.005722462
124	0x3ea778c6	0.3270933
125	0xbce08d23	-0.02741105
126	0xbe34e51a	-0.1766552
127	0x3e8ba4b7	0.27274105

network.layer2.weight f4 [256, 128]
0	0x3d7a27c7	0.06107309
1	0x3d440681	0.047857765
2	0xbd9e6272	-0.07733621
3	0xbb729388	-0.0037014205
4	0x3d8a4ff8	0.06753534
5	0xbd973b0a	-0.07384308
6	0xbc25d8ac	-0.010122459
7	0xbca5bb25	-0.020230839
8	0x3cb4b4ea	0.022058923
9	0xbc53c29f	-0.012924819
10	0xbd982584	-0.074290305
11	0x3d9f0a83	0.07765677
12	0x3d8f31b1	0.069919
13	0xbd09bf07	-0.033629443
14	0xbda80923	-0.08204868
15	0xbd904f0d	-0.07046328
16	0xbd822e85	-0.06356529
17	0xba147b3b	-0.0005664115
18	0xbd8e8394	-0.0695869
19	0xbd851f3b	-0.06500097
20	0x3bab22a5	0.005222636
21	0xbc8f602b	-0.017501911
22	0xbd3f08c8	-0.046639234
23	0xbcb8cc73	-0.022558426
24	0xbd9686ea	-0.073499516
25	0x3d8c4688	0.0684939
26	0xbda6b163	-0.081393026
27	0xbd771371	-0.060321275
28	0x3c56eadf	0.013117521
29	0xbc8f87fb	-0.017520895
30	0xbc9f667b	-0.019458046
31	0xbd04ebe9	-0.032451544
32	0xbd041934	-0.032250598
33	0x3d64b830	0.055839717
34	0xbd26ce41	-0.040724043
35	0x3da24ad6	0.0792443
36	0xbd98a9de	-0.074542746
37	0x3d22a011	0.039703432
38	0xbd8d8c88	-0.0691157
39	0xbc987654	-0.01861111
40	0xbd48d4d4	-0.049031094
41	0xbd550ba9	-0.052013073
42	0xbb900541	-0.0043951576
43	0xbd927b05	-0.0715237
44	0x3b1a4dd0	0.0023544915
45	0xbbcbf5dd	-0.0062243775
46	0x3d36b2db	0.044604164
47	0xbd86663b	-0.06562468
48	0xbda8ff87	-0.08251863
49	0xbd730842	-0.059334047
50	0xbd11108d	-0.035416175
51	0x3d2b0ee9	0.041762266
52	0xbd36837d	-0.04455899
53	0xbda3fe19	-0.0800745
54	0x3d90b9d8	0.07066697
55	0x3d6ca12c	0.057770893
56	0x3ca15cd9	0.019697594
57	0x3d9e124a	0.07718332
58	0xbc38ac0e	-0.01127149
59	0xbb0b2868	-0.00212338
60	0xbb030b44	-0.0019995729
61	0xbd8d8212	-0.069095746
62	0xbca00743	-0.019534713
63	0xbd49d1b2	-0.049272247
64	0x3cc16155	0.023605982
65	0xbcd975be	-0.026545402
66	0x3d0bd76c	0.03414099
67	0xbc899945	-0.016796717
68	0x3d76ce21	0.060255174
69	0xbb922ecb	-0.0044611446
70	0xbbe88fb4	-0.007097209
71	0xbda2852d	-0.079355575
72	0xbd1efbed	-0.038814474
73	0xba378b3f	-0.0007001645
74	0x3d084ed7	0.033278313
75	0xbc9e967e	-0.01935887
76	0xb9ab5185	-0.00032676398
77	0x3ce4b668	0.02791901
78	0x3d9c6a3c	0.0763745
79	0x3d3ecb12	0.04658038
80	0xbc9d305a	-0.019188095
81	0xbd2ebad1	-0.04265863
82	0x3d169d6d	0.036771227
83	0xbba5a658	-0.00505523
84	0x3d8e9c94	0.06963459
85	0x3d62cf2e	0.055373363
86	0xbc5a6b70	-0.013331279
87	0x3d7f7b65	0.062373538
88	0x3d1af5fa	0.037832238
89	0xbd855cf7	-0.06511872
90	0x3d396157	0.045258846
91	0xbd8b6663	-0.06806638
92	0xbc9d1683	-0.019175773
93	0xbdb31320	-0.08743882
94	0x3d2bb820	0.041923642
95	0xbd8c0e5f	-0.068386786
96	0xbc2a5209	-0.010395535
97	0x3c25c766	0.010118341
98	0xbcf51fc5	-0.029922375
99	0xbd3364fc	-0.043797478
100	0x3d89f806	0.0673676
101	0x3da2feac	0.07958731
102	0x3d8646e3	0.06556489
103	0xbd0f9d30	-0.035062015
104	0x3cd056a8	0.025431946
105	0xbd9c2cd2	-0.07625736
106	0xbd8f58ba	-0.06999345
107	0xbd8557c0	-0.065108776
108	0xbd7b7563	-0.061391246
109	0xbcfb3746	-0.030666005
110	0xbd92888a	-0.07154949
111	0xbd40f905	-0.047112484
112	0xbca32850	-0.019916683
113	0x3caf467a	0.02139591
114	0xbda2b85a	-0.079453185
115	0x3a718faf	0.0009214831
116	0x3d12fb23	0.035884034
117	0x3d82397e	0.06358622
118	0xbd91c9be	-0.071185574
119	0x3cd933e6	0.026514005
120	0x3d7d97de	0.06191241
121	0xbdaca77e	-0.08430384
122	0x3c8997fb	0.016796103
123	0x3cb8f83f	0.02257931
124	0xbd1acf09	-0.0377951
125	0x3db12d7b	0.08651253
126	0xbd553e33	-0.05206127
127	0x3d245dc8	0.0401285
128	0x3f902d74	1.1263871
129	0x3e7302c3	0.23731522
130	0x3eebe604	0.46073925
131	0xbe99efb5	-0.30065694
132	0x3df5732f	0.1198486
133	0x3e47f633	0.19527511
134	0xbb93089c	-0.0044871103
135	0x3e1fd80a	0.15609756
136	0x3da179f8	0.07884592
137	0x3e2c5798	0.1683029
138	0x3e315296	0.1731666
139	0xbf238021	-0.63867384
140	0x3e2e71ef	0.1703565
141	0x3e273384	0.16328245
142	0xbd454dc3	-0.048169862
143	0x3d977b37	0.07396548
144	0xbf0efc1d	-0.55853444
145	0xbca4c9a8	-0.020115688
146	0xbe460cca	-0.19340816
147	0xbf43cdc9	-0.7648588
148	0x3e27d85d	0.1639113
149	0xbcac686f	-0.021045892
150	0x3e143a64	0.144754
151	0x3f0293b7	0.51006645
152	0x3d8f0303	0.06982996
153	0xbf168e49	-0.5881086
154	0x3ef93ef0	0.4868083
155	0x3e2b0b38	0.16703498
156	0x3f8d7b13	1.1053184
157	0x3e008826	0.12551937
158	0xbc98ae68	-0.01863785
159	0x3e869ee3	0.26293096
160	0x3f984df1	1.1898786
161	0x3d8ee735	0.06977693
162	0x3db6905d	0.08914254
163	0xbd5baa4c	-0.053629205
164	0x3d9ea973	0.077471636
165	0x3dc626b5	0.096753515
166	0x3e7da9ca	0.247718
167	0x3d503d06	0.050839446
168	0x3d6a207d	0.05715989
169	0x3e0fd647	0.14046584
170	0x3e0fe8d0	0.14053655
171	0x3f266d97	0.6501097
172	0x3df66ce6	0.120324895
173	0xbeacf291	-0.33778813
174	0xbf25afc5	-0.6472133
175	0xbd67ea2f	-0.05661982
176	0x3d7431bf	0.059617754
177	0x3ec8cfea	0.39221126
178	0xbf1163e5	-0.5679305
179	0x3f8959e0	1.0730553
180	0xbf02a381	-0.5103074
181	0x3eb58e1f	0.35459992
182	0x3e41f1bb	0.18939869
183	0x3f2bbbf2	0.67083657
184	0x3e978a97	0.29597923
185	0x3e865e71	0.26243928
186	0x3ed5be6b	0.4174684
187	0x3e0573ac	0.13032407
188	0x3e18bb2d	0.14915152
189	0x3fa1de81	1.2646028
190	0x3db2d776	0.08732502
191	0x3d957fcb	0.07299765
192	0x3f4f8916	0.8106855
193	0x3dc4044b	0.09571131
194	0x3d15eb4b	0.036601346
195	0xbee82147	-0.4533789
196	0xbcc5f7b7	-0.024165971
197	0x3d9690f7	0.073518686
198	0x3e3bafc5	0.1832877
199	0x3e19bdd2	0.15013817
200	0xbd84b8aa	-0.064805344
201	0x3e74275c	0.2384314
202	0x3e297f6d	0.16552515
203	0xbedb8a2c	-0.42878854
204	0xbee14c3e	-0.4400348
205	0xbd97195a	-0.07377882
206	0x3ed7d19a	0.421521
207	0x3e39e86e	0.18155071
208	0x3d86f5d7	0.06589859
209	0x3e568237	0.2094811
210	0x3ecc3975	0.39887586
211	0x3d1de83c	0.038551554
212	0xbec60f1f	-0.3868341
213	0x3f8b076a	1.0861638
214	0xbb56be9e	-0.0032767425
215	0x3e59879f	0.21243142
216	0x3fa1fa0c	1.2654433
217	0x3f095f31	0.53660876
218	0x3f0b0619	0.5430618
219	0x3e1ab6cb	0.15108792
220	0x3e90c8b8	0.28278136
221	0x3eb43fc1	0.3520489
222	0xbf121420	-0.5706196
223	0x3e56487b	0.20926087
224	0x3d98ed06	0.07467084
225	0x3e94d0d9	0.29065588
226	0x3e39d0d8	0.18146074
227	0x3c9ce761	0.019153299
228	0x3e3ac7e6	0.18240318
229	0x3e0db90a	0.13840118
230	0x3d8fc511	0.07020009
231	0x3f945112	1.1587241
232	0x3e54a048	0.20764267
233	0x3d18b5b3	0.037282657
234	0x3e6ec56e	0.23317501
235	0x3e726806	0.23672494
236	0x3e097222	0.13422444
237	0x3e336c1f	0.17521714
238	0x3d754b7c	0.05988644
239	0x3d82b33d	0.06381843
240	0x3f22dd69	0.63619095
241	0x3f5c4e72	0.860572
242	0x3e7d9c7d	0.24766727
243	0xbf4f7d89	-0.81050926
244	0x3dcb16b8	0.09916443
245	0xbed7bb59	-0.42135122
246	0x3d9a3e2b	0.07531389
247	0x3e19718c	0.14984721
248	0x3e7ea27d	0.24866672
249	0xbf1b9c87	-0.60785717
250	0x3e2c1dbb	0.16808216
251	0x3e59baa9	0.21262611
252	0x3db6978b	0.08915623
253	0x3f128198	0.57228994
254	0xbed6ad2d	-0.41928998
255	0xbf2e6eb6	-0.6813768

network.layer2.bias f4 [256]
0	0xbcf6b258	-0.030114338
1	0x3d629214	0.055315092
2	0x3d89c2c8	0.06726605
3	0x3e523106	0.20526513
4	0x3ebcf921	0.3690882
5	0x3e4bd059	0.19903697
6	0x3ddee253	0.10883012
7	0x3c566622	0.013085874
8	0x3dd41c9d	0.1035702
9	0x3e35a077	0.17736994
10	0x3df3d042	0.119049564
11	0x3d28b93a	0.04119227
12	0x3e498e9a	0.19683304
13	0x3d1a2f4f	0.037642773
14	0xbd6ee252	-0.058321305
15	0x3dbd55aa	0.09244855
16	0xbd65ebf4	-0.056133226
17	0xbdc3f2ff	-0.09567832
18	0x3d8ec886	0.069718406
19	0x3dc5a494	0.096505314
20	0x3e54cc49	0.20781054
21	0x3e1087dc	0.14114326
22	0xbe24d930	-0.16098475
23	0x3e6a6654	0.22890598
24	0x39761e77	0.00023471737
25	0x3e89e63f	0.26933476
26	0xbde39a45	-0.11113409
27	0x3deecfb2	0.116607085
28	0x3e5a7b1f	0.2133603
29	0x3e35aa3a	0.17740718
30	0x3e9671be	0.29383653
31	0x3cc1313d	0.023583049
32	0x3e100add	0.14066644
33	0x3ea3d20e	0.31996197
34	0xbb5dca31	-0.003384244
35	0x3e6dd461	0.23225547
36	0xbd2a17da	-0.041526653
37	0xbd9a6cde	-0.07540296
38	0x3ebc90ad	0.3682913
39	0xbb357a43	-0.0027691282
40	0x3e73610e	0.23767492
41	0x3d6fe803	0.058570873
42	0x3efafc61	0.49020675
43	0x3db2129c	0.08694956
44	0x3d4829c9	0.048867974
45	0xbd4d6f4c	-0.05015497
46	0x3da68a39	0.08131833
47	0x3e2bbeee	0.16772053
48	0x3e4cae36	0.19988331
49	0x3f292428	0.66070795
50	0x3b13b168	0.0022536162
51	0xbd504c53	-0.05085404
52	0x3d2bf37e	0.04198026
53	0x3cd0503d	0.025428886
54	0xbd99d257	-0.07510822
55	0x3e480a93	0.19535284
56	0x3eb270a1	0.34851554
57	0x3e853043	0.26013383
58	0x3e251fea	0.16125455
59	0x3d16d6d7	0.03682598
60	0x3bd14f43	0.0063876226
61	0x3efa0be0	0.48837185
62	0xbd1e399d	-0.038629163
63	0xbe02e56f	-0.12782834
64	0x3e7b63e0	0.24549818
65	0xbd0dc737	-0.034613814
66	0x3daa2933	0.083086394
67	0xbd053c72	-0.03252835
68	0xbde22f01	-0.110441215
69	0x3e0682e3	0.13135867
70	0x3e64009f	0.22265862
71	0x3e93962b	0.28825507
72	0xbd02a203	-0.031892788
73	0xbdfd83c3	-0.12378647
74	0x3e81417e	0.2524528
75	0xbd0f96d5	-0.035055954
76	0x3cdcc8cf	0.026951222
77	0x3ca62530	0.020281404
78	0x3e90a0c5	0.28247657
79	0x3e01cf23	0.12676673
80	0xbdefb8e2	-0.117051855
81	0xbe10b11a	-0.14130059
82	0xbcd84522	-0.026400153
83	0x3ea5517f	0.3228874
84	0x3decfaa8	0.115712464
85	0x3d305385	0.0430484
86	0x3d064f60	0.03279054
87	0x3dbd9cbe	0.09258412
88	0x3f05352e	0.5203427
89	0x3dd66c4c	0.10469875
90	0x3d7628e6	0.060097598
91	0x3dfa2563	0.12214162
92	0x3eb38710	0.35063982
93	0x3be40130	0.0069581494
94	0xbba69541	-0.0050837104
95	0x3e20cdde	0.15703532
96	0xbd7366f4	-0.059424356
97	0xbd4f89d6	-0.05066856
98	0xbbc918db	-0.006136996
99	0x3cf82734	0.030292131
100	0x3e0a4850	0.13504148
101	0xbda43794	-0.08018413
102	0x3e1ecc8e	0.15507719
103	0x3e8d2421	0.27566627
104	0x3d4509a3	0.048104893
105	0x3d69f477	0.057117905
106	0x3e48e9f1	0.19620492
107	0x3e21a88f	0.15786956
108	0x3dcdcb6b	0.100485645
109	0xbe8e57bf	-0.2780132
110	0xbea6c3ec	-0.32571352
111	0x3d923dbd	0.07140682
112	0xbdddce73	-0.10830393
113	0x3f0868cf	0.53284925
114	0x3e2cbfac	0.16869992
115	0xbe852ca6	-0.26010627
116	0x3df94cfe	0.12172888
117	0x3e5dd905	0.21664818
118	0x3e02a52b	0.12758319
119	0x3e70ce4e	0.23516199
120	0xbc6e0994	-0.014528651
121	0xbcc53854	-0.02407471
122	0xbbd291f0	-0.0064260885
123	0x3c63f0b6	0.01391237
124	0x3e4d1085	0.20025833
125	0x3d47ae79	0.048750374
126	0xbdb9ee70	-0.090786815
127	0xbd76a7df	-0.060218688
128	0x3d9da790	0.07697976
129	0x3d8f78ff	0.070055
130	0xbdaa519d	-0.08316348
131	0x3e05459d	0.13014837
132	0xbca7fa9c	-0.020505242
133	0x3e2e245e	0.1700606
134	0x3d470b29	0.048594628
135	0x3e4cbd10	0.19993997
136	0xbd913c25	-0.0709155
137	0x3d98ad36	0.07454912
138	0x3dc3480f	0.095352285
139	0xbb3b3df5	-0.0028570865
140	0x3d3f90ab	0.046768826
141	0x3db6ad81	0.08919812
142	0xbdad7378	-0.084692895
143	0x3e6916f0	0.22762656
144	0xbd8a684b	-0.067581736
145	0x3e4b2ed6	0.19842085
146	0xbda808be	-0.082047924
147	0x3e6b949b	0.23005907
148	0x3e1e852e	0.15480492
149	0x3c0e8ea9	0.008701005
150	0x3e638908	0.22220242
151	0x3daad8eb	0.08342155
152	0x3ebd7f69	0.3701127
153	0x3d80229e	0.06256603
154	0xbcd72e29	-0.026267128
155	0x3ec4539e	0.38345045
156	0x3e36711e	0.17816588
157	0x3e75fb9c	0.24021763
158	0x3d50c2a0	0.05096686
159	0x3d8d93b5	0.069129385
160	0x3d21100c	0.039321944
161	0x3eec3772	0.4613605
162	0xbe09c59e	-0.13454291
163	0x3d855577	0.06510442
164	0x3dfeb027	0.12435942
165	0x3c5ae693	0.013360637
166	0xbded162d	-0.11576495
167	0x3e093736	0.13399968
168	0xbb6f25b7	-0.0036490986
169	0x3d9f0089	0.07763774
170	0x3ef548c2	0.47907072
171	0x3c18deea	0.009330491
172	0x3eb24339	0.34816912
173	0x3c489bf2	0.0122442115
174	0xbdb50975	-0.088396944
175	0x3cd28152	0.02569643
176	0x3e9e9b0f	0.30977675
177	0xbc60e39f	-0.013726144
178	0x3e76c7ec	0.24099702
179	0x3db0da3e	0.086353764
180	0x3b802813	0.003911027
181	0x3cfbf5a3	0.030756777
182	0x3e2065f9	0.156639
183	0xbdb7eaab	-0.08980306
184	0xbda3aacb	-0.079915605
185	0x3e380d32	0.17973784
186	0x3b9533e5	0.0045533055
187	0x3e6156fe	0.22005841
188	0x3ec0f52f	0.3768706
189	0x3e4c1c05	0.19932564
190	0x3e243e0e	0.16039297
191	0x3dcc3036	0.09970133
192	0xbd51a269	-0.051180277
193	0x3cc947d0	0.024570376
194	0x3dff14b6	0.12455122
195	0x3d8c6613	0.068554066
196	0x3c1d8e80	0.009616494
197	0x3e31375a	0.17306271
198	0x3d43aeb7	0.047774043
199	0x3e7f5205	0.24933632
200	0x3c4d1f38	0.01251965
201	0x3c49f3d5	0.0123262005
202	0x3e979f3e	0.2961368
203	0xbe0f8079	-0.14013852
204	0xbc89a8a4	-0.016804047
205	0x3e7a487b	0.24441712
206	0xbd49d96b	-0.04927961
207	0xbc778aef	-0.015108808
208	0x3ee5311f	0.4476404
209	0x3f05a157	0.5219931
210	0x3e7881d7	0.2426828
211	0xbd5f4823	-0.054512154
212	0xb88926a4	-6.5398664e-05
213	0x3dc3bcba	0.09557481
214	0x3ebd2e48	0.36949372
215	0x3d875dd4	0.06609693
216	0xbc547b57	-0.01296886
217	0x3c474a23	0.012163672
218	0xbbce6c36	-0.006299521
219	0x3d010b97	0.031505194
220	0x3e61f652	0.2206662
221	0x3f1c6f47	0.61107296
222	0x3e83e539	0.2576082
223	0x3ea42777	0.3206136
224	0xbd1ea13e	-0.03872799
225	0x3f0c4dfe	0.54806507
226	0x3e0918f5	0.13388427
227	0x3e8d792a	0.27631503
228	0x3e3ea8cb	0.18619077
229	0x3ce84332	0.028352354
230	0x3d95f1be	0.07321499
231	0xbcd24968	-0.025669768
232	0xbd96a214	-0.07355133
233	0xbc964db3	-0.018347597
234	0x3dadf456	0.08493869
235	0x3d83a6ea	0.06428321
236	0x3e603fb5	0.21899302
237	0x3e85344b	0.2601646
238	0x3dfa8590	0.12232506
239	0x3e9ffc16	0.31247014
240	0x3e17359a	0.14766541
241	0x3e5873a6	0.21137866
242	0x3e10f8f6	0.14157471
243	0x3baf26e7	0.0053452137
244	0xbcd470d0	-0.0259327
245	0x3dcd2e5c	0.10018608
246	0x3e5ee701	0.21767808
247	0xbcb1fdae	-0.02172741
248	0x3e3bd17b	0.18341629
249	0x3c17b3b6	0.009259155
250	0x3f0b7226	0.5447105
251	0x3d95bb03	0.0731106
252	0x3d3a7e85	0.045530815
253	0x3dc99314	0.09842506
254	0xbc5e8258	-0.013580881
255	0x3d92cb90	0.07167733

network.layer4.weight f4 [26, 256]
0	0x3cdda014	0.02705387
1	0x3e043dbf	0.1291418
2	0x3e577641	0.21041204
3	0x3e86b800	0.26312256
4	0x3e707d4d	0.23485298
5	0x3e49574f	0.19662212
6	0x3e133bbd	0.14378257
7	0x3c124dd7	0.008929691
8	0x3e4cf29a	0.2001442
9	0x3dee62af	0.11639916
10	0x3dfa57e0	0.12223792
11	0x3e678ef2	0.22613123
12	0x3df09e7d	0.11748979
13	0x3e49ef30	0.19720149
14	0x3e2572d7	0.16157089
15	0x3e47e718	0.19521749
16	0x3e61f77a	0.22067061
17	0x3ea09fab	0.31371817
18	0x3e73c13c	0.23804182
19	0x3e883674	0.26604044
20	0x3e451834	0.19247514
21	0x3e5139a2	0.20432141
22	0x3e0ed577	0.13948618
23	0x3e3d952c	0.18513936
24	0x3e069213	0.1314166
25	0x3e354f91	0.17706133
26	0x3dbb4762	0.091444746
27	0x3e18ccac	0.14921826
28	0x3e0d4434	0.13795549
29	0x3df4ef04	0.11959651
30	0x3dd1c304	0.102422744
31	0x3e2706c3	0.16311173
32	0x3e56a054	0.20959598
33	0x3e47312f	0.19452356
34	0x3e26605e	0.16247699
35	0x3e1f8b70	0.15580535
36	0x3e1cd36a	0.15315023
37	0x3ea9800e	0.3310551
38	0x3df815f1	0.1211356
39	0x3e180130	0.14844203
40	0x3e83472d	0.2564024
41	0x3dfe7bf8	0.12425989
42	0x3eadec98	0.3396957
43	0x3e7eedb0	0.24895358
44	0x3e27cd74	0.16386968
45	0x3c9a5884	0.018841036
46	0x3e13c69f	0.14431237
47	0x3e08626e	0.13318798
48	0x3e810c54	0.25204718
49	0x3d95ce07	0.07314687
50	0xbd6cc65d	-0.05780636
51	0x3c54c9c0	0.012987554
52	0x3e0114a5	0.12605532
53	0x3e28c4d5	0.16481335
54	0xbc548908	-0.012972124
55	0x3dcfd7ef	0.10148608
56	0x3eea3858	0.45746112
57	0x3eb8028c	0.35939443
58	0x3da8b0e2	0.08236863
59	0x3e490bc0	0.19633389
60	0x3e80f41f	0.2518625
61	0x3d62071e	0.05518257
62	0x3e547a3f	0.20749758
63	0x3e47fae6	0.19529304
64	0x3e1ef4a1	0.15523006
65	0x3d19544c	0.037433907
66	0x3e802bce	0.2503342
67	0x3d5ae38a	0.053439654
68	0x3e3391e3	0.1753612
69	0x3e8c5d8e	0.27415127
70	0x3e9cc7ce	0.3062119
71	0x3e2a8703	0.16653065
72	0x3d2f471e	0.042792432
73	0x3dec0204	0.11523822
74	0x3e71c1cf	0.23609088
75	0x3c2ea360	0.010659069
76	0x3d5e02fa	0.054202057
77	0x3ce58acc	0.028020285
78	0x3e952ab3	0.2913414
79	0x3e5402ae	0.20704147
80	0x3e4222a2	0.18958524
81	0x3e15229d	0.14563985
82	0xbc98ea90	-0.018666536
83	0x3e450a1f	0.19242142
84	0x3e29b5fd	0.1657333
85	0x3e2a0437	0.1660317
86	0x3bc96cf0	0.0061470196
87	0x3e7dbee3	0.24779849
88	0x3d9f54fd	0.07779882
89	0x3e5dc92d	0.21658774
90	0x3e3fc0d5	0.18725903
91	0x3e1eae6e	0.15496227
92	0x3e6143a3	0.21998458
93	0x3b91f290	0.0044539645
94	0x3d618e62	0.055067427
95	0x3e221b43	0.15830712
96	0x3c1cdb80	0.009573817
97	0xbd5871b7	-0.052842822
98	0x3e280d32	0.16411284
99	0x3d36d7b2	0.044639297
100	0x3e8145bf	0.25248525
101	0x3ec5754f	0.38566062
102	0x3d33e29a	0.043917276
103	0x3e229086	0.15875444
104	0x3bbe6930	0.005810879
105	0x3e4763f4	0.19471723
106	0x3f12f3d5	0.5740331
107	0x3e40b441	0.18818761
108	0x3e08f226	0.13373622
109	0x3e4a3b65	0.1974922
110	0x3e4ff763	0.20309214
111	0x3e5cd3c4	0.21565157
112	0x3e35985b	0.177339
113	0x3e6c5b6f	0.23081754
114	0x3e25dc89	0.16197409
115	0x3dcb136c	0.09915814
116	0x3e5c2dab	0.21501796
117	0xbe378ab2	-0.17924002
118	0x3e446d4d	0.1918232
119	0x3e5cd84a	0.21566883
120	0x3d2a2fa4	0.04154934
121	0xbc8a53f6	-0.016885739
122	0x3df5a8bc	0.11995074
123	0x3df6eaa8	0.12056476
124	0x3e191f44	0.14953333
125	0xbb127be0	-0.0022351667
126	0x3e478a5e	0.19486377
127	0xbd504ef2	-0.050856538
128	0xbcb579d4	-0.022152819
129	0x3bba9f00	0.005695224
130	0x3ea9af2b	0.33141455
131	0x3e2999fe	0.1656265
132	0x3e5b1f4a	0.21398655
133	0x3dd7bf80	0.105345726
134	0x3e2773f1	0.16352822
135	0x3c46e56c	0.012139659
136	0xba8845c0	-0.0010396764
137	0x3e4e8c96	0.20170817
138	0x3e6fb6c5	0.23409565
139	0x3e1e6e53	0.15471773
140	0x3e538ec6	0.20659932
141	0x3e8a9eec	0.27074373
142	0x3d4154c4	0.04719998
143	0x3daad9f5	0.08342353
144	0xbd13cfc7	-0.036086824
145	0x3e97198f	0.29511687
146	0x3e6e5eb4	0.23278314
147	0x3e8671dd	0.26258746
148	0x3dd99815	0.106247105
149	0x3e272378	0.16322124
150	0x3def7849	0.116928644
151	0x3e34a42c	0.17640752
152	0x3ee7e69c	0.45293128
153	0x3e35089a	0.17679062
154	0x3cfba060	0.030716121
155	0x3dac22ca	0.08405073
156	0x3e8a4062	0.27002245
157	0x3e1762cd	0.14783783
158	0x3e0c029b	0.13672869
159	0x3cfbbeb0	0.030730575
160	0x3e5e3a01	0.21701814
161	0x3e333a4b	0.17502706
162	0x3e430f46	0.19048795
163	0x3e148cdd	0.1450686
164	0x3ecc3d5c	0.39890563
165	0x3e6cc1e0	0.23120832
166	0x3e0cf2f5	0.13764556
167	0x3e873f7b	0.2641562
168	0x3e6de760	0.23232794
169	0x3dab36f5	0.083600916
170	0x3d961e92	0.073300496
171	0x3dd95092	0.10611071
172	0x3e16df48	0.14733613
173	0x3d334188	0.043763667
174	0xbc97a588	-0.018511549
175	0x3e31eb80	0.17374992
176	0x3e8cd52c	0.27506387
177	0x3e672196	0.22571406
178	0x3e05ffde	0.13085887
179	0x3e2653bc	0.1624288
180	0x3c0f51b0	0.008747503
181	0xbb378620	-0.0028003529
182	0x3e392825	0.1808172
183	0x3e4ca58a	0.19985023
184	0x3d7ac6cc	0.061224744
185	0x3dc78e9b	0.09743997
186	0x3cfc4e14	0.03079895
187	0xbe6e36e3	-0.23263125
188	0xbe3ab972	-0.18234804
189	0x3e9c0dc4	0.30479252
190	0x3e3d3ca1	0.1848016
191	0x3e0d6e2f	0.13811563
192	0xbc1d16a0	-0.009587914
193	0x3e2bf1ef	0.16791509
194	0x3d834600	0.06409836
195	0x3d3dea4e	0.04636603
196	0x3dec4bb6	0.11537878
197	0x3e29c70d	0.16579838
198	0x3b3236a0	0.0027193204
199	0x3e6b45ab	0.22975795
200	0x3e4b3c84	0.19847304
201	0xbc5a6670	-0.013330087
202	0x3e1f6276	0.15564904
203	0x3dfae73f	0.12251138
204	0x3e5022e2	0.20325807
205	0x3e3a3551	0.18184401
206	0x3d4ab8fe	0.04949283
207	0x3d768fa6	0.060195588
208	0x3e690a8f	0.22757934
209	0x3e08d0b4	0.13360864
210	0x3e16ddca	0.14733043
211	0xbd76961a	-0.06020174
212	0xbc78bc58	-0.015181623
213	0x3e13cb48	0.14433014
214	0x3e21c2e6	0.15797004
215	0x3e52520b	0.2053911
216	0xbd6dd537	-0.058064666
217	0x3c241d08	0.010016687
218	0x3c932cdc	0.017965727
219	0x3c3b0848	0.011415549
220	0x3e02f6ea	0.12789503
221	0xbbe96fcb	-0.0071239225
222	0x3e4c184a	0.1993114
223	0x3e654e6a	0.22393194
224	0xbaf89d00	-0.0018967688
225	0xbd053339	-0.032519553
226	0x3e7d269a	0.24721757
227	0x3e07ab3b	0.13248913
228	0x3e35a294	0.177378
229	0xbbdb5c10	-0.0066943243
230	0x3e6e8822	0.23294118
231	0x3de13a69	0.10997469
232	0xbc25f0f8	-0.010128252
233	0xbcc0f0e8	-0.023552373
234	0x3e5a29e7	0.21305047
235	0x3e170e29	0.14751495
236	0x3e180704	0.14846426
237	0x3e8a3296	0.2699172
238	0x3e1fcba5	0.15605028
239	0x3e3b359b	0.18282168
240	0x3e2001f5	0.15625747
241	0x3e0ed29b	0.13947527
242	0x3e53a0ad	0.20666762
243	0x3e01732d	0.12641592
244	0x3e19d992	0.15024403
245	0x3ec5937d	0.38589087
246	0x3e5045d9	0.20339145
247	0x3e34ae13	0.17644529
248	0x3f12caff	0.57341
249	0x3dbc33e0	0.09189582
250	0x3d49836b	0.049197596
251	0x3e369b14	0.17832595
252	0x3e8b8651	0.27250913
253	0x3da8ec47	0.08248191
254	0x3dcd9271	0.10037697
255	0x3e85c983	0.26130304

network.layer4.bias f4 [26]
0	0x3bc3e320	0.005978003
1	0xbd034e9f	-0.0320574
2	0x3f1534ce	0.582837
3	0x3e846d8e	0.25864834
4	0xbc3c959c	-0.011510279
5	0x3ea4f931	0.32221368
6	0xbdfcd8e3	-0.12346055
7	0xbd003736	-0.031302653
8	0xbcb96fd1	-0.022636326
9	0xbc733e67	-0.014846421
10	0x3e901268	0.28139043
11	0x3f466f68	0.7751374
12	0xbdd31ddf	-0.10308432
13	0x3f3da7dc	0.7408426
14	0xbebaaf3f	-0.36461827
15	0xbe035fa2	-0.1282945
16	0x3e54fbc2	0.20799163
17	0x3c610550	0.013734177
18	0x3cdf993f	0.027294753
19	0x3c5fb3ef	0.013653739
20	0xbe83c8f8	-0.25739264
21	0x3eebc41e	0.46048063
22	0x3e0f18a8	0.1397425
23	0xbd1ebf2b	-0.03875653
24	0x3e551ed6	0.20812544
25	0x3e2ac74f	0.16677593
