DDQN_panda_env2/runs/results_2/best-model.pt (torch, 162903 bytes, 6 tensors)

network.layer1.weight f4 [128, 3]
00000000: 8112 e4be f294 20bf a8de e83e 1ec8 83bf
00000010: 1c36 0dbf a929 8d3e 1185 c73e 2d03 613e
00000020: a2c9 423d 22d2 3bbf 9583 6f3e cf35 77bc
00000030: 373e 5bbf 168d ca3e 5cf5 813d 8c62 0cbe
00000040: a1dd ecbe 8587 92bd 6e90 8e3f 42e1 1abf
00000050: 1d7a 9ebe 9da4 1f3d c6c7 01bf a63f 203f
00000060: abdd 75bf 9c97 1cbf d6d0 e13d 3704 4cbf
00000070: aee9 87be 7cc1 0d3f 1cdd cabe 464a 25be
00000080: 8ab0 023f 85a6 92bf be52 e03e 7b24 fe3c
00000090: d1c7 56bf 35bf bbbe bed3 503d 5e48 4a3f
000000a0: 10cc 503f 75d2 883e 2119 6abf 7d73 7abd
000000b0: e90a 183e e4e4 a9bd 5846 063f f255 3a3e
000000c0: da6d f3bd 1cd6 71be 8321 0cbe b6e5 00bf
000000d0: 2982 02bf effd 0bbe 673f 333e 8d97 abbd
000000e0: 0b8c fcbd 45b9 91bf 685d c23e d5a7 a03d
000000f0: 7e8f 54bf 67c2 efbd 23cc d13d 09cd 4ebf
00000100: 9f14 bf3e 04a5 abbd 0c5e 37bf 65da e1be
00000110: 92e8 c33d 043d 9bbf 92ab 0d3f 4082 35bd
00000120: 0e47 7bbf 8dc7 c0be c5e1 97be 03d3 3fbf
00000130: 919c 92be 906b cbbd 2d6c 723f 334c 6fbe
00000140: 2401 7dbe 1953 cebe 8df8 0d3e b72b 003e
00000150: 0dd3 9cbe bcc1 9abe 3031 263f b7ee 73bf
00000160: d5f6 943d 706c 923e f688 2fbf 5796 19be
00000170: ba04 cd3e 6cf6 1c3e 9ce0 8abe 0be3 353e
00000180: 0cff 0f3f f494 633f 013e dc3e 51ac dcbd
00000190: 10b0 1cbf 2713 1a3f f5d2 1cbf 64c6 0ebf
000001a0: 71ed d4bd 3df5 72bf aa0e 373d 9701 673d
000001b0: 8c56 8d3d 1fd1 6b3f 261d b0bd 0be3 523f
000001c0: 9708 1a3f dc3f 873e 83c8 1fbf 3a11 00bf
000001d0: 8c8b f63d c25e 9dbe 6cd5 ccbe 5e7d 973e
000001e0: b1a3 1abf 6fef a9be 1010 86bd 1f10 bf3c
000001f0: 41b0 bfbe b082 b93e 88a0 88bf 2c65 c8be
00000200: 8cb3 98be dba8 c53e ad6c 3bbf 73b7 933e
00000210: 954c 923e 07c6 673e 444d fd3e dc4d b4be
00000220: 9f8a 6c3e 23dc 933e 05d4 79bf 55e4 47bd
00000230: eff1 fbbd c599 673f 06bf 48bd 5d27 7cbe
00000240: fe5b e03c f537 d0be f190 143f c56b 8cbf
00000250: d04d 8c3e 91ea 053e f447 d13e 56f4 903e
00000260: e02d ff3e b97c 1e3f 49fa f53c 4e31 20be
00000270: fc5e 483f 4a21 edbc 9480 f3bd 6cee 76bf
00000280: afa3 1ebf 3786 123e 2e88 853e 1aa0 09bf
00000290: dcca d73e 58ad 80be 75ea 02bf 4a13 74bd
000002a0: a894 9b3f f154 b6be 0dbd 52be 5c65 6c3c
000002b0: 2ec3 9dbe 9f7b 463e 819d 00bf b12e 893d
000002c0: ee24 64bd 333b 8e3e b689 f9be 3946 97be
000002d0: c4d5 81be 4aa7 01bc 5da9 82ba 5500 79bf
000002e0: ca8b 95bc 9369 433c 9045 7bbf a96e 0b3d
000002f0: 8469 b0bb 28b2 2cbf 9522 c6bd eaeb 443e
00000300: 3437 9fbe 3578 1dbf cde2 6cbc 992b 2bbf
00000310: c173 293f 9269 293c 01b3 89bd 75ae fcbe
00000320: 8afc 1ebe dc50 373e 8ecd 0cbf c861 10be
00000330: a971 a5be 3d12 02bf 724e 223f 4f06 53bf
00000340: 6e69 9d3e 9156 0f3f d261 93bd 3f04 eabe
00000350: e2a4 033f 671d 3cbf 6cee dd3e 3b3b e5bd
00000360: c4d5 1b3d de76 01be e7dd 793e 0bd5 14bf
00000370: 0bc9 063d a8eb 063f c352 3bbf a44c b5be
00000380: d2e9 8d3d 36c2 01bf 37a0 793e 6d32 123f
00000390: e889 95bf 6462 043f 3552 65bd 9a55 87bf
000003a0: 5b03 c23e 0e71 393d 6d0e a03e c41a 543d
000003b0: ef94 6abe 89e1 a03e 848f d93d 23a6 83bd
000003c0: 76e2 c4bd 7a46 ce3e 5e4a babe aecc 8a3e
000003d0: f229 c63e fcf1 b3be ba2c 36bf 716e e1bd
000003e0: 0869 773e 2824 12be d79e b8be c927 473e
000003f0: e86b 75bf 63e7 9f3e e6f9 cb3d 55ef 1abf
-0.44545367 -0.6272727 0.45482373 -1.0295446 -0.5516069 0.27570847 0.3896871 0.21973868
0.047555573 -0.7336751 0.23390038 -0.015088513 -0.8564181 0.39560765 0.06345627 -0.13709468
-0.4626284 -0.071547545 1.1137826 -0.60499966 -0.3095254 0.038975347 -0.50695455 0.6259712
-0.96041363 -0.6116884 0.110261604 -0.7969393 -0.2654547 0.5537336 -0.39621818 -0.16141614
0.5105063 -1.1457068 0.43813127 0.031023255 -0.83898646 -0.36669317 0.050983183 0.79016674
0.81561375 0.26723066 -0.91444594 -0.061145294 0.14847912 -0.082956105 0.52451086 0.18196848
-0.11886187 -0.23616832 -0.13684659 -0.5035051 -0.5097986 -0.13671087 0.17504655 -0.083785154
-0.123313986 -1.1384665 0.37961888 0.078445114 -0.8303145 -0.11707001 0.10244014 -0.8078161
0.3732042 -0.083810836 -0.7162788 -0.44111934 0.09565844 -1.2127995 0.5533992 -0.04431367
-0.98155296 -0.37652245 -0.29664436 -0.74931353 -0.28635076 -0.09932625 0.94696313 -0.23368911
-0.24707466 -0.40297773 0.13864346 0.12516676 -0.3062977 -0.30225933 0.64918804 -0.95286125
0.07273642 0.28598356 -0.6856836 -0.14998756 0.4004267 0.15328377 -0.27124488 0.17762391
0.56248546 0.8889916 0.43016055 -0.10775054 -0.6120615 0.60185474 -0.61259395 -0.5577147
-0.10396851 -0.94905454 0.04469172 0.056398 0.06901273 0.9211597 -0.085993096 0.8237769
0.6016936 0.26415908 -0.6241533 -0.50026286 0.12038335 -0.30736357 -0.40006578 0.29587835
-0.60406023 -0.33190486 -0.065460324 0.023323117 -0.3743916 0.3623252 -1.067399 -0.39139688
-0.29824483 0.3860539 -0.732127 0.28850898 0.28574052 0.22634135 0.49473011 -0.35215652
0.23099755 0.28878888 -0.9758914 -0.04880174 -0.123020045 0.9046901 -0.0490103 -0.24624391
0.027387615 -0.40667692 0.58033663 -1.0970389 0.27403116 0.13077761 0.40875208 0.28311414
0.49839687 0.6190906 0.030026572 -0.15643808 0.78269935 -0.028946538 -0.11889759 -0.9645755
-0.6196851 0.14309011 0.2608046 -0.5375992 0.42146957 -0.2513225 -0.51139003 -0.059588708
1.2154741 -0.3561168 -0.2057993 0.014428463 -0.30812973 0.19383095 -0.5024033 0.06698359
-0.05569928 0.2777954 -0.48737878 -0.29545763 -0.25358403 -0.00791342 -0.0009968687 -0.9726613
-0.018255133 0.011927026 -0.9815302 0.03404108 -0.005383672 -0.67459345 -0.09674565 0.19230619
-0.31096804 -0.61511546 -0.01445837 -0.668634 0.6619225 0.010340111 -0.067235954 -0.4935185
-0.15526024 0.17901939 -0.5500115 -0.140998 -0.32313278 -0.5080908 0.6340095 -0.824315
0.307445 0.55991465 -0.07196392 -0.45706365 0.51423466 -0.73482364 0.43345964 -0.11192938
0.03804566 -0.12643 0.24401055 -0.5813758 0.032906573 0.5270333 -0.7317316 -0.35410035
0.06929363 -0.5068697 0.24377523 0.57108194 -1.1682711 0.5171263 -0.0559866 -1.0572999
0.37893185 0.045273833 0.31261006 0.05178334 -0.22908376 0.3142207 0.106230766 -0.064281724
-0.096135065 0.40288144 -0.36384863 0.27109283 0.38703877 -0.35145557 -0.71162 -0.11007393
0.2416116 -0.14271605 -0.36058685 0.1944877 -0.95867777 0.31231222 0.09959774 -0.6052144

network.layer1.bias f4 [128]
00000000: 7963 2c3f 0c26 1bbd 683c 6c3f ea5e 813f
00000010: 7e98 133e 4d2b 133f c2dc 023e df8d 11bf
00000020: e53d eb3d dc4a 643f 8ec0 c63d 65a6 163e
00000030: c027 a93e 8d7e 393e dadb 0b3f 0e8a 3c3f
00000040: 360d 4b3f d577 753f 8e24 cbbe c15b e0bc
00000050: c4fd 0ebe 3793 fa3e df1a fd3e 06c6 053f
00000060: b0b3 353d f7b0 573f 12dc 273f 127f 443f
00000070: 3c95 d1be a0ca 3cbe 014d 123f 730b 683f
00000080: 55e3 aebe d22e 033e f960 583f 34a1 663f
00000090: 07d0 82be 7c00 88bc 0117 babd f58a 813e
000000a0: cefb 283f 8d20 5f3f cbe2 2dbc 6b6e cebe
000000b0: 2f94 18bf 9e9f 6a3f 8574 813f e61e 833f
000000c0: 904e dd3e 0637 6dbe 75fb acbe 5f16 553f
000000d0: d180 323f 90be 8f3e 06c4 cbbe 4dbc b2be
000000e0: 2689 f13e cbd0 2b3f d9b7 443f 4b8e 1e3f
000000f0: ba1a 12bf a323 963e bbcd a33e 6822 df3e
00000100: 9e6a b93e 019a 5a3f 1009 593f b6b4 573f
00000110: 4e66 fbbe 7f95 113f b5e0 eebe bfe3 2f3f
00000120: 9574 713f 8b45 d1be 60f5 293e d8ce f83e
00000130: 5246 013f bf13 9a3d ce27 873f e7d6 763f
00000140: 1151 ffbe bdf4 08bf 1463 e93e fe32 b93e
00000150: fdd0 19be 99e4 263f d3c5 0e3f 8918 393f
00000160: d2b4 893d f19b 81ba 4f65 803e 27e4 1b3f
00000170: 624c 423f 0ab2 113d 2c24 a43e 9335 063f
00000180: fd36 fdbe 9306 513e c335 88be dc65 313f
00000190: 9a12 233f b13c 3a3f 63de ee3e 174d bbbe
000001a0: 9d96 243f 388b 99be 3581 c53e 23b9 503f
000001b0: 0a58 dc3e d4ac 9bbe a1e9 7e3f 66a8 5d3f
000001c0: 2702 243e 268a 143f 33a4 4a3f 92cc 9d3e
000001d0: 441e ef3e 0246 253f 5938 0a3f 6ef5 e93d
000001e0: 2ea2 b03e e4c6 b8be 3311 673f a729 01bf
000001f0: 1d88 473f 4ebe dfbe 63fb 263f 346a eb3d
0.67339283 -0.03787808 0.9227967 1.010709 0.1441364 0.57487947 0.12779525 -0.56857103
0.11486415 0.89176726 0.09704696 0.14711912 0.3303814 0.18114682 0.5463234 0.73648155
0.79317033 0.95885974 -0.39676327 -0.027387502 -0.13963991 0.4894044 0.49434564 0.52255285
0.044360816 0.842544 0.65570176 0.76756394 -0.4093417 -0.1843667 0.5714875 0.9064247
-0.34157816 0.1281083 0.8452297 0.90089726 -0.25549337 -0.016601793 -0.09086419 0.25301328
0.66009223 0.87159044 -0.010613154 -0.40318617 -0.5960111 0.91649806 1.0113684 1.0243804
0.43224 -0.23165521 -0.33785596 0.8323726 0.6972781 0.28075075 -0.39797992 -0.34909287
0.47174948 0.6711547 0.7684303 0.6193587 -0.5707203 0.29324064 0.31992897 0.43580937
0.36214155 0.8539124 0.84779453 0.8426012 -0.4910149 0.5686874 -0.46655813 0.6870689
0.94318515 -0.4087337 0.1659751 0.4859531 0.50497925 0.075232975 1.0559022 0.96421665
-0.49866536 -0.5349844 0.45583403 0.36171716 -0.15021129 0.6519256 0.55770606 0.7230306
0.06723942 -0.0009888393 0.25077292 0.6089501 0.758978 0.035570182 0.32058847 0.524255
-0.49456015 0.20412664 -0.26603517 0.6929605 0.6370026 0.7274886 0.46654043 -0.36582252
0.6429232 -0.29989028 0.3857514 0.81532496 0.43035918 -0.30405295 0.9957524 0.8658508
0.16016446 0.580233 0.791568 0.30820137 0.46702778 0.6455995 0.5399223 0.11423765
0.34498733 -0.36089242 0.9026062 -0.5045418 0.7794207 -0.43699878 0.65227336 0.11494866

network.layer2.weight f4 [256, 128]
00000000: c4d6 37bd 2a4f 8c3d 7ab8 c03e a0c8 e53e
00000010: b223 493e 3ad3 cc3d bc9f 383f 1599 45be
00000020: b719 8c3d 69ac dcbc db29 75bd 63fe 093f
00000030: e8c4 963c 302d 91be 55df db3d 0fe4 883e
00000040: 80a7 6a3e b37c ba3d 5bde 80bd 3053 8e3e
00000050: a388 6e3d 9a59 013f b855 7b3d bd99 153f
00000060: 6070 403d 223a 923e 1a41 513f 7b69 e33d
00000070: e098 f7bd 62c8 ff39 5516 973d af02 183d
00000080: fb9f c0be 8348 dfbd b67b e93d 3353 c93d
00000090: 3b96 e13e 61bf e8be b97c aebb 959a 8dbd
000000a0: 9abe ae3e cfe5 da3c 6412 063d 580f 7ebe
000000b0: 5dae aabe a345 833d 0f13 723e 8048 593f
000000c0: 4363 543d 021c 4e3e 7daf dcbd 95b2 103f
000000d0: 85e6 023f 3352 553c d8b4 57be 1791 aebe
000000e0: f574 493f c121 b03d 9ec5 e03e 6591 413e
000000f0: 6b6e cebc 65a6 6e3e c446 ce3d ef30 0c3c
00000100: 14c6 b53d ddfa 2a3f 60d9 423e a566 733d
00000110: 200e aebd 4a36 423d 240e 5fbe ec95 1b3f
00000120: 2080 b83c 9ac4 48be 5b77 4f3d f108 d33d
00000130: 4491 323f d002 003f 68d3 2e3f c9b9 013f
00000140: a61b 9b3d 6e3b a7bd 6cbc a13d a235 903c
00000150: e66b 8c3d 491c eb3e 0340 193e 38f4 2c3d
00000160: 764d 353c ded5 ea3b 32b5 d03e bdc5 033f
00000170: 10c6 083f a5c7 363c 5159 6cbb 72a9 f23c
00000180: 9eb6 dfbe e00e af3c 43d2 4d3d 95be 653f
00000190: 1eeb 193f 2934 0d3e fd90 4c3f 0350 24be
000001a0: d170 df3c 5a77 63bd 6365 f53d c815 9d3e
000001b0: 15c7 ff3d 3261 54bd 7cf6 d33e 87d1 c63d
000001c0: 4aff 633c 3253 fe3d ef16 963e 2ac9 afbe
000001d0: 20c1 d43d bab8 763e 2ee1 c43d 4e52 fbbd
000001e0: f6c7 cc3c b2e5 45bd 7043 9a3d 8239 5e3d
000001f0: 2147 e43e 158c ac3d 3f5d eb3d a213 9d3c
00000200: 2a39 7bbc d5f2 b93d 3004 143e c7dc 153f
00000210: dffa d23e 76a9 373e 53ee 3b3f bce0 20be
00000220: 8a51 083e da4a 3b3e 0ecb 39bc 6228 733f
00000230: f74d 853e 80aa 0cbf 2a79 743e 3557 523e
00000240: 28c8 7b3e 3b61 833e ab5f 85bc 7bb2 253f
00000250: e357 9f3e 1406 613f 73a3 cd3d c7f4 473f
00000260: 4403 2f3e 57f1 e33e feee 2b3f 6d06 753e
00000270: ede6 8dbd 5243 ea3d e2a4 303e e0e1 40bd
00000280: 7840 03bf 0051 a1bd 6d54 7e3e 3e8f 9f3e
00000290: 01b8 fa3e 2de1 38bf 4e0a 0f3e 7f00 8e3d
000002a0: dfaf a73e 8dd1 403d 2cb4 653e 5290 97be
000002b0: b680 b6be 4fb0 593d 50c6 0c3f d65e ce3e
000002c0: 3b14 d23c 0b14 a43e 29fd a1be 8d00 c13e
000002d0: 3de4 ea3d c394 a33d 14fa 8cbe 158a cebd
000002e0: d81f ec3e dab6 5cbc 6354 e83e 334c 3c3e
000002f0: 8e46 fd3c 4b4e f73e 88c1 a93e 7470 0e3e
00000300: 0d8b f33d b311 383f 2692 5e3e 7ec3 2c3d
00000310: 907a 4cbd ffd9 443e 49b3 38bd aa81 3d3f
00000320: c8bf 843d b921 a8bd 622a 623e 3d9a f13d
00000330: f030 773f 6e42 693f e412 1a3f 54ef 9b3e
00000340: ac1b 013d cb9c 883c 828f 613e 02cc ea3c
00000350: e3dc bf3e 041e bb3e a4bd 993e e7dc 643d
00000360: 0314 e03c 8757 0dbd 9b6d 023f 602b 313f
00000370: 3c48 003f d3bb 513e 682b bfbd 224b 123d
00000380: 1487 fbbe 88d4 3c3e cf39 503d 351a 863f
00000390: 1ef4 6b3f fa2d 123e 06e3 373f e5e8 4ebe
000003a0: f79c ca3d 3a83 e43c 77b7 453e 8a13 d93d
000003b0: 2423 0e3e cc37 1bbd 3af2 983d 2edd 9c3e
000003c0: cebf e23d 5664 8d3d 40ae e13e b658 1abf
000003d0: ad04 1c3e 0b5e 2abc 7fe1 7fbd dc28 61bc
000003e0: 1172 2b3e 6f1f 93bc e1ee 223e 98eb 3b3d
000003f0: 97d4 223f f981 6a3d 8454 223e a820 a0bd
-0.04488255 0.06851037 0.37640744 0.44879627 0.19642523 0.10001226 0.72118735 -0.19296677
0.06840842 -0.02693768 -0.05985437 0.5390379 0.01840444 -0.28354788 0.107359566 0.26736495
0.22915459 0.09105816 -0.06292411 0.27797842 0.058235776 0.50527346 0.061361045 0.5843771
0.04698217 0.28559977 0.8173996 0.11104103 -0.120897055 0.00048786687 0.07377306 0.037111934
-0.37622055 -0.109025024 0.11400549 0.09830322 0.4405993 -0.4545851 -0.0053249267 -0.0691425
0.34129792 0.02672091 0.032732382 -0.2481054 -0.33336154 0.064097665 0.23640083 0.8487625
0.051852476 0.20127872 -0.10775659 0.56522495 0.51132995 0.013020086 -0.2106508 -0.3409507
0.7869409 0.08600188 0.4390077 0.1890312 -0.025199136 0.23305662 0.10072091 0.008556589
0.08875671 0.66789037 0.19028234 0.05942406 -0.08498788 0.047415055 -0.21782738 0.6077564
0.022522032 -0.19606248 0.050650936 0.1030444 0.6975291 0.5000429 0.6829133 0.5067411
0.07573633 -0.08165632 0.07897267 0.0176037 0.068565175 0.45920017 0.14965825 0.042225093
0.011065831 0.0071666082 0.4076324 0.514736 0.5342722 0.011155997 -0.003606398 0.029621813
-0.43694013 0.021369398 0.05024935 0.8974393 0.60124385 0.13789429 0.79908735 -0.16046147
0.027275475 -0.055533744 0.119822286 0.3068068 0.12489144 -0.051850505 0.4139899 0.09707933
0.013915846 0.12418212 0.29314372 -0.34333163 0.10388398 0.24093905 0.09613262 -0.12271558
0.024997693 -0.048314758 0.07532394 0.054254062 0.44585517 0.08425156 0.11492395 0.0191744
-0.015333453 0.0907952 0.14454722 0.58540004 0.41207024 0.17935738 0.7341053 -0.1571073
0.13312355 0.18290272 -0.011339916 0.94983494 0.26036045 -0.5494766 0.23874345 0.2054108
0.24588072 0.25660118 -0.01628097 0.64725465 0.3112174 0.878999 0.10040941 0.78107876
0.1709109 0.44520065 0.6716155 0.23928232 -0.06928811 0.114386216 0.17250398 -0.04709041
-0.51270247 -0.07876778 0.24836893 0.31163973 0.4896851 -0.7221859 0.13968775 0.06933688
0.32751366 0.047074843 0.22432011 -0.29602295 -0.35645074 0.053146657 0.549901 0.4030673
0.025644412 0.32046542 -0.31638458 0.37695733 0.11469314 0.079873584 -0.27534544 -0.10084931
0.46118045 -0.01347133 0.45376882 0.18388443 0.030917432 0.4830192 0.33155465 0.13910085
0.11891756 0.71902007 0.21735439 0.042178623 -0.049921572 0.19223784 -0.045092855 0.74025977
0.06481892 -0.08209557 0.2208648 0.11796997 0.9655905 0.9111699 0.60185075 0.3045603
0.03152053 0.016676327 0.220274 0.028661732 0.3747321 0.36546338 0.30027497 0.05587473
0.027353292 -0.0345073 0.50948495 0.6920681 0.5011022 0.20481806 -0.09334451 0.035716183
-0.49126494 0.18440449 0.05083638 1.0476748 0.9216937 0.14275351 0.71830785 -0.2020603
0.0989322 0.027894605 0.19308268 0.1059943 0.13880593 -0.03789501 0.07468076 0.30637497
0.1107174 0.06903903 0.44078255 -0.6029161 0.15236159 -0.010398398 -0.06247091 -0.013742652
0.16742732 -0.017959325 0.15911438 0.045878977 0.63605636 0.057252858 0.15852553 -0.07818729

network.layer2.bias f4 [256]
00000000: 840c a53e 4100 b03e 0168 d13e b580 ff3d
00000010: 5913 9c3e 296a a13c e61b 773e 4b6c 603d
00000020: a607 993e b73f 9a3e c9e5 b13e 2cf9 b13e
00000030: 9d5d 8b3e 2bd9 963e 3e54 773e 8904 803e
00000040: 7081 933e dffd a1bd 7289 9abd 1c26 bf3e
00000050: d7d9 99bc 3945 9d3e a039 f03d c3ed bc3e
00000060: d4c1 b93e 0875 923d 68c6 823d 750d 573e
00000070: cf19 033e fc80 a5bd 3071 5b3e 3f98 2e3e
00000080: e4e9 a13e c5fa 833e 2aee 45bd 20c8 9c3e
00000090: 548f a93e 00df 7b3e fd1a 523e 474f a13e
000000a0: d8a1 db3d 9639 573e 958f 603e 3ff4 863e
000000b0: 73d6 963e 89a6 a53e d826 8f3e 2139 f13d
000000c0: 3c42 3dbc 5b34 8e3e 916d 5dbb 16c7 003e
000000d0: 1d7c ad3e 3ec7 823e eb72 26bd 9388 b33e
000000e0: 958a c03e 5fa5 8a3e 4b7f c03e b96b a63e
000000f0: 2ab8 ae3e 1b43 083d 87fa 00bb 3dc8 933e
00000100: 4ab9 cb3e b8da df3d 305c 993e eee5 793e
00000110: 5b90 5ebd 38a5 cb3e ab3a 983e 6a60 b93e
00000120: d6bb 2c3e 3dd8 833e 9009 0c3e 6b1c f63d
00000130: 0685 8bbd e322 333c 093a 843e 727f 6f3e
00000140: 6acd c63c e1fb 963e 2775 c33e fc2f 6f3e
00000150: b6e7 933e 36ea 923e b863 2ebc d46f ec3e
00000160: 6c04 153d 15b0 a33e 3ff6 6d3e 4955 183e
00000170: 34f0 283e 8768 5a3e 9fb0 4c3e d828 3b3e
00000180: 5cb6 3a3e 434f 3b3e 7ab5 823e 15cd 833e
00000190: 5552 233e ab82 503e 46c4 4b3e 315b f0bc
000001a0: b05f 3a3e cd7b e53c f431 8e3e c18d 22bd
000001b0: 4ffd 953d 5f5f 913e a2db e43e d517 493e
000001c0: 37a1 8b3c f8ca a13d 7077 663e af33 253d
000001d0: 7f97 a23d c2a1 3c3e bd8d 9d3e 8d03 a03e
000001e0: 93b8 9a3e b163 793e fa70 873e 7546 3e3d
000001f0: fafb 793d ed7c 5d3e 5064 443e 6512 8bbd
00000200: 1913 57bd 63e6 873e 0f5c d53d 2b2a a43e
00000210: eebf 923e e071 b93e 03e0 973e b6f7 6f3c
00000220: ff5d 843e 92ba 733e 378f b23e b100 ab3e
00000230: 9c01 583b ba18 a23e f72c 753e 1b6b 663e
00000240: 2274 b53e 09d8 653e 5951 323e 88f9 293e
00000250: eb76 7f3e 723e a83e 83f0 823e dff4 bb3e
00000260: 10c2 433d 8bb9 a13e d1fb 3e3e f44d 493c
00000270: 5eb6 5f3e b7e7 833e 70ea 793e e988 a33e
00000280: ee39 a8bd cb4c d83e a3ef 833e dc7b 513d
00000290: efd9 233e 8cea 893c 6390 593e 071c 8fbc
000002a0: efdd 92bc 09dc 7e3e 5396 8b3e b7d3 3dbd
000002b0: 8a32 dd3d 0674 983e 9b07 6e3e acca 5f3e
000002c0: d77e 9dbd 0973 ab3e 8cfd d93d 7dc5 583e
000002d0: ac08 88bd f206 c13e 789c 913e e5d2 9dbc
000002e0: 825b 40bd 4194 433e 1343 3a3e 4790 933e
000002f0: a07f 3d3e f7dd a63e 9156 203e cd50 a73d
00000300: d77b 27bd 8195 82bd 21fc 6dbd d1b1 923e
00000310: 76c4 b33e dbc4 c4bc dc59 c43d 8c4f 543e
00000320: 7c82 b3bd d726 843e 12de 633d cb8b 9c3e
00000330: ff62 b93c 054b 253e 6fe9 993e 80c5 a83d
00000340: c9a4 c9bd ee06 dc3e 6e24 bebd d3ab 7f3e
00000350: 35ec 3f3e 9b3e 3c3e 9bb5 d13e b87d 913e
00000360: 6240 d63e bac0 233e 9845 ac3d e155 43bc
00000370: 620d 903e 5f51 33bd 76d6 99bd 26b8 b23e
00000380: 88c9 5a3e 71da 6d3e 274a 96bc 0973 073e
00000390: bac4 c03e a7c4 893e 521c 213e 533f 103d
000003a0: 167b 733e 9ba5 9b3e 2bf8 ab3e 2efb 95bd
000003b0: d2b2 9c3e 8494 0abd 50d4 7d3e d21f a8bc
000003c0: 111b 7d3d 216c 1abc 2d3b 993d 574d eabc
000003d0: bbe7 813e e9a8 9c3c 7929 5a3e fc56 973d
000003e0: b281 06bc 7f00 893e 5c4c a43e f805 bb3e
000003f0: 319d 943e cfa6 bf3e fe4f ae3e af72 913e
0.3223611 0.34375194 0.4089966 0.12475721 0.3048351 0.019703941 0.24131736 0.054790776
0.29888648 0.30126736 0.34745625 0.34760416 0.2721986 0.2946256 0.2415323 0.2500346
0.2880969 -0.0790975 -0.07545747 0.37333763 -0.018780632 0.30716875 0.11729741 0.36900148
0.36280692 0.07151228 0.06385499 0.21001227 0.12802814 -0.080812424 0.21429896 0.17050265
0.31623757 0.2577726 -0.048322834 0.30621433 0.33117163 0.24596786 0.20518108 0.31505796
0.107242286 0.21018061 0.21929772 0.2635822 0.29460487 0.3235362 0.27959323 0.117784746
-0.011551436 0.2777432 -0.003378723 0.12575945 0.33883753 0.25542635 -0.040636938 0.35065135
0.3760573 0.27079293 0.37597117 0.3250406 0.3412488 0.03326712 -0.0019680576 0.28863707
0.39789802 0.10930389 0.29953146 0.24404117 -0.054336887 0.3977449 0.2973226 0.3620637
0.16868529 0.25750914 0.13675523 0.12017139 -0.068124816 0.010933611 0.25825527 0.2338846
0.024267871 0.29489043 0.38175318 0.23358148 0.2888772 0.28694314 -0.010643892 0.46179068
0.03638117 0.31970277 0.23238467 0.14876284 0.1649788 0.21328937 0.1998925 0.182773
0.18233627 0.18291955 0.2552908 0.25742403 0.15949376 0.20362346 0.19899091 -0.029340358
0.18200564 0.028013134 0.27772486 -0.03968597 0.073237054 0.28393075 0.44698817 0.19637997
0.017044647 0.07900041 0.225065 0.040332492 0.07939052 0.1842108 0.307722 0.3125271
0.30218944 0.24354436 0.26453382 0.04645391 0.06103132 0.21629687 0.19178891 -0.06790618
-0.052508447 0.2654296 0.104179494 0.32063422 0.28662056 0.36219692 0.29663095 0.014646461
0.25852963 0.2380164 0.3487489 0.33398965 0.0032959944 0.3165949 0.23942934 0.22501795
0.35440165 0.22445692 0.17413844 0.16599095 0.24947707 0.32860142 0.2557412 0.3671026
0.047792494 0.3158687 0.18650748 0.012286652 0.21846911 0.25762722 0.24405837 0.31940392
-0.08214174 0.42246088 0.25768766 0.051143512 0.16001104 0.016835473 0.21246485 -0.01746942
-0.017928092 0.24888624 0.27263126 -0.046344485 0.10800655 0.2977602 0.23245089 0.21854657
-0.076902084 0.33486202 0.10644063 0.21169086 -0.06642279 0.3770061 0.2843969 -0.019265601
-0.04696227 0.19099523 0.1818965 0.28821012 0.18505716 0.3259122 0.15658022 0.081697084
-0.040889587 -0.06376172 -0.058101777 0.28651288 0.35110825 -0.02401965 0.09587452 0.2073347
-0.08765122 0.25810882 0.055631705 0.30575404 0.022630213 0.16141899 0.30060908 0.08240795
-0.098458834 0.42974037 -0.09284292 0.2496789 0.1874245 0.18383257 0.40958866 0.28416228
0.41845995 0.15991488 0.084117115 -0.011922331 0.2813521 -0.043778773 -0.07511608 0.3490612
0.2136594 0.2322786 -0.018345905 0.13227476 0.3765009 0.26907846 0.1573346 0.03521664
0.23777422 0.30399784 0.33587775 -0.07323299 0.3060518 -0.03383304 0.24788022 -0.020522986
0.06179339 -0.009425194 0.0748199 -0.028601332 0.2537211 0.019123511 0.21304883 0.07389638
-0.008209633 0.2675819 0.32089508 0.3652799 0.29026178 0.37431952 0.34045404 0.2840781

network.layer4.weight f4 [26, 256]
00000000: e5c6 903e e618 163e 6662 583e c2cc 6c3e
00000010: f10c 383e 481b c03d 79fa c13d e0bb 25bc
00000020: 283e 403e 66c1 273e 0094 723e 5e13 3c3e
00000030: a1ab 42bd 1c08 593e ca0e 3b3e 5651 493e
00000040: 4bf7 293e d421 0fbd 8019 06bd 5da8 5a3e
00000050: 62d5 0c3d fc72 103e 4555 873d 8660 e33d
00000060: 1ac8 633e c4fd c2bc 2ce2 75bd 6a87 8c3e
00000070: 82e5 0a3e 68e3 32bc 5739 203e 3ac5 773e
00000080: 9628 573e bfc8 563e b209 343d 426e 163e
00000090: f9c8 833e af03 3f3e ca4f 8c3e d740 263e
000000a0: 74ee cb3d d46c 3c3e f98a 4b3e 1eae 5b3e
000000b0: 4d7b 523e 62d6 1e3e b378 be3d f166 263e
000000c0: 14bb e1bc a60f 5e3e c08f 16bc ee8a 123e
000000d0: 26b0 553e d677 5b3e 4ca4 e73c b6bf 803e
000000e0: 2202 6d3e f79e 413e 5ae8 2c3e 6dbe 4a3e
000000f0: 5539 833e 9f1e ce3d 7017 12bd ea5a 7a3e
00000100: 62e9 4d3e 0a4c 0b3e a172 713d 0ac7 003e
00000110: 9bc3 cfbd 5f65 7b3e b6d0 123e 034b 2d3e
00000120: dfa0 be3d d780 073e f08e ac3d 9016 713d
00000130: b086 f23c bc0a 783d 85df ee3d 08b8 2f3e
00000140: d4e4 89bc fd49 853e 41d5 413e e4a4 663e
00000150: 3c35 2e3e 72f8 703e 11f9 71bc 81fb 0d3e
00000160: 4869 fabc 1661 3d3e 4689 163e f3a3 283e
00000170: 623b 1b3e 9739 9c3e 0782 003e c71d 8e3e
00000180: 1c28 1b3d 52f8 783e 7b85 023e fd96 0e3e
00000190: 853b f83d 53fc 133e b7ba 6e3e 8032 f43d
000001a0: 4506 cf3d 38d6 3dbd 9bf2 9b3d a004 a93b
000001b0: 0011 543a f036 5f3e 8063 1b3e c722 423e
000001c0: 9a36 00bd ad04 cdbc ff5c 253e 9e1f 3b3e
000001d0: 1fa2 133d 006e 463e 1c97 433e 92e9 883e
000001e0: e649 403e fceb 403e 570b 093e 4893 1dbc
000001f0: 4f92 4ebd f078 3c3e 5915 723e 00e3 8dbb
00000200: b883 083c 8219 833e d9d2 363e e4f7 953e
00000210: 0f03 2b3e 496e 5e3e 5a9b 853e f43c 283d
00000220: 38b2 0d3e 1cdc 7c3e e57b 1c3e f88c 813e
00000230: 176b a23c 27bc e93d 49b4 bfbc 008a e53d
00000240: 6ed7 5f3e 7fb7 813e 4c4a 2c3e 20f4 063e
00000250: dc82 fc3d 7f40 3d3e 8be3 883e a051 f43d
00000260: c427 bfbc c7a8 253e a320 0d3e 584d f2bc
00000270: b22c 803e 5a2b 233e 5430 193e d17a 6c3e
00000280: 6ede 633d 0d89 163e 6e08 743e 4093 c43b
00000290: 65e7 523e ceb9 75bd dc17 343e 50ea c3bc
000002a0: 928c 1cbd 7e75 283e 49e6 1e3e 3cc8 f93c
000002b0: 0fc0 d43d 279d 633e 1195 2c3e 0724 1f3e
000002c0: 4093 ef3c 0e23 753e c0e9 01bd a320 ad3d
000002d0: ce1f 303d 1ec3 153e 21d7 623e 0c5c dd3c
000002e0: a407 14bd 32a6 6a3e 8a3b ac3d b9cb 4f3e
000002f0: 4864 533e 7d3d 223e bc13 3c3e 97d5 063e
00000300: 6c56 27bd 202e 403c 273a 86be 28f2 cf3d
00000310: ffb7 243e b0f5 fcbc 9a5a 4c3e e88d 353e
00000320: d015 7cbc b0f9 9e3d 007e 8339 d510 3c3e
00000330: f4b8 ac3c 36f1 0f3e 4b19 6a3e f176 c83c
00000340: 794c 0a3e d9b2 223e 96fe 703d d497 4c3e
00000350: 87ab 093e fff2 7b3e 5cbe 143e 0272 403e
00000360: 3027 0d3e 02c0 0b3e 4732 0d3e fc61 98bc
00000370: b371 843e 0434 f53c a0f4 06bc 3362 893e
00000380: 6c28 853e b24c 003e 8c63 0fbd 1b2b ca3c
00000390: 4145 6e3e 3004 c53d 57aa 763e c0fb cbbb
000003a0: aa80 343e 257a 7b3e e360 943e 98a9 1c3d
000003b0: 61f2 713e f01a 683d 20b3 423e 60d3 8c3c
000003c0: 68f2 5d3d daf3 1fbd ebbb cf3b a46c 3f3d
000003d0: f937 763e 56ae 673d 27fa b43d e999 ec3c
000003e0: f853 4b3d 51b4 083e ea85 183e 6e1b 1a3e
000003f0: e20c 613e 8b93 033e 325d d93d d08a 353e
0.28276744 0.14657936 0.21131286 0.23124984 0.17973687 0.093802035 0.09471602 -0.010115594
0.1877371 0.1638237 0.2368927 0.18366763 -0.04752696 0.211945 0.1826736 0.19659933
0.16598241 -0.03494437 -0.032739162 0.21353288 0.034383185 0.14106363 0.06608061 0.11102395
0.22244301 -0.023802646 -0.060030147 0.27447063 0.13564113 -0.010918476 0.15646873 0.2419633
0.21011576 0.20975016 0.04395456 0.14690498 0.25739267 0.18653749 0.27404624 0.16235672
0.09957591 0.1840089 0.19877233 0.21453139 0.20554848 0.15511468 0.09300365 0.16250207
-0.027555026 0.21685657 -0.009189546 0.1431081 0.20867977 0.21432433 0.028276585 0.25146264
0.23145345 0.18908297 0.1688551 0.19799204 0.25629678 0.10064434 -0.035666883 0.24448743
0.2010856 0.13603225 0.05894721 0.12575927 -0.10144731 0.24550389 0.1433743 0.16923146
0.093080275 0.13232742 0.08425701 0.058859408 0.02960524 0.060557112 0.11663727 0.17160046
-0.016832747 0.2603301 0.18929006 0.22523838 0.17012495 0.23532274 -0.014768855 0.13865472
-0.03056778 0.18494067 0.14700803 0.16468792 0.15159371 0.30512688 0.12549601 0.27757093
0.03788005 0.24313477 0.12746231 0.13924785 0.121207274 0.14451723 0.23313414 0.119236946
0.10108618 -0.046346873 0.07614633 0.005158022 0.00080896914 0.217983 0.15174675 0.18958579
-0.031302072 -0.025026644 0.16148756 0.1827378 0.036043283 0.19377899 0.19100612 0.267407
0.1877819 0.18840021 0.13383232 -0.009617634 -0.0504325 0.18405509 0.23640956 -0.004330039
0.008332185 0.25605398 0.1785387 0.29290688 0.16700386 0.21721758 0.26095086 0.041073754
0.13837516 0.2469334 0.15281637 0.25302863 0.019826455 0.1141284 -0.023401396 0.11207962
0.21859524 0.2533531 0.16825217 0.13179064 0.12329647 0.18481635 0.26736102 0.11929631
-0.023334391 0.16177665 0.13781981 -0.029577896 0.250341 0.15934506 0.14959842 0.23093726
0.055632047 0.14700718 0.2383134 0.005998999 0.20596083 -0.05999165 0.17587227 -0.02391544
-0.038219996 0.1645107 0.15517534 0.030490987 0.10388195 0.22227918 0.1685374 0.15541087
0.029245019 0.23939154 -0.031717062 0.084534906 0.04299908 0.14625213 0.22152378 0.02702143
-0.0361401 0.22914961 0.08409794 0.20292558 0.20643723 0.15843768 0.18366903 0.13167416
-0.040853903 0.011729747 -0.26216242 0.101536095 0.16085814 -0.030878872 0.19956437 0.17729914
-0.01538606 0.07762468 0.00025080144 0.18365796 0.021084286 0.14056858 0.22861211 0.024470778
0.13505735 0.15888537 0.058836542 0.19979793 0.13444339 0.24604414 0.14525741 0.1879349
0.1378448 0.13647464 0.1378871 -0.01860141 0.25867996 0.02993203 -0.008237034 0.26832733
0.26007402 0.12529257 -0.035007045 0.024678757 0.23268606 0.09619939 0.24088417 -0.0062250793
0.17627206 0.24558313 0.2898017 0.038247675 0.23627616 0.056666315 0.19013643 0.017190635
0.054186255 -0.039050914 0.0063395402 0.046734467 0.2404479 0.056562744 0.08836775 0.028881984
0.049640626 0.13350035 0.14894834 0.15049526 0.2197757 0.12849252 0.10613479 0.17728734

network.layer4.bias f4 [26]
00000000: 629a 093e cc94 3e3e ef67 113e e39f 0c3e
00000010: 1a5a 023e 2fb1 143e 425e 233c 7c93 383d
00000020: cb6a 4d3e 6eb9 d43d 5681 79bd 5659 4f3e
00000030: e3a1 1d3d 22ee 333e 3781 64bc f4b8 483d
00000040: e4cb 2f3e ff44 babd 2b0a 893d 1020 b43d
00000050: c3d3 bf3d 3473 313e 25b9 9a3d 965f c53c
00000060: b02e dd3d 769d cd3c
0.13437799 0.18611449 0.14199804 0.13732867 0.12729684 0.14520715 0.009971203 0.045062527
0.2006027 0.103869304 -0.06091436 0.20248923 0.038484465 0.17571309 -0.013946823 0.04900451
0.17167622 -0.09095191 0.066913925 0.08795178 0.09366562 0.17329103 0.07554845 0.02409343
0.107999206 0.025099497
