DDQN_panda_env2/runs/results_2/last-model.pt (torch, 162903 bytes, 6 tensors)

network.layer1.weight f4 [128, 3]
00000000: 933c 433e bd2e 2dbf 0c02 8dbe d9ab 88be
00000010: 0ce9 b83e e326 0d3e 132a 6cbf 682a e33e
00000020: 8d26 1bbc bcf8 62bf 86f6 0e3f b095 bcbe
00000030: 17e5 93bf c79b 44be 3afd d33e 910f 6fbf
00000040: 4add d7be 9a1d 0f3f ec12 8cbe e981 aabd
00000050: ac7d 273f a874 0abf 2eac 42be 26ee 343f
00000060: 4bd1 81bd 816b d8bd d6e6 c5be bc05 20bf
00000070: 580f 713e 64c1 373f b854 00be 194d c23e
00000080: f620 b13d c637 ae3e 74a9 7cbf 0de7 d93e
00000090: 54c5 53bf 3029 aa3e 9db0 ef3e 95a8 30bf
000000a0: b80d 8a3d de69 213f b37b 7d3e 7cb3 993e
000000b0: a4c2 e4be aa7a a8be 63f1 213f 46a5 0a3f
000000c0: 638e cebe 61a8 eabe 4f2a f63e 3820 b7be
000000d0: 281d 843e 2bfd e2be e0b9 7abf 7632 5bbf
000000e0: 428c eb3e 26bb ae3e 2462 53bf 48a2 e83e
000000f0: 691c 43bf b832 82be 8efe 823e eb8e df3e
00000100: d9de a33e 2a4c f0bd 5805 2cbf 059a 67be
00000110: 8c45 8a3e f3a8 94bf dae5 af3e e7eb 843a
00000120: 42e8 593d b218 123f fef6 053f f007 733f
00000130: 48d8 853e 6b24 cc3e 4134 9ebf d23f e53e
00000140: 2a49 503d afd0 57bf 86d2 873d 9bf5 2d3f
00000150: 5e36 133f 8013 39bf f2b2 adbe 3969 3abd
00000160: ac08 81be f03e 583e 1621 a8bd d4d5 0b3f
00000170: 1ae5 3a3f 8425 96bf 39ae 0dbe ab4d 833e
00000180: 5c85 a23d 6153 29bf 712d 93be 3a37 51bf
00000190: 96dc 5abc c283 0b3f 15e6 22be 6dd9 af3e
000001a0: 9dd4 09bf dd82 9abd 2a42 d43a 058c 34bf
000001b0: 3253 34bf 0248 b7bd cc97 193f bfdf 84be
000001c0: 4583 fdbd d995 293f 1f96 d3be 266c 443f
000001d0: 03f0 6f3e dc2f dc39 9acb 5c3d d37e ecbe
000001e0: 87a8 fb3b 17aa b33e fa22 0a3f 0e04 7cbe
000001f0: 1e72 dfbd 4912 00bc 89e8 cfbe e948 52be
00000200: 1e1a 043f 947e fcbd 7406 823c 3cbe 42be
00000210: e28c 88bf 1540 a7bb 8157 243f de31 a9be
00000220: 8294 c2be ebb9 443e 3c69 e63e d5b6 f4be
00000230: 8192 ed3e c86c c3be 199e 883e a583 f8be
00000240: 89f6 92be bd8b 04bc 9205 bc3e 6b69 24be
00000250: de5f 0c3f 3711 603d 0046 c53e e0a8 643e
00000260: d336 d13e 4ad2 c6bd 2b9f 0ebf 44d8 80be
00000270: 915b 143f 5de3 53bf ac88 e43e 65f1 34bf
00000280: 21f6 f73e daf9 4dbd 29a2 88bf 3a50 32be
00000290: db0c eb3e f6b7 2cbf 3359 e83d d648 4cbe
000002a0: 7b33 5fbf 6740 e23e f353 133e 071d 32bf
000002b0: d6ce 973c fd37 8b3e 5354 91bf 8e53 3e3f
000002c0: f8e0 ae3e 86d6 91be 249a 04be 343a 013f
000002d0: 1ea6 45bf de2e 8c3d 0fa2 f73e bff4 383c
000002e0: f191 19bf 38be 81be b949 24bf 4650 a63d
000002f0: 619a c93e 2eaf 573c fc9c 473e 51fa 2fbe
00000300: 8165 49bf 4f5f 933e 683b 70be 6d51 39be
00000310: 903d 073f ce59 05bf 3049 a23d 0dd8 f73e
00000320: 64d5 eabe 9611 86be dabb 6dbf 2c42 bc3e
00000330: 3e92 2fbd 2616 823c e9c3 1c3f ecab d0be
00000340: 5472 71be 2aa1 4b3f 74ea 1fbf f095 773b
00000350: f12a d83e ee36 5cbf 7e3c f6be b046 af3d
00000360: add6 01be 0efd f73a 53d6 aabe fbc7 8bbf
00000370: b491 36bc e216 033f 826e d6be cf0f b7bd
00000380: 2a2d 193f 1cc0 7f3e 83e9 40bf 81fc f93e
00000390: dae3 293e 174f 2ebf 6e89 023f 2275 d03e
000003a0: 4fa6 94bc b78d dbbe 0f89 0bbf d2e9 b5be
000003b0: 3216 38be 786a debe 4daa af3e 33a3 ef3d
000003c0: 7846 93be fbfc a5be dd22 253f 5296 b4be
000003d0: 7521 b53e 8286 173e 3aa2 3fbf e989 093f
000003e0: d8c1 923e f79c f93e daaa ca3e b19e 80be
000003f0: c145 1f3f 43ea d33e 7fbe bb3e 8644 88bd
0.19066076 -0.6764944 -0.27540624 -0.2669361 0.361153 0.13784365 -0.922517 0.4436829
-0.00946964 -0.8866079 0.55844915 -0.36832952 -1.1554288 -0.1920005 0.41404134 -0.9338313
-0.42161018 0.55904543 -0.27358186 -0.0832556 0.65426135 -0.54084253 -0.19010994 0.70675886
-0.063387476 -0.1056738 -0.38652676 -0.6250875 0.2354101 0.71779466 -0.12532318 0.37949446
0.08648865 0.34026927 -0.98696065 0.4255909 -0.82722974 0.3323455 0.46814433 -0.69007236
0.06740898 0.63052166 0.24754219 0.30019748 -0.4467975 -0.32906085 0.6325895 0.5415844
-0.40343007 -0.45831588 0.48079154 -0.35766768 0.25803494 -0.44333777 -0.9793987 -0.8562387
0.46005446 0.34127158 -0.82571626 0.4543631 -0.76215225 -0.2542932 0.25584835 0.43663725
0.32005957 -0.11733277 -0.67195654 -0.22617348 0.27006185 -1.1614059 0.3435505 0.0010141105
0.053200014 0.5706893 0.52330005 0.94933987 0.26141572 0.39871535 -1.2359697 0.44775254
0.050851025 -0.843028 0.06631951 0.6795289 0.5750483 -0.7229538 -0.33925587 -0.045510504
-0.2520193 0.21117759 -0.08209436 0.5462315 0.7300583 -1.1730199 -0.13835992 0.25645193
0.079355925 -0.6614285 -0.28745607 -0.81724894 -0.013358256 0.5449792 -0.15908082 0.3434557
-0.5384005 -0.075444914 0.0016194035 -0.7052615 -0.70439446 -0.08949281 0.5999725 -0.25951955
-0.12378553 0.66244274 -0.4132547 0.7672752 0.23431401 0.00041997328 0.053905107 -0.4619051
0.007680002 0.35090706 0.5395962 -0.24610922 -0.10910438 -0.0078168595 -0.40607098 -0.20535626
0.5160235 -0.1232883 0.015872218 -0.19017881 -1.0667994 -0.0051040747 0.6419602 -0.33045858
-0.38003927 0.19211547 0.45002162 -0.4779574 0.46400836 -0.3816893 0.2668312 -0.48537937
-0.28703716 -0.008089957 0.36723 -0.16055839 0.5483378 0.054703917 0.38529968 0.22330046
0.4086214 -0.09708078 -0.5571162 -0.25164998 0.5795222 -0.82768804 0.44635522 -0.7068084
0.4842997 -0.050287105 -1.0674487 -0.17413417 0.45908245 -0.674682 0.113451384 -0.1994966
-0.8718793 0.4418976 0.14387493 -0.6957554 0.018531244 0.27191153 -1.1353859 0.74346244
0.34156013 -0.2848398 -0.12949425 0.50479436 -0.772066 0.06844877 0.48365828 0.011288821
-0.59988314 -0.25340438 -0.6417499 0.0812078 0.39375594 0.013164325 0.19493479 -0.17185332
-0.7867051 0.28783652 -0.23460162 -0.18097468 0.5282831 -0.52090156 0.07924116 0.4840702
-0.4586593 -0.26185292 -0.92864764 0.36769235 -0.042864077 0.015879702 0.61236435 -0.40756166
-0.23578769 0.7954279 -0.6246712 0.0037778579 0.42220262 -0.86021316 -0.48093027 0.085584044
-0.12679549 0.0018920021 -0.3336664 -1.0920404 -0.011143137 0.5120679 -0.41881186 -0.08938562
0.5983454 0.24975628 -0.7535631 0.48825458 0.16590825 -0.6808943 0.5099095 0.40714365
-0.018145708 -0.42881557 -0.5450601 -0.35529953 -0.17977217 -0.43440604 0.34309617 0.1170105
-0.287647 -0.3241957 0.6450632 -0.35270935 0.35377088 0.14797404 -0.74856913 0.5372606
0.28663516 0.48752567 0.39583474 -0.25121072 0.6221581 0.41389665 0.36668774 -0.06653695

network.layer1.bias f4 [128]
00000000: 8024 403f 94f4 8cbc ac32 4d3e b707 7ebe
00000010: 33da 083f f6d9 3fbe 6533 cfbe 0e82 393e
00000020: fcea f6be 80db 423f 769a 393f 8595 143f
00000030: 7795 503f c302 36bc 13e9 04bf 0393 06be
00000040: 5a91 723b d342 04bf 7fbf 0d3f 26cc 093e
00000050: 8ec1 d33e fa2b 01bf 9326 4f3f 0636 8e3c
00000060: b9ea 263f 8756 483e 17b7 88bd 8edf 083f
00000070: 6407 673e 608a c53d a73d 0f3f e31a ac3d
00000080: 3d33 9a3f d798 fa3d 4992 13bf bd3f f4bd
00000090: b68e 7e3c 7e8c 40be 090b ad3e ba50 06bf
000000a0: a5a4 543f 41e0 363f 015d aabe a9bd 963f
000000b0: d76e 303d c493 cf3e 810d 193f e262 0ebf
000000c0: 1abe b83d e22b 263f 37e7 1ebf 8a40 6a3f
000000d0: e8dc 703f d8e4 323f 2f86 64be ed5f 873f
000000e0: c036 ecbd 323e 8a3e cf48 7abe 011a b13d
000000f0: 0f7b 743e 3919 663f 9ced 2b3f cffd f0bd
00000100: 9a39 5b3f 10d8 aebe 6616 e5be 917d 3e3f
00000110: 5202 413f e9bb 2b3f a517 f13e 4f35 2b3f
00000120: cf9b 92be 08e4 40be fdc8 d83e d9fb a03f
00000130: 53a5 883f 8849 b4be cdd1 6d3f 954c 453f
00000140: ac78 f53e 56ae 2e3f 6436 bdbe 5872 09bf
00000150: 62c6 44be 404b 993f f685 c43a fd31 dc3e
00000160: 9a47 aa3e 1f76 83be e9e9 62be 2308 a5be
00000170: a918 373f 081a 1f3f c8fc 6b3f a45a 143f
00000180: 5404 b43e 31c0 463e e7e8 99be 0d6b 573e
00000190: 9629 963e 62cc 513f 3c1b 15bf 15e6 673f
000001a0: 96cf a13d b70d 1d3f 23ae 0e3f bc0c aa3e
000001b0: a296 d53d c05e 88be 7e8b 8d3e f643 4f3f
000001c0: d3fe 163f 22b3 013f 8c10 afbe 886b 083f
000001d0: 6021 103f 5c43 b5be f08e c53e c6c9 163f
000001e0: 5cdb 533f cd38 333e e248 8e3e d92b bbbb
000001f0: 577a a73e 3640 e0bc 56e9 34be 6ea1 8b3e
0.75055695 -0.017206468 0.20038861 -0.2480763 0.53457946 -0.18735489 -0.40468898 0.18116018
-0.48226154 0.7611618 0.72501314 0.5804065 0.81478065 -0.011109057 -0.51918143 -0.13142018
0.0037012906 -0.51664466 0.55370325 0.13456783 0.41358608 -0.5045773 0.80918235 0.017359745
0.6520191 0.19564258 -0.066755466 0.5346612 0.22561413 0.096455336 0.5595345 0.08403566
1.2046887 0.12236183 -0.5764509 -0.119262196 0.015536955 -0.18803594 0.33797482 -0.5246693
0.8306373 0.71435934 -0.3327408 1.177663 0.043074455 0.40542424 0.5978623 -0.55619633
0.09020634 0.6491071 -0.62071556 0.9150473 0.94087076 0.6988044 -0.22316812 1.0576149
-0.1153388 0.27000576 -0.24441837 0.08647538 0.23875068 0.89882237 0.6715944 -0.1176716
0.8563477 -0.34149218 -0.4474365 0.7441035 0.75394166 0.67083603 0.47088352 0.6687822
-0.28634498 -0.18836987 0.42340842 1.2576858 1.0675453 -0.3521235 0.92898256 0.7706998
0.47943628 0.68234766 -0.3695556 -0.536901 -0.19216302 1.197609 0.0014993537 0.43006888
0.33257753 -0.25676057 -0.22159542 -0.3223277 0.71522003 0.62149096 0.9218259 0.57950807
0.35159552 0.19409253 -0.30060503 0.2103693 0.29328603 0.8195249 -0.5824468 0.9058545
0.07900922 0.6134905 0.5573446 0.3321284 0.104291216 -0.2663479 0.27645487 0.80963075
0.5898258 0.5066396 -0.34192312 0.5328908 0.56300926 -0.35402954 0.38585615 0.5890163
0.8275659 0.17502137 0.2778998 -0.005712014 0.32710525 -0.027374368 -0.17667136 0.272716

network.layer2.weight f4 [256, 128]
00000000: c727 7a3d 8106 443d 7262 9ebd 8893 72bb
00000010: f84f 8a3d 0a3b 97bd acd8 25bc 25bb a5bc
00000020: eab4 b43c 9fc2 53bc 8425 98bd 830a 9f3d
00000030: b131 8f3d 07bf 09bd 2309 a8bd 0d4f 90bd
00000040: 852e 82bd 3b7b 14ba 9483 8ebd 3b1f 85bd
00000050: a522 ab3b 2b60 8fbc c808 3fbd 73cc b8bc
00000060: ea86 96bd 8846 8c3d 63b1 a6bd 7113 77bd
00000070: dfea 563c fb87 8fbc 7b66 9fbc e9eb 04bd
00000080: 3419 04bd 30b8 643d 41ce 26bd d64a a23d
00000090: dea9 98bd 11a0 223d 888c 8dbd 5476 98bc
000000a0: d4d4 48bd a90b 55bd 4105 90bb 057b 92bd
000000b0: d04d 1a3b ddf5 cbbb dbb2 363d 3b66 86bd
000000c0: 87ff a8bd 4208 73bd 8d10 11bd e90e 2b3d
000000d0: 7d83 36bd 19fe a3bd d8b9 903d 2ca1 6c3d
000000e0: d95c a13c 4a12 9e3d 0eac 38bc 6828 0bbb
000000f0: 440b 03bb 1282 8dbd 4307 a0bc b2d1 49bd
00000100: 5561 c13c be75 d9bc 6cd7 0b3d 4599 89bc
00000110: 21ce 763d cb2e 92bb b48f e8bb 2d85 a2bd
00000120: edfb 1ebd 3f8b 37ba d74e 083d 7e96 9ebc
00000130: 8551 abb9 68b6 e43c 3c6a 9c3d 12cb 3e3d
00000140: 5a30 9dbc d1ba 2ebd 6d9d 163d 58a6 a5bb
00000150: 949c 8e3d 2ecf 623d 706b 5abc 657b 7f3d
00000160: faf5 1a3d f75c 85bd 5761 393d 6366 8bbd
00000170: 8316 9dbc 2013 b3bd 20b8 2b3d 5f0e 8cbd
00000180: 0952 2abc 66c7 253c c51f f5bc fc64 33bd
00000190: 06f8 893d acfe a23d e346 863d 309d 0fbd
000001a0: a856 d03c d22c 9cbd ba58 8fbd c057 85bd
000001b0: 6375 7bbd 4637 fbbc 8a88 92bd 05f9 40bd
000001c0: 5028 a3bc 7a46 af3c 5ab8 a2bd af8f 713a
000001d0: 23fb 123d 7e39 823d bec9 91bd e633 d93c
000001e0: de97 7d3d 7ea7 acbd fb97 893c 3ff8 b83c
000001f0: 09cf 1abd 7b2d b13d 333e 55bd c85d 243d
00000200: d42c 903f 6f11 733e b9e9 eb3e d7ef 99be
00000210: fe74 f53d ddf7 473e 9a34 92bb d5db 1f3e
00000220: f879 a13d fc5b 2c3e 9e57 313e ac7f 23bf
00000230: 2a75 2e3e d837 273e c34d 45bd 0294 973d
00000240: 85fb 0ebf a8c9 a4bc 950c 46be 0fcd 43bf
00000250: c1d8 273e 6f68 acbc 303b 143e 0995 023f
00000260: cc15 8f3d 038a 16bf d842 f93e 9f0e 2b3e
00000270: 387c 8d3f b38a 003e f16a 98bc ca9e 863e
00000280: 4e4d 983f 41ed 8e3d 5d90 b63d 4caa 5bbd
00000290: 57b0 9e3d 0932 c63d 17b7 7d3e 063d 503d
000002a0: ba3b 6a3d 60d5 0f3e 01ed 0f3e d76c 263f
000002b0: a672 f63d 5df2 acbe a7ae 25bf 2fea 67bd
000002c0: 4743 743d 59d4 c83e db61 11bf 3159 893f
000002d0: cca2 02bf 968f b53e 3af3 413e 03bb 2b3f
000002e0: e28f 973e 425f 863e 38c4 d53e fd77 053e
000002f0: 3cbe 183e d0dd a13f bcdc b23d cb7f 953d
00000300: 7b88 4f3f 4b04 c43d 4beb 153d 0321 e8be
00000310: bbce c5bc 8598 963d 7eb2 3b3e 4abc 193e
00000320: aab8 84bd bb29 743e 4983 293e 0389 dbbe
00000330: f94a e1be 5a19 97bd 97cf d73e f5ea 393e
00000340: d5fc 863d cb85 563e 753f cc3e 3ce8 1d3d
00000350: d108 c6be be06 8b3f 427d 55bb de88 593e
00000360: 6eff a13f 7d61 093f f608 0b3f cbb9 1a3e
00000370: 24c8 903e 203d b43e d112 12bf ec4b 563e
00000380: 08e3 983d eccf 943e 6ed4 393e 8e13 9d3c
00000390: 1bcb 3a3e bcbe 0d3e e3dc 8f3d 6150 943f
000003a0: fd9f 543e b4c5 183d 97c6 6e3e 6d65 723e
000003b0: 6d74 093e 8f72 333e f161 753d 93b8 823d
000003c0: 80dd 223f 974f 5c3f 229e 7d3e ec7a 4fbf
000003d0: 4a1c cb3d 6abb d7be f545 9a3d 856c 193e
000003e0: 04a1 7e3e ee9b 1bbf e723 2c3e 19c6 593e
000003f0: b697 b63d 7084 123f f2ac d6be 846e 2ebf
0.06107309 0.047857765 -0.07733621 -0.0037014205 0.06753534 -0.07384308 -0.010122459 -0.020230839
0.022058923 -0.012924819 -0.074290305 0.07765677 0.069919 -0.033629443 -0.08204868 -0.07046328
-0.06356529 -0.0005664115 -0.0695869 -0.06500097 0.005222636 -0.017501911 -0.046639234 -0.022558426
-0.073499516 0.0684939 -0.081393026 -0.060321275 0.013117521 -0.017520895 -0.019458046 -0.032451544
-0.032250598 0.055839717 -0.040724043 0.0792443 -0.074542746 0.039703432 -0.0691157 -0.01861111
-0.049031094 -0.052013073 -0.0043951576 -0.0715237 0.0023544915 -0.0062243775 0.044604164 -0.06562468
-0.08251863 -0.059334047 -0.035416175 0.041762266 -0.04455899 -0.0800745 0.07066697 0.057770893
0.019697594 0.07718332 -0.01127149 -0.00212338 -0.0019995729 -0.069095746 -0.019534713 -0.049272247
0.023605982 -0.026545402 0.03414099 -0.016796717 0.060255174 -0.0044611446 -0.007097209 -0.079355575
-0.038814474 -0.0007001645 0.033278313 -0.01935887 -0.00032676398 0.02791901 0.0763745 0.04658038
-0.019188095 -0.04265863 0.036771227 -0.00505523 0.06963459 0.055373363 -0.013331279 0.062373538
0.037832238 -0.06511872 0.045258846 -0.06806638 -0.019175773 -0.08743882 0.041923642 -0.068386786
-0.010395535 0.010118341 -0.029922375 -0.043797478 0.0673676 0.07958731 0.06556489 -0.035062015
0.025431946 -0.07625736 -0.06999345 -0.065108776 -0.061391246 -0.030666005 -0.07154949 -0.047112484
-0.019916683 0.02139591 -0.079453185 0.0009214831 0.035884034 0.06358622 -0.071185574 0.026514005
0.06191241 -0.08430384 0.016796103 0.02257931 -0.0377951 0.08651253 -0.05206127 0.0401285
1.126368 0.23737119 0.46076754 -0.30065796 0.11985205 0.19528146 -0.004461837 0.15611203
0.07884592 0.16831964 0.1731858 -0.63866687 0.17036882 0.16329896 -0.048169862 0.07401277
-0.5585254 -0.020115688 -0.19340737 -0.7648477 0.16391279 -0.021045892 0.14475703 0.5100866
0.06986579 -0.5880434 0.4868381 0.16704796 1.1053534 0.1255291 -0.018605681 0.2629302
1.1898592 0.06978846 0.08914254 -0.053629205 0.07748478 0.09677512 0.24776874 0.050839446
0.057185866 0.1404624 0.14055254 0.65009826 0.12033586 -0.33778659 -0.64719623 -0.05661982
0.059634473 0.39224508 -0.5678994 1.0730344 -0.5102966 0.3546111 0.1894044 0.6708223
0.2960196 0.2624455 0.41751266 0.13034053 0.14916319 1.2645817 0.08733508 0.07299765
0.8106763 0.09571131 0.036601346 -0.45337686 -0.024146428 0.073533095 0.18329808 0.15013233
-0.064805344 0.23844044 0.16553988 -0.4287797 -0.44002512 -0.07377882 0.42150566 0.18156035
0.06591193 0.20949475 0.39892164 0.038551554 -0.386786 1.0861433 -0.003257588 0.21243617
1.2656076 0.5366438 0.5431055 0.15109937 0.28277695 0.35202885 -0.5705996 0.209274
0.07465178 0.29064882 0.18147442 0.019174363 0.18241541 0.1384229 0.07024553 1.158703
0.20764156 0.03729792 0.23317944 0.23671503 0.13423319 0.1752417 0.059907857 0.06382861
0.6361923 0.86058944 0.24767354 -0.8104694 0.09917505 -0.42135173 0.075328745 0.14982803
0.2486611 -0.60784805 0.1681057 0.21266975 0.08915655 0.57233334 -0.41928822 -0.68137383

network.layer2.bias f4 [256]
00000000: 58b2 f6bc 9595 623d 2bc6 893d c730 523e
00000010: 07fb bc3e 18d2 4b3e 8ce7 de3d 2266 563c
00000020: ad21 d43d cba4 353e 6dd0 f33d 59c3 283d
00000030: 1b92 493e 0731 1a3d c7ea 6ebd 2857 bd3d
00000040: 15dd 65bd c2de c3bd e6c4 8e3d aeab c53d
00000050: 1fcf 543e a48e 103e 8bc9 24be 696b 6a3e
00000060: c691 7e39 fbe7 893e 2399 e3bd 24d9 ee3d
00000070: de7d 5a3e 84ab 353e 6173 963e 1439 c13c
00000080: e60b 103e 06d4 a33e fa3d 5dbb b0d6 6d3e
00000090: 4310 2abd 635f 9abd 0092 bc3e 3714 36bb
000000a0: 765e 733e 9ae6 6f3d 99fd fa3e fc20 b23d
000000b0: 1820 483d 4c6f 4dbd bd92 a63d 0fc2 2b3e
000000c0: efb1 4c3e 5324 293f 68b1 133b 534c 50bd
000000d0: 7ff3 2b3d ef4e d03c 57d2 99bd bd0f 483e
000000e0: a173 b23e 0933 853e 0524 253e ebce 163d
000000f0: a617 d13b 530c fa3e 2141 1ebd 3ce6 02be
00000100: 1b68 7b3e 37c7 0dbd 2438 aa3d 723c 05bd
00000110: dd24 e2bd b587 063e e703 643e 3998 933e
00000120: 03a2 02bd b288 fdbd 7a44 813e d596 0fbd
00000130: cfc8 dc3c 3025 a63c 8ba2 903e 84cd 013e
00000140: e3b6 efbd 9ab2 10be 2245 d8bc 8d53 a53e
00000150: a7fd ec3d b74a 303d 604f 063d a19f bd3d
00000160: 7935 053f 296c d63d 4e2b 763d f02b fa3d
00000170: 9d88 b33e 3001 e43b 4195 a6bb 72d1 203e
00000180: f466 73bd 8a6c 4fbd a108 c9bb 3427 f83c
00000190: 384a 0a3e be2b a4bd 2ddd 1e3e 0326 8d3e
000001a0: a309 453d eff3 693d a7e4 483e 28ae 213e
000001b0: 54d0 cd3d 1157 8ebe fdc0 a6be 3640 923d
000001c0: 60d2 ddbd 3a68 083f 9bc0 2c3e 7123 85be
000001d0: 1f4f f93d 28e1 5d3e 75a9 023e 32d2 703e
000001e0: 9409 6ebc 5438 c5bc 5bea d1bb 53cf 633c
000001f0: 0111 4d3e 79ae 473d 98ef b9bd dfa7 76bd
00000200: 90a7 9d3d ff78 8f3d fa45 aabd f143 053e
00000210: d2eb a7bc c526 2e3e 470c 473d 2acf 4c3e
00000220: 253c 91bd 28b4 983d 0449 c33d 2b8d 3abb
00000230: da80 3f3d 6cad b63d 7873 adbd 8e19 693e
00000240: 4b68 8abd 6131 4b3e 3a14 a8bd e799 6b3e
00000250: f886 1e3e 6acd 0e3c 8084 633e 22d4 aa3d
00000260: 0481 bd3e 961b 803d 292e d7bc db55 c43e
00000270: 7f74 363e 41fd 753e 14b3 503d b593 8d3d
00000280: 4429 213d f737 ec3e 78c5 09be 8b55 853d
00000290: 89ba fe3d 85b9 5a3c 4913 edbd fd38 093e
000002a0: 25c6 6ebb 2ffd 9e3d 9f49 f53e 98d6 183c
000002b0: 7d45 b23e f29b 483c 7509 b5bd cb7f d23c
000002c0: 259d 9e3e fad9 60bc 90cb 763e bfd4 b03d
000002d0: 1328 803b a3f5 fb3c 5d6d 203e 24ec b7bd
000002e0: cbaa a3bd 7f12 383e e533 953b 0c55 613e
000002f0: f6f3 c03e 6519 4c3e c43f 243e 412f cc3d
00000300: 69a2 51bd a428 c93c d210 ff3d 1366 8c3d
00000310: a5fe 1d3c 133f 313e b7ae 433d 4459 7f3e
00000320: d6c6 4c3c d5f3 493c e7a0 973e 4083 0fbe
00000330: 03af 89bc ba4e 7a3e 6bd9 49bd ef8a 77bc
00000340: da31 e53e 99a1 053f c485 783e 2348 5fbd
00000350: a426 89b8 f1c3 c33d 4230 bd3e 5767 873d
00000360: 577b 54bc 234a 473c 366c cebb 970b 013d
00000370: 0efc 613e 3f6f 1c3f 1be7 833e 5b28 a43e
00000380: 3ea1 1ebd b94e 0c3f ff1b 093e 177b 8d3e
00000390: faac 3e3e 3243 e83c 0dfb 953d fd43 d2bc
000003a0: 14a2 96bd b34d 96bc eff3 ad3d d3a2 833d
000003b0: bc41 603e af35 853e 8e8d fa3d 3efe 9f3e
000003c0: 2a33 173e 9d76 583e 9df8 103e 0eb5 af3b
000003d0: 7744 d4bc 093e cd3d 63eb 5e3e 9bff b1bc
000003e0: 30d1 3b3e 9402 183c a172 0b3f e3ba 953d
000003f0: 3572 3a3d 2098 c93d ac4a 5ebc fbd2 923d
-0.030114338 0.055318434 0.06727251 0.2052642 0.3691027 0.19904363 0.10884008 0.013085874
0.10357986 0.17738645 0.119049884 0.041201923 0.19684641 0.037644412 -0.05832937 0.09245139
-0.056119043 -0.09563972 0.06971149 0.09651886 0.20782135 0.14116913 -0.16092508 0.22892536
0.00024277632 0.269348 -0.11113193 0.1166251 0.21337077 0.1774121 0.29384902 0.023586787
0.14067039 0.319977 -0.0033758865 0.23226428 -0.041519415 -0.07537725 0.3683014 -0.0027783045
0.23766503 0.05856953 0.49021605 0.086976975 0.048858732 -0.05015497 0.08133457 0.16773246
0.19989751 0.6607105 0.0022536162 -0.05085404 0.041980263 0.025428263 -0.07510822 0.19537254
0.34853843 0.260155 0.16127022 0.036818426 0.006380993 0.48837528 -0.03863633 -0.1278314
0.24551432 -0.034613814 0.08311489 -0.03252835 -0.11042187 0.13137706 0.22267114 0.28827074
-0.031892788 -0.12379588 0.25247556 -0.035055954 0.026951222 0.020281404 0.2824901 0.12676054
-0.11704805 -0.14130631 -0.026400153 0.32290307 0.11571818 0.043040004 0.03279054 0.092589624
0.5203472 0.10469849 0.060099892 0.12215412 0.35065165 0.0069581494 -0.0050837104 0.15704897
-0.059424356 -0.05064062 -0.006135062 0.030292131 0.13504875 -0.08016156 0.1551406 0.27568063
0.048104893 0.0571174 0.19618474 0.15789092 0.10049501 -0.278008 -0.32569113 0.071411535
-0.108311415 0.5328404 0.16870348 -0.26003602 0.12173294 0.21667922 0.12759955 0.23517683
-0.014528651 -0.02407471 -0.006406111 0.01390441 0.20026018 0.048750374 -0.09078902 -0.060218688
0.07697976 0.070055 -0.08314128 0.13014199 -0.02049819 0.17006977 0.048595693 0.20000902
-0.0709155 0.07456237 0.09535411 -0.002846549 0.04675374 0.08919796 -0.084692895 0.22763655
-0.067581736 0.19843055 -0.08206983 0.23007928 0.15481174 0.008715967 0.22218513 0.083412424
0.37012494 0.062552616 -0.026267128 0.38346753 0.17817877 0.2402239 0.050952032 0.069129385
0.039345995 0.46136448 -0.13454235 0.06510457 0.124379225 0.013349895 -0.11575944 0.13400646
-0.0036434021 0.07763135 0.4790773 0.009328507 0.3481864 0.0122442115 -0.088396944 0.025695702
0.30979267 -0.013723845 0.2410109 0.08634328 0.003911027 0.030756777 0.15666719 -0.08980587
-0.079915605 0.17975806 0.0045533055 0.22005099 0.37686127 0.19931562 0.1603995 0.099699505
-0.051180277 0.024555512 0.1245438 0.068554066 0.0096432315 0.17309217 0.047774043 0.24936396
0.012498578 0.0123262005 0.29614946 -0.14014912 -0.016807085 0.24444094 -0.04927961 -0.015108808
0.44764596 0.52199703 0.24269778 -0.054512154 -6.5398664e-05 0.09558857 0.3695088 0.066115074
-0.01296886 0.012163672 -0.006299521 0.031505194 0.22068807 0.6110725 0.25762257 0.3206204
-0.03872799 0.5480762 0.13389586 0.27632973 0.18620673 0.028352354 0.07323275 -0.025667185
-0.07355133 -0.018347597 0.08493792 0.06427541 0.21900076 0.2601752 0.12234031 0.3124866
0.14765611 0.21138997 0.14157338 0.0053621596 -0.025911553 0.10021598 0.2176948 -0.021728327
0.18341517 0.009277958 0.54471785 0.073110364 0.045519073 0.09843469 -0.013567608 0.071691476

network.layer4.weight f4 [26, 256]
00000000: 14a0 dd3c b93f 043e ca77 573e 4ab8 863e
00000010: 2a7f 703e 3b59 493e ad3d 133e d74d 123c
00000020: 84f4 4c3e a166 ee3d a25b fa3d e490 673e
00000030: 70a2 f03d 1cf1 493e ad74 253e 08e9 473e
00000040: 59f9 613e d19f a03e 0bc3 733e 5a37 883e
00000050: be19 453e 823b 513e 6cd7 0e3e de96 3d3e
00000060: f493 063e 8b51 353e 494b bb3d a8ce 183e
00000070: 1f46 0d3e d6f2 f43d e0c6 d13d b308 273e
00000080: 4fa2 563e 1e33 473e 5462 263e 668d 1f3e
00000090: 00d5 1c3e d080 a93e ce19 f83d 2003 183e
000000a0: 2d47 833e be7f fe3d 59ed ad3e 7eef 7e3e
000000b0: 5bcf 273e 8458 9a3c 88c8 133e 6664 083e
000000c0: 480d 813e f5d0 953d 5dc6 6cbd c0c9 543c
000000d0: 4b16 013e aec6 283e 0889 54bc ebdb cf3d
000000e0: 1739 ea3e 4b03 b83e ccb4 a83d bb0d 493e
000000f0: 06f5 803e be0a 623d f87b 543e a0fc 473e
00000100: 82f6 1e3e 4c54 193d 492c 803e 8ae3 5a3d
00000110: cf93 333e 825e 8c3e 82c8 9c3e f688 2a3e
00000120: 1e47 2f3d 9205 ec3d 98c3 713e 60a3 2e3c
00000130: fa02 5e3d cc8a e53c 912b 953e 8704 543e
00000140: 5f24 423e 4824 153e 90ea 98bc 020c 453e
00000150: ebb7 293e e005 2a3e f06c c93b d9c0 7d3e
00000160: 1858 9f3d 19cb 5d3e bfc2 3f3e 61b0 1e3e
00000170: 9545 613e 90f2 913b 628e 613d 481d 223e
00000180: 80db 1c3c b869 58bd 110f 283e b2d7 363d
00000190: 9d46 813e 4f75 c53e 9ae2 333d 7692 223e
000001a0: 3069 be3b de65 473e d5f3 123f ffb5 403e
000001b0: 28f4 083e 843d 4a3e ddf8 4f3e 92d5 5c3e
000001c0: 049a 353e e25c 6c3e 4fde 253e 5c17 cb3d
000001d0: 8b2f 5c3e 8388 37be 506f 443e 10da 5c3e
000001e0: a42f 2a3d f653 8abc 36ac f53d f6ed f63d
000001f0: d620 193e e07b 12bb 5e8c 473e f24e 50bd
00000200: d479 b5bc 009f ba3b cbaf a93e d99b 293e
00000210: d520 5b3e 63c3 d73d d175 273e 6ce5 463c
00000220: c045 88ba 4e8e 4e3e aab8 6f3e 1870 1e3e
00000230: 7e90 533e e59f 8a3e c454 413d e4dd aa3d
00000240: c7cf 13bd 011a 973e 6f60 6e3e 9c72 863e
00000250: f69b d93d 5625 273e cd7b ef3d 1ba6 343e
00000260: 48e7 e73e 490a 353e 60a0 fb3c b326 ac3d
00000270: 5641 8a3e bb64 173e 5704 0c3e b0be fb3c
00000280: f33b 5e3e ce3b 333e e210 433e cb8e 143e
00000290: 5c3d cc3e 95c3 6c3e e6f4 0c3e 6e40 873e
000002a0: 4fe9 6d3e 873a ab3d 8821 963d e353 d93d
000002b0: 35e1 163e 8841 333d 88a5 97bc 5ded 313e
000002c0: 1ed6 8c3e 8023 673e ce01 063e b655 263e
000002d0: b051 0f3c 2086 37bb 122a 393e 75a7 4c3e
000002e0: ccc6 7a3d 6e92 c73d 144e fc3c 1235 6ebe
000002f0: 0fb9 3abe f30d 9c3e 783e 3d3e 0170 0d3e
00000300: a016 1dbc 9bf3 2b3e 404a 833d 4eea 3d3d
00000310: 484f ec3d 08c9 293e a036 323b 8c47 6b3e
00000320: 603e 4b3e 7066 5abc 4d64 1f3e 0ceb fa3d
00000330: d924 503e 4337 3a3e feb8 4a3d a68f 763d
00000340: 0c0b 693e 2ed2 083e bbdf 163e 1a96 76bd
00000350: 58bc 78bc 43cd 133e ccc4 213e e153 523e
00000360: 37d5 6dbd 081d 243c dc2c 933c 4808 3b3c
00000370: e0f8 023e 6b42 e9bb 3b1a 4c3e 3c50 653e
00000380: 009d f8ba 282d 05bd 8e28 7d3e 1dad 073e
00000390: 73a4 353e 105c dbbb f889 6e3e 773e e13d
000003a0: f8f0 25bc e8f0 c0bc dc2b 5a3e d30f 173e
000003b0: e908 183e 7433 8a3e 8ecd 1f3e 9037 3b3e
000003c0: b603 203e 8fd4 0e3e 88a2 533e 1675 013e
000003d0: 9bdb 193e 5294 c53e b247 503e b3af 343e
000003e0: 1acb 123f cc37 bc3d 5787 493d cf9c 363e
000003f0: 4b87 8b3e 4bf0 a83d 3a96 cd3d 74ca 853e
0.02705387 0.12914933 0.2104179 0.26312476 0.23486009 0.19662945 0.14378996 0.008929691
0.2001515 0.11640669 0.12224509 0.22613865 0.117497325 0.19720882 0.1615779 0.19522488
0.22067775 0.3137193 0.23804872 0.2660473 0.19248101 0.20432857 0.13949364 0.18514583
0.13142377 0.17706887 0.09145219 0.14922583 0.1379628 0.1196038 0.102430105 0.16311912
0.20960353 0.19453093 0.16248447 0.15581283 0.15315628 0.3310609 0.12114297 0.14844942
0.2564024 0.12426709 0.33970144 0.24896047 0.16387694 0.018841036 0.14431965 0.13319549
0.25205445 0.07315246 -0.05780636 0.012987554 0.1260616 0.1648204 -0.012972124 0.10149368
0.4574668 0.35940012 0.08237609 0.19634144 0.25186938 0.055186026 0.20750415 0.19529963
0.15523723 0.037433907 0.25033787 0.053439654 0.17536853 0.27415854 0.30621725 0.16653809
0.042792432 0.115245 0.2360977 0.010659069 0.054202057 0.028020285 0.291348 0.20704852
0.18959187 0.14564621 -0.018666536 0.19242862 0.16574065 0.16603804 0.0061470196 0.24780597
0.077804744 0.21659507 0.18726633 0.1549697 0.219992 0.0044539645 0.055067427 0.15831482
0.009573817 -0.052835196 0.16411997 0.044639297 0.25249186 0.38566062 0.043917276 0.15876183
0.005810879 0.19472453 0.5740331 0.18819426 0.13374388 0.19750029 0.20309778 0.21565846
0.17734534 0.23082307 0.16198085 0.09916565 0.21502511 -0.17923169 0.19183087 0.21567559
0.04154934 -0.016885739 0.11995737 0.12057106 0.14953932 -0.0022351667 0.1948714 -0.050856538
-0.022152819 0.005695224 0.33141932 0.16563357 0.21399243 0.10535314 0.16353537 0.012139659
-0.0010396764 0.20171472 0.23410287 0.15472448 0.20660588 0.27075115 0.04719998 0.083431035
-0.036086824 0.29512027 0.23278974 0.26259315 0.1062545 0.16322836 0.11693535 0.17641489
0.4529364 0.17679705 0.030716121 0.08405819 0.27002972 0.1478452 0.1367353 0.030730575
0.21702556 0.17503282 0.19049409 0.14507596 0.39890563 0.23121484 0.13765296 0.26416343
0.23233531 0.083607726 0.07330614 0.10611703 0.14734347 0.043763667 -0.018511549 0.17375703
0.27507108 0.22572136 0.13086626 0.16243634 0.008747503 -0.0028003529 0.18082455 0.19985755
0.061224744 0.09744726 0.03079895 -0.23262432 -0.18234657 0.30479392 0.18480861 0.13812257
-0.009587914 0.16792147 0.064106464 0.04636603 0.11538559 0.16580594 0.0027193204 0.22976512
0.19848013 -0.013330087 0.15565605 0.12251863 0.20326556 0.18185143 0.04949283 0.060195588
0.2275812 0.13361427 0.14733784 -0.06020174 -0.015181623 0.1443377 0.15797728 0.2053981
-0.058064666 0.010016687 0.017965727 0.011415549 0.12790251 -0.0071185133 0.19931881 0.22393888
-0.0018967688 -0.032513767 0.24722502 0.13249631 0.17738514 -0.0066943243 0.23294818 0.10998242
-0.010128252 -0.023552373 0.21305794 0.1475213 0.14847149 0.2699238 0.15605757 0.18282914
0.15626416 0.13948272 0.2066747 0.12642321 0.15025179 0.38589722 0.2033985 0.17645149
0.5734116 0.0919033 0.049201336 0.17833255 0.27251658 0.08248957 0.10038419 0.26131022

network.layer4.bias f4 [26]
00000000: 7119 c43b e94d 03bd 7f30 153f 3669 843e
00000010: ee63 3cbc 10f5 a43e d8c1 fcbd 6549 00bd
00000020: 3453 b9bc e646 73bc da14 903e 3570 463f
00000030: 9126 d3bd a7a5 3d3f e3a6 babe b05a 03be
00000040: b0fd 543e 057e 613c e259 df3c e9f1 5e3c
00000050: 7fca 83be 91c7 eb3e 7a1b 0f3e 76a7 1ebd
00000060: b51d 553e 5ac9 2a3e
0.005984478 -0.032056723 0.58277124 0.2586152 -0.0114984345 0.32218218 -0.1234166 -0.031319994
-0.022622682 -0.0148484465 0.28140908 0.77514964 -0.1031009 0.7408089 -0.3645545 -0.12827563
0.20799899 0.013762956 0.02726454 0.013607481 -0.2574043 0.46050695 0.13975325 -0.038733922
0.20812114 0.16678372
