DDQN_panda_env2/runs/results_7/last-model.pt (torch, 162903 bytes, 6 tensors)

network.layer1.weight f4 [128, 3]
-0.5083011 0.24474294 0.03732203 -0.77094567 0.31395438 0.3200006 -1.1012993 0.6504381
0.62219507 -0.56952405 -0.6092151 0.11747061 -0.85123 -0.46668994 -0.12651604 -1.091235
-0.16292165 -0.107728004 -0.48498005 0.48586103 0.56522894 -0.4945043 -1.1268418 -0.09232095
1.2145047 0.092717655 0.26745927 -0.11156535 -1.1102602 -0.30727008 -0.6131089 0.07534706
0.7113734 -0.35446995 -0.497527 0.57495457 -0.26418254 -0.45975366 -0.73080975 -0.6296301
0.67463666 0.38614553 -1.0554532 -0.29421708 -0.1635581 -0.05883081 -0.09292153 -0.49391314
0.22528265 -0.21111594 -0.5580606 -1.0692271 -1.1897041 -0.32149544 -0.92506945 -0.855502
-0.058299698 -0.6012511 -0.8670256 -0.39402857 -0.42213893 -0.57377625 0.31657058 -0.8016583
-0.11301906 0.013286479 0.0014552847 0.23986223 -0.4687459 -1.2235944 0.40723073 0.17177846
-0.48347047 0.29266313 -0.056499418 -0.29759562 -0.47814706 0.48918796 -1.1513969 0.36683774
0.22055113 -1.0164664 -0.07407591 0.4607565 -0.74510634 0.43087825 -0.11748277 -0.4973795
-1.1547766 -0.088218525 -0.77963144 0.07020935 0.27591392 -0.76560813 -0.6446025 -0.25073332
-1.0179524 -0.6407048 0.014222804 -0.96161234 -0.39399174 0.30749178 -0.30337858 0.31004706
-0.5740054 -0.6900346 0.32324097 0.7240523 -0.9709114 -0.34765798 0.19469506 -0.32940826
0.54130876 -0.27290973 -0.932522 -0.5604832 -0.38930652 0.3329875 -0.7197865 0.77128667
-0.4752773 0.08341382 0.035075426 1.0586593 0.09782094 0.22827354 -0.73679423 -0.42716703
0.56697726 -0.34180582 -0.50020105 0.3181945 -0.94987524 -0.1036503 0.28443933 -0.4426306
-0.26725787 0.25651765 -1.0058944 -0.7554727 -0.39879912 -0.26007575 0.28002173 0.5317751
-1.0592394 -0.76660675 0.2544125 -0.8170236 0.4884671 0.68644094 -0.29313764 -0.7006437
0.5368754 -1.0824803 0.35895082 0.5100709 -0.41292477 -0.2459795 0.39925048 -0.89162415
0.044148665 0.4999563 -0.1947298 -0.23340543 0.5319811 -0.39722708 -0.9615913 0.42934123
-0.3152654 -0.09810734 0.5472244 -0.5833733 0.4812976 -0.10407285 -1.1088012 0.3140838
0.44449854 -1.1350251 0.12903157 0.022105617 -0.7601892 -0.33317995 0.355806 0.032294102
-0.088860825 -0.13709141 -0.34564075 1.1469809 0.33723828 -0.7207569 -0.17353545 0.5810512
0.29269275 0.11615944 -0.015928427 -0.11093486 0.024927039 0.7328514 1.3836275 -0.27338958
0.1689806 -0.12938882 -0.72001135 -0.15001239 -0.24038582 -1.0526721 -0.33177334 -0.9085868
-0.2574747 0.5001988 -0.6150587 0.37919495 0.595305 0.6897687 -0.53566545 0.61405134
-0.70917755 -0.8180195 0.26459995 -0.13920058 0.33147085 -0.14361626 -0.6487646 -0.3883444
0.45554745 -0.80735815 0.79057986 0.38576156 1.4416381 -0.3108496 0.2572782 -0.71551126
-0.85746616 -0.4150149 -0.6585031 -0.3495525 -0.15978572 -0.9628298 0.21658927 0.39822987
0.3802176 0.6244918 -0.33572757 -0.04543396 -0.61098796 0.19024295 0.44261923 -0.5288687
0.6119175 0.39350602 -0.053877026 -0.37956756 -1.0051196 -0.4222939 -0.09627747 -0.19845146
00000000: 0520 02bf e59d 7a3e fcde 183d b25c 45bf
00000010: a1be a03e 1ed7 a33e 60f7 8cbf 1c83 263f
00000020: 2d48 1f3f 54cc 11bf 85f5 1bbf 6e94 f03d
00000030: 36ea 59bf fcf1 eebe 6c8d 01be 97ad 8bbf
00000040: efd4 26be 80a0 dcbd 4e4f f8be c7c2 f83e
00000050: d8b2 103f ab2f fdbe 5a3c 90bf c412 bdbd
00000060: e474 9b3f c1e2 bd3d 6cf0 883e 607c e4bd
00000070: 021d 8ebf 8152 9dbe b4f4 1cbf 8f4f 9a3d
00000080: 911c 363f 167d b5be dcbb febe 3930 133f
00000090: ef42 87be d564 ebbe 5916 3bbf 702f 21bf
000000a0: fdb4 2c3f deb4 c53e 1719 87bf 9fa3 96be
000000b0: c67b 27be 93f8 70bd a54d bebd 2fe2 fcbe
000000c0: 7fb0 663e c72e 58be 0fdd 0ebf 6fdc 88bf
000000d0: 3948 98bf 0d9b a4be 5ad1 6cbf 2e02 5bbf
000000e0: aacb 6ebd 98eb 19bf 64f5 5dbf 1dbe c9be
000000f0: 9822 d8be 00e3 12bf 8a15 a23e 7a39 4dbf
00000100: 8976 e7bd 88af 593c 40bf be3a 729e 753e
00000110: 76ff efbe be9e 9cbf 8c80 d03e b1e6 2f3e
00000120: 7189 f7be f1d7 953e ef6b 67bd 745e 98be
00000130: b1cf f4be d876 fa3e f960 93bf 28d2 bb3e
00000140: 28d8 613e 921b 82bf 1cb5 97bd 47e8 eb3e
00000150: 4abf 3ebf 139c dc3e ce9a f0bd 87a8 febe
00000160: b8cf 93bf eaab b4bd ed95 47bf ebc9 8f3d
00000170: 9744 8d3e e5fe 43bf ab04 25bf 1e60 80be
00000180: 444c 82bf 3b05 24bf c406 693c 3a2c 76bf
00000190: 49b9 c9be 906f 9d3e 7054 9bbe 7dbe 9e3e
000001a0: 05f2 12bf 1ca6 30bf d77f a53e 7e5b 393f
000001b0: a68d 78bf 3a00 b2be 245e 473e 33a8 a8be
000001c0: 3693 0a3f d3ba 8bbe c3b9 6ebf d47b 0fbf
000001d0: 2f53 c7be 567d aa3e ee43 38bf 0b73 453f
000001e0: 8c57 f3be ddd4 aa3d 40ab 0f3d 2682 873f
000001f0: 5856 c83d 8ac0 693e 8c9e 3cbf a3b5 dabe
00000200: 6c25 113f 2c01 afbe 2d0d 00bf 64ea a23e
00000210: 062b 73bf 9c46 d4bd 08a2 913e 7aa0 e2be
00000220: 06d6 88be 4856 833e 26c1 80bf a966 41bf
00000230: 662f ccbe a628 85be 025f 8f3e 6a22 083f
00000240: 2895 87bf 5740 44bf 5b42 823e 7528 51bf
00000250: 5c18 fa3e 98ba 2f3f 2316 96be 635d 33bf
00000260: ab70 093f b78e 8abf 67c8 b73e 0294 023f
00000270: e06a d3be 0de2 7bbe 8f6a cc3e 7b41 64bf
00000280: 3bd5 343d 46fa ff3e 4067 47be d501 6fbe
00000290: ea2f 083f 5961 cbbe d92a 76bf 9dd2 db3e
000002a0: 776a a1be 80ec c8bd e616 0c3f f457 15bf
000002b0: a46c f63e 2524 d5bd 33ed 8dbf 98cf a03e
000002c0: 5095 e33e 8148 91bf da20 043e d716 b53c
000002d0: c29b 42bf 9096 aabe 342c b63e d246 043d
000002e0: aafc b5bd b161 0cbe d3f7 b0be 45d0 923f
000002f0: 7faa ac3e 8683 38bf 47b3 31be c5bf 143f
00000300: d3db 953e 00e5 ed3d 557c 82bc d131 e3bd
00000310: ca33 cc3c 269c 3b3f b51a b13f b8f9 8bbe
00000320: 4009 2d3e 817e 04be aa52 38bf d99c 19be
00000330: b327 76be f6bd 86bf 32de a9be 2599 68bf
00000340: b9d3 83be 070d 003f 7d74 1dbf d725 c23e
00000350: e965 183f ae94 303f 5f21 09bf 7832 1d3f
00000360: a98c 35bf ba69 51bf a579 873e 998a 0ebe
00000370: 8cb6 a93e 2410 13be 7015 26bf 14d5 c6be
00000380: 843d e93e 06af 4ebf 7163 4a3f 8a82 c53e
00000390: 9987 b83f ae27 9fbe f8b9 833e bf2b 37bf
000003a0: e782 5bbf d57c d4be a993 28bf 8cf8 b2be
000003b0: de9e 23be 047c 76bf 94c9 5d3e c9e4 cb3e
000003c0: e2ab c23e b2de 1f3f 7ce4 abbe f618 3abd
000003d0: b569 1cbf 0ccf 423e fd9e e23e f063 07bf
000003e0: a0a6 1c3f 9f79 c93e 28ae 5cbd ae56 c2be
000003f0: c2a7 80bf e836 d8be 1f2d c5bd dc36 4bbe

network.layer1.bias f4 [128]
0.83221924 -0.33149043 -0.029919105 0.6129309 0.03394049 0.030590918 -0.13606644 -0.082608275
0.78259385 0.23306766 0.67032194 0.6035454 -0.27249378 -0.098977365 -0.03535764 -0.48418275
-0.41388547 0.3684709 0.7718835 0.8097845 -0.1472611 0.61300147 0.1293971 -0.08942372
0.76778096 0.8721072 -0.3116423 0.53596175 0.6642856 -0.21986654 0.5978959 0.37923473
-0.31857422 0.17806612 -0.14331989 -0.24341553 0.4481905 -0.0009882405 0.8497424 -0.2060081
0.5183272 0.8453261 0.06467339 -0.013287841 0.61101013 0.7968546 0.7551718 0.78341496
-0.029050902 -0.22740372 0.17232992 0.8289392 0.6600289 0.6526772 0.2466748 -0.1279797
0.03725689 0.7741567 -0.50077045 -0.11464322 -0.019729456 -0.4885334 0.16831443 0.7669177
-0.5123798 0.5287859 0.46899045 0.8334852 1.1644965 0.8470363 0.614868 0.12284386
0.89128035 -0.09097704 0.20186153 -0.26041883 0.23453741 0.8891485 0.3309456 0.6684545
-0.023656875 0.5336358 0.06449397 -0.3970601 -0.14414583 -0.017385088 -0.21106349 0.5077954
0.747722 -0.34816322 0.074422605 1.1930366 0.85365784 0.089721 0.34460926 -0.22998694
-0.14976276 0.110565454 0.51466614 0.63676775 0.55378973 0.057491515 -0.277742 0.88949156
0.34060225 0.68854505 0.43876842 0.96887314 -0.11152682 0.67280877 0.2219598 0.100295275
0.8773857 0.46685007 0.11755016 -0.0059933434 0.5233275 0.47454044 -0.17752327 0.42337596
0.5843111 -0.29745114 -0.021663828 -0.08177027 -0.029686263 0.87598073 0.31058136 0.08462552
00000000: 520c 553f 1db9 a9be e918 f5bc 0ae9 1c3f
00000010: 2f05 0b3d ce99 fa3c 0055 0bbe 872e a9bd
00000020: 1258 483f 4aa9 6e3e 389a 2b3f f481 1a3f
00000030: 4e84 8bbe a5b4 cabd 2cd3 10bd cde6 f7be
00000040: cce8 d3be 38a8 bc3e 289a 453f 094e 4f3f
00000050: 9dcb 16be aaed 1c3f ac80 043e c923 b7bd
00000060: 4b8d 443f 6b42 5f3f 948f 9fbe ca34 093f
00000070: 9f0e 2a3f b224 61be b50f 193f 0e2b c23e
00000080: 291c a3be f756 363e 73c2 12be ec41 79be
00000090: 3a79 e53e d987 81ba b888 593f caf3 52be
000000a0: 17b1 043f 4b67 583f 7b73 843d 3fb5 59bc
000000b0: 296b 1c3f aafe 4b3f f052 413f e28d 483f
000000c0: 28fc edbc 85dc 68be 4177 303e 5c35 543f
000000d0: a7f7 283f da15 273f 5298 7c3e 1c0d 03be
000000e0: ae9a 183d 222f 463f 7e32 00bf 11ca eabd
000000f0: ab9f a1bc 0d21 fabe 9e5a 2c3e b854 443f
00000100: 532b 03bf 835e 073f 841f f03e 495f 553f
00000110: 390e 953f 5fd7 583f fd67 1d3f 9095 fb3d
00000120: f32a 643f 2c52 babd cab4 4e3e 9e55 85be
00000130: 932a 703e 3c9f 633f b471 a93e d61f 2b3f
00000140: 10cc c1bc 5b9c 083f 6a15 843d 764b cbbe
00000150: f79a 13be 2c6b 8ebc 0721 58be e1fe 013f
00000160: b66a 3f3f 7342 b2be e16a 983d 6cb5 983f
00000170: 5289 5a3f a5bf b73d a070 b03e b281 6bbe
00000180: 695b 19be 2470 e23d 29c1 033f 3603 233f
00000190: 2ac5 0d3f 397c 6b3d 3334 8ebe b8b5 633f
000001a0: 6b63 ae3e 7d44 303f 41a6 e03e 1208 783f
000001b0: 2c68 e4bd 323d 2c3f 6e49 633e 9c67 cd3d
000001c0: 599c 603f f906 ef3e 23be f03d cf63 c4bb
000001d0: cbf8 053f f7f6 f23e a9c8 35be bcc4 d83e
000001e0: 6a95 153f 844b 98be 5778 b1bc 2c77 a7bd
000001f0: 9b30 f3bc 4640 603f 8504 9f3e 2550 ad3d

network.layer2.weight f4 [256, 128]
0.0710954 0.13427633 0.045382824 0.11502297 0.3347486 0.39871216 -0.12345237 0.4411102
-0.7165638 0.5393492 -0.07986434 0.08774182 -0.25394312 0.14875016 0.26222706 -0.030533137
-0.07193011 0.60566956 0.24077745 0.61051154 0.06089941 0.19200507 -0.28150705 0.4934725
0.07926396 -0.0075331028 0.35228252 0.03830446 0.568706 0.4337265 0.04060036 0.45840394
0.15894186 0.1403407 -0.17471275 -0.14274159 0.11413246 -0.4751045 0.645439 -0.107586786
0.064421 -0.679725 -0.01975487 0.04470301 0.08775695 0.14137976 0.58962 0.063667364
0.1800552 0.05085145 -0.003798902 0.05382558 0.039445333 -0.0010545513 -0.12523095 -0.064781785
-0.014966781 0.65919805 0.031022439 0.7370572 0.038112085 0.043418154 0.7354714 0.08386824
0.07358902 -0.107636295 -0.65026546 0.17267548 0.6032071 0.056910202 0.05004482 -0.025711508
0.052440688 -0.18371977 0.04001356 0.21722321 -0.72156817 0.5668625 0.30767432 0.11819547
-0.22965041 0.06649724 -0.057402853 0.021767255 0.28209662 -0.1695359 0.34971255 0.49634695
-0.08510774 -0.07436661 0.11853684 0.46323058 0.3936969 -0.008568395 0.7745557 0.4898717
0.37713963 0.17324167 0.15927623 0.38319212 0.04133478 -0.3248872 0.22505052 0.10889731
0.7086484 0.05488769 0.45870745 0.16648401 -0.17760666 0.04884475 -0.526204 -0.010687557
-0.0014634541 -0.009528329 -0.6199961 -0.059385955 0.11510107 0.014967213 -0.03410924 0.79642886
-0.054614004 0.04933073 0.46152815 0.27993074 0.029830974 -0.6060793 0.106902696 -0.13404123
0.05293068 0.10365746 -0.019203398 0.103438966 0.408376 0.4421052 0.003099028 0.38164055
-0.59349775 0.58088136 -0.008172005 0.019203834 -0.17593008 0.10747107 0.38683867 0.036749702
-0.082691304 0.54286313 0.37787125 0.6626133 0.041034196 0.1629282 -0.11847028 0.41457283
-0.01801819 0.0030340983 0.21714991 0.13822864 0.60812575 0.48115996 0.062400762 0.44899824
0.1889637 0.18105936 -0.07819969 0.076308884 0.24733303 -0.360386 0.6759202 0.046293035
0.031932082 -0.54241997 0.1659876 0.031363424 0.067418024 0.15994059 0.6047133 0.06416896
0.18290766 0.13757162 0.105270065 -0.018937485 0.05917612 0.13042516 -0.026121918 0.15794705
0.046496995 0.6528802 0.08051118 0.7065348 0.06263564 -0.040863488 0.5669959 0.062857784
-0.026122164 -0.026495304 -0.55797637 0.12687463 0.6460573 0.032923713 0.07420981 -0.02217315
0.18343367 -0.083865575 0.15851052 0.1876858 -0.63416326 0.6444824 0.35027945 0.07502834
-0.022906331 0.11563052 -0.016556742 0.06795114 0.4479914 0.030982155 0.28911647 0.6436986
0.021767516 0.047123685 0.33008358 0.38544068 0.15883178 0.023311723 0.6620311 0.576674
0.4752097 0.13995636 0.15050913 0.2567332 -0.0040553184 -0.21048807 0.29376003 0.09086616
0.60833514 0.14916052 0.44703123 0.121738404 -0.10160232 0.05984819 -0.5502682 0.16346149
0.07658917 0.038849708 -0.56409365 -0.010163378 0.08233203 0.12758656 0.11619677 0.9202396
-0.044369526 0.0013849903 0.45009533 0.41147807 0.16404952 -0.6370346 0.2676363 0.007254642
00000000: 779a 913d bc7f 093e 57e3 393d 2a91 eb3d
00000010: 2b64 ab3e 0024 cc3e 99d4 fcbd 32d9 e13e
00000020: ba70 37bf ca12 0a3f ea8f a3bd fcb1 b33d
00000030: d504 82be f651 183e a042 863e a120 fabc
00000040: 1850 93bd 290d 1b3f 5d8e 763e 7c4a 1c3f
00000050: a971 793d fa9c 443e b121 90be 6da8 fc3e
00000060: 2555 a23d 3fd8 f6bb 605e b43e 23e5 1c3d
00000070: b796 113f 6611 de3e 904c 263d ecb3 ea3e
00000080: a8c1 223e 79b5 0f3e e6e7 32be da2a 12be
00000090: 47be e93d e640 f3be 7e3b 253f 7656 dcbd
000000a0: 28ef 833d 7502 2ebf f7d4 a1bc 811a 373d
000000b0: eab9 b33d dbc5 103e 56f1 163f 0964 823d
000000c0: 6460 383e 9c49 503d 00f7 78bb 3678 5c3d
000000d0: 6e91 213d df38 8aba 8b3c 00be 50ac 84bd
000000e0: 3b37 75bc 34c1 283f c522 fe3c c8af 3c3f
000000f0: 6b1b 1c3d 3cd7 313d db47 3c3f 1dc3 ab3d
00000100: d7b5 963d 6b70 dcbd cc77 26bf d7d1 303e
00000110: c86b 1a3f ac1a 693d ccfb 4c3d f1a0 d2bc
00000120: 0ccc 563d 0921 3cbe 42e5 233d c36f 5e3e
00000130: b1b8 38bf e71d 113f 7d87 9d3e 7710 f23d
00000140: 7a29 6bbe b42f 883d 411f 6bbd 3e51 b23c
00000150: f86e 903e d29a 2dbe 860d b33e 3021 fe3e
00000160: f74c aebd 854d 98bd 71c3 f23d 8f2c ed3e
00000170: a492 c93e 7462 0cbc 4849 463f 77d0 fa3e
00000180: 7218 c13e 4466 313e 4f19 233e c231 c43e
00000190: a94e 293d 9d57 a6be a573 663e 8e05 df3d
000001a0: fb69 353f ead1 603d b4db ea3e c97a 2a3e
000001b0: 85de 35be 6f11 483d 4eb5 06bf dd1a 2fbc
000001c0: 5fd1 bfba b51c 1cbc 10b8 1ebf b03e 73bd
000001d0: 1cba eb3d 0b39 753c 21b6 0bbd c3e2 4b3f
000001e0: efb2 5fbd 050f 4a3d 6b4d ec3e 1553 8f3e
000001f0: 1660 f43c 0328 1bbf cdef da3d 1b42 09be
00000200: d7cd 583d 5d4a d43d 7250 9dbc cfd7 d33d
00000210: a916 d13e 9d5b e23e 1019 4b3b 6466 c33e
00000220: 78ef 17bf a4b4 143f e0e3 05bc 5c51 9d3c
00000230: 0427 34be cb19 dc3d b80f c63e db86 163d
00000240: 0f5a a9bd 14f9 0a3f 5778 c13e 06a1 293f
00000250: 7913 283d a6d6 263e 8ca0 f2bd e442 d43e
00000260: e29a 93bc b9d7 463b 8c5c 5e3e cf8b 0d3e
00000270: 21ae 1b3f 995a f63e f197 7f3d 19e3 e53e
00000280: b37f 413e a067 393e 2927 a0bd d547 9c3d
00000290: df44 7d3e 8484 b8be 1b09 2d3f c49d 3d3d
000002a0: 37cb 023d 09dc 0abf a7f8 293e ef76 003d
000002b0: 7612 8a3d 77c7 233e 7ece 1a3f 046b 833d
000002c0: 254c 3b3e 93df 0c3e d597 d73d c922 9bbc
000002d0: a962 723d 2c8e 053e a2fd d5bc dfbc 213e
000002e0: a273 3e3d 2823 273f 0ce3 a43d 77df 343f
000002f0: 1d47 803d 7960 27bd a526 113f 95bb 803d
00000300: 26fe d5bc ae0c d9bc 8ad7 0ebf 6ceb 013e
00000310: 0364 253f 04db 063d 50fb 973d 77a4 b5bc
00000320: 09d6 3b3e b7c1 abbd 9550 223e b530 403e
00000330: 8658 22bf ccfc 243f d457 b33e 75a8 993d
00000340: 0fa6 bbbc b2cf ec3d 01a2 87bc f829 8b3d
00000350: 215f e53e 4ace fd3c 1307 943e 6ec9 243f
00000360: ca51 b23c c404 413d b700 a93e 7b58 c53e
00000370: cca4 223e 3af8 be3c df7a 293f e8a0 133f
00000380: b04e f33e b850 0f3e 111f 1a3e 8972 833e
00000390: 7ae2 84bb 2f8a 57be b767 963e 0a18 ba3d
000003a0: dabb 1b3f 89bd 183e 47e1 e43e fc51 f93d
000003b0: e114 d0bd 6023 753d 60de 0cbf 7362 273e
000003c0: c8da 9c3d df20 1f3d 7168 10bf 4c84 26bc
000003d0: b29d a83d 0da6 023e 92f8 ed3d d394 6b3f
000003e0: d2bc 35bd 9088 b53a e572 e63e 41ad d23e
000003f0: 99fc 273e b314 23bf a007 893e 59b8 ed3b

network.layer2.bias f4 [256]
0.16517231 0.11483336 -0.044473384 0.3651416 0.41392556 0.08775884 0.30558518 0.5946014
0.03054194 0.16904794 0.17897065 0.18814877 0.17653733 0.06988221 0.0063703 0.06845171
0.33094034 0.14321594 0.26315802 0.15410814 0.120407864 0.083571196 -0.055039696 0.085947
-0.06681195 0.023736505 -0.16881494 0.38293073 0.1959383 0.21964 0.16967984 0.2558896
0.2177203 -0.03111703 0.18398608 0.22683969 -0.07900213 0.09413344 0.23889141 0.21608198
0.13427718 0.1273698 0.17392518 -0.39376375 0.14292656 0.210926 0.31210658 0.19984803
0.16953674 0.16130956 -0.04584464 0.21334222 -0.01496802 0.3010967 -0.02053445 0.2869264
0.5071981 0.0951662 0.03873435 0.08936066 0.51168007 0.2984915 -0.053289473 0.18598711
0.10428503 0.00025602395 0.24026494 0.2166533 -0.081809856 0.1827493 0.19300997 0.3510926
0.26432997 0.29681495 0.03225802 0.17367338 0.12056869 0.19540322 0.16342007 -0.084052406
0.15825666 0.21780322 0.12975624 0.5159115 0.14768593 0.13667728 0.26897642 0.40362972
0.08374843 0.030365078 0.15470399 0.23780562 0.16464978 0.34912235 0.06691698 0.30994633
0.26331338 0.40337965 0.06596791 0.29546136 0.004116528 -0.10543284 0.08385982 -0.086656235
0.27626127 0.096095614 0.015243324 -0.01645637 0.2595343 0.110767856 0.1916729 0.10915882
0.088670895 -0.38710567 0.25281677 -0.0412397 0.13767868 0.081929065 0.05137014 -0.04819139
0.31890243 0.60663766 -0.04884925 -0.03754607 0.017587058 0.24142946 0.28918692 0.28584862
0.082446665 -0.036733817 0.040539082 0.31551608 0.3518383 0.15624972 0.25606954 0.6468485
0.068174906 0.041782852 0.32934347 0.13475044 0.016615449 0.24487565 0.17935419 0.010163839
0.19315816 0.24838151 -0.017047063 0.18641922 0.05004219 0.17656165 -0.008622405 -0.041259564
-0.01459051 -0.07287376 0.13747303 0.18943086 -0.0788205 -0.04805746 0.05300896 0.2624669
0.42509386 0.15612164 0.13772066 0.19109854 0.32193598 0.21917604 0.026168589 0.21694584
0.029291162 0.2811728 0.18505554 0.15902984 -0.0034419936 0.16669303 0.2219633 0.14623097
0.19754659 -0.05774568 0.09438774 0.27403545 -0.0026947372 -0.015617251 0.30743423 0.14119208
0.11893965 0.20990816 -0.010201682 0.029868228 0.16305354 0.024803367 0.20128243 0.11085472
0.23894225 0.20095372 0.08586394 0.30317512 0.36441436 0.006276024 0.10312284 0.26337054
-0.07558207 0.23682782 0.068703845 -0.0400934 -0.011716023 -0.022768883 0.05032456 0.25925907
-0.04127291 0.19809207 0.20201984 0.04197082 0.23627123 0.27338937 0.19372892 0.20833142
0.02795983 0.26825666 0.10499882 0.15358141 0.2048905 0.18574674 0.42591658 -0.028275931
0.16938873 -0.05085639 0.34598747 -0.004542482 0.04598299 -0.066872686 0.2796433 0.12947528
0.10416568 -0.047746953 0.33568177 0.28643945 0.25120205 0.33744678 0.1413665 0.06699763
0.097922385 0.08596287 0.20103766 -0.010689944 0.21749884 -0.092188165 0.16929907 -0.008114902
0.073792614 0.018998187 0.08720146 0.17707035 0.2538609 -0.04137712 0.35689 0.0510752
00000000: ee22 293e c12d eb3d b929 36bd d7f3 ba3e
00000010: 0dee d33e e8ba b33d a975 9c3e cc37 183f
00000020: 1733 fa3c e71a 2d3e 1544 373e 12aa 403e
00000030: 34c6 343e 671e 8f3d f3bd d03b 6930 8c3d
00000040: 0371 a93e 33a7 123e a6bc 863e 86ce 1d3e
00000050: 6698 f63d 6027 ab3d 4e71 61bd fb04 b03d
00000060: b4d4 88bd 0f73 c23c d3dd 2cbe 7f0f c43e
00000070: 0da4 483e 4fe9 603e 8dc0 2d3e f603 833e
00000080: 12f2 5e3e 24e9 febc d966 3c3e aa48 683e
00000090: decb a1bd 08c9 c03d f39f 743e 9844 5d3e
000000a0: f57f 093e 3b6d 023e 7119 323e 679b c9be
000000b0: 575b 123e fcfc 573e 6fcc 9f3e f6a4 4c3e
000000c0: 0a9b 2d3e 552e 253e 97c7 3bbd 6276 5a3e
000000d0: 6d3c 75bc 5929 9a3e dd37 a8bc 04e8 923e
000000e0: bcd7 013f 7fe6 c23d e9a7 1e3d b902 b73d
000000f0: 77fd 023f e1d3 983e 1046 5abd 6873 3e3e
00000100: 6493 d53d f43a 8639 0308 763e 5dda 5d3e
00000110: ed8b a7bd a222 3b3e 68a4 453e 69c2 b33e
00000120: 4256 873e 21f8 973e fc20 043d 6fd7 313e
00000130: b8ec f63d c817 483e 9757 273e ab23 acbd
00000140: 090e 223e cf07 5f3e d2de 043e c712 043f
00000150: fb3a 173e 21f5 0b3e 47b7 893e 8ea8 ce3e
00000160: 4c84 ab3d 2fc0 f83c b96a 1e3e 5183 733e
00000170: f499 283e 2ac0 b23e c50b 893d 49b1 9e3e
00000180: 03d1 863e c787 ce3e 2f1a 873d b646 973e
00000190: f1e3 863b 2ced d7bd b3be ab3d d378 b1bd
000001a0: 1e72 8d3e c7cd c43d 23bf 793c 82cf 86bc
000001b0: aee1 843e 42da e23d e745 443e a98e df3d
000001c0: 1699 b53d b732 c6be 3371 813e f6ea 28bd
000001d0: a4fb 0c3e 6dca a73d 7f69 523d 5664 45bd
000001e0: 2e47 a33e 9b4c 1b3f 2716 48bd e8c9 19bd
000001f0: bc12 903c 4939 773e 4f10 943e c05a 923e
00000200: ccd9 a83d 3376 16bd 4f0c 263d 538b a13e
00000210: 2624 b43e edff 1f3e 8c1b 833e dd97 253f
00000220: 499f 8b3d 7f24 2b3d b59f a83e 05fc 093e
00000230: 1f1d 883c afc0 7a3e a0a8 373e 3b86 263c
00000240: 41cb 453e b957 7e3e 48a6 8bbc aee4 3e3e
00000250: 0af9 4c3d 94cc 343e fd44 0dbc caff 28bd
00000260: 090d 6fbc d63e 95bd bbc5 0c3e 2afa 413e
00000270: a46c a1bd e6d7 44bd ec1f 593d 1062 863e
00000280: e7a5 d93e 5ade 1f3e a506 0d3e 56af 433e
00000290: cbd4 a43e af6f 603e 825f d63c 0d27 5e3e
000002a0: 05f4 ef3c e2f5 8f3e 337f 3d3e b8d8 223e
000002b0: 1293 61bb 94b1 2a3e 594a 633e 92bd 153e
000002c0: a749 4a3e bc86 6cbd 5c4e c13d 604e 8c3e
000002d0: 309a 30bb 80df 7fbc 0568 9d3e a894 103e
000002e0: a296 f33d 2af2 563e f524 27bc 37ae f43c
000002f0: 82f7 263e 6e30 cb3c fb1c 4e3e cd07 e33d
00000300: 47ad 743e d0c6 4d3e 6fd9 af3d c539 9b3e
00000310: 8594 ba3e 1ba7 cd3b 1132 d33d 81d8 863e
00000320: c6ca 9abd fe82 723e 9ab4 8c3d fa38 24bd
00000330: 90f4 3fbc cf85 babc 2021 4e3d 9bbd 843e
00000340: c80d 29bd a6d8 4a3e 4ade 4e3e 98e9 2b3d
00000350: 16f1 713e b1f9 8b3e e060 463e d554 553e
00000360: 030c e53c f058 893e 9f09 d73d 7244 1d3e
00000370: d1ce 513e 6534 3e3e bd11 da3e eda2 e7bc
00000380: 3d74 2d3e ca4e 50bd 4525 b13e 1ad9 94bb
00000390: a958 3c3d 8cf4 88bd 682d 8f3e 2b95 043e
000003a0: d154 d53d 4f92 43bd 7bde ab3e 31a8 923e
000003b0: 8e9d 803e d3c5 ac3e 61c2 103e 0e36 893d
000003c0: 888b c83d 4d0d b03d d1dc 4d3e e024 2fbc
000003d0: 04b8 5e3e 26cd bcbd bc5c 2d3e 5ef4 04bc
000003e0: 9520 973d 16a2 9b3c ae96 b23d ee51 353e
000003f0: 0efa 813e 0e7b 29bd 49ba b63e 3b34 513d

network.layer4.weight f4 [26, 256]
0.09475171 0.10613401 0.059825405 0.10310753 0.19651552 0.08628718 0.12524718 0.114799544
0.061184097 0.11683998 0.13302009 0.17167984 0.10402011 -0.04596719 0.007112648 0.08707839
0.21515235 0.12246679 0.1056253 0.20717481 0.19292146 0.034313582 -0.019800417 0.16377398
-0.015095651 -0.016758911 -0.031227022 0.066922575 0.26015314 0.17963764 0.17837685 0.22342238
0.13070557 -0.02512449 0.11780068 0.14114277 0.056728147 0.11213298 0.18904011 0.16789065
0.18354441 0.18692382 0.29113704 -0.033720676 0.07828374 0.16113 0.13050988 0.2362545
0.074272946 0.19422902 -0.010294408 0.20508286 0.031369727 0.22310404 -0.049650244 0.16034342
-0.021282537 0.17732672 0.03060721 0.20208333 0.1739808 0.14586613 -0.014000155 0.20347619
0.14305724 0.23085779 0.11087968 0.10647095 -0.0050490424 0.1864611 0.2569407 0.20870604
0.09712423 0.2000046 0.044415295 0.107360564 0.21722184 0.14595646 0.13693805 0.03989601
0.16047566 0.1936555 0.1543713 0.25252527 0.21101214 0.19469315 0.13271153 0.19578898
0.12369003 0.124849 0.20164174 0.1803682 0.2757313 0.10930612 0.13414851 0.22354834
0.19525039 0.24744795 0.18716648 0.15999788 0.13032497 0.13291928 0.10728513 -0.010816745
0.25557762 0.26034805 0.058730222 0.1483214 0.22116035 0.08006371 0.08198279 0.13043644
0.10801533 -0.06582955 0.19427948 0.009941444 0.191168 0.1921219 0.012680426 0.049567506
0.14110996 -0.096929155 0.0034701275 0.0052662864 -0.050390415 0.18709452 0.46736678 0.18492164
0.21452767 -0.015694119 0.058716632 0.3438396 0.22503905 0.1930713 0.1926596 0.11115178
0.18781218 0.08386516 0.11050007 0.1503859 -0.01659035 0.16483144 0.18353966 -0.023005694
0.12883458 -0.0209225 -0.049689054 0.18875733 0.21110424 0.13609672 -0.04979986 -0.037482902
-0.0016740784 -0.0015012398 0.1532525 0.10857659 -0.058742173 -0.020646363 -0.0060938075 0.12803261
0.29374138 0.12296176 0.15849152 0.19901936 0.09120847 0.1778397 -0.018396333 0.17031048
0.12557562 0.26745573 0.16447912 0.18404707 0.0129878605 0.11708864 0.16442384 0.16847864
0.14236447 0.030172892 0.1041951 0.18358411 0.09298652 0.20002571 0.15361054 0.18511315
0.08746309 0.10133919 0.00066725165 -0.010935247 0.18411955 0.07760838 0.1459679 0.07442093
0.121663675 0.1042324 0.19799541 0.23047118 0.11657993 -0.05103132 0.04900889 0.17735672
-0.059627403 0.19644569 0.110161684 0.054158047 -0.04377333 0.016195603 -0.0055429265 0.14186668
0.0560427 0.13399161 0.14100257 0.009894244 0.15168655 0.1950382 0.1714369 0.31845358
-0.04313779 0.17883286 0.1130412 0.10513084 0.12475446 0.13483238 0.23316935 0.044204064
0.1539268 -0.05904063 0.09026861 0.0037998557 -0.01906766 0.025201544 0.51182795 0.14951494
0.16688873 -0.012604615 0.13171114 0.27355453 0.20003264 0.12143973 0.17164853 0.14144035
0.095258474 -0.060050324 0.09497463 0.040143475 0.22285807 0.17230488 0.09231143 0.042840056
0.04338246 0.0182129 0.14892371 0.18795489 0.11263198 -0.032689013 0.08587213 0.050342374
00000000: 2f0d c23d ca5c d93d 7c0b 753d 0a2a d33d
00000010: 5d3b 493e 55b7 b03d cc40 003e 061c eb3d
00000020: 2d9c 7a3d cd49 ef3d 6b36 083e d7cc 2f3e
00000030: 7f08 d53d 1848 3cbd 3711 e93b 2856 b23d
00000040: e650 5c3e decf fa3d 1452 d83d a225 543e
00000050: 348d 453e 668c 0c3d 7c34 a2bc 5eb4 273e
00000060: c053 77bc fc49 89bc d0cf ffbc b40e 893d
00000070: cb32 853e eef2 373e 6ca8 363e d6c8 643e
00000080: aed7 053e e0d1 cdbc 7c41 f13d bb87 103e
00000090: c65b 683d faa5 e53d bb93 413e 87eb 2b3e
000000a0: 11f3 3b3e f568 3f3e ea0f 953e b11e 0abd
000000b0: 3a53 a03d 43ff 243e 62a4 053e b3ec 713e
000000c0: 6a1c 983d f9e3 463e e0a9 28bc 3e01 523e
000000d0: 8b7d 003d 6375 643e 0e5e 4bbd 1131 243e
000000e0: b758 aebc 2395 353e f9bb fa3c efee 4e3e
000000f0: 0628 323e ee5d 153e e860 65bc 105c 503e
00000100: 997d 123e fc65 6c3e e314 e33d 710d da3d
00000110: 7072 a5bb a9ef 3e3e bb8d 833e 09b7 553e
00000120: 11e9 c63d 02ce 4c3e d0ec 353d dbdf db3d
00000130: 676f 5e3e 9c75 153e 7d39 0c3e 006a 233d
00000140: bb53 243e a14d 463e 8313 1e3e fe4a 813e
00000150: 9113 583e a45d 473e 88e5 073e e87c 483e
00000160: 3351 fd3d d5b0 ff3d 2c7b 4e3e 71b2 383e
00000170: a72c 8d3e e3db df3d 3a5e 093e dbe9 643e
00000180: b8ef 473e ff62 7d3e 92a8 3f3e 7cd6 233e
00000190: e973 053e fe1b 083e 4eb8 db3d b838 31bc
000001a0: 12db 823e 574c 853e 1a8f 703d 91e1 173e
000001b0: dc77 623e 71f8 a33d 98e6 a73d 2191 053e
000001c0: 2437 dd3d a5d1 86bd 33f1 463e 70e1 223c
000001d0: 8bc1 433e 9abb 443e 90c1 4f3c 4c07 4b3d
000001e0: 217f 103e cb82 c6bd 146b 633b d090 ac3b
000001f0: 2e66 4ebd b595 3f3e b34a ef3e 195c 3d3e
00000200: 24ad 5b3e f490 80bc da80 703d be0b b03e
00000210: a370 663e 7cb4 453e 8f48 453e 8ba3 e33d
00000220: d651 403e 7fc1 ab3d dc4d e23d c3fe 193e
00000230: 7ce8 87bc 93c9 283e d2f1 3b3e 7076 bcbc
00000240: 36ed 033e aa65 abbc c086 4bbd 9a49 413e
00000250: b62b 583e f05c 0b3e f0fa 4bbd ac87 19bd
00000260: c06c dbba 40c5 c4ba 39ee 1c3e 675d de3d
00000270: a29b 70bd 9022 a9bc 90ae c7bb fb1a 033e
00000280: 4565 963e 60d3 fb3d 9a4b 223e bbcb 4b3e
00000290: 82cb ba3d 9c1b 363e e8b3 96bc df65 2e3e
000002a0: e596 003e f5ef 883e 376d 283e d676 3c3e
000002b0: 09cb 543c 2bcc ef3d b95e 283e aa85 2c3e
000002c0: fec7 113e 242d f73c 3e64 d53d 79fd 3b3e
000002d0: b76f be3d 8ad3 4c3e 154c 1d3e 4d8e 3d3e
000002e0: d91f b33d ec8a cf3d 80ea 2e3a c029 33bc
000002f0: d689 3c3e 24f1 9e3d 9c78 153e 006a 983d
00000300: ce2a f93d cc77 d53d 4fbf 4a3e a300 6c3e
00000310: 75c1 ee3d 3806 51bd 8cbd 483d 009d 353e
00000320: dd3b 74bd 0f29 493e 739c e13d d4d4 5d3d
00000330: aa4b 33bd a4ac 843c 70a1 b5bb 8045 113e
00000340: 088d 653d 1935 093e fa62 103e 781b 223c
00000350: b853 1b3e 18b8 473e 288d 2f3e 590c a33e
00000360: 40b1 30bd f61f 373e 2582 e73d d64e d73d
00000370: 447f ff3d 8011 0a3e f2c3 6e3e 520f 353d
00000380: fd9e 1d3e 96d4 71bd c0de b83d 0007 793b
00000390: c833 9cbc 7873 ce3c 2807 033f 721a 193e
000003a0: e1e4 2a3e 9683 4ebc 49df 063e 570f 8c3e
000003b0: 5bd5 4c3e 65b5 f83d a2c4 2f3e bdd5 103e
000003c0: e016 c33d 54f7 75bd 0f82 c23d 7c6d 243d
000003d0: e834 643e b170 303e c60d bd3d 0e79 2f3d
000003e0: ceb1 313d 3833 953c 757f 183e 3f77 403e
000003f0: 98ab e63d eae4 05bd badd af3d ce33 4e3d

network.layer4.bias f4 [26]
-0.11348003 0.10109044 0.7270247 -0.23265792 0.22245456 0.19711667 -0.28698578 0.008368352
0.15528867 -0.31794822 0.17553937 0.6420826 -0.34077334 0.8705399 -0.45381218 -0.06765322
0.3093376 -0.09338344 -0.037346296 0.15425582 0.07740389 0.15490171 0.37266508 -0.11576754
0.27864945 0.25436747
00000000: 3868 e8bd 8108 cf3d 4a1e 3a3f e13d 6ebe
00000010: 21cb 633e f4d8 493e cdef 92be 6a1b 093c
00000020: fe03 1f3e 1cca a2be 98c0 333e 865f 243f
00000030: d879 aebe b4db 5e3f 125a e8be c58d 8abd
00000040: 7f61 9e3e d13f bfbd 6ef8 18bd 3df5 1d3e
00000050: ee85 9e3d 8e9e 1e3e f5cd be3e 8817 edbd
00000060: 24ab 8e3e 743c 823e
