DDQN_panda_env2/runs/results_4/best-model.pt (torch, 162903 bytes, 6 tensors)

network.layer1.weight f4 [128, 3]
000000 a7 9d 4a 3e 50 83 48 bf 26 ce 9a 3d d5 ef 3b bd
       0.19786702 -0.78325367 0.07558851 -0.04588302
000010 e1 eb 22 3d fa 76 07 3e 82 c4 4e bf 83 f4 02 bf
       0.039775733 0.1322898 -0.807686 -0.51154345
000020 aa db 33 be de a6 06 bf 77 02 c3 3e ac b2 52 3e
       -0.17564264 -0.5259837 0.38087818 0.2057597
000030 c9 e8 7d bf 85 80 bb 3e df e1 0d bd 5a be a8 be
       -0.99183327 0.3662149 -0.034639236 -0.32957727
000040 a0 26 68 3e 86 86 96 be 92 61 5f 3f 37 49 26 3d
       0.22670984 -0.29399508 0.87258255 0.040597167
000050 5b 80 76 3e dd 48 5f 3f 9b c3 69 3c 68 0e 9b 3e
       0.24072401 0.87220556 0.014267827 0.3028443
000060 69 4d 07 bf 70 75 40 bf 2b e1 b8 be ea 60 8f be
       -0.52852494 -0.75179195 -0.3610929 -0.28003627
000070 fb ee 42 bf 1b e8 b6 be 3b c4 f6 be e2 02 89 be
       -0.76145905 -0.35723957 -0.48196587 -0.26760012
000080 4c 5b b8 3b 27 8e 96 bf 2f e7 06 3f 3a ab f6 3d
       0.005626118 -1.1762131 0.5269651 0.120443776
000090 ec 0e 02 bf a3 d6 69 bf 20 66 d9 be e6 76 6a bf
       -0.5080402 -0.91343135 -0.42460728 -0.91587675
0000a0 bf 0a 3a 3f 65 fc 31 3e 5e ad 88 bf d2 79 16 bf
       0.7267265 0.17381437 -1.0677907 -0.58779633
0000b0 38 d1 3a 3f 80 fa 37 bf ef 20 19 bf 12 77 52 be
       0.7297549 -0.7186661 -0.5981588 -0.20553234
0000c0 b6 eb 03 bf be 49 ae 3e 43 d2 20 3f 8e 32 84 3e
       -0.5153154 0.34040636 0.62820834 0.2581982
0000d0 1b 62 1b 3f bd 80 d6 be ac 62 0a be 48 49 e5 3e
       0.6069657 -0.41895095 -0.13514203 0.44782472
0000e0 30 e2 3d 3f 4b 73 81 be d9 46 47 3e 8c fc 80 be
       0.7417326 -0.25283274 0.1946062 -0.25192678
0000f0 c6 28 d0 be b9 be 48 bf 53 5c 18 be d8 7d 72 bf
       -0.40656108 -0.7841602 -0.14878969 -0.9472327
000100 62 3d d7 be da 70 99 be b0 1d 31 bf 81 0f 2f bf
       -0.4203902 -0.2996891 -0.69185925 -0.6838303
000110 14 fd b0 3e 75 30 7d bf c1 18 ff bd 2b 3d 00 3e
       0.34568083 -0.98902065 -0.12455893 0.12523334
000120 a2 be 31 be b0 49 07 be 5d 2b 33 3e 3d 8c a4 bf
       -0.17357877 -0.13211703 0.1749701 -1.2855297
000130 44 5d 9d be 81 be 23 be 75 27 34 bf d9 05 48 bf
       -0.3073522 -0.1599064 -0.70372707 -0.7813392
000140 ce 26 9a bd 6c 34 37 bf 93 d7 62 3e 6a 11 0d 3f
       -0.07526933 -0.71564364 0.22152548 0.55104697
000150 25 67 99 be f6 87 bf be d0 22 e8 be 65 f8 1f be
       -0.29961506 -0.37408417 -0.4533906 -0.15622099
000160 8e 70 58 bf 5f 85 78 3d 64 a9 45 bf 9d e2 4a be
       -0.84546745 0.060674068 -0.77211595 -0.19813009
000170 f7 2f 98 be 7e d3 06 bf 32 cd 93 be a1 23 51 3e
       -0.29724094 -0.5266646 -0.2886749 0.20423748
000180 11 bc 8c bf 41 b9 02 be f5 d7 b0 bd c8 53 29 be
       -1.0994893 -0.12765981 -0.086349405 -0.16535866
000190 ad 04 40 bf 59 a1 95 3d e6 41 8d 3e 9d 9c 1f 3f
       -0.75007135 0.07306165 0.2758934 0.6234835
0001a0 f0 74 dc be 0d bf 69 bf 25 94 38 3e ae 30 b8 3e
       -0.43057966 -0.91307145 0.18025263 0.3597464
0001b0 b8 64 e8 3e 31 e7 86 bd 30 b1 08 bf 54 29 73 bc
       0.45389342 -0.06587065 -0.53395367 -0.014841396
0001c0 3a 8d 3f 3e 68 1b 80 bd 46 c4 40 3e 6f 5e ce bd
       0.18706217 -0.06255227 0.18824872 -0.100766055
0001d0 24 5a f4 be a2 db 81 bd 9e b6 fd be 5a 95 00 3f
       -0.47725022 -0.0634072 -0.49553388 0.5022789
0001e0 4c 75 58 bf 13 3a 20 3e f8 1f b0 3e 9d bb 4b bf
       -0.8455398 0.15647154 0.3439939 -0.7958315
0001f0 d6 f7 93 be 75 b9 bc bc ef 68 66 bf ea 2c 70 3e
       -0.2890002 -0.023037652 -0.90003866 0.23454633
000200 3e 15 ec bd 44 64 52 bf a8 77 01 bf 60 c3 07 3f
       -0.11527489 -0.82184243 -0.50573206 0.53032494
000210 2b 8d 74 be 9d 43 50 bf fb fc b9 be 3e c6 4f bf
       -0.23881976 -0.8135317 -0.3632582 -0.8116187
000220 88 31 01 bf 7e 8b ad 3e 66 36 72 bf 25 00 38 bf
       -0.50466204 0.33895487 -0.94614255 -0.7187522
000230 ad 77 88 be db e7 83 bf 9a 08 fc 3e f3 ab fd 3e
       -0.26653805 -1.0305132 0.49225312 0.4954525
000240 fa f6 2a bf c3 7d 35 bf 77 db c7 be 41 1c 62 bf
       -0.66783106 -0.7089502 -0.39034626 -0.8832436
000250 c6 d2 6e 3d e3 bb 1d 3f 38 dd 21 3c 92 e6 03 bf
       0.058306478 0.6161482 0.009879403 -0.515237
000260 6c a6 ee 3e 7d 15 45 bf f9 69 8b bd 8d 2f ea bd
       0.46611345 -0.76985914 -0.06807322 -0.11434851
000270 cc fe 98 bd d2 f6 ac be 54 bd a1 be 41 a0 6c bf
       -0.07470474 -0.3378206 -0.31589758 -0.9243203
000280 bd a4 79 be d3 49 5c be 9e 95 61 bf 14 d4 9f bd
       -0.24379249 -0.21512537 -0.8811892 -0.078041226
000290 2e 4a 31 bd 4a 57 84 bf a3 60 37 3e 3d b2 24 bd
       -0.043283634 -1.0339139 0.17907958 -0.040209044
0002a0 79 9b 65 bf a4 2d c2 3d a9 ee a3 3d e9 10 8c bf
       -0.8969036 0.094813615 0.08004505 -1.094266
0002b0 80 be 76 bd e8 ae 66 3e 71 0b 54 3e 16 ba 0d bf
       -0.06024027 0.22527659 0.2070749 -0.5536207
0002c0 c1 18 a5 be 08 fd 12 bf 9f ee 96 be 04 1b 4c 3e
       -0.32245448 -0.57417345 -0.29478928 0.1993218
0002d0 be 75 4b 3e ee ff 7f 3e 62 d7 9b be 7c 38 36 3f
       0.19869134 0.24999973 -0.30437762 0.7117994
0002e0 6f 06 c4 3e b5 bf d8 be d4 e8 76 bf 19 30 33 ba
       0.38286158 -0.4233376 -0.9644902 -0.0006835475
0002f0 52 f0 6a be b7 31 88 bf 22 44 ce 3d db be 3b bd
       -0.22943237 -1.0640172 0.10071589 -0.04583631
000300 d4 a3 6d bf 86 97 1d bf 99 f7 0c 3f 24 c3 8f bf
       -0.92828107 -0.6155933 0.55065304 -1.1231427
000310 b5 74 50 be da 78 15 3e 28 17 92 bf e2 47 85 be
       -0.2035702 0.14596882 -1.1413317 -0.26031405
000320 67 a5 ea 3d f0 8c 81 bf d9 f3 42 bf 76 23 c5 bd
       0.11457329 -1.0121136 -0.7615333 -0.09625904
000330 7e 04 f8 be 18 2a cc be af 68 88 bd 92 80 2c 3f
       -0.48440927 -0.39875865 -0.06660592 0.6738368
000340 60 4b 45 3f e0 da 5e be 08 88 96 bf 2b 4b ce be
       0.7706814 -0.21763182 -1.1760263 -0.40291724
000350 30 2d 30 bd ff 20 d4 be 8c 05 c5 be 8d 36 19 3f
       -0.043011844 -0.41431424 -0.38480794 0.5984886
000360 3b ef e2 bc e3 9c 19 bf 2e 0c 7e bd 9e fc 88 3d
       -0.027701965 -0.60005015 -0.062023334 0.06688808
000370 26 29 5c bf 19 de bc be 5e f4 8f be 91 e2 70 3e
       -0.8600029 -0.36888197 -0.28116125 0.23523928
000380 2b 34 ff 3e 01 f2 47 bf cc 7a bd bd 87 f3 d2 3e
       0.49844489 -0.78103644 -0.09251937 0.41201422
000390 1d 19 04 bf ff 30 3b bf ea ed d7 bd f7 51 8f bf
       -0.5160082 -0.7312164 -0.105434254 -1.1196889
0003a0 a5 41 f8 bb 57 d6 3d be bd ac 45 bf 66 f8 c9 3e
       -0.007576185 -0.18538795 -0.772167 0.39447325
0003b0 ba c2 16 3e 62 80 76 3c 0e d4 a1 bc 13 56 c1 bd
       0.1472272 0.015045257 -0.019754436 -0.094402455
0003c0 eb ff 19 3f 4c ac 7e 3e e2 d1 e6 be fd db 59 3e
       0.60156125 0.24870414 -0.45082003 0.21275325
0003d0 0c 89 23 bf b1 9f 7a be 1a 50 43 bf 8e ca d9 bd
       -0.6388099 -0.2447498 -0.762941 -0.10634337
0003e0 54 34 64 be 16 45 cb be 2c 9c bb 3e 5f 30 4b 3f
       -0.22285587 -0.39701146 0.36642587 0.79370683
0003f0 b4 cf 96 3f 96 19 91 bc c6 83 87 3e de 44 14 bf
       1.1782136 -0.017712396 0.26467723 -0.57917583

network.layer1.bias f4 [128]
000000 f3 7d bb bc 34 f6 4b 3f 93 da 5f 3f bd 54 3e 3f
       -0.022887206 0.7967255 0.8744289 0.7434805
000010 91 87 8f 3e 3d c3 b3 be db c1 f8 3e d8 f5 8f 3e
       0.28033116 -0.35109892 0.485854 0.2811725
000020 8e f2 6e 3f 04 e5 35 3f 22 08 0f 3f c7 b7 3a bc
       0.9333886 0.71052575 0.55871785 -0.011396355
000030 f3 a8 73 3f 8d 64 8b 3e ab 90 88 3e b1 de 90 3e
       0.9517967 0.27225152 0.26672873 0.282949
000040 b1 47 1f 3f 74 36 bc be d1 19 62 3f 58 21 98 be
       0.6221877 -0.36760294 0.8832064 -0.2971294
000050 00 75 5d 3f 27 63 59 3f 26 17 98 3d 8b 43 35 3f
       0.8650665 0.8491692 0.0742629 0.7080619
000060 0a 77 4c 3f eb 27 e2 3e 58 46 03 3f 67 03 04 3f
       0.7986914 0.4417108 0.5127921 0.5156769
000070 28 35 c0 be 0b 32 e4 3e 64 74 8a 3f b2 21 80 3d
       -0.37540555 0.4456943 1.081677 0.06256427
000080 4d 19 39 3c 26 3c 6b be de 42 6e bd 90 d7 62 3f
       0.011297536 -0.22972164 -0.05816924 0.8861017
000090 9f 9b 43 be a0 fc 61 be c3 cb 12 bf 36 95 56 bd
       -0.19102333 -0.22069025 -0.57342166 -0.052388392
0000a0 d6 85 4a 3f 5c 3c 6d 3f 1f 6a 63 3f e8 03 ff 3d
       0.7911047 0.92670226 0.888338 0.12451917
0000b0 4a 80 43 3f 2b b3 6a 3f 30 36 06 3f d2 27 1b 3f
       0.7636763 0.9167964 0.52426434 0.60607636
0000c0 6f 40 6e 3f cd 15 3c 3f 51 6c 01 3e 30 2d ed 3e
       0.9306707 0.73470765 0.12638976 0.46323538
0000d0 da dc 9b 3b 39 3f 31 3f 91 13 73 3f fb 3c 01 3f
       0.004756552 0.69237095 0.9495173 0.50483674
0000e0 f1 ef 81 3f 00 83 00 3f 0d db 1c bf b3 17 80 3f
       1.0151349 0.5019989 -0.61271745 1.0007232
0000f0 6b e7 e5 be 85 2d 14 be 5b 56 6d 3f 98 d4 0b 3e
       -0.4490312 -0.1447049 0.92709893 0.13655317
000100 c9 8a 38 bc 47 88 3b 3f e8 25 1d 3e b1 17 85 be
       -0.011263558 0.7325482 0.15346491 -0.25994638
000110 21 38 e4 3e 7f e0 58 bc 35 b8 0d 3f 99 ab cc 3e
       0.44574073 -0.013237118 0.553592 0.3997467
000120 16 90 c8 3d 5e 15 6a 3f 8d 02 62 3f 50 f2 ec 3e
       0.09793107 0.91438854 0.8828514 0.4627862
000130 48 4e 26 3d 2b a1 42 3f ee 03 cc 3e 21 4b 02 bf
       0.040602 0.7602717 0.39846748 -0.5089589
000140 71 d1 32 3d 47 aa e9 3e 4f 6e 55 3f bc e5 97 3d
       0.04365677 0.45637724 0.8337144 0.07416865
000150 87 b8 3e 3f 7e c7 48 3f 2e 58 2d be 6c 33 55 3e
       0.74500316 0.784294 -0.16928169 0.20820397
000160 ec a2 2c 3f 47 d3 a5 be 55 cb 4b 3f 34 de 49 3f
       0.674361 -0.32387754 0.79607135 0.7885468
000170 92 49 a5 3e 00 d6 d8 3e 0c 89 52 3f 87 95 00 3f
       0.32282692 0.4235077 0.82240367 0.5022816
000180 5f 04 e8 3e 80 80 55 3e 09 ff 37 3f 76 0e cd 39
       0.45315835 0.208498 0.7187353 0.0003911142
000190 bf 76 0e 3f 28 50 91 3e fb 5b c4 be 75 9d 7b be
       0.5564994 0.28381467 -0.38351426 -0.24571784
0001a0 09 e0 da 3e e7 9c 59 3f 18 b9 73 3d 8d 41 d9 3d
       0.4274905 0.8500504 0.05950269 0.10608206
0001b0 1a 22 14 be 2d 3e 47 3f ff ae ce 3e ab 48 b6 3e
       -0.14466134 0.7782925 0.40367886 0.35602316
0001c0 71 8a 52 3f 4c d4 86 bd 81 fc 8f be 87 fc 2f 3f
       0.82242495 -0.06583461 -0.28122333 0.687447
0001d0 d2 65 c6 bd 77 46 7f 3f 81 ed b3 3e 6f a2 83 bc
       -0.096873894 0.99716896 0.3514214 -0.016068665
0001e0 9d 81 33 3e d4 ef ff 3d 08 4f 8d 3c ea 3e 9a be
       0.17529912 0.124969155 0.0172496 -0.30126125
0001f0 45 e8 7d 3f ca 11 6a 3f 0e 6f 3c be 14 a6 1c 3f
       0.9918254 0.91433394 -0.18401739 0.61190915

network.layer2.weight f4 [256, 128]
000000 4d d5 46 be d0 d7 bd 3d 31 d9 98 3e 8b 6b 1c 3e
       -0.19417305 0.092696786 0.29853204 0.152754
000010 ef 8a f5 3e 3d 94 86 bd ca f0 f5 be e2 55 36 bf
       0.4795756 -0.06571243 -0.4803527 -0.71224797
000020 6f 18 01 3f 05 48 f3 3e cb bb 19 3e 56 9d df 3e
       0.5042791 0.47515884 0.15013044 0.43674725
000030 52 c9 ec 3e f0 b3 49 3f ab 10 fc 3a c9 74 ba 3e
       0.46247345 0.7879019 0.0019231042 0.36417225
000040 83 ed bd 3d ff 16 8a bd 9a e7 dc 3d 30 55 2c bd
       0.092738174 -0.067426674 0.10786362 -0.04207343
000050 5b a6 71 3e d0 7f 3b 3f 15 6a 1f bb 45 f9 7c 3e
       0.23598616 0.732419 -0.0024324704 0.24704464
000060 08 59 15 3e 16 c2 30 3f 92 80 36 3e 24 1f 95 3c
       0.14584744 0.6904615 0.17822483 0.018203326
000070 a8 c9 05 3f 13 8c a2 3d 1b 08 38 3f f8 85 a9 3c
       0.5226083 0.07936873 0.7188737 0.020693764
000080 54 49 9f 3e 33 8d 8a 3d be a6 f3 bd 5c a8 3a 3e
       0.31110632 0.06765213 -0.11897038 0.18228287
000090 1b 4a f2 3c ba 8d 05 bd 2a 79 32 bd 9e c9 a7 3b
       0.029576352 -0.032605864 -0.043572582 0.00512047
0000a0 02 00 53 3e 2c c5 97 3e 81 2c f5 3e 5e a2 93 3d
       0.20605472 0.29642618 0.47885516 0.072087035
0000b0 0a 5d db 3e a6 08 12 3e a9 5e 30 3f 4a 7f 10 3e
       0.4284442 0.14261112 0.6889444 0.14111057
0000c0 87 71 18 3f be 6d ab 3d 24 68 04 3d 98 cf e3 3e
       0.5954823 0.08370541 0.03232588 0.4449432
0000d0 01 14 09 3f 4c b0 37 3f 94 a3 ae 3e 46 b3 f8 3e
       0.5354615 0.7175338 0.34109175 0.48574275
0000e0 39 c6 92 3e 58 40 65 3e 6d 2c 19 3e a7 37 4b 3e
       0.28666857 0.22387826 0.14958353 0.19845448
0000f0 9d bf 42 3d 1d e9 13 be 14 31 1c 3f ad 29 cf 3e
       0.047546018 -0.14444394 0.6101239 0.40461484
000100 c5 76 25 bd 92 bc 66 3e 3c d1 a9 3d ff a0 4d 3e
       -0.04039647 0.22532871 0.082918614 0.20080946
000110 f0 36 51 3e 13 2d 36 be 6c fd 48 3e 84 39 c5 3c
       0.20431113 -0.17790632 0.19627923 0.024075277
000120 05 39 e1 3d 3a 6f fe 3e fe 42 c1 3d 2f b9 85 3c
       0.10997204 0.49694234 0.09436606 0.016323654
000130 4f 3d 08 3e fd ee 32 3f f5 39 6f 3e 52 bc 8b 3d
       0.13304637 0.6989592 0.23361953 0.068230286
000140 c0 40 1e be c0 27 23 3f a7 9a 80 3f 6e dc 19 bd
       -0.15454388 0.6373253 1.0047196 -0.037563734
000150 85 a0 0e bf 88 8c a9 3d a7 e0 d9 bd 92 d0 31 bf
       -0.55713683 0.08278757 -0.10638552 -0.6945888
000160 01 38 2e bc a6 f1 39 bd 22 1b 99 3d ab c6 40 3e
       -0.01063347 -0.04539647 0.07475878 0.18825786
000170 23 44 74 3e c4 28 4c 3d d2 8b 1e 3f bc dc 37 3f
       0.23854117 0.049843565 0.619321 0.7182119
000180 7f 2e 22 bd a6 f9 f0 3d 58 8b 37 3f 91 38 ca bd
       -0.039595123 0.11766367 0.71696997 -0.098740704
000190 e7 b7 be be a5 0f d4 3d 8b 0b 4f 3e f3 9a 3d 3e
       -0.3724968 0.103545465 0.20219247 0.1851614
0001a0 7b 82 eb 3e c5 bc 1f 3e 66 33 45 3c 85 55 da 3e
       0.45997986 0.15599354 0.01203618 0.4264337
0001b0 83 be 4e bc 4f f4 9b 3d ed dd 1e 3e 5e 70 f3 3d
       -0.012618664 0.076149575 0.15514345 0.11886667
0001c0 c1 e2 56 3e 88 dc 81 bd 93 dc 86 bb da fc 08 3e
       0.20984937 -0.06340891 -0.00411565 0.13377705
0001d0 63 a3 db 3d 4e c0 4b 3e dd ca 47 3e 1c 49 2f bf
       0.10724523 0.19897577 0.1951098 -0.6847093
0001e0 19 a3 1e 3f 9d 8c ab 3c 3d 20 30 3f c2 4a 45 bd
       0.6196762 0.020941073 0.6879919 -0.048166998
0001f0 3e 7e 32 b8 3d 9b 1d bf 60 81 d6 bd 15 e5 28 3e
       -4.255608e-05 -0.61565 -0.10473895 0.16493638
000200 ff be bb bd 4e 40 06 3e f0 49 c1 3e 74 04 8b 3e
       -0.09167289 0.13110468 0.37751722 0.27151835
000210 07 f1 e8 3e c9 a0 92 3c 96 93 fb be f1 ff 2d bf
       0.4549639 0.017898934 -0.49136037 -0.6796866
000220 da 5c f0 3e c1 bd ba 3e 1f 4d 1f 3e 45 dc c4 3e
       0.4694584 0.36472896 0.15556763 0.38449302
000230 4b b6 02 3f 6e 08 45 3f b9 9a a7 3c b1 b6 b9 3e
       0.51059407 0.7696599 0.02045952 0.36272195
000240 7a f3 3b 3d 5b fd 66 bd cc 03 2f 3e db 0e 60 bd
       0.045886494 -0.056393962 0.17091292 -0.054701667
000250 7f 1a 5d 3e e2 2b 1d 3f e9 ed 1c 3d 95 97 e4 3d
       0.21592139 0.61395085 0.038312826 0.111617245
000260 dd c8 a6 3d 1c 32 2c 3f ad 59 40 3e d5 14 fe 3d
       0.081437804 0.6726396 0.18784209 0.12406317
000270 f0 1f 8b 3e 7e 7c 45 bd 82 86 14 3f 3d 45 85 bb
       0.27172804 -0.048214428 0.5801774 -0.0040670917
000280 c0 a9 b6 3e 79 f9 b9 3d 29 72 19 be 42 9d 39 3e
       0.35676384 0.09080786 -0.14984955 0.18126395
000290 e7 30 9c 3c c8 af 85 bd 52 1c f1 3b 4c cc 27 3c
       0.019066287 -0.06527668 0.0073581124 0.010241579
0002a0 b3 bf e8 3d 4b 55 95 3e 5e fd 11 3f 9b b8 58 bd
       0.11364689 0.29166636 0.5702723 -0.05291043
0002b0 90 4f b3 3e 09 d4 fd 3c 3a df f2 3e 5c 4a 46 3e
       0.3502164 0.030984895 0.47435933 0.19364303
0002c0 d3 d3 fa 3e 94 40 89 3d 34 f7 64 3c 56 c1 ca 3e
       0.48989734 0.067017704 0.013974953 0.3960063
0002d0 12 7c f5 3e 36 22 41 3f 48 59 9f 3e ac dd e7 3e
       0.4794622 0.75442827 0.31122804 0.4528631
0002e0 6a 01 a8 3e 97 1f d0 3d d5 2e 73 3e a2 c1 96 3d
       0.3281358 0.10162275 0.23748334 0.07361151
0002f0 1f 09 9f 3d 85 09 4e bd b2 0b 22 3f 86 33 c6 3e
       0.077654116 -0.050302047 0.63299096 0.38711184
000300 07 21 7f 3d 44 57 51 3e 32 b6 a9 3d 6f cf 64 3e
       0.062287357 0.20443445 0.08286704 0.22344755
000310 c2 a1 35 3e 74 3f 76 be 76 45 6c 3e f4 f1 d0 3c
       0.17737487 -0.24047643 0.23073372 0.025505997
000320 6d 39 ab 3d b1 35 dc 3e 58 4f c3 3d 61 4c 1a 3d
       0.083605625 0.43009713 0.09536618 0.037670497
000330 cd b0 3c 3e b9 7a 48 3f d5 dc 4e 3e 52 69 23 3d
       0.18426819 0.7831226 0.20201428 0.039895363
000340 58 50 1e bc 66 5e 12 3f c5 fb 8f 3f 8b bf 0b bd
       -0.00966271 0.5717529 1.1248709 -0.034118216
000350 6b 42 0b bf 26 78 3a 3d 5b 8a a6 3c 10 2e 0e bf
       -0.5439822 0.04552474 0.020329645 -0.55539036
000360 1c 32 9e bb a1 8f 98 bd 6b aa 2c bb 90 c3 e7 3d
       -0.004827751 -0.0744927 -0.0026346694 0.113165975
000370 1a a6 2c 3e 69 a8 83 bc 5e 5a 07 3f 5f e4 01 3f
       0.16860238 -0.016071515 0.52872264 0.5073909
000380 4b e3 61 3d 05 60 6c 3e 20 b3 3a 3f 27 a1 22 bd
       0.055148404 0.23083504 0.72929573 -0.039704468
000390 9c d8 fb be 55 2f 88 3d 95 e9 01 3e ea f4 fe 3d
       -0.49188697 0.06649653 0.1268676 0.124490574
0003a0 5c 47 b8 3e 8e f5 21 3e 4c 27 fb 3b ff 8a c9 3e
       0.35991943 0.15816328 0.0076645967 0.39363858
0003b0 fa 8a a8 bd 9d 03 d9 3d db 29 7f 3d 55 c8 25 3e
       -0.08229633 0.10596392 0.062295776 0.16189702
0003c0 7a 17 6e 3e 0d 76 ff bd d6 8a 05 3d 8d 57 a0 3d
       0.23251143 -0.12473688 0.032603107 0.07829199
0003d0 0c 25 1b bc 05 bb 57 3e f1 09 62 3d 51 9b 33 bf
       -0.009469282 0.21067436 0.055185262 -0.7015887
0003e0 b6 d6 d1 3e b9 38 6b 3d 90 5d 1b 3f c6 2a a5 bb
       0.40984124 0.05742714 0.6068964 -0.0050404994
0003f0 5c 32 bb 3c ee dc 09 bf 7f 92 8c bc d2 36 40 3e
       0.022851162 -0.53852737 -0.017159699 0.18770912

network.layer2.bias f4 [256]
000000 c4 02 74 3e 18 a7 89 3e 83 c1 4c 3e 3c 89 2d 3d
       0.2382918 0.26885295 0.19995694 0.042367205
000010 24 53 6d 3e d9 64 a7 3e d0 dd 83 3e 1e e1 1f bd
       0.23176247 0.32694128 0.25755167 -0.039033048
000020 76 55 63 3e 6c 4e 36 3e 0b 30 a3 3d cf 05 bc 3e
       0.2220057 0.17803353 0.07968148 0.36723182
000030 3e 9d cb 3e 40 39 c1 3e 95 72 8e 3e ff a3 8f be
       0.39768404 0.3773899 0.27821794 -0.28054807
000040 ad eb 82 bd 54 53 95 3e e1 58 99 bd 68 4d 87 3e
       -0.06392608 0.29165137 -0.074876554 0.26426244
000050 2c a9 a6 3e 48 01 68 be 2a 9c a6 3c 08 c3 8c 3e
       0.32550943 -0.22656739 0.020338137 0.27492547
000060 32 f9 df 3e c9 23 ed 3e 42 99 bf 3b d9 ac a4 3e
       0.43744808 0.46316364 0.005847127 0.32163122
000070 6d 92 5c 3e 94 f5 62 3e 6a ed 1d 3d 7a dd 20 3e
       0.21540232 0.22163993 0.038556494 0.15709487
000080 80 27 3c be 3b b3 aa 3e 55 c0 bd bc 8a 63 0c 3e
       -0.18374443 0.33339867 -0.023163 0.13709846
000090 68 9d 7b 3c d6 2e 9c 3e 68 db 91 3e 5e bb a7 3e
       0.015357353 0.30504483 0.28487706 0.32760137
0000a0 da 71 7d 3e 19 9b f6 3d fe bb e4 3b b5 0a b4 bd
       0.24750462 0.12041301 0.006980418 -0.08791105
0000b0 6a 15 9e 3e 3f ca 67 3e 6d b0 9f 3e 3c 9d 7f 3e
       0.30875713 0.22635745 0.3118929 0.24962324
0000c0 d5 51 2b 3e dd 73 fd 3e ac ac 29 bc df de 65 bd
       0.16730435 0.4950246 -0.01035611 -0.05612075
0000d0 93 8e 92 3e 83 9d 73 bd d9 25 a2 3e 67 24 9f 3e
       0.286244 -0.059476387 0.316695 0.3108246
0000e0 5e b9 99 3e 68 f8 ca 3e 89 24 78 3e 9a fc 81 bd
       0.30024236 0.39642644 0.24232687 -0.06347008
0000f0 28 f2 97 3e ad 3d 06 3d ad 22 a7 bd d0 c7 8b 3e
       0.29676938 0.032773662 -0.08160911 0.27300882
000100 2a a1 ae 3e 25 5f 70 3e cb 23 af 3e 1b ea f4 3d
       0.34107333 0.23473795 0.34206995 0.119587146
000110 8c 50 ad 3e c0 1d 98 3e 36 13 76 bd 84 e2 c6 3c
       0.33850515 0.29710197 -0.060076915 0.024277933
000120 89 27 b5 3e d1 c9 c0 3e f0 3c 7d 3d 44 84 a1 3e
       0.35381725 0.37653974 0.061825693 0.31546223
000130 99 9e 67 3e 69 75 c6 3e ad d2 7f 3e 3c 83 9b bd
       0.22619094 0.38761452 0.2498271 -0.0759339
000140 77 7d bc 3e bf 73 b2 3e 24 db b1 3d 66 a9 66 3f
       0.36814472 0.34853932 0.08684376 0.9010223
000150 65 83 88 3e da b0 4b be 0f 33 60 3e 0a 08 83 3e
       0.26662746 -0.19891682 0.21894477 0.2559207
000160 19 d2 9e 3e ed a9 aa 3e c2 cf da 3e fc 20 58 3c
       0.31019667 0.33332768 0.42736632 0.013191458
000170 6d 7f af 3e b2 6c 05 3e a8 d3 b6 3e ad 17 44 3e
       0.34276906 0.13029745 0.35708356 0.19149657
000180 36 96 01 bd 33 cd cb 3e 15 4e 86 3e 68 96 42 3e
       -0.031637393 0.39804992 0.26231447 0.19002688
000190 8b b2 a0 3e b9 82 a5 bd 1a 5d 2f 3e 4c c6 8a 3e
       0.31386217 -0.08081574 0.17125359 0.27104414
0001a0 d6 e4 91 3e e8 fa b0 3e 08 23 58 3e e4 f9 a3 3d
       0.284949 0.34566426 0.21107113 0.08006647
0001b0 d1 30 93 3e e0 7e 3a 3f e0 9b b0 3c 56 94 c3 3e
       0.2874818 0.72849846 0.021558702 0.3819911
0001c0 df ff b5 3e d1 cf c0 3e d7 00 c9 3e 8c d6 a7 3e
       0.35546777 0.3765855 0.39258453 0.32780874
0001d0 80 50 38 3e 54 7a 8a 3e bb e1 0a 3f 7b d9 6a 3e
       0.17999458 0.27046454 0.5425069 0.22934525
0001e0 bc 6a 82 3d 10 95 ac 3e f8 c7 7c 3e 96 0c c7 3c
       0.06368014 0.33707476 0.24685657 0.024297994
0001f0 c3 09 a7 bd 63 32 24 3e e0 39 cb 3e 68 e7 8b 3e
       -0.08156159 0.16034846 0.39692593 0.27324986
000200 f8 37 7d bd 51 e9 42 3d d4 a8 af 3e 81 35 a1 3e
       -0.061820954 0.04758579 0.34308493 0.31486133
000210 88 49 9c 3e c4 33 f0 3e 38 b4 ea 3d 45 75 37 3e
       0.3052485 0.46914494 0.11460155 0.17915829
000220 1f 87 aa 3e 2f e1 82 3e 47 f4 8f 3e c1 37 7a 3e
       0.33306214 0.25562426 0.28116056 0.24435331
000230 19 28 88 3e 00 4d a6 3e 89 20 a5 3e 23 3e 80 3e
       0.26593092 0.3248062 0.32251385 0.25047407
000240 90 32 8f 3e 7a 8d 8d 3e 9c fd cf 3e f2 89 8b 3e
       0.27968264 0.27647 0.40623176 0.2725368
000250 4b 84 f2 3e 78 e0 68 3e e6 6c 8c bd 2c 7c c9 3e
       0.47366557 0.22741878 -0.06856708 0.39352548
000260 96 b8 84 3e c1 36 12 3d 15 c4 90 3e 79 a9 a4 3e
       0.25922078 0.03569675 0.282746 0.32160547
000270 aa 16 06 3e 16 7d aa 3a a2 b7 b9 3e a0 82 99 3e
       0.13094583 0.0013007249 0.36272913 0.2998247
000280 72 a6 34 3e d4 f5 a0 3e 17 9d 86 bd ec 50 da 3e
       0.17641619 0.31437552 -0.06572931 0.42639863
000290 c4 ed 6d 3e d1 b8 41 3f a7 f2 c6 3e 5f b0 6b 3e
       0.23235232 0.7567263 0.38857004 0.23016499
0002a0 d3 3d b0 bc e1 40 73 bd 8c ca ac 3e 39 1c b0 bd
       -0.021513855 -0.059388045 0.3374828 -0.08599133
0002b0 c7 4a 4e 3e 0c 2a 1e 3e 89 9d 00 3f c5 a4 c4 3e
       0.20145713 0.15445727 0.5024038 0.3840696
0002c0 39 4a a8 3e 20 6b 51 3e 47 8b 50 3d d5 d6 4b 3e
       0.32869127 0.20451021 0.050914075 0.1990617
0002d0 d8 b3 72 3e 9e 69 ef 3e ba 20 89 3e a9 58 26 3d
       0.23701417 0.46760267 0.2678278 0.040611897
0002e0 02 5d a4 3e c6 e7 24 bd eb d7 87 3e bb cc bc bd
       0.3210221 -0.0402601 0.2653192 -0.09218737
0002f0 da 6f 98 3e 72 45 83 3e ac 1b 0c 3f 09 78 32 3c
       0.29772836 0.2563892 0.54729724 0.010892876
000300 97 aa b1 3e bc bf 01 3e 64 48 3b 3e 15 f3 06 bd
       0.34700462 0.12670797 0.18289334 -0.032946665
000310 a9 f4 2d 3e b4 18 aa 3b e1 6a 8f be b5 8d d2 3d
       0.16987862 0.005190933 -0.2801123 0.10280935
000320 ec d0 9c bd af 32 c7 3c 9d 51 36 3e 02 09 e2 3e
       -0.07657036 0.02431616 0.1780457 0.44147497
000330 8f 9c 78 3e bd b7 d7 3e a5 f9 b4 3e e3 ba 11 3d
       0.24278472 0.4213237 0.35346714 0.03557862
000340 11 91 72 3e da 25 c1 3e 71 4d 57 bd 61 b2 b4 3e
       0.23688151 0.3772419 -0.05256409 0.35292342
000350 e1 88 5b 3f 16 26 4f 3e 8f ca cb 3d 67 28 40 3d
       0.85755736 0.20229372 0.09950744 0.04691353
000360 64 6d 82 bd 7e 55 89 3e 15 42 a9 3d 03 2a b8 3e
       -0.06368521 0.26823038 0.08264557 0.35969552
000370 94 9a 90 3e fb 31 f1 3e 5d bf ac 3e 69 b8 e4 3e
       0.28242934 0.47108445 0.3373975 0.44671944
000380 a8 35 75 bd 80 29 2d 3e 39 96 ac 3e b1 ce d5 3e
       -0.059865624 0.16910362 0.3370836 0.41759256
000390 27 6a 86 3e 75 52 95 3b ce a5 5f 3e 5c 85 c6 3e
       0.26252863 0.004556949 0.21840593 0.3877362
0003a0 eb e5 95 3e b4 1b e0 bc 04 e3 b7 3e c5 db b8 3e
       0.29276976 -0.02735696 0.35915387 0.3610517
0003b0 f0 31 ab 3e e5 87 9e 3e 0a ac 52 bd 1b 9f c0 3e
       0.33436537 0.30963054 -0.0514336 0.37621388
0003c0 ae b9 95 3e 32 68 ab 3e 2d 12 6d 3e 24 fd e1 3e
       0.29243225 0.33477932 0.23151465 0.44138443
0003d0 30 48 ac 3e 3f a2 7a 3e d8 07 63 3f f2 a9 59 3e
       0.33648825 0.24475954 0.88683844 0.21256235
0003e0 97 ab 9d 3e 77 d7 c8 3e 56 87 39 3e 1c 62 bb 3e
       0.30794975 0.39226887 0.18118033 0.3659829
0003f0 0b 71 dd 3e 26 5b 8b 3e e7 6e e7 3c 07 9a 13 3e
       0.43250307 0.27217978 0.028251125 0.14414226

network.layer4.weight f4 [26, 256]
000000 51 af b1 3d 9e 41 07 3e c3 57 41 3e 4a 85 49 3d
       0.08676017 0.13208625 0.18881135 0.04919938
000010 2f 57 0f 3e 53 f4 64 3e e3 3f fd 3d 80 6c 7c ba
       0.13998102 0.22358827 0.12365701 -0.0009629205
000020 9f 2a af 3d f1 c9 04 3e e7 90 c9 3d dc 18 fb 3d
       0.08553051 0.1296766 0.09842091 0.12260601
000030 51 9a d5 3d d5 e7 fe 3d 42 c3 e5 3d c5 45 69 bd
       0.10429824 0.12446562 0.11218883 -0.056951303
000040 f8 c5 1a bd 6c 15 e5 3d 3a 82 4d bd e3 4a 1b 3e
       -0.037786454 0.111857265 -0.05017302 0.15165286
000050 83 f5 80 3e 01 bf a2 3c fe 64 df 3d b0 b1 22 3e
       0.2518731 0.019866468 0.109079346 0.15888095
000060 1f ef 0d 3e 2d c4 3c 3e c2 30 44 bd 09 71 d7 3d
       0.13860749 0.1843421 -0.04789806 0.105196066
000070 dd 6a 1f 3e 08 8e 11 3e dc a5 86 bc 54 f0 e8 3d
       0.15568109 0.14214337 -0.01643651 0.11373964
000080 1e 80 91 3e 7a 5c e8 3d e7 a5 4e 3c f9 ea 01 3e
       0.28418058 0.113457635 0.012612796 0.12687291
000090 f0 48 a7 3b 49 ce 1f 3e 63 4d fe 3d bc da 31 3e
       0.0051051304 0.15606035 0.12417104 0.17368597
0000a0 b9 d5 68 3e da 2a 0d 3e ec 76 d6 3c 9b 99 a7 3c
       0.22737779 0.13785878 0.026179753 0.020458987
0000b0 7b a0 35 3e 00 51 2b 3e d8 db c6 3d 72 ed 3d 3e
       0.17737 0.16730118 0.097099006 0.1854761
0000c0 1c a0 f0 3d ad 5e c0 3e 54 17 74 3b 7f fc af be
       0.117492884 0.37572232 0.003724535 -0.34372327
0000d0 63 da 70 3e 7c 6d e7 bc 55 4a 13 3e ac f9 0f 3e
       0.23520808 -0.028250448 0.14383824 0.14060086
0000e0 8c 61 55 3e b3 94 2f 3e ea 55 37 3e 59 26 59 3c
       0.20837992 0.17146568 0.17903867 0.013253772
0000f0 8e bf b9 3d 12 0b 4e bd c2 24 24 3d 68 37 bf 3d
       0.09069739 -0.050303526 0.040074117 0.0933674
000100 37 75 5c 3e c7 74 37 3e 49 f0 2e 3e 30 d0 43 3e
       0.21529089 0.17915641 0.17083849 0.19122386
000110 0a 9a ba 3d 85 48 a7 3d 06 9d 5a 3d 98 01 d2 3c
       0.09111412 0.08168129 0.053372405 0.025635526
000120 97 f0 1d 3e 62 c6 e4 3d 73 d6 3e 3b 2a 4d 42 3e
       0.15423809 0.11170651 0.002911952 0.18974748
000130 80 7e 0b 3e 80 bb 03 3e 8e 73 1d 3e e0 9b 8e 3c
       0.13622475 0.12864494 0.15376112 0.017408311
000140 d2 d9 c2 3d e6 bc b0 3d c3 27 1f 3e f4 e6 a5 3d
       0.09514202 0.086297795 0.15542512 0.081006914
000150 87 ae d8 3d 1b ef 53 be 2f fc 6a 3e 0a 8c 2b 3e
       0.105801634 -0.2069668 0.22947763 0.1675264
000160 f4 6a 0a 3e 11 c4 05 3e 1f f4 1f 3e b0 a0 c4 3c
       0.13517362 0.13063075 0.15620469 0.024002403
000170 f2 b5 34 3e 53 03 24 3e ed 20 e3 3d 67 d3 0c 3e
       0.17647532 0.16016893 0.110902645 0.13752519
000180 ce ba 56 3d 03 6f 08 be 2a b6 09 3e 08 a5 17 3e
       0.052424245 -0.13323598 0.13448396 0.14809048
000190 d5 9e 06 3e 20 aa 19 bd 25 c8 3e 3e 7c 3c 13 3e
       0.13146527 -0.03751576 0.18631037 0.14378542
0001a0 dd af d6 3d b9 d4 37 3e 2f 47 37 3e 38 7f c4 3c
       0.10482762 0.17952241 0.17898248 0.023986444
0001b0 1d 64 0f 3e d7 f5 e4 bd 40 c4 6a 3d 93 4a 41 3e
       0.14003034 -0.11179703 0.057316065 0.18876104
0001c0 e4 0c e7 3d 8f 3e 24 3e 81 37 fc 3d 90 c1 3a 3e
       0.112817556 0.16039489 0.12315274 0.182379
0001d0 62 47 33 3e 7a ec db 3d 44 78 97 3c 8c 19 cb bd
       0.17507699 0.10738464 0.018489964 -0.09916982
0001e0 f4 ae 2d bd 8c dc 30 3e bb 36 1e 3e 4e 8e 37 3d
       -0.042403176 0.17271632 0.15450566 0.044813447
0001f0 62 a7 80 bd a8 21 01 3e b7 da 0b 3e d6 97 1a 3e
       -0.06281926 0.12610495 0.13657652 0.15096983
000200 d3 fa 9c bd b2 de 2f bd 38 f8 3b 3e d9 d5 f1 3d
       -0.076650284 -0.04293699 0.18356407 0.11808366
000210 ec bb 26 3e 2c d5 80 3e ea 26 ea 3d 82 8b dd 3d
       0.16282624 0.25162637 0.114332035 0.10817625
000220 f1 df 0c 3e 81 71 f8 3d 27 27 02 3e a3 ca ff 3d
       0.13757302 0.12131024 0.12710248 0.12489822
000230 0c 3a 31 3e 4e 64 31 3e 91 6a 04 3e 3f f7 d3 3d
       0.173073 0.1732342 0.12931277 0.10349893
000240 b7 2f 43 3e a4 15 19 3e 4c 5a 12 3e 2b b8 ac 3d
       0.1906117 0.14949661 0.14292258 0.08433565
000250 88 ca 56 3e e5 fa 00 3e c1 97 ba bc 3d 7f 4b 3e
       0.20975697 0.12595709 -0.02277744 0.19872756
000260 74 9f ed 3d b6 f7 24 bd 87 da 03 3e 20 b5 3a 3e
       0.11602679 -0.040275298 0.1287633 0.18233156
000270 7f 36 5d 3e 8e b9 44 3d bc 35 d2 3d cd e5 40 3e
       0.2160282 0.04802852 0.10264155 0.18837662
000280 d8 79 fd 3d 25 7c 1c 3e 8a 36 08 3d 8d 80 c9 3d
       0.123767555 0.15281732 0.033255138 0.09838972
000290 d7 d5 dc 3d 30 0e 88 bd 6b ba fa 3d 14 80 f6 3d
       0.10782974 -0.06643331 0.12242588 0.12036148
0002a0 6c 8a 29 3d 22 55 0c 3d 56 f7 58 3e 92 f6 79 bd
       0.041391775 0.034260876 0.21188101 -0.061026163
0002b0 5b 44 17 3e 5e 77 30 3e 86 ec f9 bd be 40 3b 3e
       0.1477217 0.17233035 -0.122033164 0.18286416
0002c0 4e 53 e7 3d ad 6c c1 3d d0 ea 12 3d 26 6e 2a 3e
       0.11295186 0.094445564 0.035868466 0.16643581
0002d0 58 a2 40 3e d7 fa 84 3e 7c 51 5b 3e 32 3d ff 39
       0.18811929 0.25972626 0.21417803 0.00048682984
0002e0 8f 1c 39 3e c0 66 2b 3d 1b 18 45 3e a2 8b 1a bd
       0.180773 0.041846037 0.19247477 -0.03773082
0002f0 28 9e 23 3e 4e 24 f5 3d 39 77 73 3e 23 1b b0 bb
       0.159783 0.11969815 0.23775949 -0.0053743287
000300 05 e5 4f 3e 9c 33 3e 3e ee b7 1f 3e fc 90 8a 3c
       0.20302208 0.18574375 0.15597507 0.016914837
000310 de 83 dc 3d d2 a2 0e 3d 99 5e 07 be 79 20 d7 3d
       0.10767339 0.034823246 -0.1321968 0.105042405
000320 08 8e d9 3c 6e 08 78 3d 34 37 1c 3e 97 06 32 3e
       0.026556984 0.060554914 0.15255433 0.17385326
000330 42 3f e2 3d 9d 7d 27 3e ad 32 0e 3e ed f2 af bd
       0.11047222 0.16356511 0.13886519 -0.08591256
000340 31 20 28 3e 4e 71 d7 3d 64 00 22 bd 5a 90 35 3e
       0.1641853 0.10519658 -0.039551154 0.17730847
000350 ff 37 54 bd 0d b3 e9 3d 81 b5 22 3e c0 16 c8 3c
       -0.051811215 0.11411104 0.15889551 0.02442491
000360 09 3d 60 3c 9d 67 e2 3d be 52 28 bd 6f a9 63 3e
       0.013686427 0.11054919 -0.041094534 0.22232603
000370 6d bd e3 3d 34 92 dd 3d 82 ab 11 3e cc 20 62 3e
       0.111201145 0.10818902 0.14225581 0.22082824
000380 60 6a 91 3b fb d0 51 3e 31 87 df 3d 48 eb 3a 3e
       0.0044377297 0.20489876 0.109144576 0.18253815
000390 1c 5d f6 3d 08 db cf bc 35 c4 02 3e 94 0f e5 3d
       0.12029478 -0.025372997 0.1277016 0.11184612
0003a0 bd a5 3c 3e f8 84 49 bc 1c cd 58 3e a2 af cd 3d
       0.18422599 -0.012299769 0.21171993 0.10043265
0003b0 38 5f 42 3e cc 53 03 3e 40 a3 f2 ba e3 ab dd 3d
       0.18981636 0.12824935 -0.0018511787 0.108238004
0003c0 c9 b7 4b 3e 8d 8d ba 3d 21 4d 19 3e 65 3c e1 3d
       0.19894327 0.0910903 0.14970829 0.109978475
0003d0 da f7 44 3e 89 ac e0 3d 60 b0 2f bd 5e d4 2b 3e
       0.19235173 0.109704085 -0.042892814 0.1678023
0003e0 90 80 3c 3e e5 46 38 3e 71 6e 0c 3e eb 0c be 3d
       0.18408418 0.17995794 0.13714005 0.09279808
0003f0 c9 18 43 3e 61 24 0d 3e 40 4f 32 3b 09 f5 f2 3d
       0.19052424 0.13783409 0.0027207881 0.11863143

network.layer4.bias f4 [26]
000000 55 cd 2a bd e3 85 33 3e bd 75 31 3f 1c 29 87 be
       -0.041699726 0.17531542 0.6932028 -0.2639855
000010 fa 32 af 3d ba ea dd 3e 93 ac 8d be ce 40 af bd
       0.08554645 0.43343145 -0.27670726 -0.085572824
000020 13 ef 06 3e c8 d8 87 be ef 2b 5e 3c 95 a9 d3 3e
       0.13177137 -0.26532578 0.013560279 0.41340318
000030 29 f0 02 bf 86 3f 4a 3f cb 0a c0 be 71 cd ea bc
       -0.51147705 0.7900318 -0.37508234 -0.028662415
000040 5e 5d 04 3f 9a 82 8e bc 4b 80 97 3e c8 b0 92 3e
       0.5170497 -0.01739626 0.29590067 0.28650498
000050 b2 1b 69 bd 8f 17 90 35 ff f6 6b 3e 35 b1 0b be
       -0.056911178 1.0735693e-06 0.2304344 -0.13641818
000060 b1 bb 3d 3e 87 03 75 3e
       0.1852863 0.23927127
