DDQN_panda_env2/runs/results_8/best-model-loss.pt (torch, 162903 bytes, 6 tensors)

network.layer1.weight f4 [128, 3]
000000 3a 4a ce be 7c ad bb 3e 4d cb fd 3c ce 20 61 bf
       -0.40291005 0.36655796 0.03098073 -0.8794068
000010 02 80 0b 3f 68 5d 54 3e 55 7f 6b bf c2 54 91 3f
       0.544922 0.20738757 -0.9199117 1.1353991
000020 76 0b 07 3f 45 1b e8 be 1a 1a e9 be 51 3f 25 3e
       0.52751863 -0.45333305 -0.45527726 0.16137435
000030 3e 93 37 bf a9 63 ec be 2d b0 b6 bd b6 39 7b bf
       -0.7170905 -0.46169785 -0.089203216 -0.98134935
000040 5b 4c 36 be 8d 51 94 be 5c bd f0 be cd eb 82 3e
       -0.17802565 -0.28968468 -0.4701947 0.25570527
000050 59 bc 2a 3f 5f d7 02 bf c5 3e 7a bf 9f 22 16 bd
       0.66693646 -0.5110988 -0.9775203 -0.03665411
000060 a5 53 69 3f f5 b4 b7 3d ff 5d 34 3e 2b 0a 04 3d
       0.91143256 0.08970062 0.17613982 0.03223626
000070 e9 f8 76 bf c1 9a 3c bf a9 bb 06 bf c0 ac 55 3e
       -0.96473557 -0.73673636 -0.52630097 0.2086668
000080 26 6e 34 3f ab c7 94 be 8e c9 59 be 1d 5b 35 3f
       0.70480573 -0.29058585 -0.21268293 0.7084215
000090 8a fb 19 bf 98 ac 3c bf e0 b1 96 be c1 1f 2a bf
       -0.60149443 -0.7370086 -0.29432583 -0.664547
0000a0 3c ec 43 3f c9 db b7 3e 4d ef 78 bf 17 bd 85 be
       0.7653234 0.3590987 -0.97240144 -0.26120827
0000b0 ee 34 4f bd 0c cc 33 be 87 8e 14 be 33 97 45 bf
       -0.050587587 -0.17558306 -0.14507495 -0.77183837
0000c0 80 30 5b 3e c7 4e 6c bf 2b d5 03 bf 69 5a 83 bf
       0.2140522 -0.92307705 -0.51497144 -1.0261966
0000d0 41 bf 8a bf 82 f9 b1 be 70 89 4f bf 6f 31 55 bf
       -1.0839616 -0.34760672 -0.8106909 -0.83278555
0000e0 4c a6 43 be 83 24 18 bf b2 05 49 bf bc 07 8c be
       -0.19106406 -0.5943071 -0.78524315 -0.2734965
0000f0 11 45 06 bf 89 09 8a be d1 7c da 3e 82 7c 32 bf
       -0.52449137 -0.269604 0.42673352 -0.69721234
000100 47 8a ee 3c 7d 09 e4 3c 69 79 30 3d dc 71 90 3e
       0.02911867 0.027836556 0.043084536 0.28211868
000110 4b bb fa be ca 0d a7 bf 33 ae 06 3f 81 ef df 3d
       -0.48971018 -1.3051083 0.52609557 0.109343536
000120 cf 95 fb be d8 ec 43 3f de 6e 11 bb c4 35 39 be
       -0.49137732 0.7653327 -0.0022191326 -0.18086916
000130 80 e5 7f be dc aa 19 3f 51 96 9e bf fb 8e df 3e
       -0.24989891 0.60026336 -1.2389623 0.43663773
000140 0b 63 2a 3e 6d ed 7b bf 9e 1d 45 3d e6 5a f9 3e
       0.16639344 -0.9840916 0.04812395 0.48702163
000150 bf 8a 3a bf 08 ae 2e 3f 27 2d 23 bc 51 a8 24 be
       -0.7286796 0.682343 -0.009959496 -0.16079833
000160 7c 90 76 bf 2e ee 05 bf b3 d5 32 bf c0 70 54 3e
       -0.96314216 -0.5231656 -0.6985733 0.20746136
000170 f2 66 91 3e d2 36 2f bf eb 09 15 bf 5d 5a 20 be
       0.28398854 -0.68443024 -0.5821826 -0.15659471
000180 30 3a 77 bf 80 b4 0c bf 69 f3 2e 3d 0a f8 60 bf
       -0.9657316 -0.5496292 0.042712603 -0.8787848
000190 f8 89 78 be 3b 21 b4 3e 7f c8 16 bf 1a 07 5e 3e
       -0.24271381 0.35181603 -0.5889968 0.21682397
0001a0 90 80 0e bf e3 41 42 bf 69 af 0d 3f d0 27 30 3f
       -0.5566492 -0.75881785 0.5534578 0.6881075
0001b0 c6 19 5f bf ab c4 4a be 49 4d 6b 3e e8 78 0f bf
       -0.871487 -0.19801585 0.229787 -0.56043863
0001c0 77 e0 74 3f bd b8 3c bd 85 72 5f bf 24 c3 eb be
       0.95655006 -0.046074618 -0.8728412 -0.46047318
0001d0 b8 22 cc be 7a e4 e5 3e 1e e3 fa be c2 88 7a 3f
       -0.39870238 0.44900876 -0.49001402 0.97864926
0001e0 ad 16 be be fd c0 5d 3e 78 23 32 3d 32 d9 54 3f
       -0.37126675 0.2165565 0.043490857 0.83143914
0001f0 16 5b ba 3d 3b 47 00 3e 8b 08 3a bf 36 c2 60 be
       0.090994045 0.12527172 -0.72669286 -0.21949086
000200 c0 2e 24 3f 5c 12 e3 be d3 aa 53 be 3b 7e e1 3e
       0.64133835 -0.44349945 -0.20670633 0.4404162
000210 f6 81 5a bf 1b 0d 11 3d 85 c3 9d 3e 3c 51 a8 be
       -0.85354555 0.03541289 0.30813232 -0.32874477
000220 4b 0f e5 bd 0d a8 9c 3e 3b 52 72 bf a1 71 29 bf
       -0.111845575 0.30596963 -0.94656724 -0.6618901
000230 33 9c cb be 7a bf 4c be f4 fe f1 3e 55 ac e7 3e
       -0.39767608 -0.19994918 0.47264826 0.45248666
000240 d2 fc 75 bf e6 f3 1e bf 29 b8 99 3e c0 92 48 bf
       -0.960889 -0.6209091 0.30023316 -0.7834892
000250 eb 8e 24 3f 82 a7 2b 3f e1 fd b1 be a7 97 91 be
       0.64280576 0.6705247 -0.34764007 -0.28436014
000260 47 86 38 3f 12 d6 86 bf 25 70 f2 3e 60 16 02 3f
       0.7207989 -1.0534079 0.47351184 0.5081539
000270 e2 ec 97 be f5 39 a1 bd 7b c8 ed 3e f2 75 5b bf
       -0.29672915 -0.078723826 0.46442017 -0.85726845
000280 f1 17 2f 3e 72 90 04 3f cf 30 67 be 24 cd 35 3a
       0.17098977 0.51782906 -0.22577213 0.00069351704
000290 c3 56 17 3f 0c 84 13 bf f0 b5 0d bf 4a f7 27 3f
       0.5911676 -0.5762336 -0.5535574 0.6561171
0002a0 f4 5c 9f be cf 2f a2 3e 08 16 05 3f 93 3e 1b bf
       -0.31125605 0.316771 0.5198674 -0.60642356
0002b0 8e 5d 72 3f 7f 21 05 3e 43 8a 93 bf a5 38 24 3f
       0.94674003 0.13001059 -1.1526569 0.6414893
0002c0 b8 d9 8b 3e b2 a8 98 bf 3f 08 b5 3e 66 ff cc 3d
       0.27314544 -1.1926482 0.35357854 0.10009651
0002d0 78 6a 3c bf c5 91 4b be 4c ea c8 3e d2 46 04 3d
       -0.7359996 -0.19879825 0.39241254 0.032294102
0002e0 aa fc b5 bd b1 61 0c be 47 ff 05 bf 11 81 a1 3f
       -0.088860825 -0.13709141 -0.5234265 1.2617513
0002f0 14 bd fc 3e 88 90 25 bf 0a 5d be bc 9c a5 18 3f
       0.49363005 -0.6467366 -0.023237724 0.596277
000300 d3 db 95 3e 00 e5 ed 3d 55 7c 82 bc 61 ae 2e be
       0.29269275 0.11615944 -0.015928427 -0.17058708
000310 9b 82 be 3e 8b 42 32 3f 85 58 89 3f 59 65 d6 be
       0.3720902 0.69632787 1.0730139 -0.41874197
000320 1f 6c 81 3e 6e 52 23 bd ca 8e 27 bf 68 d2 35 be
       0.25277802 -0.039873533 -0.65452254 -0.17756045
000330 0d 77 98 3e ad 6a 58 bf 1e 76 73 bf fc 7a 51 bf
       0.2977833 -0.84537774 -0.9510211 -0.81828284
000340 c5 5a db bd 7f 43 0a 3f 94 51 11 bf ec 0b fa 3e
       -0.10710672 0.5400924 -0.56765103 0.4883722
000350 26 94 01 3f c4 8c 59 3f 9b 32 d0 be ba bb 46 3f
       0.5061668 0.84980416 -0.4066361 0.776302
000360 f5 b3 18 bf 20 ed 28 bf cc b6 a1 3e 36 0a 9b be
       -0.5964959 -0.65986824 0.31584775 -0.30281228
000370 4f 11 85 3f c2 f9 83 3d f8 4e 24 bf 07 f5 6d be
       1.0395907 0.06444122 -0.64182997 -0.23238002
000380 31 e6 08 3f b8 0c 6d bf e0 49 4e 3f 3e 99 b6 3e
       0.53476244 -0.9259753 0.80581474 0.3566379
000390 3d a5 8b 3f c6 b9 f4 be 22 01 ae 3e 78 4e 2d bf
       1.0909802 -0.47797984 0.3398524 -0.6769786
0003a0 45 90 44 bf bb ad ba be 86 6b 05 bf 0b 4e a5 be
       -0.7678264 -0.3646067 -0.5211719 -0.32286105
0003b0 6e 5a 0e be 45 6f 67 bf 95 d3 b4 3e 74 31 d0 3e
       -0.13901684 -0.9040416 0.35317674 0.4066273
0003c0 f6 ae c3 3e 31 5b 22 3f 3f 62 b0 be 3e d2 d2 3d
       0.38219422 0.634204 -0.34449956 0.10294007
0003d0 4a 61 b9 be 30 e7 ba 3e a2 6b 21 3f 43 00 94 be
       -0.36207038 0.36504507 0.6305486 -0.2890645
0003e0 66 76 46 3f 9f 79 c9 3e 28 ae 5c bd ae 56 c2 be
       0.7752441 0.39350602 -0.053877026 -0.37956756
0003f0 67 6d 6a bf 00 3e ca be 64 78 ee bc 3b 80 43 be
       -0.91573185 -0.39500427 -0.029110141 -0.19091885

network.layer1.bias f4 [128]
000000 12 53 5f 3f 51 51 4f be 9a 9c 1e 3d 30 cf 27 3f
       0.8723613 -0.20245863 0.038723566 0.6555052
000010 0b 95 ea 3d 38 ac e6 bc 13 d6 87 bd 62 86 62 3c
       0.11454209 -0.028158292 -0.06632628 0.013825985
000020 28 a9 6d 3f 14 0e 35 3c e6 94 5c 3f c1 37 21 3f
       0.92836237 0.01105072 0.861647 0.629757
000030 42 cb b0 3d ec 83 ae bb d2 72 34 3d b7 35 db be
       0.08632518 -0.005325785 0.044054814 -0.4281442
000040 73 46 2d be fd 42 d0 3e e1 cb 3c 3f c0 5a 6e 3f
       -0.16921405 0.40676108 0.73748595 0.93107224
000050 40 16 09 3e 51 b8 27 3f 19 79 b2 3d 45 6f 08 bd
       0.13387394 0.6551562 0.08714504 -0.03330924
000060 54 6d 27 3f 21 65 63 3f 52 d6 34 be 2d 98 1e 3f
       0.65401196 0.88826185 -0.17659882 0.6195095
000070 14 a7 2e 3f 38 6b e0 be 92 6d 27 3f 62 a2 ef 3e
       0.6822369 -0.438318 0.65401566 0.46803576
000080 28 87 a7 be 52 a2 7a 3e c9 8c 7d 3d 2e bf 62 bd
       -0.32720304 0.24475983 0.06190184 -0.055358104
000090 e3 3a ff 3e 21 44 10 3e 29 fa 63 3f 60 7a 49 be
       0.49849615 0.14088489 0.8905359 -0.19675589
0000a0 a7 21 11 3f 86 57 71 3f 7c 60 a0 3e 0d 7f 91 3e
       0.56691974 0.94274175 0.31323612 0.28417245
0000b0 c4 03 2b 3f 22 0f 56 3f 20 93 4d 3f d2 de 58 3f
       0.6680262 0.8361684 0.8030262 0.84714997
0000c0 a4 3b 12 3d f2 9b 44 3d df 8e d2 3e 03 e8 6b 3f
       0.03570141 0.048000284 0.41124627 0.92150897
0000d0 c2 19 34 3f ad 75 3b 3f 6a d6 fd 3e 99 32 08 3e
       0.70351803 0.73226434 0.49577647 0.13300551
0000e0 db 5e 8a 3e 8a bb 4b 3f 9d 60 cc be 72 56 11 bd
       0.27025494 0.79583037 -0.3991746 -0.03548283
0000f0 c3 58 11 3e 0d 21 fa be 38 c4 f0 3e 64 11 51 3f
       0.14194016 -0.4885334 0.47024703 0.8166716
000100 53 2b 03 bf ea 7d 32 3f 23 ab 08 3f 3b e0 52 3f
       -0.5123798 0.6972338 0.53386134 0.823734
000110 31 27 44 3f 32 35 66 3f 20 9f 41 3f 86 30 ce 3c
       0.766223 0.8992492 0.7563343 0.025169622
000120 68 8c 6e 3f d3 f7 c5 bc 9e 18 99 3e 6f 9d 0d be
       0.9318299 -0.024166023 0.29901594 -0.13829587
000130 9b b9 aa 3e 71 27 78 3f 11 77 cd 3e 5b c9 3b 3f
       0.3334473 0.9693518 0.40129903 0.7335412
000140 1c a2 c6 bc 00 97 07 3f 72 c4 94 ba 76 4b cb be
       -0.024247222 0.5296478 -0.0011350049 -0.3970601
000150 45 ad df bd 9b 31 cd bc 53 13 68 bd cf 78 1d 3f
       -0.109217204 -0.025048068 -0.056659054 0.61512464
000160 a2 82 0c 3f 73 42 b2 be 23 c6 9b 3d 67 1c 9e 3f
       0.5488683 -0.34816322 0.07606151 1.2352418
000170 92 b5 6a 3f 15 ec b6 3d fc 0b 0a 3f 3d 65 9f bd
       0.91683304 0.08931748 0.53924537 -0.077829815
000180 7c 87 20 be e1 0e 2f 3e d9 c0 10 3f 5d ee 22 3f
       -0.15676683 0.1709552 0.5654426 0.63644964
000190 fa 80 20 3f 4f 77 36 3e a5 f4 89 be 75 49 6b 3f
       0.626968 0.1781895 -0.2694446 0.9190896
0001a0 6c f6 82 3e 42 18 32 3f 23 19 0a 3f 3b 9f 6b 3f
       0.2557863 0.69568264 0.53944606 0.9203984
0001b0 2c 68 e4 bd 0b e2 31 3f 5a 69 81 3e 0c bd a2 3e
       -0.11152682 0.6948554 0.2527569 0.31784856
0001c0 47 ca 60 3f 7b a0 0d 3f 2d b7 52 3e 0b b3 0f 3d
       0.8780865 0.55323 0.20577689 0.035082858
0001d0 1c d6 33 3f 27 9c 03 3f a3 61 07 3d a7 13 04 3f
       0.7024858 0.51410145 0.033052098 0.5159249
0001e0 24 b5 2a 3f 45 b6 82 be b5 70 77 3d 20 34 ea 3c
       0.6668265 -0.25529686 0.06041022 0.028589308
0001f0 dc f3 cd 3d 79 12 75 3f 35 d2 aa 3e 8e d3 7e 3d
       0.10056278 0.9573131 0.333635 0.062213473

network.layer2.weight f4 [256, 128]
000000 df 42 9d 3d 06 9f 86 3e 40 0c 33 3e c5 cf 3d 3d
       0.0767877 0.262932 0.17485142 0.046340723
000010 25 cb 8a 3e f8 55 bf 3e e3 aa 26 be 17 c3 c3 3e
       0.27108112 0.37370276 -0.16276126 0.3823478
000020 2e 5e 44 bf 83 bb 3e 3f 8d 6e a8 bd 39 01 7a 3d
       -0.76706207 0.7450487 -0.08224211 0.061036322
000030 25 e9 a6 be dd 77 53 3e b6 0a 2f 3e 33 b4 81 be
       -0.3259975 0.20651193 0.1709393 -0.25332794
000040 89 4d c0 3f 11 bb 10 3f 1a b5 4b 3e 1e 30 13 3f
       1.5023662 0.5653544 0.19893304 0.57495296
000050 9b 62 05 3c 3d b0 1f 3e f8 ea 68 be 07 ea 34 3f
       0.008141185 0.15594573 -0.22745883 0.706696
000060 35 23 fa 3e a5 30 22 bd 1f 30 d6 3e ae 1d 9b 3c
       0.48854986 -0.039597172 0.41833588 0.01893505
000070 65 cb 58 3f 7a 8c fb 3e af 51 e1 3c 51 0b d0 3e
       0.84685355 0.49130613 0.02750477 0.40633634
000080 e4 20 a7 3d 3a e3 c8 3d f3 ab 08 bf f6 ce fd bd
       0.0816057 0.09808965 -0.53387374 -0.1239299
000090 bb 39 8c 3d 17 ff 35 bf 72 ac 20 3f 74 dc 39 be
       0.06846949 -0.7109236 0.6276313 -0.18150502
0000a0 1b 40 52 3d 3f fb 42 bf 58 36 46 bd cf fe 0c bb
       0.051330667 -0.7616462 -0.04839167 -0.0021514182
0000b0 b6 34 80 3d 41 28 d9 3d fb 39 0f 3f 97 70 a8 3d
       0.06260054 0.10603381 0.55947846 0.082246
0000c0 13 2c e0 3d eb 5d ae 3d 2f 86 31 bd b7 f3 60 3d
       0.109459065 0.08514007 -0.043340858 0.054919925
0000d0 c9 22 5e 3c 30 2f 62 bc 8e c7 00 be 45 d5 06 be
       0.013558098 -0.013805196 -0.12576124 -0.13167293
0000e0 18 37 c3 bc 3d 26 92 3f 15 22 0a 3e 3c 0d 74 3f
       -0.023829982 1.1417919 0.13489564 0.95332694
0000f0 e7 24 59 3b 3c d7 31 3d 34 53 a1 3f 34 ea 80 3d
       0.0033133568 0.043418154 1.2603517 0.06294671
000100 d7 b5 96 3d bd 40 dd bd d8 29 24 bf 16 a4 eb 3d
       0.07358902 -0.108033635 -0.6412635 0.11505906
000110 83 3b 3f 3f b0 09 f1 3c 39 b0 7c 3d d4 a1 13 be
       0.7470018 0.029423565 0.061691497 -0.14417201
000120 8c 12 32 bc 8a 1a 30 bf 78 d6 29 3c a4 72 83 3e
       -0.01086868 -0.68790495 0.010366075 0.256734
000130 3f 7d 38 bf 3c e1 06 3f e2 a8 85 3e a9 59 ea 3d
       -0.7206611 0.5268743 0.2610541 0.114428826
000140 8d 04 8f be e0 46 64 3c 69 c7 23 be 3e 51 b2 3c
       -0.2793316 0.013932914 -0.15994038 0.021767255
000150 bc 39 51 3e 6b de 25 be ca 56 c7 3e 59 4d e3 3e
       0.2043218 -0.16198127 0.38933402 0.4439495
000160 73 4c 5c 3d 85 4d 98 bd 78 7b 96 3d 21 b3 fe 3e
       0.053783845 -0.07436661 0.073477685 0.4974604
000170 25 66 9d 3e 5e 89 e2 3d 4b ff b4 3f a1 eb 2d 3f
       0.30741993 0.11061357 1.4140409 0.67937666
000180 0f 4e 9b 3e b4 e9 f8 3d e9 00 f4 3d 1f b3 b6 3e
       0.3033299 0.1215395 0.11914236 0.35683534
000190 97 4d 52 3d de 7a a0 be 43 9b 16 3e 19 4a 9e 3d
       0.051343527 -0.3134374 0.14707665 0.07728977
0001a0 0c 2e 40 3f 2e 85 d8 bc f0 46 ca 3e 53 4f 97 3d
       0.7507026 -0.026430693 0.39507246 0.07388177
0001b0 85 de 35 be 54 19 c2 3c 13 f2 e6 be 2f 9d 01 bd
       -0.17760666 0.023693718 -0.45106563 -0.031644043
0001c0 5d 46 85 bc 3e b9 2b bd 1f 88 1d bf d5 ca ee bd
       -0.016268903 -0.041924708 -0.6153583 -0.11659781
0001d0 d2 24 ce 3d 0c 81 33 bc 05 fe a5 bd 82 82 cc 3d
       0.10065617 -0.01095606 -0.08105091 0.0998583
0001e0 11 c8 20 bd bc 12 32 3e 69 79 d8 3e 57 9c 08 3f
       -0.0392533 0.17389959 0.4228013 0.53363556
0001f0 7d 9d da 3b d5 60 31 bf 48 66 8b 3d d2 08 2b be
       0.006671606 -0.6928838 0.06806618 -0.16702583
000200 af 88 27 3d 87 96 2b 3e 55 3d 8e 3d 45 65 e2 3c
       0.040901836 0.1675664 0.06945292 0.02763618
000210 3a b1 aa 3e 6a 5d d6 3e 99 ee 2b be 1d c7 b3 3e
       0.33338338 0.41868144 -0.16790237 0.3511285
000220 be f5 12 bf ef b9 5c 3f c2 f9 23 bd 17 c3 bb bc
       -0.5740622 0.8622121 -0.04003311 -0.022920175
000230 b5 31 88 be fd b5 d8 3d 54 4e 8f 3e 41 71 3b be
       -0.26600423 0.105815865 0.27989447 -0.18304922
000240 a1 7f c1 3f f2 47 05 3f 42 c7 a8 3e 66 71 29 3f
       1.5117074 0.52062905 0.32964522 0.6618866
000250 7e 44 29 bd 74 7a e6 3d 64 af 83 bd 76 24 22 3f
       -0.041325085 0.11253825 -0.064299375 0.63336885
000260 8c aa fd 3e d3 50 1f bd 28 70 71 3e ef 00 ae 3d
       0.4954418 -0.03889544 0.2357794 0.08496272
000270 41 3f 7a 3f 3f f4 01 3f b1 ec 97 3c ed c1 d1 3e
       0.9775277 0.50763315 0.01854548 0.40968266
000280 2e 97 d6 3d 22 79 dd 3d 53 c8 e1 be bc 23 d2 bb
       0.10478054 0.1081412 -0.44098148 -0.0064129513
000290 40 91 36 3e 26 2c 16 bf e4 7f 29 3f 54 87 ee bc
       0.17828846 -0.58661115 0.6621077 -0.029117264
0002a0 ce 05 f1 ba 8d 95 0b bf fa c4 d4 3d 9d 50 29 bd
       -0.0018388571 -0.5452507 0.10389133 -0.041336644
0002b0 dc b7 68 3c b0 b4 ea 3d 9d d5 15 3f 58 29 5c 3d
       0.014203992 0.11460245 0.58529073 0.053750366
0002c0 a2 1b b2 3d fd 1c 96 3d c8 64 37 3d 7f bf 6e bd
       0.08696677 0.07329748 0.044773847 -0.058288094
0002d0 2d 2b 97 3c b0 71 ae 3d fc a7 71 bd d0 ef 8a 3d
       0.018453205 0.08517778 -0.058998093 0.06784022
0002e0 07 88 24 bb 6d fa a4 3f cc f0 de 3d 76 9e 75 3f
       -0.0025105493 1.2888924 0.10885772 0.9594492
0002f0 5a 72 e0 bb 79 60 27 bd 8c 51 99 3f f6 73 8e 3c
       -0.0068495693 -0.040863488 1.1978011 0.017389279
000300 26 fe d5 bc 7c 13 77 bd f2 eb ff be 2b 54 a7 3d
       -0.026122164 -0.060321316 -0.499847 0.08170351
000310 af 66 54 3f ec 83 97 bc a2 a2 36 3d e3 af ee bd
       0.8296918 -0.018495522 0.044588692 -0.116546415
000320 bc d9 e1 3d 2f bc 2a bf cd 4a cf 3d 36 c3 2a 3e
       0.11027858 -0.66693395 0.10121689 0.1667603
000330 1c 35 14 bf d8 4c 1f 3f a7 64 95 3e 4f 44 06 3d
       -0.5789354 0.6222663 0.29178354 0.032779988
000340 81 ec 93 bd 86 49 88 3d 91 cc cc bd f8 29 8b 3d
       -0.07222844 0.066546485 -0.099999554 0.06795114
000350 7c 1a b6 3e 79 ee 1f 3d ea 18 83 3e 32 4a 21 3f
       0.3556708 0.039045785 0.25604945 0.6300384
000360 41 a1 1d 3e c4 04 41 3d c7 f2 8c 3e 40 5f 02 3f
       0.15393545 0.047123685 0.27528974 0.5092659
000370 71 26 fc 3d 29 e0 ca 3d 52 a9 af 3f 70 fd 44 3f
       0.123120196 0.099060364 1.3723547 0.76949215
000380 81 bb c5 3e 8f d1 76 3d af ce bd 3d 4f cc 65 3e
       0.38619617 0.060258444 0.092679374 0.22441219
000390 a7 0c c8 bc 12 cd 1b be 48 e6 44 3e 73 83 32 3d
       -0.024420096 -0.15214947 0.1922847 0.04358239
0003a0 0e 1b 30 3f ca 29 97 3d 52 a6 ce 3e c6 69 1f 3d
       0.6879128 0.073810175 0.40361267 0.038919233
0003b0 e1 14 d0 bd c7 90 c9 3c 33 34 f4 be b8 59 d8 3d
       -0.10160232 0.024605168 -0.47696075 0.105639875
0003c0 16 d2 72 3d ac 95 b0 bc f9 1c 02 bf 2a 77 4f be
       0.059282385 -0.021555744 -0.5082546 -0.20260301
0003d0 60 3b 03 3d 30 c8 a8 3d 25 d9 0a 3d 30 be cc 3e
       0.032039046 0.08241308 0.03389849 0.39988852
0003e0 77 da 82 bd d3 83 b1 3d d6 de d1 3e d9 08 29 3f
       -0.06389325 0.086677216 0.40990323 0.66029125
0003f0 ae da c5 3d c7 69 24 bf b7 8e 64 3e 7f 30 d0 bc
       0.096608505 -0.64223903 0.22320066 -0.02541375

network.layer2.bias f4 [256]
000000 a9 41 20 3e 8b 17 0a 3e 16 e8 86 3d 18 d9 9c 3e
       0.15650047 0.13485543 0.06587236 0.3063438
000010 60 45 c1 3e b3 3c 50 3e 2b b4 99 3e 26 13 0a 3f
       0.3774824 0.20335655 0.3002027 0.5393547
000020 2d 9e 03 3e 98 6e 5a 3e 9c 9b 7f 3e a1 ae 37 3e
       0.12853308 0.2133125 0.24961704 0.1793771
000030 89 11 45 3e 67 1e 8f 3d f3 bd d0 3b c7 86 0b 3e
       0.1924497 0.06988221 0.0063703 0.13625632
000040 54 a4 b2 3e 57 30 40 3e 61 f6 70 3e fc ab aa 3d
       0.34890997 0.1876844 0.23531486 0.08333585
000050 5a 32 56 3e 60 27 ab 3d 4e 71 61 bd 06 ae 48 3e
       0.20917645 0.083571196 -0.055039696 0.19597635
000060 b4 d4 88 bd 0f 73 c2 3c 6c df b2 bd 4d ed ae 3e
       -0.06681195 0.023736505 -0.087340206 0.3416542
000070 f6 29 8e 3e b5 c1 54 3e 54 e7 55 3e 33 33 91 3e
       0.2776639 0.20777018 0.20889026 0.28359374
000080 7b 7a 5c 3e f1 a1 ea bc 19 3c 8c 3e 55 35 66 3e
       0.21531098 -0.028641673 0.273896 0.22481282
000090 a7 42 ca bd c8 ad 8a 3e a9 88 98 3e e1 3d 8b 3e
       -0.09875994 0.2708571 0.29791763 0.27195647
0000a0 a6 61 2d 3e f1 cc 1f 3e b6 e9 3c 3e e2 64 3b be
       0.16931781 0.15605523 0.18448529 -0.18300202
0000b0 b2 72 90 3e 9a 0a 82 3e 4e 48 8f 3e 07 16 60 3e
       0.28212506 0.25398713 0.27984852 0.21883403
0000c0 0c 04 76 3e 01 44 80 3e 97 c7 3b bd 7e 73 82 3e
       0.24024981 0.25051883 -0.04584464 0.2547874
0000d0 5a ed 86 bc 57 71 8f 3e dd 37 a8 bc 5f 56 a5 3e
       -0.0164706 0.2801616 -0.02053445 0.32292458
0000e0 24 6a c4 3e 7d 19 fc 3d e9 a7 1e 3d 28 92 11 3e
       0.3836223 0.12309549 0.03873435 0.1421591
0000f0 d5 0c 01 3f 37 73 94 3e 10 46 5a bd c3 8e 3f 3e
       0.50410205 0.28994152 -0.053289473 0.18706803
000100 19 52 a7 3d 6d 39 0d bd c8 6a 97 3e 4b 7f 5c 3e
       0.08169956 -0.034478594 0.29573655 0.21532933
000110 ed 8b a7 bd 36 fc 7d 3e 8d fd 82 3e 68 a5 b9 3e
       -0.081809856 0.24803242 0.2558407 0.36259007
000120 e3 58 a8 3e 58 dd 7f 3e fc 20 04 3d 40 8c 40 3e
       0.32880315 0.2498678 0.03225802 0.18803501
000130 a8 c8 1e 3e ad 9a 86 3e 79 0c 1a 3e ab 23 ac bd
       0.15506232 0.26289883 0.1504382 -0.084052406
000140 79 8b 86 3e 32 7f 85 3e bc 27 28 3e ab 2a aa 3e
       0.26278284 0.26073605 0.16421407 0.33235678
000150 7f ad 55 3e 74 98 06 3e 94 44 a0 3e d7 07 d5 3e
       0.20866965 0.13144094 0.3130232 0.41607544
000160 3f 5f 9f 3d 7e 3a ed 3d 1e c4 2a 3e 47 bc 69 3e
       0.077818386 0.11583422 0.16676375 0.22825728
000170 72 ad 7c 3e ba 81 ae 3e e3 45 f8 3d d5 ca 94 3e
       0.24675539 0.3408335 0.12122705 0.29061
000180 c9 07 8b 3e 29 b7 85 3e 4b 84 08 3e 41 69 9f 3e
       0.27154377 0.26116303 0.13331716 0.3113499
000190 87 35 19 3e 61 c1 a0 3d 75 17 ba 3d d3 78 b1 bd
       0.14961825 0.07849384 0.09086505 -0.086656235
0001a0 7a c2 cf 3e b8 c0 03 3e 23 bf 79 3c e3 53 1c 3e
       0.4057806 0.12866485 0.015243324 0.15266375
0001b0 ad db 3b 3e 49 ac 1d 3e 4f d5 5c 3e 6a aa b3 3d
       0.18345518 0.15397753 0.21565746 0.08772738
0001c0 96 94 5d 3e 37 cf aa be 72 f2 a4 3e f6 ea 28 bd
       0.21638712 -0.33361217 0.3221622 -0.0412397
0001d0 0e af 15 3e 21 d4 18 3e 7f 69 52 3d 56 64 45 bd
       0.1461756 0.14924671 0.05137014 -0.04819139
0001e0 8e 18 ab 3e 85 84 c4 3e 27 16 48 bd e8 c9 19 bd
       0.3341717 0.38382354 -0.04884925 -0.03754607
0001f0 bc 12 90 3c 5b d9 57 3e b6 66 6a 3e 89 5e bc 3e
       0.017587058 0.21079008 0.22890744 0.36790875
000200 52 92 1a 3e 09 ea cc bd 4f 0c 26 3d aa 71 dd 3e
       0.1509488 -0.10005576 0.040539082 0.4325078
000210 fe d4 9b 3e e6 c8 45 3e 65 eb 98 3e c9 9b 22 3f
       0.30435938 0.19314918 0.29867092 0.6351896
000220 18 da 68 3e 69 ac 2b 3e 22 6b c0 3e a2 51 96 3e
       0.22739446 0.16764988 0.37581736 0.29359156
000230 1f 1d 88 3c 49 31 83 3e 63 33 3b 3e 3b 86 26 3c
       0.016615449 0.2562354 0.18281321 0.010163839
000240 da cd 5a 3e c8 4b cb 3e 48 a6 8b bc 4e 03 9b 3e
       0.21367589 0.39706254 -0.017047063 0.3027596
000250 83 ab 68 3e 76 37 98 3e fd 44 0d bc ca ff 28 bd
       0.22721677 0.29729813 -0.008622405 -0.041259564
000260 09 0d 6f bc d6 3e 95 bd 62 95 0b 3e 6b 7f 60 3e
       -0.01459051 -0.07287376 0.13631204 0.21923606
000270 a4 6c a1 bd e6 d7 44 bd ec 1f 59 3d f2 7f 8b 3e
       -0.0788205 -0.04805746 0.05300896 0.27246052
000280 17 cf fd 3e 75 ce 97 3e ab 0a 5d 3e f0 a2 54 3e
       0.4957206 0.29649702 0.21586101 0.2076528
000290 fb a2 a2 3e c5 88 90 3e 82 5f d6 3c 78 76 3b 3e
       0.3176497 0.28229347 0.026168589 0.18306911
0002a0 c3 31 8a 3d 00 f6 b3 3e 0e e1 54 3e 5e 17 4e 3e
       0.067477725 0.3514862 0.20788977 0.20126101
0002b0 12 93 61 bb 96 ad 52 3e 28 4c 24 3e 72 d1 82 3e
       -0.0034419936 0.2057403 0.16044676 0.2555042
0002c0 d8 85 2f 3e bc 86 6c bd ac 72 f0 3d f9 fb 2c 3e
       0.17140901 -0.05774568 0.11740622 0.16892995
0002d0 32 45 e7 3d e8 23 18 3e b5 61 81 3e b8 85 3a 3e
       0.11292495 0.14857447 0.25269857 0.18215072
0002e0 80 4d 2a 3e 17 3c 69 3e f5 24 27 bc 37 ae f4 3c
       0.16631126 0.22776829 -0.010201682 0.029868228
0002f0 b4 4f 95 3e 29 be 3d 3e 78 e3 68 3e bc 21 1b 3e
       0.2916237 0.18529572 0.22743022 0.15149587
000300 8b f6 94 3e b3 f0 11 3e 64 84 f6 3d da 94 e3 3e
       0.29094347 0.14251976 0.1203697 0.44449502
000310 53 10 a6 3e 1b a7 cd 3b 18 06 83 3e 3a 7e 8a 3e
       0.3243433 0.006276024 0.25590587 0.27049428
000320 c6 ca 9a bd 13 d1 86 3e e2 8b 29 3e fa 38 24 bd
       -0.07558207 0.26331386 0.16557267 -0.0400934
000330 90 f4 3f bc cf 85 ba bc 20 21 4e 3d 94 52 89 3e
       -0.011716023 -0.022768883 0.05032456 0.26820815
000340 c8 0d 29 bd 0d 70 87 3e 1b 4e 61 3e 98 e9 2b 3d
       -0.04127291 0.26452675 0.22002451 0.04197082
000350 69 1d 62 3e 5a 74 5f 3e e7 04 2a 3e 1e a0 8c 3e
       0.22081532 0.21821728 0.16603433 0.2746591
000360 47 27 a3 3d ed 7d 7c 3e c6 35 ce 3d 10 7a 34 3e
       0.07966476 0.24657412 0.1006885 0.17624688
000370 af 9b 3c 3e e8 4a 20 3e 44 78 ff 3e ed a2 e7 bc
       0.18418764 0.15653574 0.49896443 -0.028275931
000380 0c c9 50 3e ca 4e 50 bd d6 38 99 3e 1a d9 94 bb
       0.20389193 -0.05085639 0.29926175 -0.004542482
000390 f0 25 da 3d 8c f4 88 bd 94 89 b3 3e bf ee 87 3e
       0.10651767 -0.066872686 0.350659 0.26549336
0003a0 f0 c7 47 3e 9e 39 49 bd a9 4b 8a 3e fb b0 97 3e
       0.19509864 -0.049127214 0.2701085 0.29627213
0003b0 b2 3f 8d 3e 17 d3 96 3e 82 71 4c 3e 44 cc db 3d
       0.27587658 0.29457924 0.19965175 0.1073232
0003c0 fc 40 09 3e 4d 0d b0 3d d5 0d 35 3e e0 24 2f bc
       0.13403696 0.08596287 0.17681058 -0.010689944
0003d0 e4 ce 8b 3e c8 21 50 3e 42 26 49 3e 5e f4 04 bc
       0.27306283 0.20325387 0.196435 -0.008114902
0003e0 95 20 97 3d b7 60 8a 3c 62 85 c6 3d a0 b6 55 3e
       0.073792614 0.01689182 0.096934095 0.20870447
0003f0 29 66 95 3e 84 85 2f bd c1 03 ae 3e 3b 34 51 3d
       0.29179505 -0.04285194 0.3398724 0.0510752

network.layer4.weight f4 [26, 256]
000000 37 5c cf 3d d6 a3 05 3e 77 42 06 3e 8d cb b9 3d
       0.101250105 0.1305078 0.13111292 0.09072027
000010 5f fb 61 3e 99 25 08 3e ab 06 1c 3e 63 b7 4d 3e
       0.22068547 0.13295592 0.15236919 0.20089488
000020 84 95 d2 3d 75 c3 ee 3d 60 e6 31 3e 58 ee 46 3e
       0.10282424 0.11658374 0.17373037 0.19426858
000030 63 1e 05 3e 18 48 3c bd 37 11 e9 3b 41 89 00 3e
       0.12999873 -0.04596719 0.007112648 0.12552358
000040 7a 29 6d 3e d0 81 1d 3e 55 e4 fb 3d 69 2f 4c 3e
       0.23160353 0.15381551 0.1229941 0.1993996
000050 bb 18 14 3e 66 8c 0c 3d 7c 34 a2 bc 4e 07 48 3e
       0.14462559 0.034313582 -0.019800417 0.19534037
000060 c0 53 77 bc fc 49 89 bc 32 55 70 bd aa 66 b1 3d
       -0.015095651 -0.016758911 -0.058675 0.0866216
000070 f1 51 81 3e ca 7b 49 3e 02 91 63 3e 80 82 68 3e
       0.2525783 0.19676128 0.22223285 0.22706032
000080 1f e0 20 3e e0 d1 cd bc 7c c9 30 3e 51 77 21 3e
       0.15710495 -0.02512449 0.1726436 0.15768172
000090 19 60 23 3e 89 c9 0c 3e 32 ac 48 3e c2 f6 5e 3e
       0.15954627 0.13748755 0.19596937 0.21773818
0000a0 a0 fa 5c 3e a3 38 5f 3e c3 bd 82 3e a4 31 dc bd
       0.21579981 0.21798949 0.25535402 -0.10751656
0000b0 9b b6 c9 3d a2 43 81 3e 4c a5 f9 3d 8a 2c 8f 3e
       0.09849282 0.25246912 0.12189731 0.27963668
0000c0 d1 75 c6 3d 37 cf 6f 3e e0 a9 28 bc 92 9e 6f 3e
       0.096904404 0.2341889 -0.010294408 0.23400334
0000d0 c0 12 e7 3c 39 7c 68 3e 0e 5e 4b bd e7 4d 4a 3e
       0.028207183 0.22703637 -0.049650244 0.1975628
0000e0 ab d2 40 3d 94 53 39 3e f9 bb fa 3c 60 55 7f 3e
       0.04707591 0.18098289 0.03060721 0.24934912
0000f0 fb 7b 88 3e 88 99 3b 3e e8 60 65 bc a0 a2 6c 3e
       0.2665709 0.18320286 -0.014000155 0.23108912
000100 b9 6d 0e 3e bd ee 05 3e 57 e6 78 3e 93 87 ff 3d
       0.13909043 0.13079353 0.24306618 0.124770306
000110 70 72 a5 bb 59 8c 4c 3e 58 c7 80 3e 09 db 70 3e
       -0.0050490424 0.19975413 0.25152087 0.23521055
000120 45 03 fb 3d 0e ef 6a 3e d0 ec 35 3d 4b ec 07 3e
       0.12256483 0.22942755 0.044415295 0.13273732
000130 03 6f 77 3e e6 10 be 3d 75 75 42 3e 00 6a 23 3d
       0.24163441 0.09280567 0.18990119 0.03989601
000140 f8 0b 26 3e 1c 93 62 3e 5d 2d 3a 3e b1 fb 47 3e
       0.16215503 0.2212643 0.18181367 0.19529606
000150 8c 63 72 3e 53 84 45 3e 0f 65 17 3e a2 32 6a 3e
       0.23670787 0.19288759 0.14784645 0.22870877
000160 e4 0a c8 3d ee 65 30 3e 1f d7 14 3e 1f f9 2d 3e
       0.09767702 0.17226383 0.14535187 0.16989563
000170 b9 59 8f 3e 97 30 0f 3e cb 87 08 3e 4a 92 74 3e
       0.2799814 0.1398338 0.13333051 0.2388393
000180 0d 38 53 3e 27 af 77 3e 0e 2d 40 3e 8c 31 2f 3e
       0.2062685 0.24187909 0.18767187 0.17108744
000190 01 78 17 3e 0a cb 93 3e 08 2a 10 3e b8 38 31 bc
       0.14791872 0.28865844 0.14078534 -0.010816745
0001a0 7e 26 58 3e 98 47 2c 3e 1a 8f 70 3d 65 d0 56 3e
       0.21108434 0.16824186 0.058730222 0.20977934
0001b0 81 3a 5b 3e 90 2c e5 3d 11 86 c9 3d 9b a1 08 3e
       0.21409036 0.1119014 0.09840024 0.13342898
0001c0 d4 39 25 3e 73 80 70 be 03 32 69 3e 70 e1 22 3c
       0.16135341 -0.234865 0.22772984 0.009941444
0001d0 ac 27 40 3e 22 20 82 3e 90 c1 4f 3c 4c 07 4b 3d
       0.18765134 0.2541514 0.012680426 0.049567506
0001e0 cb cc 39 3e 80 60 58 be 14 6b 63 3b d0 90 ac 3b
       0.18144529 -0.21130562 0.0034701275 0.0052662864
0001f0 2e 66 4e bd 29 2d 3c 3e 4f 66 03 3f 48 63 3c 3e
       -0.050390415 0.18376602 0.51327986 0.18397248
000200 a6 60 08 3e 21 1c 2a 3e da 80 70 3d 83 1d d1 3e
       0.13318118 0.16612293 0.058716632 0.40842828
000210 bb 9e 69 3e a9 b2 3b 3e 40 6e 5a 3e b3 0a 51 3e
       0.22814457 0.18329872 0.2133112 0.20414238
000220 1d 6a 62 3e 0a 2b ed 3d e3 08 29 3e e5 36 3f 3e
       0.22110792 0.11580475 0.16507296 0.18673284
000230 7c e8 87 bc 2b 27 42 3e 42 93 d1 3d 70 76 bc bc
       -0.01659035 0.18960254 0.10233165 -0.023005694
000240 70 e1 1c 3e 8d c4 36 3e c0 86 4b bd a4 ea 44 3e
       0.15320373 0.17848416 -0.049689054 0.19230133
000250 9a fd 4e 3e a5 1c 2e 3e f0 fa 4b bd ac 87 19 bd
       0.20213929 0.17003115 -0.04979986 -0.037482902
000260 c0 6c db ba 40 c5 c4 ba 90 52 29 3e cc 02 1c 3e
       -0.0016740784 -0.0015012398 0.16535401 0.15235442
000270 a2 9b 70 bd 90 22 a9 bc 90 ae c7 bb 93 1c 0e 3e
       -0.058742173 -0.020646363 -0.0060938075 0.13878088
000280 80 ba 89 3e 13 ad f6 3d 1c f7 3d 3e 1d ef 4b 3e
       0.269001 0.1204473 0.18551296 0.19915433
000290 5b 34 eb 3d 3c 53 0e 3e e8 b3 96 bc ea b5 47 3e
       0.114845954 0.13898939 -0.018396333 0.19502988
0002a0 d7 42 25 3e cb c6 7b 3e f8 c1 43 3e 4b b5 60 3e
       0.16138779 0.24587552 0.19116962 0.21944158
0002b0 09 cb 54 3c 65 c6 15 3e a0 57 33 3e 8a 37 49 3e
       0.0129878605 0.14626463 0.17513895 0.19650093
0002c0 fb a8 33 3e 24 2d f7 3c 34 16 03 3e fe 3b 2f 3e
       0.1754493 0.030172892 0.12801439 0.17112729
0002d0 f8 5a 0c 3e be c3 89 3e e0 ce 21 3e 1e ed 4c 3e
       0.13706577 0.26907152 0.15801573 0.20012328
0002e0 ba d3 d7 3d ed c7 03 3e 80 ea 2e 3a c0 29 33 bc
       0.105384305 0.12869234 0.00066725165 -0.010935247
0002f0 30 6b 41 3e 02 70 1a 3e 09 2e 34 3e 9b 2c b8 3d
       0.18888545 0.1508179 0.17595686 0.08992883
000300 68 12 f0 3d d3 82 db 3e bf 29 60 3e 88 9d 89 3e
       0.11722261 0.42873248 0.21890925 0.26878
000310 bd e1 04 3e 38 06 51 bd 37 eb ff 3d 6e c0 5a 3e
       0.12976737 -0.05103132 0.124960355 0.21362469
000320 dd 3b 74 bd 16 07 5f 3e 7d 1c 42 3e d4 d4 5d 3d
       -0.059627403 0.21780047 0.1895618 0.054158047
000330 aa 4b 33 bd a4 ac 84 3c 70 a1 b5 bb 44 f1 32 3e
       -0.04377333 0.016195603 -0.0055429265 0.17474848
000340 08 8d 65 3d e0 cc 39 3e a2 ee 32 3e 78 1b 22 3c
       0.0560427 0.1814456 0.17473844 0.009894244
000350 5b 07 33 3e 50 e4 3b 3e ff 06 3a 3e b3 66 a3 3e
       0.17483275 0.18348813 0.18166731 0.3191429
000360 eb f5 69 3d 07 3f 52 3e 92 01 ea 3d 60 60 10 3e
       0.05711929 0.20531856 0.11426081 0.14099264
000370 8b f3 11 3e ce 5b 09 3e 64 da 82 3e 52 0f 35 3d
       0.1425306 0.13413927 0.25557244 0.044204064
000380 af 8e 46 3e 96 d4 71 bd 35 fb bb 3d 00 07 79 3b
       0.19390367 -0.05904063 0.09178773 0.0037998557
000390 0b e8 e5 bc 78 73 ce 3c 48 af f3 3e c2 b6 42 3e
       -0.028064748 0.025201544 0.47594666 0.19015029
0003a0 2e 72 3e 3e 96 83 4e bc 0b 46 05 3e b7 b9 7c 3e
       0.18598244 -0.012604615 0.13015 0.2468022
0003b0 be c6 76 3e 17 ed 15 3e 52 0c 5b 3e 5a 7f 2d 3e
       0.24099252 0.14641224 0.21391419 0.16943112
0003c0 b5 6e f6 3d 54 f7 75 bd 30 d0 d7 3d 7c 6d 24 3d
       0.120328344 -0.060050324 0.105377555 0.040143475
0003d0 7a 79 7b 3e 9a 83 85 3e 94 09 b0 3d 0e 79 2f 3d
       0.24558058 0.26076967 0.08595577 0.042840056
0003e0 ce b1 31 3d 38 33 95 3c 38 a8 11 3e 4a 5e 45 3e
       0.04338246 0.0182129 0.14224327 0.1927425
0003f0 18 66 26 3e ea e4 05 bd b8 5f 03 3e ce 33 4e 3d
       0.16249883 -0.032689013 0.12829483 0.050342374

network.layer4.bias f4 [26]
000000 3e 54 c1 bd 72 1a bd 3d 1c d2 73 3f 26 51 3e be
       -0.09439896 0.0923356 0.95242476 -0.18585643
000010 f0 4a 88 3e 43 e8 44 3e 2c d9 b2 bd e3 24 32 3d
       0.26619673 0.19229226 -0.087328285 0.04349221
000020 f1 10 24 3e 32 1b 83 be bb 95 ed 3d b5 b1 5d 3f
       0.16022088 -0.25606686 0.116008244 0.86599284
000030 bf a5 aa be 4a 4e 5d 3f e7 12 cf be 22 3e a3 bc
       -0.3332958 0.86447585 -0.4044411 -0.019927088
000040 b9 8a db 3e cc 17 10 be 61 18 72 3e 92 9a 5d 3e
       0.42879274 -0.14071578 0.23642112 0.21640995
000050 41 b7 bd 3d 2b 30 f4 3d 79 ee c0 3e 2f 6d c9 be
       0.092634685 0.1192325 0.3768194 -0.39341113
000060 8f df 87 3e 68 e7 49 3e
       0.2653775 0.1971718
