DDQN_panda_env2/runs/results_8/best-model-rw.pt (torch, 162903 bytes, 6 tensors)

network.layer1.weight f4 [128, 3]
-0.6055287 0.2652136 0.04180456 -0.8165875 0.15910405 0.32157657 -1.1557959 0.41346967
0.551833 -0.66860265 -0.50956285 0.1661581 -0.92327255 -0.41551596 -0.036357112 -1.1263337
-0.19475868 -0.061633177 -0.41458723 0.45912287 0.39654246 -0.51057166 -1.0297997 -0.17928149
0.89311975 0.20204581 0.27036652 -0.18712439 -1.064323 -0.40123963 -0.6521026 0.10010611
0.591954 -0.42255637 -0.36148262 0.5724801 -0.048492584 -0.29714838 -0.75458217 -0.6311603
0.5092993 0.30203503 -1.0945747 -0.32885006 -0.014062552 -0.05883081 -0.09292153 -0.49391314
0.22528265 -0.21111594 -0.5580606 -1.1695096 -1.0727414 -0.39056885 -1.0513633 -0.7663174
-0.09213996 -0.72664934 -0.76023984 -0.3880504 -0.5167466 -0.42897108 0.34558937 -0.9021502
-0.054762974 0.040983368 0.026397714 0.26480877 -0.473295 -1.2447554 0.3845063 0.05807172
-0.55995214 0.33133584 -0.062614195 -0.38294542 -0.3346621 0.5209127 -1.1882794 0.23411301
0.23595376 -1.1073565 -0.05113875 0.4594689 -0.65495044 0.46321455 -0.1013896 -0.42640135
-1.0981315 -0.18242733 -0.8733785 0.094896145 0.28076702 -0.8755468 -0.55692965 -0.15266252
-1.0895705 -0.58153325 0.11573445 -1.059211 -0.32575214 0.33578837 -0.30337858 0.31004706
-0.5740054 -0.6422295 0.48559955 0.49908218 -1.0682175 -0.28212693 0.22615603 -0.25782838
0.58983046 -0.31052563 -1.049932 -0.47526488 -0.3672602 0.38202247 -0.6038732 0.7913888
-0.57083005 0.11905455 0.05259624 0.79925954 0.22752856 0.20265715 -0.81051856 -0.3786951
0.56424403 -0.37707907 -0.33577842 0.34427547 -1.0418149 -0.059067912 0.30547428 -0.5372487
-0.18924932 0.28988275 -1.1216538 -0.6621714 -0.39131522 -0.3202023 0.3170587 0.3509362
-1.144519 -0.682524 0.2986884 -0.6893367 0.5003128 0.49445245 -0.28844664 -0.38542154
0.5458136 -1.171629 0.33514914 0.49090353 -0.49136344 -0.1756048 0.4134626 -0.9840738
0.0484656 0.4891558 -0.20592298 -0.06741735 0.42700046 -0.49288866 -0.68786246 0.48333156
-0.39143765 0.009638344 0.3629068 -0.46642584 0.78856474 -0.1110956 -1.1687443 0.14043184
0.45397705 -1.1495111 0.16542423 -0.03406687 -0.85510784 -0.28053793 0.37236223 0.032294102
-0.088860825 -0.13709141 -0.15467441 1.3754177 0.24465695 -0.81339604 -0.13515368 0.56367356
0.29269275 0.11615944 -0.015928427 -0.22806586 0.15372485 0.5466645 1.1361363 -0.24864389
0.16033807 -0.22664467 -0.5829045 -0.08073003 -0.14433332 -0.99279946 -0.49254867 -1.0036442
-0.20691086 0.5222965 -0.6770057 0.33872044 0.46256453 0.7580253 -0.4353941 0.63444364
-0.80881834 -0.71537554 0.30765128 -0.13930058 0.33157083 -0.14351626 -0.7468054 -0.31020328
0.4693979 -0.87812823 0.53244317 0.3552914 1.1397488 -0.28826794 0.2787986 -0.84122545
-0.75329703 -0.4054896 -0.7466507 -0.28635958 -0.09523196 -1.0604787 0.22448076 0.39120144
0.3802176 0.6244918 -0.33572757 -0.11261183 -0.3757997 0.2735502 0.50836337 -0.41036078
0.631226 0.39350602 -0.053877026 -0.37956756 -1.0574468 -0.4129339 0.016298965 -0.19845146
00000000: ee03 1bbf 14ca 873e 423b 2b3d e10b 51bf
00000010: 2cec 223e afa5 a43e 1ff1 93bf 4cb2 d33e
00000020: ed44 0d3f 8b29 2bbf b672 02bf 5925 2a3e
00000030: 975b 6cbf 82be d4be 32eb 14bd b42b 90bf
00000040: d26e 47be 1273 7cbd c744 d4be 2712 eb3e
00000050: 9d07 cb3e d3b4 02bf 7ad0 83bf 9195 37be
00000060: 7fa3 643f 19e5 4e3e 7b6d 8a3e 899d 3fbe
00000070: bc3b 88bf 486f cdbe 32f0 26bf 6f04 cd3d
00000080: 4c8a 173f 4f59 d8be 4014 b9be 0e8e 123f
00000090: 29a0 46bd d523 98be 4c2c 41bf b993 21bf
000000a0: 7061 023f 56a4 9a3e 061b 8cbf 095f a8be
000000b0: 9e66 66bc 93f8 70bd a54d bebd 2fe2 fcbe
000000c0: 7fb0 663e c72e 58be 0fdd 0ebf 7eb2 95bf
000000d0: 974f 89bf a4f8 c7be 1393 86bf 612d 44bf
000000e0: e0b3 bcbd b105 3abf 149f 42bf 8bae c6be
000000f0: 8149 04bf 19a2 dbbe 17f1 b03e 51f3 66bf
00000100: 244f 60bd 2dde 273d 0540 d83c 0495 873e
00000110: b953 f2be 2554 9fbf 02de c43e 9ddc 6d3d
00000120: 0659 0fbf daa4 a93e df3b 80bd 6c11 c4be
00000130: d558 abbe 895a 053f 8a19 98bf 52bb 6f3e
00000140: dd9d 713e dcbd 8dbf de76 51bd 823f eb3e
00000150: d5aa 27bf 752a ed3e 5aa5 cfbd 4751 dabe
00000160: 938f 8cbf 3bce 3abe bc95 5fbf e958 c23d
00000170: b2c0 8f3e d623 60bf f192 0ebf 9053 1cbe
00000180: 0c77 8bbf 5ddf 14bf 2f06 ed3d 3a94 87bf
00000190: fcc8 a6be 74ec ab3e 7054 9bbe 7dbe 9e3e
000001a0: 05f2 12bf 2769 24bf 81a0 f83e b387 ff3e
000001b0: 5abb 88bf f172 90be 7295 673e 1502 84be
000001c0: 21ff 163f 37fd 9ebe 2c64 86bf eb55 f3be
000001d0: 8709 bcbe 7398 c33e 6f97 1abf 7598 4a3f
000001e0: eb21 12bf dfd2 f33d 286f 573d 469c 4c3f
000001f0: 3ffd 683e 5b85 4f3e 257e 4fbf 53e4 c1be
00000200: 4c72 103f 8210 c1be 26eb abbe e044 b03e
00000210: 315a 85bf 32f1 71bd 2067 9c3e 2189 09bf
00000220: 93ca 41be 836b 943e 5a92 8fbf 1184 29bf
00000230: 785a c8be 8ef1 a3be 8555 a23e e9ad b33e
00000240: 997f 92bf e5b9 2ebf b0ed 983e 5f78 30bf
00000250: 8014 003f df28 fd3e 47af 93be f955 c5be
00000260: 71ba 0b3f f0f7 95bf ab98 ab3e b557 fb3e
00000270: fd93 fbbe bfd1 33be 5fb1 d33e 43ec 7bbf
00000280: dd83 463d a172 fa3e 79dd 52be 1c12 8abd
00000290: ce9f da3e e75b fcbe c117 30bf 3c77 f73e
000002a0: 846a c8be 25ea 1d3c ecce b93e 5ecf eebe
000002b0: 61df 493f 1786 e3bd 6a99 95bf 5dcd 0f3e
000002c0: ae6f e83e 2e23 93bf f864 293e b489 0bbd
000002d0: 59e8 5abf aba2 8fbe 43a6 be3e d246 043d
000002e0: aafc b5bd b161 0cbe f862 1ebe b00d b03f
000002f0: 5a87 7a3e b93a 50bf ba65 0abe e94c 103f
00000300: d3db 953e 00e5 ed3d 557c 82bc 198a 69be
00000310: 0c6a 1d3e 34f2 0b3f ea6c 913f 819c 7ebe
00000320: aa2f 243e 8a15 68be 3b39 15bf c955 a5bd
00000330: 1dcc 13be 1b28 7ebf 572f fcbe 6a77 80bf
00000340: 71e0 53be 39b5 053f 3f50 2dbf c46c ad3e
00000350: 42d5 ec3e f20d 423f faeb debe e66a 223f
00000360: b80e 4fbf da22 37bf 7884 9d3e d0a4 0ebe
00000370: a7c3 a93e edf5 12be a42e 3fbf f7d2 9ebe
00000380: ec54 f03e 03cd 60bf 324e 083f c1e8 b53e
00000390: 4ae3 913f db97 93be b1be 8e3e 8d5a 57bf
000003a0: 13d8 40bf 559c cfbe 8024 3fbf b99d 92be
000003b0: f908 c3bd c4bd 87bf 49de 653e 8e4b c83e
000003c0: e2ab c23e b2de 1f3f 7ce4 abbe 08a1 e6bd
000003d0: d168 c0be c60e 8c3e 1a24 023f cf1a d2be
000003e0: 0798 213f 9f79 c93e 28ae 5cbd ae56 c2be
000003f0: 6b5a 87bf 126c d3be 6885 853c dc36 4bbe

network.layer1.bias f4 [128]
0.86883014 -0.117971905 0.20123418 0.6477972 0.14503087 0.16967301 -0.17981032 -0.14107548
0.7810576 0.21106681 0.72703207 0.6017008 -0.33844075 0.0119976 0.15220052 -0.48418275
-0.41388547 0.3589254 0.7713784 0.8136768 -0.06722727 0.65780735 0.10445607 -0.04987964
0.7859505 0.8612181 -0.14333262 0.5999049 0.7288102 -0.2636587 0.65559953 0.4541184
-0.19842052 0.24557494 -0.14331989 -0.31029215 0.4985423 -0.07920013 0.8747762 -0.23828493
0.56570286 0.8093888 0.13049231 0.07193525 0.6672958 0.82518834 0.77579033 0.77083224
0.04154288 -0.24018131 0.20276073 0.8979546 0.6890292 0.7167648 0.28248644 -0.060091596
0.12523839 0.691247 -0.2640318 -0.07588648 0.06880012 -0.4885334 0.019866554 0.8107149
-0.5123798 0.51414686 0.46840385 0.833999 1.0042915 0.896685 0.68654615 0.040399794
0.9211267 -0.09087704 0.264394 -0.03623929 0.2716784 0.8962524 0.39664543 0.73158956
-0.023656875 0.50487554 -0.0020831053 -0.3970601 -0.0026230908 -0.017385088 -0.32987282 0.49115312
0.6636465 -0.34816322 0.11827204 1.2150565 0.915169 0.15090747 0.23546658 -0.16987132
-0.023197303 0.18127497 0.5796541 0.6488056 0.6048346 0.10911036 -0.17035326 0.9101896
0.42117122 0.64717925 0.5169653 0.75135887 -0.11152682 0.677282 0.15230003 0.18626626
0.86015594 0.5339375 0.14606096 -0.069761544 0.5900283 0.4860991 -0.09272799 0.39991373
0.59651595 -0.073106684 0.04343917 -0.04028798 0.07634446 0.8311204 0.32332867 0.08462552
00000000: a76b 5e3f 419b f1bd 5510 4e3e 0ad6 253f
00000010: f982 143e c3be 2d3e 3220 38be 1776 10be
00000020: 64f3 473f e621 583e c61e 3a3f 1009 1a3f
00000030: 1b48 adbe 9591 443c 74da 1b3e cde6 f7be
00000040: cce8 d3be 12c5 b73e 0e79 453f 1f4d 503f
00000050: 73ae 89bd 1066 283f 10ed d53d 984e 4cbd
00000060: 0d34 493f ca78 5c3f c9c5 12be 5e93 193f
00000070: 4e93 3a3f 46fe 86be 5fd5 273f 3582 e83e
00000080: c02e 4bbe ff77 7b3e 73c2 12be 9dde 9ebe
00000090: f040 ff3e ae33 a2bd 55f1 5f3f f700 74be
000000a0: e7d1 103f 1b34 4f3f c79f 053e ca52 933d
000000b0: e6d3 2a3f 8b3f 533f 329a 463f 4355 453f
000000c0: de28 2a3d 17f2 75be 82a0 4f3e 5ae0 653f
000000d0: 3864 303f e67d 373f 10a2 903e 9b22 76bd
000000e0: 7e3e 003e 90f5 303f 2d2f 87be 5f6a 9bbd
000000f0: 14e7 8c3d 0d21 fabe 2fbf a23c 038b 4f3f
00000100: 532b 03bf 219f 033f a1d2 ef3e f580 553f
00000110: a08c 803f 268d 653f 7dc1 2f3f 417a 253d
00000120: f6ce 6b3f be1d babd a65e 873e a66f 14bd
00000130: 6e19 8b3e cc70 653f 1c15 cb3e 7449 3b3f
00000140: 10cc c1bc 863f 013f b584 08bb 764b cbbe
00000150: 29e8 2bbb 2c6b 8ebc 17e5 a8be 6c78 fb3e
00000160: bde4 293f 7342 b2be 9c38 f23d f986 9b3f
00000170: 8448 6a3f 7d87 1a3e 271e 713e bff2 2dbe
00000180: 4508 bebc 25a0 393e 3664 143f 2018 263f
00000190: 71d6 1a3f 4175 df3d 1671 2ebe 3002 693f
000001a0: c1a3 d73e 8aad 253f d757 043f 0e59 403f
000001b0: 2c68 e4bd 5a62 2d3f 8af4 1b3e 95bc 3e3e
000001c0: 2e33 5c3f 21b0 083f 0191 153e 24df 8ebd
000001d0: 180c 173f fbe1 f83e 2ce8 bdbd 7ec1 cc3e
000001e0: 45b5 183f f5b8 95bd 45ed 313d 0205 25bd
000001f0: 7c5a 9c3d 4ec4 543f 568b a53e 2550 ad3d

network.layer2.weight f4 [256, 128]
0.19400665 0.21029155 0.15093139 0.1770169 0.39597553 0.46963957 -0.03647985 0.41538334
-0.59490883 0.45007735 0.011530328 0.1498822 -0.006444275 0.15192346 0.31796035 -0.030533137
-0.07193011 0.6131513 0.30147293 0.5698323 0.12346423 0.3009253 -0.24380267 0.46738383
0.20649385 0.052209202 0.32077506 0.1443677 0.5142908 0.38939655 0.1525211 0.47499704
0.22048607 0.23745446 -0.17471275 -0.06655348 0.21254392 -0.28187406 0.6697138 -0.113365814
0.18231802 -0.56591463 0.06364957 0.10133889 0.19549632 0.21960954 0.6050863 0.15386903
0.25835896 0.119530514 0.0423268 0.16879359 0.11503345 0.1027653 -0.056940306 -0.022938957
0.07336257 0.67855364 0.11592979 0.74880797 0.13258064 0.043418154 0.5780377 0.17279617
0.07358902 -0.033234507 -0.48944107 0.1519797 0.5031775 0.14955267 0.15361334 -0.0674871
0.11420008 -0.18381977 0.12420769 0.16076416 -0.554199 0.5402373 0.36946076 0.23388083
-0.22965041 0.08607525 -0.08154454 0.021767255 0.34786263 -0.1695359 0.21638775 0.4492935
-0.018022513 -0.07436661 0.15859397 0.4921983 0.41084337 0.085052684 0.5712259 0.44896048
0.44334698 0.26589915 0.2705702 0.44426358 0.13915405 -0.18660823 0.29938906 0.18183044
0.745143 0.048570633 0.45337996 0.03155507 -0.17760666 0.11330953 -0.4187654 0.081459746
0.07609282 0.08721564 -0.44752026 0.014460764 0.21818121 0.07689963 0.05096491 -0.18447834
0.037905656 0.13191317 0.49733993 0.22205597 0.13595332 -0.4983103 0.12504338 -0.13404123
0.16494916 0.12886733 0.026932482 0.14748901 0.47930512 0.50939965 -0.040361766 0.3861248
-0.5618167 0.6051358 0.033081055 0.037740987 0.10825916 0.006825891 0.44945127 0.036749702
-0.082691304 0.5861012 0.44025022 0.66667175 0.060773123 0.26672852 -0.08073743 0.33608037
0.122081265 0.02448634 0.14026201 0.20588547 0.5598447 0.493418 0.14275584 0.4941618
0.25450853 0.24617761 -0.07819969 0.046124175 0.32311532 -0.14343482 0.73461 -0.017526053
0.13922517 -0.51571953 0.20152117 0.04486988 0.14571324 0.20755914 0.6574581 0.101132825
0.23594426 0.09564824 0.10475092 0.056773715 0.09568574 0.19341287 -0.017320506 0.15772256
0.07193997 0.66527545 0.11539362 0.7005189 0.11641826 -0.040863488 0.39631832 0.10929367
-0.026122164 -0.015920486 -0.44479787 0.12403521 0.6056401 0.08810499 0.12656376 -0.11894881
0.22110085 -0.08396558 0.19914673 0.037672915 -0.52180135 0.65974486 0.42709345 0.15450303
-0.022906331 0.108289555 -0.09113406 0.06795114 0.51692396 0.030982155 0.041020665 0.64137405
0.015438979 0.047123685 0.36402604 0.4729581 0.2316206 0.034456402 0.4449447 0.47971264
0.54449564 0.20562989 0.2594235 0.3211089 0.04520841 -0.07973398 0.34914738 0.12494074
0.6812318 0.12678336 0.47599652 0.0053068837 -0.10160232 0.08530619 -0.5327278 0.20600751
0.120805554 0.099309586 -0.4433477 -0.06711839 0.14126955 0.1435798 0.16012159 -0.17852029
-0.008346156 0.025451677 0.5045112 0.28655887 0.23175792 -0.61491305 0.2876336 0.007254642
00000000: aea9 463e ab56 573e c28d 1a3e eb43 353e
00000010: 4ebd ca3e 9974 f03e e56b 15bd 20ad d43e
00000020: f24b 18bf 8a70 e63e b3e9 3c3c b87a 193e
00000030: 7f2a d3bb d391 1b3e b3cb a23e a120 fabc
00000040: 1850 93bd 7cf7 1c3f a95a 9a3e 88e0 113f
00000050: d0da fc3d e212 9a3e 68a7 79be ef4c ef3e
00000060: 2073 533e 51d9 553d a13c a43e 20d5 133e
00000070: 90a8 033f fc5e c73e 7e2e 1c3e d032 f33e
00000080: 1ac7 613e 4327 733e e6e7 32be 314d 88bd
00000090: 1da5 593e cc51 90be 5d72 2b3f 562c e8bd
000000a0: 93b1 3a3e c8df 10bf b55a 823d c48a cf3d
000000b0: 3030 483e 53e1 603e f0e6 1a3f d88f 1d3e
000000c0: a047 843e 6acc f43d de5e 2d3d 3ad8 2c3e
000000d0: a896 eb3d 9d76 d23d 3d3a 69bd 7bea bbbc
000000e0: 1d3f 963d b1b5 2d3f 996c ed3d e1b1 3f3f
000000f0: 38c3 073e 3cd7 313d 47fa 133f 7bf1 303e
00000100: d7b5 963d e820 08bd 0598 fabe 91a0 1b3e
00000110: 3ed0 003f 5624 193e d14c 1d3e ad36 8abd
00000120: bbe1 e93d 403b 3cbe 9a60 fe3d 5c9f 243e
00000130: fcdf 0dbf fe4c 0a3f f629 bd3e 757e 6f3e
00000140: 7a29 6bbe 3848 b03d d300 a7bd 3e51 b23c
00000150: 0d1b b23e d29a 2dbe c094 5d3e cc09 e63e
00000160: f3a3 93bc 854d 98bd 7566 223e 6a01 fc3e
00000170: 105a d23e 1a30 ae3d dc3b 123f 26de e53e
00000180: 60fe e23e ef23 883e 2d88 8a3e 8476 e33e
00000190: 667e 0e3e 3a16 3fbe 8649 993e c231 3a3e
000001a0: b1c1 3e3f 00f2 463d 6b21 e83e e43f 013d
000001b0: 85de 35be d40e e83d 6b68 d6be 5ed4 a63d
000001c0: 8dd6 9b3d 1d9e b23d 6021 e5be d7ec 6c3c
000001d0: e56a 5f3e 8e7d 9d3d 95c0 503d e4e7 3cbe
000001e0: f642 1b3d 3f14 073e 57a3 fe3e a462 633e
000001f0: 5937 0b3e 8722 ffbe 5f0b 003e 1b42 09be
00000200: 6fe8 283e ccf5 033e 82a1 dc3c 5c07 173e
00000210: 7b67 f53e 0468 023f 6152 25bd 26b2 c53e
00000220: 38d3 0fbf 2eea 1a3f 0080 073d 4b96 1a3d
00000230: fab6 dd3d b9ab df3b 7a1e e63e db86 163d
00000240: 0f5a a9bd ba0a 163f 7a68 e13e 00ab 2a3f
00000250: 3ded 783d a490 883e aa59 a5bd ba12 ac3e
00000260: be05 fa3d 9497 c83c d8a0 0f3e a4d3 523e
00000270: fb51 0f3f 49a1 fc3e 962e 123e c702 fd3e
00000280: f14e 823e fc15 7c3e 2927 a0bd b4ec 3c3d
00000290: 5f6f a53e 94e0 12be 670f 3c3f cc92 8fbc
000002a0: 0b91 0e3e 3206 04bf 915b 4e3e 7bc9 373d
000002b0: da35 153e 628a 543e 2d4f 283f ba1e cf3d
000002c0: 5f9b 713e 39e3 c33d a687 d63d 8e8b 683d
000002d0: e3f6 c33d 060e 463e bce3 8dbc 0682 213e
000002e0: 4355 933d 7e4f 2a3f 7e53 ec3d 3555 333f
000002f0: b26c ee3d 7960 27bd 3cea ca3e 5cd5 df3d
00000300: 26fe d5bc ae6b 82bc 8cbc e3be 2c06 fe3d
00000310: 3b0b 1b3f 6470 b43d ee99 013e 6f9b f3bd
00000320: 4368 623e 25f6 abbd 1fed 4b3e ea4e 1a3d
00000330: c694 05bf 0ae5 283f feab da3e 0b36 1e3e
00000340: 0fa6 bbbc eac6 dd3d 7ea4 babd f829 8b3d
00000350: 2155 043f 4ace fd3c 4905 283d 1731 243f
00000360: c5f3 7c3c c404 413d 9f61 ba3e 9027 f23e
00000370: f32d 6d3e 2822 0d3d cbcf e33e e59c f53e
00000380: 1164 0b3f a490 523e 28d3 843e 6368 a43e
00000390: 742c 393d 924b a3bd 72c3 b23e eee0 ff3d
000003a0: 3565 2e3f 7fd3 013e d1b5 f33e 5ee5 ad3b
000003b0: e114 d0bd 03b5 ae3d d960 08bf a2f3 523e
000003c0: e768 f73d d362 cb3d 78fe e2be 5e75 89bd
000003d0: f7a8 103e 9506 133e eaf6 233e 06ce 36be
000003e0: 51be 08bc 0980 d03c a527 013f d8b7 923e
000003f0: f351 6d3e f16a 1dbf b644 933e 59b8 ed3b

network.layer2.bias f4 [256]
0.2195907 0.16168955 0.0034349735 0.36331722 0.37841073 0.16436507 0.3042396 0.40118057
0.17365564 0.22016867 0.20168553 0.21552189 0.261123 0.06988221 0.0063703 0.1778598
0.36150998 0.21072492 0.2777936 0.18214211 0.18883334 0.083571196 -0.055039696 0.19383006
-0.06681195 0.023736505 -0.08416696 0.3321702 0.20805028 0.23900473 0.24688913 0.30469474
0.21689934 -0.027841011 0.255069 0.25352633 -0.075726174 0.19538291 0.29288056 0.29683453
0.2520876 0.14242421 0.20659462 -0.27151954 0.27441204 0.20527913 0.3333689 0.26978374
0.25355488 0.1976133 -0.04584464 0.2597951 -0.013294625 0.30390367 -0.02053445 0.33537707
0.4078893 0.1578431 0.03873435 0.15733665 0.39445564 0.31732 -0.053289473 0.20423158
0.15177964 0.071322046 0.19403753 0.25141805 -0.081809856 0.2675483 0.22771098 0.34855074
0.3128744 0.2867694 0.03225802 0.22441597 0.19610196 0.17080827 0.20676078 -0.084052406
0.23927191 0.23204587 0.17622444 0.3509247 0.20528314 0.20108101 0.31120363 0.32330018
0.17578802 0.15217958 0.21206583 0.25522536 0.21689607 0.32210138 0.16185188 0.28099197
0.28473926 0.34467864 0.14628038 0.2984505 0.13763839 0.07618463 0.14131205 -0.086656235
0.2829809 0.1385383 0.015243324 0.18325755 0.30098245 0.14981627 0.24346891 0.13079481
0.23645112 -0.2621299 0.28550342 -0.0412397 0.19382274 0.17701145 0.05137014 -0.04819139
0.34009376 0.3800388 -0.04884925 -0.03754607 0.017587058 0.29346648 0.17919841 0.3343873
0.15463324 -0.03345889 0.040539082 0.33643976 0.30761167 0.15421371 0.26123574 0.4829277
0.14163193 0.17616124 0.3558497 0.2242165 0.016615449 0.28562504 0.21578789 0.010163839
0.23006651 0.2125898 -0.017047063 0.2456764 0.19612512 0.2985788 -0.008622405 -0.041259564
-0.01459051 -0.07287376 0.20256771 0.22546445 -0.0788205 -0.04805746 0.05300896 0.29160967
0.3950733 0.26263633 0.26878828 0.26798248 0.35034195 0.2746032 0.026168589 0.19227153
0.13081847 0.27784887 0.26456028 0.2761975 -0.0034419936 0.25308645 0.24214606 0.21425435
0.2256118 -0.05774568 0.16856946 0.25573334 0.11883685 0.16199061 0.30510458 0.25092027
0.17945288 0.20002772 -0.010201682 0.029868228 0.25163814 0.13667606 0.2517687 0.13218811
0.31250787 0.13339552 0.14801754 0.34357625 0.29353946 0.006276024 0.25421986 0.2993257
-0.07558207 0.2827802 0.20298102 -0.0400934 -0.011716023 -0.022768883 0.05032456 0.2766291
-0.04127291 0.26498482 0.19141467 0.04197082 0.2384716 0.3124962 0.23949905 0.23406552
0.028059829 0.28500214 0.17755172 0.21481092 0.2698161 0.25621054 0.40265024 -0.028275931
0.21566233 -0.05085639 0.3267661 -0.004542482 0.04598299 -0.066872686 0.20886593 0.27028146
0.17410727 -0.047746953 0.29375955 0.23024124 0.2826373 0.36244744 0.20647602 0.1554333
0.1659886 0.08596287 0.20730926 -0.010689944 0.2437347 0.045965295 0.19001438 -0.008114902
0.073792614 0.018998187 0.15735069 0.22937016 0.28985524 -0.04137712 0.3661341 0.0510752
00000000: 62dc 603e f291 253e 4b1d 613b b704 ba3e
00000010: 0dbf c13e 514f 283e 4bc5 9b3e 8a67 cd3e
00000020: c9d2 313e e573 613e a786 4e3e c5b1 5c3e
00000030: eab1 853e 671e 8f3d f3bd d03b e120 363e
00000040: d617 b93e 46c8 573e f63a 8e3e 7683 3a3e
00000050: 875d 413e 6027 ab3d 4e71 61bd 637b 463e
00000060: b4d4 88bd 0f73 c23c ba5f acbd 3612 aa3e
00000070: 220b 553e a8bd 743e 81d0 7c3e f300 9c3e
00000080: dc1a 5e3e d512 e4bc 6798 823e 34ce 813e
00000090: 5316 9bbd 7512 483e 71f4 953e b2fa 973e
000000a0: a011 813e a7d7 113e 8a8d 533e 9c04 8bbe
000000b0: bc7f 8c3e b134 523e 54af aa3e 1821 8a3e
000000c0: f2d1 813e 245b 4a3e 97c7 3bbd dd03 853e
000000d0: b3d1 59bc 4399 9b3e dd37 a8bc 8bb6 ab3e
000000e0: ded6 d03e 9fa1 213e e9a7 1e3d dc1c 213e
000000f0: 17f6 c93e c477 a23e 1046 5abd 1522 513e
00000100: 1f6c 1b3e 4b11 923d c6b1 463e deb9 803e
00000110: ed8b a7bd 17fc 883e 112d 693e 3e75 b23e
00000120: 1331 a03e 70d3 923e fc20 043d 4dcd 653e
00000130: f4ce 483e 5de8 2e3e 19b9 533e ab23 acbd
00000140: b203 753e 6f9d 6d3e 2e74 343e 67ac b33e
00000150: be35 523e 2ee8 4d3e 1556 9f3e 9a87 a53e
00000160: c601 343e f7d4 1b3e c927 593e e6ac 823e
00000170: 011a 5e3e 79ea a43e 80bc 253e 2ede 8f3e
00000180: 58c9 913e b879 b03e 86ca 153e 81ce 983e
00000190: 14f1 0c3e b006 9c3d 1bb4 103e d378 b1bd
000001a0: dfe2 903e fcdc 0d3e 23bf 793c dea7 3b3e
000001b0: 5f1a 9a3e 7069 193e ea4f 793e 13ef 053e
000001c0: 3e20 723e e435 86be 812d 923e f6ea 28bd
000001d0: 7879 463e 7d42 353e 7f69 523d 5664 45bd
000001e0: c520 ae3e 7294 c23e 2716 48bd e8c9 19bd
000001f0: bc12 903c 3d41 963e ca7f 373e d034 ab3e
00000200: 2d58 1e3e 300c 09bd 4f0c 263d d541 ac3e
00000210: 477f 9d3e 33ea 1d3e b1c0 853e 4d42 f73e
00000220: f607 113e 9d63 343e ef31 b63e 0399 653e
00000230: 1f1d 883c 723d 923e 80f7 5c3e 3b86 263c
00000240: 8e96 6b3e 24b1 593e 48a6 8bbc 9892 7b3e
00000250: 06d5 483e 52df 983e fd44 0dbc caff 28bd
00000260: 090d 6fbc d63e 95bd e96d 4f3e 27e0 663e
00000270: a46c a1bd e6d7 44bd ec1f 593d dd4d 953e
00000280: 0c47 ca3e 4578 863e 9e9e 893e 0035 893e
00000290: 0560 b33e ca98 8c3e 825f d63c d4e2 443e
000002a0: 47f5 053e 3542 8e3e 7274 873e c269 8d3e
000002b0: 1293 61bb 8c94 813e 23f5 773e 7e65 5b3e
000002c0: c806 673e bc86 6cbd 799d 2c3e 7bef 823e
000002d0: bc60 f33d dee0 253e ab36 9c3e 9f78 803e
000002e0: 7fc2 373e 11d4 4c3e f524 27bc 37ae f43c
000002f0: b7d6 803e cff4 0b3e d4e7 803e 525c 073e
00000300: 0801 a03e d698 083e e991 173e 3ae9 af3e
00000310: ce4a 963e 1ba7 cd3b 1b29 823e 3841 993e
00000320: c6ca 9abd 91c8 903e 42da 4f3e fa38 24bd
00000330: 90f4 3fbc cf85 babc 2021 4e3d 54a2 8d3e
00000340: c80d 29bd 17ac 873e 3502 443e 98e9 2b3d
00000350: e631 743e 80ff 9f3e 3d3f 753e dfae 6f3e
00000360: badd e53c cdeb 913e 1ed0 353e 65f7 5b3e
00000370: 5625 8a3e 072e 833e 2c28 ce3e eda2 e7bc
00000380: 96d6 5c3e ca4e 50bd e34d a73e 1ad9 94bb
00000390: a958 3c3d 8cf4 88bd f3e0 553e 5562 8a3e
000003a0: 2d49 323e 4f92 43bd a767 963e 5cc4 6b3e
000003b0: d6b5 903e b692 b93e 736e 533e e829 1f3e
000003c0: eaf8 293e 4d0d b03d e148 543e e024 2fbc
000003d0: 9795 793e 1b46 3c3d 2193 423e 5ef4 04bc
000003e0: 9520 973d 16a2 9b3c 8a20 213e 03e0 6a3e
000003f0: e867 943e 0e7b 29bd ee75 bb3e 3b34 513d

network.layer4.weight f4 [26, 256]
0.11114409 0.1336554 0.09399171 0.10374453 0.21044844 0.13612671 0.13912238 0.11492758
0.12759008 0.12596452 0.14023583 0.1839159 0.13781025 -0.04596719 0.007112648 0.16027828
0.22707237 0.16177094 0.1322893 0.19930516 0.14277904 0.034313582 -0.019800417 0.16456154
-0.015095651 -0.016758911 -0.058675 0.105061024 0.20019932 0.17385162 0.21582752 0.23901632
0.15768284 -0.02512449 0.15665805 0.14338322 0.056728147 0.12561242 0.19116965 0.205127
0.21215016 0.21958832 0.23335387 0.04888531 0.11339515 0.19838256 0.13333374 0.2605758
0.11400279 0.19103444 -0.010294408 0.18632957 0.028207183 0.2252347 -0.049650244 0.18076965
0.042280804 0.19532156 0.03060721 0.23758045 0.20402865 0.17512012 -0.014000155 0.22017896
0.1451179 0.20492366 0.14004923 0.13160771 -0.0050490424 0.20464806 0.20924312 0.23402521
0.121444605 0.21157244 0.044415295 0.1352888 0.23525158 0.102881484 0.16593625 0.03989601
0.12467408 0.19348602 0.16716667 0.12131993 0.22808945 0.20408292 0.15515739 0.14530373
0.12500584 0.16838424 0.16481566 0.20856215 0.22795759 0.15128489 0.14800093 0.20578709
0.19944972 0.2245566 0.19821776 0.17419043 0.15201156 0.13009164 0.14100698 -0.010816745
0.19605394 0.20864676 0.058730222 0.2005324 0.21667747 0.12486855 0.10794366 0.14993222
0.14551322 -0.041126348 0.14342457 0.009941444 0.19769077 0.23567721 0.012680426 0.049567506
0.17216912 -0.10879673 0.0034701275 0.0052662864 -0.050390415 0.18542235 0.26660872 0.14305091
0.18207823 -0.015694119 0.058716632 0.27482113 0.20526558 0.14211608 0.2089045 0.10634198
0.15729055 0.11555652 0.13995516 0.1891732 -0.01659035 0.18824944 0.12683052 -0.023005694
0.15091164 0.04749374 -0.049689054 0.21481922 0.2409972 0.17665756 -0.04979986 -0.037482902
-0.0016740784 -0.0015012398 0.15579718 0.14114751 -0.058742173 -0.020646363 -0.0060938075 0.1457749
0.22623107 0.12814711 0.18878603 0.1956547 0.11631688 0.13793455 -0.018396333 0.18795362
0.16418885 0.20823008 0.19590698 0.20489211 0.0129878605 0.12888192 0.18890356 0.18699099
0.1753407 0.030172892 0.118273675 0.18525001 0.18159564 0.24785429 0.15365684 0.18850832
0.12582338 0.1399476 0.00066725165 -0.010935247 0.20480874 0.09662023 0.18051916 0.10107954
0.13764429 0.12292238 0.22135732 0.14669149 0.11660094 -0.05103132 0.14624088 0.20628148
-0.059627403 0.19386455 0.20506632 0.054158047 -0.04377333 0.016195603 -0.0055429265 0.18086115
0.0560427 0.17346296 0.14776525 0.009894244 0.16913037 0.19599472 0.19224279 0.2648129
-0.04313779 0.17966406 0.13436684 0.14541225 0.14544272 0.14070646 0.17930347 0.044204064
0.1764754 -0.05904063 0.1150536 0.0037998557 -0.01906766 0.025201544 0.2542298 0.18447243
0.20860243 -0.012604615 0.13473912 0.2148726 0.21813303 0.13446349 0.20204334 0.16493215
0.13920619 -0.060050324 0.110371254 0.040143475 0.2241394 0.20741466 0.1118682 0.042840056
0.04338246 0.0182129 0.16239387 0.20347165 0.13552958 -0.032689013 0.13641593 0.050342374
00000000: 839f e33d f6dc 083e ba7e c03d 0378 d43d
00000010: cc7f 573e cd64 0b3e 1976 0e3e 275f eb3d
00000020: f9a6 023e d8fc 003e fb99 0f3e 7354 3c3e
00000030: 211e 0d3e 1848 3cbd 3711 e93b fd1f 243e
00000040: a985 683e 48a7 253e d976 073e a716 4c3e
00000050: ab34 123e 668c 0c3d 7c34 a2bc d282 283e
00000060: c053 77bc fc49 89bc 3255 70bd 3c2a d73d
00000070: 0d01 4d3e 2906 323e e401 5d3e b2c0 743e
00000080: 9c77 213e e0d1 cdbc f86a 203e 0dd3 123e
00000090: c65b 683d 8ba0 003e fac1 433e d00c 523e
000000a0: e43d 593e c3db 603e 51f4 6e3e f63b 483d
000000b0: b73b e83d cc24 4b3e a488 083e 316a 853e
000000c0: 4b7a e93d 889e 433e e0a9 28bc 2ecd 3e3e
000000d0: c012 e73c eda3 663e 0e5e 4bbd ae1b 393e
000000e0: a32e 2d3d 6002 483e f9bb fa3c 4a48 733e
000000f0: e3ec 503e b052 333e e860 65bc 9876 613e
00000100: c999 143e 82d7 513e 1169 0f3e 2cc4 063e
00000110: 7072 a5bb 438f 513e d443 563e 4ea4 6f3e
00000120: f3b7 f83d 72a6 583e d0ec 353d 2689 0a3e
00000130: cae5 703e 87b3 d23d 31eb 293e 006a 233d
00000140: 2055 ff3d 3321 463e bd2d 2b3e 9576 f83d
00000150: 4890 693e 1dfb 503e 94e1 1e3e 80ca 143e
00000160: 8801 003e eb6c 2c3e 70c5 283e 5191 553e
00000170: b76d 693e 6dea 1a3e 8e8d 173e dab9 523e
00000180: 8c3c 4c3e 2af2 653e 99f9 4a3e fa5e 323e
00000190: eba8 1b3e be36 053e 2264 103e b838 31bc
000001a0: 5dc2 483e 7fa7 553e 1a8f 703d 5e58 4d3e
000001b0: b3e0 5d3e 15bb ff3d 9111 dd3d d587 193e
000001c0: 6b01 153e 1a74 28bd e4dd 123e 70e1 223c
000001d0: 736f 4a3e 5e55 713e 90c1 4f3c 4c07 4b3d
000001e0: 1a4d 303e d2d0 debd 146b 633b d090 ac3b
000001f0: 2e66 4ebd 5bdf 3d3e f080 883e f07b 123e
00000200: b772 3a3e f490 80bc da80 703d 5bb5 8c3e
00000210: 2431 523e e186 113e 10eb 553e d3c9 d93d
00000220: c610 213e e6a8 ec3d 6850 0f3e 9fb6 413e
00000230: 7ce8 87bc 76c4 403e dcdf 013e 7076 bcbc
00000240: 9588 1a3e cc88 423d c086 4bbd 92f9 5b3e
00000250: f8c7 763e b8e5 343e f0fa 4bbd ac87 19bd
00000260: c06c dbba 40c5 c4ba 4c89 1f3e f988 103e
00000270: a29b 70bd 9022 a9bc 90ae c7bb 0446 153e
00000280: 1ea9 673e ff38 033e 2051 413e b559 483e
00000290: 8b37 ee3d b73e 0d3e e8b3 96bc ea76 403e
000002a0: 1f21 283e 443a 553e d79b 483e 3dcf 513e
000002b0: 09cb 543c 9ff9 033e ef6f 413e 917a 3f3e
000002c0: 838c 333e 242d f73c 7839 f23d 2eb2 3d3e
000002d0: 35f4 393e 84cd 7d3e 3858 1d3e 5308 413e
000002e0: d8d7 003e 6c4e 0f3e 80ea 2e3a c029 33bc
000002f0: 62b9 513e d4e0 c53d 04da 383e ca02 cf3d
00000300: a0f2 0c3e bbbe fb3d 7eab 623e 4b36 163e
00000310: 79cc ee3d 3806 51bd 2bc0 153e 743b 533e
00000320: dd3b 74bd 6e84 463e e8fc 513e d4d4 5d3d
00000330: aa4b 33bd a4ac 843c 70a1 b5bb aa33 393e
00000340: 088d 653d 46a0 313e c64f 173e 781b 223c
00000350: 8330 2d3e d7b2 483e 4bdb 443e 8e95 873e
00000360: 40b1 30bd dbf9 373e 7697 093e f3e6 143e
00000370: f0ee 143e 5b15 103e 549b 373e 520f 353d
00000380: f8b5 343e 96d4 71bd 39a1 eb3d 0007 793b
00000390: c833 9cbc 7873 ce3c 692a 823e 57e6 3c3e
000003a0: e09b 553e 9683 4ebc 0df9 093e 9007 5c3e
000003b0: 445e 5f3e ccb0 093e 73e4 4e3e f9e3 283e
000003c0: 118c 0e3e 54f7 75bd 530a e23d 7c6d 243d
000003d0: cd84 653e 8264 543e 281b e53d 0e79 2f3d
000003e0: ceb1 313d 3833 953c 944a 263e df5a 503e
000003f0: 44c8 0a3e eae4 05bd 9eb0 0b3e ce33 4e3d

network.layer4.bias f4 [26]
-0.09050433 0.0770674 0.7271819 -0.124921806 0.21429513 0.12705751 -0.18617098 0.06590393
0.25630376 -0.18786271 0.06805184 0.61712074 -0.23295353 0.5741627 -0.20723306 -0.041730125
0.23976932 -0.12461642 0.016146626 0.064095356 0.115289986 0.05705187 0.3057605 -0.25688753
0.13535063 0.14004147
00000000: 565a b9bd 83d5 9d3d 9828 3a3f 01d7 ffbd
00000010: 2f70 5b3e 5d1b 023e 9ba3 3ebe a4f8 863d
00000020: 3f3a 833e 155f 40be c35e 8b3d a0fb 1d3f
00000030: 5f8b 6ebe 54fc 123f e734 54be 35ed 2abd
00000040: 1786 753e e536 ffbd ee45 843c 6d44 833d
00000050: 281d ec3d 39af 693d a48c 9c3e c386 83be
00000060: 5b99 0a3e 0867 0f3e
