DDQN_panda_env2/runs/results_8/last-model.pt (torch, 162903 bytes, 6 tensors)

network.layer1.weight f4 [128, 3]
-0.38505384 0.37442186 0.0519713 -0.87122726 0.54887855 0.22266 -0.91409606 1.1460068
0.5595123 -0.43690157 -0.49876484 0.18111427 -0.6835244 -0.50303185 -0.11094326 -0.9754204
-0.23082213 -0.17920841 -0.48753646 0.2490877 0.6586253 -0.46437296 -1.0291299 -0.10998461
1.0942172 0.03390555 0.11419255 0.09910256 -0.95179576 -0.77114594 -0.55157626 0.23793836
0.74771935 -0.30670634 -0.31069267 0.7872582 -0.630673 -0.62437946 -0.43279347 -0.68506896
0.78754324 0.4057987 -0.9457196 -0.29629338 -0.01836006 -0.23468909 -0.21237782 -0.73426634
0.27444902 -0.94721013 -0.48845488 -0.98851657 -1.1334479 -0.36474577 -0.7832142 -0.8749492
-0.1818047 -0.55983514 -0.8262285 -0.33241996 -0.55410093 -0.27317148 0.4153195 -0.67942166
0.01203918 0.04794516 0.043084536 0.28211868 -0.48971018 -1.291493 0.48135325 0.1254999
-0.47505507 0.7490154 0.03222578 -0.16644426 -0.37537515 0.65417975 -1.2316967 0.39205763
0.16139956 -0.9905262 0.092917345 0.52629375 -0.69308347 0.7143878 -0.0072150514 -0.07583276
-0.9525452 -0.5607038 -0.6923221 0.23251423 0.30577573 -0.651384 -0.6216378 -0.18965799
-0.9398061 -0.6063631 0.07025834 -0.87168264 -0.28065404 0.37585455 -0.74150205 0.26238123
-0.42631367 -0.7732078 0.6474998 0.6575839 -0.85711426 -0.22467226 0.2522769 -0.73737437
0.82568866 -0.0659242 -0.83363575 -0.50319636 -0.42646968 0.35719088 -0.493117 0.9935433
-0.35476562 0.21786578 0.065035224 1.068108 0.033059757 0.032605015 -0.75408226 -0.21182534
0.6542557 -0.47150314 -0.20432398 0.4309212 -0.8394074 0.027905663 0.33456972 -0.31474385
-0.15062745 0.33355293 -0.9089642 -0.70862323 -0.41606727 -0.21323732 0.5726778 0.5294174
-0.948705 -0.6745406 0.3218176 -0.80329525 0.7486305 0.65738434 -0.37346423 -0.29843032
0.7141805 -1.0588579 0.57023734 0.53270215 -0.28405678 -0.14915468 0.5186358 -0.86707383
0.2187244 0.55525565 -0.24939449 -0.005295772 0.5999578 -0.60142154 -0.56489074 0.6482678
-0.3324747 0.34250426 0.5381229 -0.5611076 1.0074165 0.10923979 -1.1570852 0.6482523
0.30233148 -1.189275 0.24538466 0.1276859 -0.7748902 -0.19888116 0.42720124 0.032294102
-0.088860825 -0.13709141 -0.4763237 1.3284461 0.48911333 -0.6504446 -0.032517817 0.64989966
0.29269275 0.11615944 -0.015928427 -0.19234847 0.40036494 0.7096991 1.1632218 -0.41362584
0.2628135 -0.012173635 -0.70587724 -0.20035651 0.36264777 -0.8217955 -1.0006082 -0.81087357
-0.1261904 0.5677508 -0.5927714 0.61440694 0.5662323 1.1254184 -0.40788215 0.65465117
-0.57950795 -0.7086716 0.33971027 -0.3108121 1.0278163 -0.009439489 -0.66532505 -0.27447233
0.5785096 -0.905095 0.8290609 0.37718678 1.1771841 -0.47547424 0.35185674 -0.6427328
-0.8117211 -0.3956133 -0.48820996 -0.3618351 -0.16406687 -0.9010322 0.4118474 0.43467888
0.38219422 0.634204 -0.34449956 0.116816156 -0.507214 0.40460002 0.616411 -0.22691405
0.77823263 0.39350602 -0.053877026 -0.37956756 -0.8863694 -0.43433025 -0.034549385 -0.19091885
00000000: c725 c5be 39b4 bf3e dcdf 543d c008 5fbf
00000010: 4e83 0c3f fc00 643e 3302 6abf 5ab0 923f
00000020: 333c 0f3f 90b1 dfbe 1b5e ffbe 0576 393e
00000030: 75fb 2ebf b2c6 00bf 3836 e3bd 27b5 79bf
00000040: a35c 6cbe 6982 37be 619e f9be d910 7f3e
00000050: ab9b 283f 4bc2 edbe 87ba 83bf 9c3f e1bd
00000060: 4f0f 8c3f 8ce0 0a3d c9dd e93d 48f6 ca3d
00000070: e3a8 73bf d269 45bf 1a34 0dbf 1da6 733e
00000080: 896a 3f3f 9d08 9dbe 1c13 9fbe c189 493f
00000090: c973 21bf 55d7 1fbf 1b97 ddbe ae60 2fbf
000000a0: 6f9c 493f d9c4 cf3e ae1a 72bf c4b3 97be
000000b0: d667 96bc 5652 70be 9279 59be e1f8 3bbf
000000c0: 9584 8c3e 5d7c 72bf c216 fabe 6c0f 7dbf
000000d0: d214 91bf f5bf babe ba80 48bf acfc 5fbf
000000e0: 032b 3abe 5b51 0fbf b683 53bf f332 aabe
000000f0: 8fd9 0dbf 22dd 8bbe c2a4 d43e 94ee 2dbf
00000100: fb3f 453c 2562 443d 6979 303d dc71 903e
00000110: 4bbb fabe a54f a5bf ef73 f63e 0c83 003e
00000120: 6b3a f3be 79bf 3f3f 2eff 033d 5d70 2abe
00000130: 2c31 c0be 5378 273f 3da8 9dbf c7bb c83e
00000140: ed45 253e 2093 7dbf 734b be3d 30bb 063f
00000150: eb6d 31bf 1ee2 363f 3d6c ecbb 354e 9bbd
00000160: 01da 73bf 498a 0fbf 053c 31bf 3618 6e3e
00000170: a38e 9c3e 1ac1 26bf a823 1fbf b435 42be
00000180: 2297 70bf 9d3a 1bbf 9be3 8f3d 9826 5fbf
00000190: e3b1 8fbe 0270 c03e 14d3 3dbf d556 863e
000001a0: c945 dabe f2f0 45bf 8cc2 253f 6b57 283f
000001b0: d76b 5bbf 7c10 66be 702a 813e 91c4 3cbf
000001c0: 5560 533f 4403 87bd 2769 55bf 7ad1 00bf
000001d0: 3c5a dabe b9e1 b63e d579 fcbe db58 7e3f
000001e0: d7a3 b5be 3518 5f3e 3031 853d c3b7 883f
000001f0: ab69 073d d68c 053d 890b 41bf bee8 58be
00000200: 4d7d 273f dc68 f1be 4e3a 51be b4a1 dc3e
00000210: 67e3 56bf 6b9a e43c b94c ab3e 1b26 a1be
00000220: 153e 1abe 73c7 aa3e e1b1 68bf 5568 35bf
00000230: c506 d5be e25a 5abe 039b 123f e687 073f
00000240: 55de 72bf b1ae 2cbf 47c5 a43e c2a4 4dbf
00000250: 40a6 3f3f 574a 283f b436 bfbe dccb 98be
00000260: 89d4 363f a888 87bf 13fb 113f 2b5f 083f
00000270: e46f 91be 01bc 18be 51c5 043f 8df8 5dbf
00000280: 4af9 5f3e 3c25 0e3f 4561 7fbe 2888 adbb
00000290: d696 193f c3f6 19bf ae9c 10bf e1f4 253f
000002a0: 203a aabe b85c af3e 6cc2 093f bfa4 0fbf
000002b0: 06f3 803f 1cb9 df3d 5e1b 94bf ddf3 253f
000002c0: 31cb 9a3e 2a3a 98bf 1e46 7b3e 18c0 023e
000002d0: 345f 46bf 81a7 4bbe 1fba da3e d246 043d
000002e0: aafc b5bd b161 0cbe b3e0 f3be 860a aa3f
000002f0: 106d fa3e 8a83 26bf 6731 05bd d35f 263f
00000300: d3db 953e 00e5 ed3d 557c 82bc fff6 44be
00000310: a2fc cc3e d7ae 353f 74e4 943f c4c6 d3be
00000320: 7e8f 863e ed73 47bc 5fb4 34bf 422a 4dbe
00000330: f8ac b93e 3161 52bf ee13 80bf 6995 4fbf
00000340: 0e38 01be 1e58 113f debf 17bf c649 1d3f
00000350: 9af4 103f b60d 903f eed5 d0be 3897 273f
00000360: a25a 14bf 816b 35bf 81ee ad3e c322 9fbe
00000370: 7c8f 833f 16a8 1abc be52 2abf a387 8cbe
00000380: 3519 143f 4eb4 67bf 563d 543f a01e c13e
00000390: f8ad 963f 5c71 f3be 9126 b43e 238a 24bf
000003a0: f4cc 4fbf d48d cabe a8f6 f9be 7342 b9be
000003b0: 2501 28be 0caa 66bf aadd d23e 3b8e de3e
000003c0: f6ae c33e 315b 223f 3f62 b0be 4f3d ef3d
000003d0: c7d8 01bf bc27 cf3e 1ccd 1d3f 285c 68be
000003e0: 413a 473f 9f79 c93e 28ae 5cbd ae56 c2be
000003f0: 1be9 62bf 8960 debe a883 0dbd 3b80 43be

network.layer1.bias f4 [128]
0.92155135 -0.16137631 0.10678433 0.70863277 0.13984041 0.05518552 -0.085571624 0.008053618
0.8599728 -0.028995574 0.8449088 0.67091525 -0.006903702 0.05657945 0.10282865 -0.36719137
-0.20256606 0.43343645 0.7809898 0.93444365 0.0969693 0.7036996 0.08714504 0.026981082
0.70831966 0.9606701 -0.13241613 0.65906304 0.70996606 -0.4946248 0.700589 0.486794
-0.2644422 0.29317257 0.15097468 -0.12691817 0.54880923 0.1648703 0.9135419 -0.17735419
0.6154795 0.84578323 0.2840069 0.24939421 0.7178452 0.8942057 0.8304033 0.8520653
0.088019975 -0.01629053 0.38170013 0.959097 0.7623808 0.7730525 0.46292937 0.09684841
0.23885295 0.811545 -0.35589838 0.04021399 0.13635124 -0.4885334 0.49359578 0.86031115
-0.5123798 0.6622541 0.49246848 0.8478284 0.7230314 0.9535716 0.75068164 -0.16142243
0.9858706 -0.10656063 0.31128967 -0.0853936 0.29795003 0.9889572 0.42459777 0.7766528
-0.024247222 0.6025461 -0.03603107 -0.3970601 -0.07446575 -0.025048068 0.0051024547 0.61288655
0.610534 -0.34816322 0.08159496 1.276332 0.9633614 0.1630956 0.5531944 -0.025915382
-0.11409586 0.21939786 0.61328495 0.6640771 0.63917595 0.16222383 -0.19584796 0.98505783
0.27069956 0.7619965 0.5505231 1.0152494 -0.11152682 0.75938636 0.06860324 0.28941405
0.9386004 0.5896291 0.17628716 0.017002491 0.69440496 0.53267074 0.023156418 0.62331903
0.6454709 -0.19972065 0.08341064 0.07721382 0.116428815 0.8596385 0.33280522 0.062213473
00000000: caea 6b3f d53f 25be beb1 da3d f568 353f
00000010: 5332 0f3e 360a 623d 2d40 afbd 52f3 033c
00000020: 2d27 5c3f 2088 edbc f14b 583f 1ac1 2b3f
00000030: 7338 e2bb dabf 673d d497 d23d 8200 bcbe
00000040: 7a6d 4fbe 62eb dd3e f3ee 473f b337 6f3f
00000050: d797 c63d a825 343f 1979 b23d 6e07 dd3c
00000060: 7054 353f 7aee 753f 1898 07be 5bb8 283f
00000070: 56c0 353f 763f fdbe cd59 333f 103d f93e
00000080: f864 87be b71a 963e 1b99 1a3e d6f6 01be
00000090: c37e 0c3f c3d3 283e e2dd 693f 569c 35be
000000a0: 1190 1d3f 4085 583f 5a69 913e 3261 7f3e
000000b0: b4c4 373f aaea 643f 5095 543f f420 5a3f
000000c0: d143 b43d b873 85bc 336e c33e 6287 753f
000000d0: 632b 433f c5e6 453f 1405 ed3e 7658 c63d
000000e0: de95 743e 6ac1 4f3f 5038 b6be 6db7 243d
000000f0: a99f 0b3e 0d21 fabe 96b8 fc3e 5a3d 5c3f
00000100: 532b 03bf 7c89 293f d424 fc3e 480b 593f
00000110: 9618 393f 451d 743f ac2c 403f ec4b 25be
00000120: 0462 7c3f 763c dabd 5c61 9f3e d7e2 aebd
00000130: e88c 983e 4d2c 7d3f e164 d93e b8d2 463f
00000140: 1ca2 c6bc 7640 1a3f 5195 13bd 764b cbbe
00000150: 8081 98bd 9b31 cdbc 7e32 a73b 22e6 1c3f
00000160: f54b 1c3f 7342 b2be 421b a73d d95e a33f
00000170: da9e 763f 8802 273e 269e 0d3f 7f4c d4bc
00000180: 17ab e9bd d5a9 603e 3e00 1d3f f500 2a3f
00000190: 09a1 233f 011e 263e 5e8c 48be c02c 7c3f
000001a0: 2299 8a3e 3412 433f 15ef 0c3f b1f3 813f
000001b0: 2c68 e4bd 2567 423f db7f 8c3d 142e 943e
000001c0: 1e48 703f eff1 163f 9f84 343e cf48 8b3c
000001d0: 86c4 313f 1c5d 083f 87b2 bd3c d691 1f3f
000001e0: 953d 253f 9283 4cbe 33d3 aa3d 4722 9e3d
000001f0: 3b72 ee3d 4511 5c3f 7265 aa3e 8ed3 7e3d

network.layer2.weight f4 [256, 128]
0.10371783 0.2369515 0.16915855 0.05654132 0.25936234 0.33789867 -0.15527326 0.37910527
-0.8461733 0.7882156 -0.066894636 0.074800655 -0.3515486 0.19792204 0.1536444 -0.32042643
1.5823511 0.56680197 0.19999099 0.58466506 0.011293664 0.16643971 -0.22745883 0.69166654
0.52167886 -0.022225065 0.4003635 0.026910095 0.8615902 0.53848475 0.039660864 0.4044881
0.05654594 0.10012693 -0.68774796 -0.12268108 0.07351282 -0.84558594 0.6361929 -0.16637385
0.07187811 -0.845044 -0.042411905 0.0049626813 0.07188565 0.123366 0.5657961 0.10690419
0.10593131 0.08691396 -0.032643765 0.06723681 0.029630153 -0.0028579044 -0.111001305 -0.12761547
-0.010446181 1.173208 0.1035425 0.9442609 0.004923298 0.043418154 1.2926136 0.07580715
0.07358902 -0.088188976 -0.72298545 0.1369113 0.79595274 0.040863663 0.07868732 -0.18200852
-0.000109457455 -0.5788998 0.016305706 0.23718122 -0.8080405 0.54007375 0.26112133 0.12593453
-0.2793316 0.033308752 -0.1443044 0.021767255 0.18218625 -0.16198127 0.40409672 0.45226073
0.09158679 -0.07436661 0.07481761 0.5619037 0.34093034 0.112988904 1.4434433 0.66505027
0.28159693 0.12160684 0.12530711 0.35792372 0.07162152 -0.3983079 0.13138059 0.092126176
0.6628804 -0.0063322647 0.39614344 0.112458065 -0.17760666 0.041078564 -0.49605757 -0.025784394
0.01264163 -0.034710772 -0.7035756 -0.1068274 0.11029542 0.00095446885 -0.08255657 0.11502458
-0.01893073 0.15311103 0.41051432 0.5168177 0.006066847 -0.77548206 0.072820194 -0.16702583
0.05423016 0.13156147 0.049288027 0.058139563 0.3470965 0.39119837 -0.16267379 0.39267954
-0.5948766 0.889682 -0.02068544 0.004579655 -0.25040865 0.08282965 0.27322012 -0.2937017
1.6110401 0.55853796 0.36175635 0.7068562 -0.02502407 0.124790244 -0.064299375 0.607556
0.4975191 -0.0055803014 0.2060723 0.09635413 0.9711493 0.5365334 0.028984647 0.4370361
0.10271171 0.11995572 -0.56931907 -0.016503485 0.19213562 -0.7316391 0.69231117 0.009445362
0.009400364 -0.57146674 0.11995226 -0.021970056 0.02685255 0.14387308 0.6187592 0.07302217
0.10111693 0.06235264 0.06945179 -0.051199798 0.046138022 0.0979372 -0.035099786 0.08911313
0.007799408 1.2921666 0.06823652 0.9399993 0.0043236446 -0.040863488 1.2085655 0.03797234
-0.026122164 -0.03947917 -0.52169317 0.15076551 0.8629668 0.0012811953 0.054869946 -0.1087757
0.14117782 -0.6626521 0.11891422 0.13383992 -0.60696006 0.6694357 0.3160659 0.039862297
-0.07222844 0.111003324 -0.062372524 0.06795114 0.35141957 0.039045785 0.2549898 0.6786827
0.16896099 0.047123685 0.3207293 0.55254 0.14226317 0.08590808 1.3746172 0.7432703
0.38524 0.07179997 0.099817514 0.25789103 -0.011215487 -0.17377831 0.2021203 0.07194834
0.6175727 0.12693097 0.43687615 0.117515184 -0.10160232 0.055689994 -0.47307485 0.11913177
0.09201291 -0.005577774 -0.53720945 -0.19649407 0.044705555 0.10772669 0.046574734 0.43381357
-0.047626477 0.055258315 0.42569408 0.62990034 0.09808821 -0.6675019 0.27193984 -0.02541375
00000000: 036a d43d 6aa3 723e e637 2d3e df97 673d
00000010: 24cb 843e 0e01 ad3e f4ff 1ebe 161a c23e
00000020: d09e 58bf 7fc8 493f 0e00 89bd 1631 993d
00000030: 2efe b3be 13ac 4a3e f554 1d3e ef0e a4be
00000040: 7b8a ca3f ef19 113f 70ca 4c3e 9cac 153f
00000050: 0f09 393c 2c6f 2a3e f8ea 68be 0f11 313f
00000060: bf8c 053f 5711 b6bc 72fc cc3e 8f72 dc3c
00000070: 2d91 5c3f 23da 093f 6e73 223d 1019 cf3e
00000080: b79c 673d 590f cd3d 4010 30bf 3840 fbbd
00000090: e48d 963d 5278 58bf 8add 223f e85d 2abe
000000a0: d534 933d ce54 58bf 1bb8 2dbd fd9d a23b
000000b0: c938 933d 50a7 fc3d 03d8 103f 95f0 da3d
000000c0: 84f2 d83d f2ff b13d 78b5 05bd 74b3 893d
000000d0: efba f23c ae4b 3bbb a754 e3bd a1ad 02be
000000e0: 7526 2bbc ae2b 963f 170e d43d 15bb 713f
000000f0: 9e53 a13b 3cd7 313d 5d74 a53f c740 9b3d
00000100: d7b5 963d 6c9c b4bd 9315 39bf 7a32 0c3e
00000110: 8fc3 4b3f a860 273d d126 a13d 7160 3abe
00000120: 868c e5b8 c732 14bf 8b93 853c a2df 723e
00000130: bedb 4ebf 4642 0a3f b2b1 853e fbf4 003e
00000140: 8d04 8fbe c26e 083d 88c4 13be 3e51 b23c
00000150: 088f 3a3e 6bde 25be c4e5 ce3e b88e e73e
00000160: db91 bb3d 854d 98bd fa39 993d ecd8 0f3f
00000170: 6c8e ae3e ba66 e73d c0c2 b83f bc40 2a3f
00000180: 792d 903e 020d f93d 8250 003e c741 b73e
00000190: 4eae 923d 03ef cbbe a288 063e a6ac bc3d
000001a0: 88b2 293f e37e cfbb 50d3 ca3e 6a50 e63d
000001b0: 85de 35be ff41 283d 42fb fdbe cb39 d3bc
000001c0: d71e 4f3c e22c 0ebd 881d 34bf 53c8 dabd
000001d0: 91e2 e13d 5235 7a3a 6b13 a9bd 0292 eb3d
000001e0: 9e14 9bbc 23c9 1c3e ef2e d23e 2a4e 043f
000001f0: 67cc c63b fe85 46bf c122 953d d208 2bbe
00000200: 7220 5e3d 0db8 063e 3ee2 493d c023 6e3d
00000210: a2b6 b13e 274b c83e f593 26be 4b0d c93e
00000220: d549 18bf 33c2 633f 8374 a9bc ee10 963b
00000230: 9035 80be 97a2 a93d 82e3 8b3e 1260 96be
00000240: 9036 ce3f 58fc 0e3f 2138 b93e 87f4 343f
00000250: 47ff ccbc 0792 ff3d 64af 83bd ca88 1b3f
00000260: d3ba fe3e f6da b6bb 9e04 533e 5055 c53d
00000270: 3e9d 783f 415a 093f 3671 ed3c 32c3 df3e
00000280: 845a d23d 58ab f53d e5be 11bf 5132 87bc
00000290: 33bf 443e b34c 3bbf 4e3b 313f b8c0 1a3c
000002a0: fc03 1a3c a54b 12bf 88a9 f53d 8cfa b3bc
000002b0: e1f9 db3c 7753 133e 0167 1e3f a68c 953d
000002c0: 6516 cf3d 7b65 7f3d bd3c 8e3d e1b6 51bd
000002d0: 39fb 3c3d 4c93 c83d cbc4 0fbd f280 b63d
000002e0: 2d92 ff3b b765 a53f 97bf 8b3d cba3 703f
000002f0: 5cad 8d3b 7960 27bd 46b2 9a3f e288 1b3d
00000300: 26fe d5bc e9b4 21bd af8d 05bf 4662 1a3e
00000310: 64eb 5c3f c8ed a73a 4fbf 603d cbc5 debd
00000320: eb90 103e 91a3 29bf 4c89 f33d 550d 093e
00000330: bc61 1bbf 2360 2b3f 64d3 a13e a646 233d
00000340: 81ec 93bd b655 e33d 557a 7fbd f829 8b3d
00000350: 44ed b33e 79ee 1f3d 068e 823e 26be 2d3f
00000360: 1c04 2d3e c404 413d a136 a43e 4373 0d3f
00000370: 70ad 113e 93f0 af3d 75f3 af3f f646 3e3f
00000380: 2d3e c53e dd0b 933d 206d cc3d 4b0a 843e
00000390: 29c1 37bc f1f2 31be a0f8 4e3e a759 933d
000003a0: 3f19 1e3f 31fa 013e 3bae df3e cdab f03d
000003b0: e114 d0bd 311b 643d de36 f2be 5cfb f33d
000003c0: 4471 bc3d c2c5 b6bb 8f86 09bf be35 49be
000003d0: 2c1d 373d d09f dc3d 26c5 3e3d d01c de3e
000003e0: fb13 43bd 8b56 623d 93f4 d93e 2641 213f
000003f0: 79e2 c83d 68e1 2abf b33b 8b3e 7f30 d0bc

network.layer2.bias f4 [256]
0.193582 0.1857297 0.122469194 0.34549007 0.4205745 0.24969862 0.33460912 0.6041795
0.17669871 0.2388935 0.30447617 0.20502616 0.23225217 0.06988221 0.0063703 0.18007828
0.38255724 0.2397833 0.28191113 0.08874538 0.21686828 0.083571196 -0.055039696 0.26391575
-0.06681195 0.023736505 -0.087340206 0.40830144 0.33673692 0.25155038 0.24832465 0.3024697
0.2600613 -0.028641673 0.32589865 0.27749735 -0.11101985 0.32722837 0.3150423 0.3140386
0.17618251 0.1984883 0.21506968 -0.16634849 0.32278025 0.30585393 0.3155957 0.25153947
0.29872632 0.28933272 -0.04584464 0.291058 -0.0164706 0.28013754 -0.02053445 0.3628369
0.4594481 0.15955256 0.03873435 0.17611365 0.56463236 0.3445771 -0.053289473 0.24132372
0.078536525 -0.023498984 0.34920952 0.25642976 -0.081809856 0.30296156 0.32100043 0.40342686
0.34911415 0.2818343 0.03225802 0.228779 0.1807013 0.30276212 0.20849572 -0.084052406
0.30777752 0.3237172 0.21346569 0.37142652 0.2482197 0.14498425 0.35771587 0.4633945
0.111401156 0.15592842 0.1757469 0.2700143 0.30350804 0.41019535 0.15494002 0.34028757
0.3009459 0.28116417 0.19948107 0.35541826 0.18094787 0.028228143 0.13636112 -0.086656235
0.46881756 0.14521325 0.015243324 0.17249066 0.21765496 0.19610934 0.26084703 0.1316042
0.25469488 -0.37512833 0.31960005 -0.0412397 0.18583104 0.19331765 0.05137014 -0.04819139
0.37091368 0.4065655 -0.04884925 -0.03754607 0.017587058 0.23871268 0.24290393 0.42225462
0.16496463 -0.08045644 0.040539082 0.44201732 0.34667882 0.25146496 0.33898735 0.70026606
0.28201687 0.19387817 0.4260307 0.37109753 0.016615449 0.29364464 0.1917968 0.010163839
0.2696382 0.45960456 -0.017047063 0.3705616 0.25154176 0.33726847 -0.008622405 -0.041259564
-0.01459051 -0.07287376 0.16050471 0.28111303 -0.0788205 -0.04805746 0.05300896 0.28964853
0.5611692 0.3623585 0.2451831 0.25348175 0.35593393 0.28877732 0.026168589 0.226726
0.108228005 0.41647214 0.25161386 0.24004005 -0.0034419936 0.2476483 0.19555716 0.297948
0.2094735 -0.05774568 0.12991089 0.21257168 0.15771173 0.16925149 0.30187988 0.21902558
0.22071184 0.28944817 -0.010201682 0.029868228 0.3073672 0.20078176 0.26385772 0.20038219
0.32506284 0.22022559 0.1552866 0.4934961 0.40029484 0.006276024 0.31485754 0.32513472
-0.07558207 0.35402098 0.19450505 -0.0400934 -0.011716023 -0.022768883 0.05032456 0.32422686
-0.04127291 0.31190437 0.27583715 0.04197082 0.24849764 0.25084853 0.2108036 0.323501
0.08765874 0.29584593 0.13474163 0.21490194 0.22699651 0.19318198 0.5554366 -0.028275931
0.25049093 -0.05085639 0.35419786 -0.004542482 0.12051789 -0.066872686 0.38261673 0.29818824
0.2372991 -0.049127214 0.34696507 0.36096615 0.31099838 0.32768938 0.24145962 0.13225818
0.17299299 0.08596287 0.22676851 -0.010689944 0.32422706 0.25512516 0.24281283 -0.008114902
0.073792614 0.01689182 0.14342782 0.256249 0.34080723 -0.04285194 0.3984795 0.0510752
00000000: 5c3a 463e ed2f 3e3e 21d1 fa3d 13e4 b03e
00000010: 8a55 d73e ffb0 7f3e e351 ab3e 82ab 1a3f
00000020: 82f0 343e 7fa0 743e 4de4 9b3e 61f2 513e
00000030: 83d3 6d3e 671e 8f3d f3bd d03b 7166 383e
00000040: 8bde c33e c189 753e a856 903e 23c0 b53d
00000050: b812 5e3e 6027 ab3d 4e71 61bd f71f 873e
00000060: b4d4 88bd 0f73 c23c 6cdf b2bd e30c d13e
00000070: c868 ac3e 36cb 803e d148 7e3e 4fdd 9a3e
00000080: c126 853e f1a1 eabc 30dc a63e 2214 8e3e
00000090: 605e e3bd 7a8a a73e 394d a13e abc9 a03e
000000a0: 3069 343e 8440 4b3e 3a3b 5c3e 4257 2abe
000000b0: 7443 a53e e398 9c3e c295 a13e c8c9 803e
000000c0: a8f2 983e 6b23 943e 97c7 3bbd 8e05 953e
000000d0: 5aed 86bc 306e 8f3e dd37 a8bc c2c5 b93e
000000e0: c83c eb3e bf61 233e e9a7 1e3d 2357 343e
000000f0: bf8b 103f 696c b03e 1046 5abd 911d 773e
00000100: c2d7 a03d f180 c0bc 97cb b23e c34a 833e
00000110: ed8b a7bd c71d 9b3e 2b5a a43e f78d ce3e
00000120: 17bf b23e 964c 903e fc20 043d 0b45 6a3e
00000130: c309 393e a303 9b3e e77f 553e ab23 acbd
00000140: 0495 9d3e 43be a53e c096 5a3e 9e2b be3e
00000150: 4e2d 7e3e c076 143e 8926 b73e 0b42 ed3e
00000160: 4a26 e43d b3ab 1f3e fff6 333e 503f 8a3e
00000170: 6865 9b3e 2005 d23e 99a8 1e3e 2c3a ae3e
00000180: 9515 9a3e c0f4 8f3e c444 4c3e 62f9 b53e
00000190: 664a 393e b53e e73c 40a2 0b3e d378 b1bd
000001a0: db08 f03e c8b2 143e 23bf 793c 64a1 303e
000001b0: f1e0 5e3e e3d0 483e be8d 853e 40c3 063e
000001c0: 5e67 823e d210 c0be 9ea2 a33e f6ea 28bd
000001d0: 7e4a 3e3e 10f5 453e 7f69 523d 5664 45bd
000001e0: 66e8 bd3e 5a29 d03e 2716 48bd e8c9 19bd
000001f0: bc12 903c 1971 743e cfbb 783e c231 d83e
00000200: 7dec 283e 59c6 a4bd 4f0c 263d 1850 e23e
00000210: e37f b13e 04c0 803e c08f ad3e a344 333f
00000220: 8464 903e 0088 463e b220 da3e 7f00 be3e
00000230: 1f1d 883c 9758 963e 6166 443e 3b86 263c
00000240: 050e 8a3e 4a51 eb3e 48a6 8bbc 40ba bd3e
00000250: 15ca 803e 74ae ac3e fd44 0dbc caff 28bd
00000260: 090d 6fbc d63e 95bd 595b 243e 0cee 8f3e
00000270: a46c a1bd e6d7 44bd ec1f 593d d04c 943e
00000280: c9a8 0f3f 0e87 b93e 4711 7b3e 5cc8 813e
00000290: f93c b63e 9fda 933e 825f d63c dc2a 683e
000002a0: a5a6 dd3d d63b d53e 88d3 803e 0fcd 753e
000002b0: 1293 61bb 8497 7d3e 2340 483e a48c 983e
000002c0: 3980 563e bc86 6cbd 5c07 053e 64ac 593e
000002d0: 2f7f 213e 4350 2d3e 0090 9a3e 3e48 603e
000002e0: 4902 623e 8d32 943e f524 27bc 37ae f43c
000002f0: 3c5f 9d3e bc99 4d3e 5c18 873e fd30 4d3e
00000300: a36e a63e d182 613e 7303 1f3e 85ab fc3e
00000310: 72f3 cc3e 1ba7 cd3b 0235 a13e 0f78 a63e
00000320: c6ca 9abd 3d42 b53e 552c 473e fa38 24bd
00000330: 90f4 3fbc cf85 babc 2021 4e3d 1001 a63e
00000340: c80d 29bd eeb1 9f3e 873a 8d3e 98e9 2b3d
00000350: 2a76 7e3e 386f 803e e6dc 573e eca1 a53e
00000360: 6d86 b33d 1e79 973e b6f9 093e 410f 5c3e
00000370: c671 683e 7fd1 453e 1831 0e3f eda2 e7bc
00000380: 5940 803e ca4e 50bd 6c59 b53e 1ad9 94bb
00000390: 15d2 f63d 8cf4 88bd 57e6 c33e 21ac 983e
000003a0: 89fe 723e 9e39 49bd 68a5 b13e 8ed0 b83e
000003b0: 2e3b 9f3e e7c6 a73e 3141 773e b06e 073e
000003c0: 1325 313e 4d0d b03d 0136 683e e024 2fbc
000003d0: 1701 a63e c49f 823e eda3 783e 5ef4 04bc
000003e0: 9520 973d b760 8a3c bede 123e 1233 833e
000003f0: 497e ae3e 8485 2fbd 8105 cc3e 3b34 513d

network.layer4.weight f4 [26, 256]
0.11521372 0.14700612 0.121676035 0.10069357 0.22790428 0.14664523 0.16586943 0.20759597
0.11561905 0.12152187 0.20648311 0.21170509 0.14939035 -0.04596719 0.007112648 0.13492137
0.2408738 0.17451862 0.1360096 0.20168562 0.14379811 0.034313582 -0.019800417 0.19952911
-0.015095651 -0.016758911 -0.058675 0.10171348 0.27326927 0.2155325 0.24105473 0.23072456
0.16957738 -0.02512449 0.19644183 0.17775281 0.17722967 0.1615954 0.2014192 0.23737732
0.2216186 0.22780672 0.257405 -0.086413205 0.10718036 0.25797287 0.12471982 0.29730216
0.105745725 0.257185 -0.010294408 0.26333687 0.028207183 0.22033554 -0.049650244 0.21611786
0.089181036 0.19438572 0.03060721 0.24552572 0.27082777 0.20489718 -0.014000155 0.25448284
0.1379121 0.13048576 0.24931462 0.13659494 -0.0050490424 0.20032293 0.27387068 0.24879766
0.13288195 0.24096893 0.044415295 0.15308553 0.25314525 0.085137784 0.22012061 0.03989601
0.20021015 0.2425296 0.20486648 0.21372642 0.24829179 0.19657949 0.15902576 0.24604629
0.11219156 0.19030583 0.14541337 0.16662627 0.31398314 0.15397489 0.14693326 0.2585522
0.21629587 0.24582773 0.18535115 0.18883038 0.15893258 0.29170582 0.15475205 -0.010816745
0.24120377 0.16703618 0.058730222 0.22517748 0.22997071 0.12636891 0.107996374 0.1448783
0.19033803 -0.23758683 0.23379879 0.009941444 0.20795564 0.27099165 0.012680426 0.049567506
0.1958297 -0.21945454 0.0034701275 0.0052662864 -0.050390415 0.19129167 0.5084438 0.20920715
0.13278478 0.16407564 0.058716632 0.47585884 0.24524264 0.20623963 0.22415325 0.21995705
0.23141614 0.13592346 0.18194495 0.1878839 -0.01659035 0.20368762 0.10204845 -0.023005694
0.17328016 0.2044487 -0.049689054 0.18501513 0.20313357 0.18688415 -0.04979986 -0.037482902
-0.0016740784 -0.0015012398 0.17607357 0.17321146 -0.058742173 -0.020646363 -0.0060938075 0.1443072
0.302647 0.122664444 0.20138699 0.20446424 0.12636715 0.13962196 -0.018396333 0.20831354
0.1728873 0.26255566 0.21160182 0.23780054 0.0129878605 0.17020074 0.17866947 0.2196099
0.18761045 0.030172892 0.14211078 0.18399222 0.1465613 0.28883073 0.17872046 0.21746798
0.12191989 0.13790725 0.00066725165 -0.010935247 0.18857631 0.14722632 0.18919441 0.0883484
0.13054004 0.5023276 0.23094325 0.31189823 0.1527853 -0.05103132 0.14042787 0.21785441
-0.059627403 0.24999134 0.20086263 0.054158047 -0.04377333 0.016195603 -0.0055429265 0.19530506
0.0560427 0.20250197 0.20276903 0.009894244 0.18357295 0.20315306 0.20205986 0.35640192
0.06819934 0.23053804 0.11973235 0.1522418 0.16723497 0.15553594 0.28164682 0.044204064
0.21090959 -0.05904063 0.08501045 0.0037998557 0.0051297774 0.025201544 0.5194145 0.20449562
0.19707882 -0.012604615 0.12978566 0.28339177 0.25525913 0.16136895 0.22917914 0.18271679
0.12725405 -0.060050324 0.11626883 0.040143475 0.27001563 0.2502143 0.096465744 0.042840056
0.04338246 0.0182129 0.15445445 0.20045935 0.19003844 -0.032689013 0.15252823 0.050342374
00000000: 2cf5 eb3d c688 163e 4931 f93d 6e38 ce3d
00000010: bd5f 693e 2b2a 163e add9 293e 0a94 543e
00000020: aec9 ec3d 75e0 f83d 4f70 533e 38c9 583e
00000030: c9f9 183e 1848 3cbd 3711 e93b d428 0a3e
00000040: 9fa7 763e 02b5 323e 1a46 0b3e ad86 4e3e
00000050: d03f 133e 668c 0c3d 7c34 a2bc 5c51 4c3e
00000060: c053 77bc fc49 89bc 3255 70bd 284f d03d
00000070: f3e9 8b3e 8db4 5c3e 0dd7 763e 0f43 6c3e
00000080: b1a5 2d3e e0d1 cdbc 0c28 493e d504 363e
00000090: b27b 353e 4479 253e d640 4e3e 0a13 733e
000000a0: fcef 623e 2a46 693e 97ca 833e 68f9 b0bd
000000b0: 6081 db3d 0515 843e 1b6d ff3d fd37 983e
000000c0: 3791 d83d c1ad 833e e0a9 28bc 17d4 863e
000000d0: c012 e73c a49f 613e 0e5e 4bbd 004e 5d3e
000000e0: 8ca4 b63d 0d0d 473e f9bb fa3c 186b 7b3e
000000f0: f0a9 8a3e 91d0 513e e860 65bc 934b 823e
00000100: d438 0d3e 0f9e 053e 554c 7f3e 8bdf 0b3e
00000110: 7072 a5bb 7421 4d3e c738 8c3e d0c4 7e3e
00000120: 3512 083e 8fc0 763e d0ec 353d 74c2 1c3e
00000130: 419c 813e b85c ae3d 4c67 613e 006a 233d
00000140: e403 4d3e ae59 783e 85c8 513e 19db 5a3e
00000150: 3440 7e3e 224c 493e a6d7 223e 8ff3 7b3e
00000160: b0c4 e53d 88df 423e 3ee7 143e 14a0 2a3e
00000170: 66c2 a03e 98ab 1d3e ac75 163e f460 843e
00000180: aa7c 5d3e 44ba 7b3e b1cc 3d3e c05c 413e
00000190: 39bf 223e 775a 953e 5277 1e3e b838 31bc
000001a0: 1ffe 763e 880b 2b3e 1a8f 703d ed94 663e
000001b0: 717d 6b3e da66 013e 342d dd3d fa5a 143e
000001c0: f9e7 423e f649 73be f368 6f3e 70e1 223c
000001d0: 53f2 543e 6bbf 8a3e 90c1 4f3c 4c07 4b3d
000001e0: 9587 483e b1b8 60be 146b 633b d090 ac3b
000001f0: 2e66 4ebd f7e1 433e 5f29 023f 663a 563e
00000200: bcf8 073e 7203 283e da80 703d c5a3 f33e
00000210: e320 7b3e 7b30 533e 6e88 653e 6c3c 613e
00000220: 5af8 6c3e 852f 0b3e c74f 3a3e a364 403e
00000230: 7ce8 87bc 7d93 503e c7fe d03d 7076 bcbc
00000240: 5b70 313e 005b 513e c086 4bbd 9b74 3d3e
00000250: 3f02 503e 8f5e 3f3e f0fa 4bbd ac87 19bd
00000260: c06c dbba 40c5 c4ba a14c 343e 585e 313e
00000270: a29b 70bd 9022 a9bc 90ae c7bb 44c5 133e
00000280: 8cf4 9a3e 7f37 fb3d 6438 4e3e 135f 513e
00000290: 6466 013e 0ff9 0e3e e8b3 96bc 2550 553e
000002a0: 5e09 313e b26d 863e 26ae 583e fc81 733e
000002b0: 09cb 543c 1a49 2e3e 21f5 363e 6be1 603e
000002c0: f41c 403e 242d f73c 7d85 113e 7568 3c3e
000002d0: 2a14 163e 9fe1 933e 7f02 373e edaf 5e3e
000002e0: 23b1 f93d 8f37 0d3e 80ea 2e3a c029 33bc
000002f0: 261a 413e 7fc2 163e 2ebc 413e 02f0 b43d
00000300: 4aac 053e 8b98 003f 637c 6c3e 20b1 9f3e
00000310: c073 1c3e 3806 51bd 53cc 0f3e 3a15 5f3e
00000320: dd3b 74bd bbfd 7f3e efae 4d3e d4d4 5d3d
00000330: aa4b 33bd a4ac 843c 70a1 b5bb 0dfe 473e
00000340: 088d 653d ad5c 4f3e afa2 4f3e 781b 223c
00000350: 8cfa 3b3e 5b07 503e c8e8 4e3e 507a b63e
00000360: 18ac 8b3d 2a12 6c3e 3c36 f53d 46e5 1b3e
00000370: a53f 2b3e d044 1f3e 0334 903e 520f 353d
00000380: aff8 573e 96d4 71bd f519 ae3d 0007 793b
00000390: b117 a83b 7873 ce3c 59f8 043f 4d67 513e
000003a0: 08cf 493e 9683 4ebc 88e6 043e ba18 913e
000003b0: 53b1 823e e73d 253e f0ad 6a3e 1c1a 3b3e
000003c0: e34e 023e 54f7 75bd 5a1e ee3d 7c6d 243d
000003d0: 7d3f 8a3e 171c 803e d58f c53d 0e79 2f3d
000003e0: ceb1 313d 3833 953c 4f29 1e3e 3745 4d3e
000003f0: 7099 423e eae4 05bd 5c30 1c3e ce33 4e3d

network.layer4.bias f4 [26]
-0.09801326 0.072374634 0.9537984 -0.21675111 0.26325285 0.17662516 -0.1262415 0.026405111
0.1891901 -0.26906282 0.06386262 0.88650495 -0.40419105 0.9799845 -0.4396508 0.02571872
0.46311164 -0.15437363 0.25589907 0.25813863 0.07713345 0.15153028 0.38813755 -0.42513955
0.29181257 0.20157228
00000000: 2dbb c8bd 2739 943d 222c 743f 01f4 5dbe
00000010: 14c9 863e 3add 343e 7445 01be 884f d83c
00000020: 0dbb 413e 9ac2 89be 68ca 823d fdf1 623f
00000030: 21f2 cebe 44e0 7a3f e919 e1be 11b0 d23c
00000040: f81c ed3e 1f14 1ebe 3405 833e bf2a 843e
00000050: 24f8 9d3d c12a 1b3e f7b9 c63e e4ab d9be
00000060: 7568 953e f768 4e3e
